ddqn.pt (torch, 214786 bytes, 11 tensors)

feature.0.weight f4 [128, 17]
0	0xbd978816	-0.07399003
1	0x3dea786c	0.1144875
2	0xbd3a6a73	-0.045511674
3	0x3d8c9eff	0.068662636
4	0xbe52af17	-0.20574604
5	0x3ec2d3fe	0.38052362
6	0xbda9cbf5	-0.08290855
7	0xbd0d4caa	-0.03449694
8	0x3df9d297	0.1219837
9	0xbac0fb4a	-0.0014723327
10	0x3d5a2dab	0.05326621
11	0x3b2c29b1	0.0026269967
12	0x3dd27d75	0.10277835
13	0xbafa3a32	-0.001909083
14	0x3d7eca51	0.062204663
15	0x3cb8ce29	0.022559242
16	0xbdb12d31	-0.08651198
17	0xbe2090f6	-0.15680298
18	0x3e0adcca	0.13560787
19	0x3d5f1478	0.05446288
20	0xbe1815e3	-0.14852099
21	0xbd00e02c	-0.031463787
22	0x3d24116a	0.04005567
23	0xbcaaef57	-0.02086608
24	0xbe16ea83	-0.14737897
25	0xbb6926c9	-0.0035576096
26	0x3d024e44	0.03181292
27	0x3dde258a	0.10847004
28	0x3e588c85	0.21147354
29	0xbd0e5fc6	-0.034759305
30	0xbe800518	-0.25003886
31	0x3d3306f1	0.04370779
32	0xbeac40de	-0.3364324
33	0xbd7ca97b	-0.061685067
34	0xbcf0915b	-0.029366186
35	0xbce4be07	-0.027922643
36	0xbc0040a9	-0.007827916
37	0x3d8df50d	0.06931505
38	0x3d0defda	0.03465257
39	0xbc989744	-0.018626817
40	0x3d28ca89	0.041208778
41	0xbccbbb6c	-0.024869643
42	0x3c3b464b	0.011430333
43	0xbe070874	-0.13186818
44	0xbe0b3be3	-0.13597064
45	0x3b0373f2	0.0020058122
46	0x3de8309b	0.11337396
47	0xbdee0f22	-0.1162398
48	0x3c6a309d	0.014293817
49	0x3dc4ada9	0.096034355
50	0x3dd2ac50	0.10286772
51	0x3dc36628	0.09540969
52	0x3e1b1094	0.15143043
53	0x3e04efd8	0.12982118
54	0xbd5c526c	-0.05378954
55	0xbc47febb	-0.012206729
56	0xbe00452f	-0.12526391
57	0xbe3dddb1	-0.185416
58	0x3d948a43	0.07252934
59	0x3e61a1b8	0.22034347
60	0x3d3cd582	0.046102054
61	0xbdb14e65	-0.08657531
62	0x3da63ee2	0.08117463
63	0xbe17b47c	-0.14814943
64	0x3de4e590	0.11176598
65	0xbca9ec18	-0.020742461
66	0x3d919e60	0.07110286
67	0xbd5470c6	-0.05186536
68	0x3dc348ca	0.09535368
69	0xbd40bd1c	-0.04705535
70	0xbde67684	-0.11253074
71	0x3dba4384	0.09094909
72	0xbe25278f	-0.16128372
73	0x3c15ea5c	0.009150114
74	0x3d336368	0.043795973
75	0xbd4d49d8	-0.05011925
76	0x3db2714f	0.08713018
77	0xbdbba86f	-0.091629855
78	0xbda2f805	-0.07957462
79	0xbe7a58e9	-0.24447979
80	0xbe95246c	-0.2912935
81	0x3e83433a	0.25637227
82	0x3d4cea3a	0.050028063
83	0x3e166498	0.14686811
84	0x3c37e023	0.011222872
85	0x3dae5e85	0.08514122
86	0x3e119c7a	0.14219847
87	0xbcecfb65	-0.028928468
88	0xbd4c98be	-0.049950354
89	0x3dccdfc1	0.10003615
90	0xbe6e76c2	-0.2328749
91	0xbc5e0741	-0.013551534
92	0x3daca2e9	0.0842951
93	0x3cf6d318	0.030129954
94	0xbe59137d	-0.2119884
95	0x3e1b3ee6	0.15160713
96	0xbc978be0	-0.018499315
97	0xbe4f4bd5	-0.20243771
98	0x3d2000e3	0.039063346
99	0x3e29c1dc	0.16577858
100	0x3cac91ac	0.021065556
101	0x3e7b1324	0.2451902
102	0xbd106393	-0.03525121
103	0x3c16c33b	0.00920182
104	0xbdae3cd4	-0.08507696
105	0xbe2b5957	-0.16733299
106	0xbc642741	-0.0139253745
107	0x3e4ce440	0.20008945
108	0x3eaadbf7	0.33370945
109	0x3c2a491e	0.010393409
110	0x3e00638a	0.12537971
111	0x3e2b0be7	0.16703759
112	0xbba92967	-0.0051624062
113	0x3e997249	0.29970005
114	0x3dd256b5	0.10270444
115	0xba5508a9	-0.00081265956
116	0x3cb3b3f3	0.021936392
117	0xbd618adf	-0.05506408
118	0xbcbc16b7	-0.02296005
119	0x3e203a4e	0.15647241
120	0x3da39865	0.07988051
121	0x3e435546	0.19075498
122	0x3de1911f	0.11014008
123	0x3cff6568	0.031176284
124	0xbdfbbc4b	-0.122917734
125	0x3dce55e5	0.10074977
126	0xbd93b012	-0.07211317
127	0x3d9dd998	0.07707518
128	0x3e2e193f	0.17001818
129	0x3e4468aa	0.19180551
130	0x3d3a4128	0.045472294
131	0xbe2ff679	-0.17183866
132	0x3d5f9af0	0.05459112
133	0xbdfa7345	-0.12229017
134	0x3de20211	0.110355504
135	0xbe57efeb	-0.21087615
136	0xbe243c8b	-0.1603872
137	0x3e14f6cf	0.14547275
138	0x3c57c4dc	0.0131694935
139	0xbd771d43	-0.06033064
140	0xbe0711e2	-0.13190416
141	0x3d40adb2	0.04704065
142	0xbccc4376	-0.024934512
143	0xbd3ab3e7	-0.045581724
144	0xbd967409	-0.07346351
145	0xbe5cd2b2	-0.21564749
146	0x3ea2160a	0.3165744
147	0x3ea2366b	0.31682143
148	0xbe474b1c	-0.19462246
149	0xbe0798ca	-0.13241878
150	0x3d3620d4	0.0444649
151	0xbe77f977	-0.24216257
152	0xbd8a4438	-0.06751293
153	0x3e2624ae	0.1622493
154	0xbd818788	-0.06324679
155	0x3e01b4fc	0.12666696
156	0xbd08db61	-0.03341234
157	0x3e56c8dd	0.20975061
158	0x3de4e804	0.11177066
159	0xbc22b39f	-0.00993052
160	0x3e39a5be	0.18129632
161	0x3dba0ecc	0.090848535
162	0x3e98a067	0.29809877
163	0xbce716e4	-0.028209157
164	0xbc1b7800	-0.009489059
165	0x3e0697f9	0.1314391
166	0x3df77120	0.12082124
167	0xbdc1f773	-0.09471025
168	0x3e18949b	0.14900438
169	0x3c6cab99	0.014445209
170	0x3e179cd2	0.14805916
171	0x3d7d7a2c	0.06188409
172	0xbd7585cb	-0.059942048
173	0x3cbeca86	0.02328993
174	0x3b559aee	0.0032593566
175	0x3dccdfc9	0.10003621
176	0xbca45aca	-0.020062823
177	0x3d4cd235	0.050005157
178	0x3cd0858a	0.025454301
179	0x3dccaf87	0.09994417
180	0x3e5740d9	0.21020831
181	0x3df83725	0.12119893
182	0x3efdfc4a	0.49606544
183	0x39c64838	0.0003781931
184	0x3d9ecd88	0.07754046
185	0x3d4a8707	0.04944518
186	0xbd8ce312	-0.06879248
187	0x3cc83bbc	0.024442546
188	0x3e28ebe7	0.1649624
189	0xbe01b5df	-0.12667035
190	0x3cf09f6b	0.029372891
191	0xbd88b14d	-0.066744424
192	0x3e134ea1	0.14385463
193	0xbda81489	-0.08207042
194	0xbd84e472	-0.06488885
195	0x3c222de4	0.0098986365
196	0xbd2e0ea8	-0.042494446
197	0x3dd4e943	0.10396054
198	0x3dd8136e	0.10550581
199	0x3ecf65c2	0.40507323
200	0x3d3a37e9	0.045463476
201	0x3ca58e1d	0.020209366
202	0xbe0badcc	-0.13640517
203	0x3d718f78	0.058974713
204	0x3cdfba4d	0.027310515
205	0x3da4f1ec	0.080539554
206	0x3e4ebbd0	0.20188832
207	0xbe31cbdf	-0.17362927
208	0x3c72d412	0.014821069
209	0x3e63c26d	0.22242136
210	0xbe2610ce	-0.16217348
211	0x3ddebb9a	0.10875626
212	0x3dd2d2f2	0.10294141
213	0x3daacc31	0.08339728
214	0x3df04c56	0.1173331
215	0xbc54675c	-0.012964096
216	0x3e90d4a7	0.2828724
217	0x3d98499c	0.07435915
218	0xbc0c56b9	-0.008565598
219	0x3d070fba	0.032973982
220	0x3dc829fa	0.097736314
221	0x3ce75b73	0.028241849
222	0x3dd621fd	0.104557015
223	0xbdc4a18e	-0.096011266
224	0xbd7173e7	-0.058948424
225	0x3e23e688	0.1600591
226	0xbcacec49	-0.021108763
227	0x3ef750dd	0.4830388
228	0x3e0bbd25	0.13646372
229	0x3d84603a	0.06463666
230	0x3dd830e2	0.10556199
231	0x3e472732	0.19448546
232	0x3d815de6	0.06316738
233	0x3ea4b0cc	0.32166135
234	0xbc6951ef	-0.014240726
235	0x3de85fd3	0.11346402
236	0xbc169d49	-0.009192773
237	0xbca3bf32	-0.01998863
238	0x3e184eb1	0.14873768
239	0xbcbf4ac8	-0.023351088
240	0x3d484ddb	0.048902374
241	0x3d93426a	0.07190402
242	0x3d66c164	0.056336775
243	0x3de17a36	0.11009638
244	0xbd8aa212	-0.06769194
245	0xbdc676c7	-0.09690624
246	0xbddf5ec6	-0.109067485
247	0x3e32b1e0	0.17450666
248	0xbe071fdd	-0.13195749
249	0x3d80180b	0.06254586
250	0xbe97c539	-0.29642656
251	0x3e356a53	0.1771634
252	0xbd79bedb	-0.06097303
253	0x3dd6ab33	0.104818724
254	0xbd75c0ab	-0.059998196
255	0x3ca887e4	0.02057261

feature.0.bias f4 [128]
0	0x3d322eb9	0.04350159
1	0x3db98555	0.09058634
2	0x00000000	0.0
3	0x3d76293a	0.06009791
4	0xbc03e819	-0.008050942
5	0x3d0ee10c	0.03488259
6	0x3d41d367	0.04732075
7	0x3d46c6e6	0.048529528
8	0x3dce50a0	0.10073972
9	0x3ce2dd65	0.02769346
10	0x3d55df66	0.052215002
11	0x3c793860	0.015211195
12	0x3d16c5e0	0.036809802
13	0x3d88c8c1	0.06678916
14	0x3be427ae	0.006962738
15	0x3cf99e2e	0.030470934
16	0x3d887e26	0.06664686
17	0xbc02f6ee	-0.007993443
18	0x3d040ee7	0.032240774
19	0x3d47175c	0.04860626
20	0x3d4d40d1	0.050110642
21	0xbbcb2280	-0.006199181
22	0x00000000	0.0
23	0x3cbd584d	0.023113394
24	0x3d24ee94	0.04026659
25	0x3d660457	0.056156483
26	0x00000000	0.0
27	0xbbca5649	-0.006174837
28	0x3d144af6	0.0362043
29	0x3d54a041	0.051910643
30	0x3d427f28	0.047484547
31	0xbc831dbe	-0.016005393
32	0x3ade9d08	0.0016984055
33	0x3d4fa696	0.050695978
34	0x3d34aaf9	0.044108365
35	0x3c80046e	0.015627112
36	0x3dad595d	0.0846431
37	0x3ce3fe48	0.027831212
38	0x3db13bb3	0.08653965
39	0x3c9b3c45	0.018949637
40	0x3d23cff3	0.039993238
41	0x3def8f29	0.116972275
42	0x3d54950d	0.05189996
43	0xb9c23049	-0.0003703854
44	0x3d98597f	0.07438945
45	0x3d2e67d6	0.042579494
46	0xbbcb3ab4	-0.0062020663
47	0x3d1ef58c	0.03880839
48	0x3d7bbfd2	0.06146223
49	0x3dff584d	0.12468014
50	0xbb8eb428	-0.0043549724
51	0x3ce73368	0.028222755
52	0x3db12acf	0.08650743
53	0x3d904031	0.070434935
54	0x3cea99d6	0.028637808
55	0x3c13b437	0.009015135
56	0x3ce8051d	0.02832275
57	0xbc209ecd	-0.009803486
58	0xbc1f6745	-0.009729211
59	0x3cd4ae20	0.025961936
60	0x3d2161d3	0.039399933
61	0xbc2729f8	-0.010202877
62	0x3d9ae989	0.075640745
63	0x3d439848	0.04775265
64	0x3d5c7ca7	0.053829815
65	0xbc896814	-0.016773261
66	0x3d1f34bf	0.038868662
67	0x3d172d8e	0.03690868
68	0x3d495f92	0.04916341
69	0x00000000	0.0
70	0x3cb19c83	0.021681076
71	0x3dc23ee5	0.094846524
72	0x3d24ecba	0.040264823
73	0x3c14138b	0.0090378625
74	0x3d444375	0.047915895
75	0x3ced81d0	0.028992563
76	0xbbb3d7f9	-0.0054883924
77	0x3d150971	0.036385957
78	0x3d398436	0.0452921
79	0x3cddb3fe	0.027063366
80	0xbc2df33c	-0.010617074
81	0x3dd45b78	0.10369009
82	0x00000000	0.0
83	0x3d74b30f	0.059741076
84	0x3d99156e	0.074747905
85	0x00000000	0.0
86	0x3cb2ade9	0.021811442
87	0xbba7305d	-0.005102201
88	0x3c4ea557	0.012612662
89	0x3d26be60	0.0407089
90	0x3d361bc8	0.044460088
91	0x3d72150a	0.059102096
92	0x3d7be6c7	0.061499383
93	0x3d80b5b7	0.06284659
94	0x3d1d0fd6	0.03834518
95	0x3d1f568c	0.038900897
96	0x3cce5086	0.025184881
97	0x3d9aac75	0.07552425
98	0x3d8c4792	0.068495885
99	0x3cf45d08	0.029829517
100	0x3d11e7fd	0.035621632
101	0x3d6f7255	0.058458645
102	0xbbcf62dd	-0.006328924
103	0x3d6048de	0.05475699
104	0x3d21a9af	0.039468464
105	0x3db11363	0.08646276
106	0x3d0e785b	0.03478275
107	0x3c6664cf	0.014062121
108	0x3c6b7f8e	0.014373673
109	0x3d2e431f	0.04254448
110	0x3d97923c	0.07400939
111	0x3cf18481	0.029482128
112	0x3bc5d656	0.0060375137
113	0xbca79179	-0.020455109
114	0x3d5763d0	0.052585423
115	0x3d4a478c	0.04938464
116	0x3cabecb6	0.020986896
117	0x3d969b05	0.073537864
118	0x3dab2258	0.0835616
119	0x3d28daf1	0.041224424
120	0xbd1798df	-0.037011024
121	0x3d97b240	0.07407045
122	0x3d6bd031	0.057571594
123	0x3d47f6fd	0.04881953
124	0x3d5c6dff	0.053815838
125	0x3d1e2279	0.038607094
126	0x3d59fc34	0.053219035
127	0x3ce0aa9f	0.027425108

feature.2.weight f4 [128, 128]
0	0xbc8c6faa	-0.01714309
1	0x3da86a62	0.08223416
2	0x3dfc6f2f	0.12325894
3	0x3e6d4b02	0.23173144
4	0xbdc6b866	-0.0970314
5	0x3e2ca1a5	0.16858537
6	0x3e1f2683	0.15542035
7	0x3d0fc5d5	0.035100777
8	0x3e141509	0.1446115
9	0x3d8dda67	0.069264226
10	0x3da361f4	0.079776675
11	0x3c37437a	0.011185521
12	0x3d8a71ba	0.06759973
13	0x3da4d7f4	0.08049002
14	0x3c759c34	0.014990855
15	0xbe2f3297	-0.17109142
16	0x3e273d5e	0.16332003
17	0xbca224bc	-0.019792907
18	0xbd6d656f	-0.057958063
19	0xbe43eb4e	-0.1913273
20	0x3c42a575	0.011880268
21	0xbc0e319d	-0.008678821
22	0x3d1762f4	0.036959603
23	0xbdaacd67	-0.08339959
24	0x3d3c689c	0.0459982
25	0x3ddf0ab6	0.10890715
26	0xbcce39cc	-0.025174044
27	0x3da38d4e	0.07985936
28	0xbd9e4b6f	-0.077292316
29	0x3c0f4ed6	0.008746823
30	0x3d171121	0.03688157
31	0xbd9a2cc5	-0.0752807
32	0x3d55b2d7	0.052172508
33	0xbdc93ff2	-0.0982665
34	0xbd7ae77d	-0.06125592
35	0xbcffe5b5	-0.031237463
36	0x3eb27809	0.34857205
37	0x3cabf717	0.020991845
38	0x3dd445be	0.10364865
39	0x3e030127	0.12793408
40	0xbd6be755	-0.057593662
41	0x3d81ab9e	0.063315615
42	0x3bd5df9a	0.0065268995
43	0xbd2545ae	-0.040349655
44	0xbd9ce4cf	-0.07660829
45	0x3cd9e40b	0.026597997
46	0xbbc84e99	-0.006112885
47	0xbe17a919	-0.148106
48	0xbdd77acf	-0.10521471
49	0xbc6b97f2	-0.014379488
50	0x3d5bcdf6	0.053663217
51	0xbdbdb17e	-0.092623696
52	0x3dc942fb	0.09827229
53	0x3ea39e9b	0.31956944
54	0x3d14be62	0.036314376
55	0xbd7ee37b	-0.06222866
56	0x3dafa9e3	0.08577325
57	0xbcc5b59e	-0.024134453
58	0xbe2c5b4a	-0.16831699
59	0xbd38b23f	-0.045091864
60	0x3e1c126e	0.15241405
61	0xbc753b39	-0.014967733
62	0x3df3b0b7	0.1189894
63	0x3da4fa5d	0.080555655
64	0xbbd064d2	-0.006359675
65	0xba19fa06	-0.0005873743
66	0x3df842b1	0.121220954
67	0x3cecec23	0.028921193
68	0x3c3aecc2	0.0114089865
69	0xbd9baa82	-0.07600881
70	0x3c405641	0.0117393145
71	0xbccb6bda	-0.024831701
72	0x3d1deac0	0.038553953
73	0x3e2efe49	0.1708919
74	0xbe1fd266	-0.15607604
75	0x3d138e97	0.036024656
76	0xbd950396	-0.072760746
77	0xbd9ac642	-0.07557346
78	0xbd77575f	-0.060386058
79	0xbcd3030c	-0.025758289
80	0xbd338c16	-0.04383477
81	0xbbaa4137	-0.0051957625
82	0xbd0e63b5	-0.034763057
83	0xbdd1e471	-0.1024865
84	0x3dde6c10	0.10860455
85	0xbcd6a0a3	-0.026199644
86	0x3dcfd109	0.10147292
87	0xbca2ba71	-0.019864293
88	0xbd3cc774	-0.04608865
89	0x3ca6368c	0.020289682
90	0x3e3085dc	0.17238563
91	0x3db4d8c7	0.088304095
92	0x3e9db2a3	0.30800352
93	0x3e45d545	0.19319637
94	0xbd37c33a	-0.044863917
95	0xbd8a9d4a	-0.06768282
96	0x3e52dedb	0.20592825
97	0x3db6e61d	0.089306094
98	0x3e0bfb48	0.13670075
99	0x3d215d2e	0.039395504
100	0x3e8d7876	0.27630967
101	0x3e81e16f	0.25367305
102	0xbddbc9c2	-0.107318416
103	0xbe019db3	-0.12657814
104	0xbd800407	-0.06250768
105	0x3d94a44f	0.07257902
106	0x3cc81cbc	0.024427764
107	0xbde15f1a	-0.11004467
108	0xbe15e8b1	-0.14639546
109	0x3e801576	0.25016373
110	0x3e1e0b29	0.15433945
111	0x3e0fc462	0.14039758
112	0xbdd75682	-0.10514547
113	0xbe1c09ba	-0.15238085
114	0xbe0f892b	-0.14017169
115	0x3e26827f	0.16260718
116	0xbdb12be7	-0.08650952
117	0x3d86e54c	0.06586704
118	0x3de872b3	0.11350002
119	0x3d85ded6	0.06536643
120	0x3da0a0bb	0.07843157
121	0x3c3de235	0.0115895765
122	0x3e2a07f8	0.16604602
123	0x3bf713c6	0.007540199
124	0x3e362985	0.17789276
125	0xbd46604f	-0.04843169
126	0x3e1735c1	0.14766599
127	0xbe1d3ac3	-0.15354447
128	0x3e22d251	0.15900542
129	0xbe4af67b	-0.19820587
130	0xbe646922	-0.2230573
131	0x3c346f81	0.011012913
132	0xbda2b7b1	-0.079451926
133	0x3d5d860b	0.05408291
134	0xbdbfdfc9	-0.093688555
135	0xbc816938	-0.015797243
136	0x3d0bf7d5	0.034171898
137	0x3defd863	0.11711194
138	0x3c9c8cf7	0.019110186
139	0xbd3d96ab	-0.046286266
140	0xbc342a7c	-0.010996457
141	0xbd95ad41	-0.07308436
142	0xbd4d36bf	-0.050101038
143	0xbe19da50	-0.15024686
144	0x3ddb86dd	0.107190825
145	0x3de8fce3	0.11376359
146	0x3d4c8c93	0.04993875
147	0xbcfea9ab	-0.031086763
148	0x3d695612	0.05696685
149	0xbe07be45	-0.13256176
150	0xbdffa0fa	-0.12481876
151	0xbcf663f1	-0.030076953
152	0x3daa5f3c	0.08318946
153	0xbdd638d7	-0.1046006
154	0xbd97b0e1	-0.07406784
155	0x3d047a48	0.03234318
156	0xbe00f557	-0.1259359
157	0xbc298c23	-0.010348353
158	0x3c222ed5	0.009898861
159	0xba1f8fd9	-0.00060868036
160	0xbe45284c	-0.19253653
161	0xbd29a231	-0.041414443
162	0xbdff79ad	-0.1247438
163	0xbdb106b0	-0.08643854
164	0xbdde47f6	-0.10853569
165	0x3e190402	0.14942935
166	0x3d84201c	0.06451437
167	0x3e595a74	0.21225911
168	0xbc669fbc	-0.01407617
169	0x3ce4c35d	0.027925188
170	0xbc55214b	-0.013008426
171	0xbe00bab7	-0.12571226
172	0xbca3c7b4	-0.019992687
173	0xbb966dbc	-0.004590718
174	0xbcfbe44c	-0.030748509
175	0xbbb802da	-0.0056155743
176	0x3d3d524a	0.046221055
177	0x3d0c424b	0.03424291
178	0x3d993742	0.07481243
179	0x3e09201e	0.13391158
180	0xbe201e52	-0.15636566
181	0x3d316ce3	0.043316733
182	0xbbfd2c24	-0.0077262092
183	0x3dd0b838	0.10191387
184	0xbc0ce05e	-0.008598415
185	0x3df553a6	0.11978845
186	0xbe13a5a9	-0.14418663
187	0x3d9b0150	0.0756861
188	0x3d6b4b9a	0.057445146
189	0xbdbd5484	-0.09244636
190	0xbe32a89c	-0.17447132
191	0x3d391833	0.045189094
192	0xbd4ab9a2	-0.04949344
193	0x3cb46944	0.02202285
194	0xbe11c10d	-0.142338
195	0xbd0f5242	-0.034990557
196	0xbd83a5ec	-0.064281315
197	0x3dcc2c3b	0.09969374
198	0x3e3db6d8	0.1852678
199	0x3cf57124	0.029961176
200	0xbe1a3875	-0.15060599
201	0xbcfd6f66	-0.030936908
202	0xbbe74b7b	-0.0070585585
203	0x3d696e7b	0.056990128
204	0xbd13862e	-0.036016636
205	0xbcb01006	-0.021492016
206	0xbd03cf18	-0.032179922
207	0x3da61dc5	0.08111147
208	0xbe4369ad	-0.19083281
209	0xbd264b57	-0.040599193
210	0xbd81f80a	-0.06346138
211	0x3db0a64c	0.086254686
212	0x3ac08a7e	0.0014689711
213	0xbc33f6e0	-0.010984153
214	0x3d0f208d	0.034943152
215	0x3d964812	0.07337965
216	0x3be4f137	0.006986763
217	0xbc8539d7	-0.016262932
218	0x3c52cb7d	0.012865898
219	0xbca5c531	-0.02023563
220	0x3d621227	0.055193093
221	0xbd4e47b9	-0.05036137
222	0xbdd8e3f2	-0.10590352
223	0x3dcda5c0	0.1004138
224	0xbc410b1f	-0.011782437
225	0xbdc98b0b	-0.098409735
226	0xbd5e8c2d	-0.0543329
227	0x3ca3f966	0.020016383
228	0xbbb52bd9	-0.0055289087
229	0x3d9fe04a	0.078064516
230	0x3d6fb86d	0.05852549
231	0xbd3ecfb2	-0.046584792
232	0xbdaaf83a	-0.08348127
233	0x3db05840	0.08610582
234	0xbc8aa078	-0.01692222
235	0xbd363f60	-0.044494033
236	0xbd438122	-0.047730573
237	0x3c8f94d5	0.017527023
238	0xbcc4c2c9	-0.024018662
239	0x3d8b7f86	0.068114325
240	0x3d7903d8	0.06079468
241	0xbd6ef6cc	-0.058340833
242	0x3dc57c41	0.0964284
243	0xbe0c17d3	-0.13680963
244	0xbddf7955	-0.10911814
245	0xbe5cd4f1	-0.21565606
246	0xbe439c00	-0.19102478
247	0x3d5e0820	0.054206967
248	0xbd431b78	-0.047633618
249	0xbd8b5794	-0.068038136
250	0xbcc50839	-0.024051772
251	0xbd096b0c	-0.033549353
252	0x3c21e034	0.009880114
253	0xbc0e88aa	-0.008699575
254	0xbd9062a7	-0.070500664
255	0xbdd8f8a3	-0.10594299

feature.2.bias f4 [128]
0	0x3d8211aa	0.063510254
1	0x00000000	0.0
2	0x3d73a15a	0.05948005
3	0x3c575d3c	0.013144787
4	0x3ced1136	0.02893887
5	0x3d49107a	0.04908798
6	0x3d9effe2	0.077636495
7	0x3cb77949	0.0223967
8	0x00000000	0.0
9	0x3cae36d7	0.021266384
10	0x3c9fbe54	0.019499935
11	0xbb824c37	-0.0039763707
12	0x3c9b85d9	0.018984722
13	0x3cf26b44	0.029592164
14	0x00000000	0.0
15	0x3da894dc	0.08231518
16	0x3c193d2c	0.009352963
17	0x3c7db29c	0.015484478
18	0x00000000	0.0
19	0xbc2020ad	-0.0097734155
20	0x3cd38532	0.025820348
21	0xbadec177	-0.0016994913
22	0x3d7d1f25	0.06179728
23	0x3ced5129	0.028969364
24	0x3c1f1ff5	0.009712209
25	0x3d1503fd	0.036380757
26	0x3d114133	0.03546257
27	0x3da8b2d0	0.08237231
28	0xbb9a818a	-0.0047151493
29	0xbb984c8b	-0.0046477965
30	0x3aff5f74	0.0019483403
31	0xbc273b39	-0.010206991
32	0x3d404cb9	0.04694817
33	0x3d01df3f	0.031707045
34	0x3d00e002	0.03146363
35	0x3d4251b9	0.047441218
36	0x3c3a466a	0.011369327
37	0x3cdecb3c	0.02719652
38	0x3d0aacca	0.03385619
39	0x3d100150	0.0351575
40	0x3d2444da	0.040104724
41	0xbb757314	-0.0037452625
42	0x3dcdae08	0.100429595
43	0x3da672db	0.08127376
44	0x3cadc6cb	0.021212956
45	0xbb8a9595	-0.0042292573
46	0x3d5ff787	0.05467942
47	0x3c94460e	0.01809981
48	0xbc0b98b1	-0.008520291
49	0xbc0c1823	-0.0085506765
50	0x3d45f1fd	0.04832648
51	0x3cc166af	0.023608534
52	0x3d5865e5	0.05283155
53	0x3c7498e0	0.014929026
54	0x3bd856db	0.006602151
55	0x3d165a1c	0.03670703
56	0xbb7d4fb8	-0.0038652252
57	0x3d27f09d	0.04100095
58	0x3d4f17ce	0.05055981
59	0x3db446f4	0.08802596
60	0x3d1e01e2	0.038576014
61	0x3c746bf5	0.014918317
62	0x3c921543	0.017832404
63	0xbc0a701b	-0.00844958
64	0x3c926b69	0.017873483
65	0x00000000	0.0
66	0x3dacdacb	0.08440169
67	0x3d73777d	0.059440125
68	0x3cde0de1	0.027106227
69	0x3c8ac077	0.016937478
70	0x3ce8055e	0.028322872
71	0x3cf865bf	0.030321954
72	0x3cc550c7	0.02408637
73	0x3d0c9a2d	0.03432672
74	0x3c01cc02	0.007922174
75	0x3d2db19b	0.042405706
76	0x3d254980	0.0403533
77	0xba23acd4	-0.000624371
78	0xbb437f66	-0.0029830574
79	0x3da12ff6	0.07870476
80	0x00000000	0.0
81	0xbcec0ce8	-0.028814748
82	0x3c4d720c	0.012539398
83	0x3ca09550	0.019602448
84	0x3d8fb708	0.07017332
85	0x3ce7d0ba	0.02829777
86	0x00000000	0.0
87	0x3c721a60	0.014776796
88	0x3d0444fa	0.032292344
89	0x3d209698	0.039206117
90	0x00000000	0.0
91	0x3c65de63	0.014030072
92	0x3bbacc68	0.0057006367
93	0xbb994840	-0.0046778023
94	0x3ce3c059	0.02780168
95	0x00000000	0.0
96	0x3d1c0a77	0.038095918
97	0x3d1c8b42	0.038218744
98	0x3acee4c8	0.0015784735
99	0x3cf0ab9f	0.02937871
100	0xbbc474ad	-0.005995354
101	0x3c017076	0.007900348
102	0x00000000	0.0
103	0x3c32e1ab	0.010918061
104	0x00000000	0.0
105	0x3c8de9a4	0.017323323
106	0x3d87b56c	0.066264
107	0x3c71cd84	0.014758471
108	0xbb8c2705	-0.0042771124
109	0x00000000	0.0
110	0x3d3de82f	0.046364006
111	0x3d64116f	0.05568069
112	0x3aa0d66b	0.0012270933
113	0x3d71bedd	0.059019912
114	0x3d0a31d7	0.033738937
115	0x3cecfd31	0.028929325
116	0xb9107b86	-0.00013778926
117	0x3d256394	0.04037817
118	0x3bc01517	0.005861889
119	0xbc9b079d	-0.018924529
120	0xbbed44c9	-0.007240866
121	0xbb42d76f	-0.002973046
122	0x3d045be9	0.032314215
123	0x3cd60e24	0.02612979
124	0x3cd745ab	0.026278337
125	0x3d73c76d	0.05951636
126	0xbbef5bc1	-0.007304639
127	0x3c81f1d6	0.015862387

value_stream.0.weight f4 [128, 128]
0	0xbcb99236	-0.022652727
1	0x3d2ae7b0	0.04172486
2	0xbe0be100	-0.1366005
3	0x3dd0fbcb	0.10204276
4	0xbe2f279b	-0.17104952
5	0x3e0f54c8	0.13997185
6	0xbd980466	-0.07422714
7	0x3d666b83	0.056254875
8	0x3d15c27c	0.036562428
9	0xbd72d771	-0.059287492
10	0xbc23efe7	-0.010005928
11	0xbe1c8d8a	-0.15288368
12	0x3d8e08ea	0.06935294
13	0x3d95bff3	0.07312002
14	0x3e3f7ebf	0.18700694
15	0x3e54bb02	0.20774463
16	0x3dee6219	0.116398044
17	0x3d80ac1b	0.062828265
18	0x3d910d7c	0.0708265
19	0xbdcf041b	-0.10108205
20	0x3d36df15	0.04464634
21	0x3de82d9f	0.113368265
22	0x3d86d94a	0.06584413
23	0x3d914fb9	0.07095284
24	0x3cee90cc	0.029121779
25	0xbc917776	-0.017757159
26	0xbda2744b	-0.079323374
27	0x3d69e76e	0.057105474
28	0x3ded81ed	0.11597047
29	0xbb30362b	-0.0026887755
30	0xbd13fc03	-0.03612901
31	0x3d3fb922	0.046807416
32	0x3e741d5c	0.23839325
33	0xbdbda5cf	-0.09260141
34	0x3d92f20d	0.07175074
35	0xbe2874e4	-0.1645084
36	0x3de4f7a0	0.11180043
37	0xbc863dab	-0.016386827
38	0x3cbb36d0	0.022853285
39	0x3d143c05	0.03619005
40	0xbcbbe2f1	-0.022935363
41	0x3cc7a854	0.024372257
42	0xbde2a5b0	-0.11066759
43	0x3dec4151	0.115358956
44	0x3bcbef52	0.0062235976
45	0x3c86683c	0.016407125
46	0x3d85eafc	0.0653896
47	0x3d80ed9e	0.06295322
48	0xbb0ea0a2	-0.0021763225
49	0xbe35cf6e	-0.1775491
50	0x3df1b81f	0.118026964
51	0x3dfa649e	0.122262225
52	0x3d9b82ba	0.075932935
53	0xbb3a022e	-0.0028382647
54	0x3cdcafea	0.026939351
55	0x3d79a41c	0.060947523
56	0x3de4fa06	0.11180501
57	0xbda296ac	-0.07938895
58	0x3dc544ca	0.09632261
59	0x3ce28db4	0.02765546
60	0xbc5b3628	-0.013379611
61	0xbdee0a32	-0.11623038
62	0x3da08806	0.078384444
63	0xbe29ffef	-0.16601537
64	0x3d12b476	0.035816632
65	0xbc409b47	-0.011755771
66	0x3dd01da5	0.10161904
67	0xbe399407	-0.18122874
68	0xbde39442	-0.11112262
69	0x3e0de185	0.1385556
70	0xbd208e27	-0.039198067
71	0x3c529517	0.012852929
72	0x3ddc15b9	0.10746331
73	0x3d7b75ba	0.06139157
74	0x3ea644c7	0.32474348
75	0x3e1a3c04	0.15061957
76	0x3e0e7f22	0.13915685
77	0x3e4aa283	0.19788556
78	0x3d459e53	0.048246693
79	0xbe2bdfba	-0.16784564
80	0x3e23ea60	0.16007376
81	0x3dd8cf10	0.10586369
82	0x3e24c7df	0.1609187
83	0x3d53faee	0.051752977
84	0x3d24398e	0.04009395
85	0x3c86e602	0.016467098
86	0xbd93d8ae	-0.07219063
87	0xbca3d2cd	-0.019997979
88	0xbbbfed4f	-0.005857147
89	0xbc1713ea	-0.0092210565
90	0xbdf96bef	-0.1217879
91	0x3e3de970	0.1854608
92	0x3e2e9693	0.17049627
93	0xbe2ed4d9	-0.17073382
94	0xbe0ac814	-0.13552886
95	0x3dd90a3a	0.10597654
96	0x3dc8db03	0.09807398
97	0xbdb16c98	-0.08663291
98	0x3c9ccb92	0.019140039
99	0x3dbac169	0.09118921
100	0x3ba9f96e	0.005187205
101	0x3d4ac574	0.049504712
102	0x3b3f88ac	0.002922575
103	0xbde75c66	-0.112969205
104	0x3db922a9	0.09039814
105	0xbe5e83c5	-0.21729954
106	0x3df855b0	0.121257186
107	0x3d954c52	0.072899476
108	0x3bc760d2	0.00608454
109	0x3db588a3	0.08863952
110	0xbe0c309c	-0.13690418
111	0x3e3d121b	0.18463938
112	0x3e07987f	0.13241766
113	0xbd700845	-0.058601636
114	0x3e0b481b	0.13601725
115	0x3c70822c	0.014679473
116	0xbb8da8e7	-0.0043231132
117	0x3e4d1b1c	0.20029873
118	0x3cd4082d	0.025882805
119	0x3d010cc5	0.03150632
120	0x3e1466be	0.14492318
121	0x3daa5ead	0.08318839
122	0x3dde2b4f	0.10848104
123	0xbda42d06	-0.080164
124	0x3e1fe5f5	0.15615065
125	0x3d7b0e01	0.061292652
126	0x3dacb51d	0.08432982
127	0xbe33c66d	-0.17556162
128	0x3d0bf85c	0.0341724
129	0xbe2c0b8d	-0.16801281
130	0x3da68010	0.08129895
131	0x3dfc8ef6	0.12331955
132	0xbe254667	-0.16140138
133	0x3d2cb84f	0.042167958
134	0xbd830c3f	-0.0639882
135	0x3dd20734	0.1025528
136	0x3dd8cae2	0.10585572
137	0x3c999a00	0.01875019
138	0x3df82c06	0.12117772
139	0x3db335b4	0.087504774
140	0x3d867e93	0.06567111
141	0xbc833929	-0.016018467
142	0xbd600654	-0.054693535
143	0x3e62eb66	0.2216011
144	0x3a44c05d	0.0007505471
145	0xbb31ada1	-0.0027111548
146	0x3de38911	0.11110128
147	0xbd2b8558	-0.041875213
148	0xbbe21052	-0.006898918
149	0x3b9594ca	0.004564856
150	0x3dbd9b8b	0.09258183
151	0x3db35c9b	0.087578975
152	0x3dd441ec	0.10364136
153	0xbd9dac19	-0.07698841
154	0x3d81bc77	0.06334775
155	0xbd8cbb10	-0.06871617
156	0x3d954e97	0.072903804
157	0xbdbacf1e	-0.09121536
158	0xbcc9e196	-0.0246437
159	0xbcf27abd	-0.029599542
160	0x3d8f54c3	0.06998589
161	0x3a147411	0.0005663047
162	0x3c654270	0.013992891
163	0xbcc0afe4	-0.023521371
164	0xbe142d82	-0.14470485
165	0x3d2ca4a7	0.042149212
166	0x3d3966d7	0.04526409
167	0x3e396a60	0.18106985
168	0x3d88edc2	0.06685974
169	0x3cb07f3a	0.021545041
170	0x3df17d2b	0.11791452
171	0x3e06d57b	0.13167374
172	0x3dc711af	0.0972017
173	0xbd5a2c5d	-0.053264964
174	0x3ca931ad	0.02065357
175	0x3db7b4f2	0.089700595
176	0xbe64901d	-0.223206
177	0x3d4087fd	0.04700469
178	0xbe1b7422	-0.1518102
179	0xbcab3805	-0.020900736
180	0xbd97326e	-0.073826656
181	0x3d9f90db	0.07791301
182	0x3da41f6f	0.08013808
183	0xbd66a648	-0.056310922
184	0xbd38d878	-0.045128316
185	0xbc201d0d	-0.009772551
186	0x3e0cc139	0.13745584
187	0xbd9964ec	-0.074899524
188	0xbdc77ed5	-0.09740988
189	0xbb7229e3	-0.0036951236
190	0x3d3f744b	0.046741765
191	0xbdee80b1	-0.1164564
192	0x3e37710b	0.17914216
193	0xbceb01bf	-0.028687356
194	0x3de4815d	0.111574866
195	0xbd4f8224	-0.05066122
196	0x3c6af805	0.014341359
197	0xbd81e136	-0.06341784
198	0x3de1c37d	0.110236146
199	0x3c8375b7	0.016047342
200	0x3c658e8e	0.0140110385
201	0xbe08c63f	-0.13356875
202	0x3d6d7ee4	0.05798234
203	0x3e203cdb	0.15648215
204	0x3e17a121	0.1480756
205	0xbd78c8e4	-0.06073846
206	0x3e38abf5	0.18034346
207	0xbe419670	-0.18905044
208	0xbd6dcc71	-0.0580563
209	0x3e08ccff	0.1335945
210	0x3e63e358	0.22254694
211	0x3de50761	0.11183048
212	0xbe44917e	-0.19196126
213	0x3e82eef0	0.2557292
214	0x3c7996e3	0.015233728
215	0x3e80654b	0.2507728
216	0x3da85f7f	0.082213394
217	0xbd61e0f0	-0.055146158
218	0x3d8408ae	0.06446968
219	0x3dd0da6f	0.10197913
220	0x3dbab6b4	0.09116879
221	0xbd46fc21	-0.048580293
222	0xbcda9cb3	-0.026686048
223	0x3e458458	0.19288766
224	0x3c836c0e	0.016042735
225	0xbcdd1651	-0.02698818
226	0x3d1885ea	0.037237085
227	0xbde64d4c	-0.11245212
228	0xbd8d950f	-0.06913196
229	0x3dc0d42e	0.0941547
230	0x3d43101e	0.047622792
231	0x3c362969	0.011118271
232	0x3cf000d9	0.02929728
233	0xbdf34ba8	-0.11879665
234	0xbdc7accb	-0.097497545
235	0x3d87deba	0.066342786
236	0x3beccd1d	0.0072266
237	0x3de81e21	0.11333872
238	0xbe081ec2	-0.13292983
239	0x3d722b22	0.059123166
240	0x3dca6abc	0.09883639
241	0xbca7b0f3	-0.020470118
242	0xbd1d966e	-0.03847354
243	0xbe13b0e5	-0.14422949
244	0xbdaf7592	-0.08567347
245	0x3e6ddc7a	0.23228636
246	0x3e177715	0.1479152
247	0xbd63b3e7	-0.05559149
248	0xbd11290f	-0.035439547
249	0x3ddf9727	0.10917502
250	0x3cd1521f	0.025551854
251	0x3d7aa56b	0.06119291
252	0x3dba59b4	0.09099141
253	0x3e47102f	0.19439767
254	0xbc9246ee	-0.017856088
255	0x3dc3a589	0.09553058

value_stream.0.bias f4 [128]
0	0x3bc75205	0.0060827755
1	0x3c39b2d0	0.011334136
2	0x3c5ce568	0.013482429
3	0xbbe4d8cf	-0.0069838534
4	0xbb971474	-0.0046105925
5	0x3c607415	0.013699551
6	0xbbc829fa	-0.0061085196
7	0x3c672f63	0.014110419
8	0x3c43aadf	0.011942594
9	0xbbe1564b	-0.006876742
10	0x3bc8f23e	0.006132393
11	0x3c7f681a	0.015588785
12	0xbbcbf752	-0.0062245512
13	0xb9bf2fb0	-0.0003646589
14	0x3c50b6cd	0.012738896
15	0x3bb9f8a0	0.0056753904
16	0x3c7f4c81	0.015582205
17	0x3c20c222	0.00981191
18	0x3c1a6005	0.009422307
19	0x3c742c68	0.014903165
20	0xbb4dda08	-0.0031410474
21	0x3c074709	0.008256682
22	0x00000000	0.0
23	0x3c310300	0.010803938
24	0x3c994eee	0.018714394
25	0xbbf29e4c	-0.0074041244
26	0x3c3b529a	0.011433268
27	0xbbc03ed0	-0.005866863
28	0x3c9ca610	0.019122154
29	0xbc0cf4ae	-0.008603258
30	0xbbc67042	-0.0060558626
31	0x3ca89c3a	0.020582307
32	0x3c837d26	0.016050886
33	0xbbc28d5a	-0.0059372606
34	0x3c322928	0.01087407
35	0xbbbb194e	-0.0057098037
36	0x3c53e98e	0.012934102
37	0x3c6b7873	0.014371979
38	0x3bfcd72a	0.0077160792
39	0x3c45534a	0.012043783
40	0x3c7d5ae3	0.015463564
41	0x3c891eb3	0.016738271
42	0xbbe0eaa2	-0.006863908
43	0xbb3ab2ab	-0.0028487842
44	0x3c1f5192	0.009724038
45	0x3cc1aa36	0.023640733
46	0x3c651236	0.013981393
47	0xbbb9d9be	-0.005671709
48	0xbb62206d	-0.003450419
49	0x3c8e70ae	0.017387714
50	0x3c442a91	0.011973039
51	0x3cba1f0a	0.022719879
52	0x3b439587	0.0029843764
53	0x3cb0f676	0.021601897
54	0xbb26c670	-0.0025447868
55	0xbbefaa5b	-0.007314009
56	0x3c1a7d83	0.009429338
57	0xbbde9b65	-0.006793427
58	0xbb9ceb9a	-0.004788828
59	0x3c8bd96a	0.017071445
60	0x3c8e9974	0.017407157
61	0xbb9ea2a3	-0.004841165
62	0xbba81519	-0.005129468
63	0x3c12a51e	0.0089505
64	0xbbd753d0	-0.0065712705
65	0x00000000	0.0
66	0x3ce712ec	0.028207265
67	0x3cafdfca	0.021469016
68	0x3d5cc018	0.053894132
69	0x00000000	0.0
70	0x3c50221c	0.012703445
71	0x3c35d9f6	0.011099329
72	0x00000000	0.0
73	0x3ced5937	0.028973205
74	0x3c6e7df6	0.014556399
75	0x3c7b0c5d	0.015322772
76	0x3c753fb4	0.014968801
77	0x3c819de7	0.015822364
78	0x3c0db37f	0.008648752
79	0x3c17cbcd	0.0092648985
80	0x3abe207a	0.0014505528
81	0x3c1184e0	0.0088817775
82	0x3c7631f0	0.015026554
83	0x00000000	0.0
84	0x3ca6d4f6	0.02036522
85	0x3c61ee49	0.013789722
86	0xbb58e9ca	-0.0033098334
87	0x3c4c85e3	0.012483093
88	0x3cb05fdf	0.02153009
89	0x3db06100	0.08612251
90	0x3c54e437	0.012993864
91	0xbaa3b78c	-0.0012490614
92	0x3c6f8901	0.014620067
93	0xbbc4a17c	-0.0060006958
94	0x3b93a0d3	0.0045052557
95	0xbc3166e1	-0.010827751
96	0xbc256091	-0.010093824
97	0xbc1d4c52	-0.009600716
98	0x3bc54fb5	0.0060214647
99	0xbbe116f3	-0.006869191
100	0x3cc52863	0.02406711
101	0x3c0cfa50	0.008604601
102	0x3c2ba514	0.010476369
103	0x3bfc08c3	0.007691474
104	0x3c0f9b3e	0.00876504
105	0xbc18f615	-0.009336014
106	0xbad0f14d	-0.0015941054
107	0x3b57e8ec	0.0032945229
108	0xbbf3ca75	-0.0074399062
109	0xbb5be999	-0.0033555983
110	0x3c382119	0.01123836
111	0x3c9a84ae	0.018862095
112	0x3cdc033d	0.026857013
113	0xbb070e58	-0.0020607915
114	0xbbd7ea11	-0.006589182
115	0x3c0757a6	0.008260643
116	0x3cad1a3c	0.021130674
117	0xbc21cf46	-0.009876078
118	0x3d01fe37	0.03173658
119	0x3cb1691a	0.021656562
120	0xbbbf1ae8	-0.005832065
121	0x3d943016	0.07235734
122	0xbbe8ed11	-0.0071083386
123	0x3bd751c8	0.0065710284
124	0xbc03375a	-0.008008802
125	0xbb85242f	-0.0040631513
126	0x00000000	0.0
127	0x3c6f7dcd	0.014617396

value_stream.2.weight f4 [1, 128]
0	0xbdcfe81d	-0.10151694
1	0xbe56221c	-0.20911449
2	0xbdff322c	-0.124607414
3	0x3db91e1a	0.090389445
4	0x3d47b1fb	0.04875372
5	0xbe3f8b24	-0.18705422
6	0x3a8db062	0.0010810012
7	0xbdc9717a	-0.09836097
8	0xbe3be34a	-0.18348423
9	0x3c4782de	0.012177197
10	0x3eccbdfd	0.399887
11	0xbe37fd8e	-0.17967817
12	0xbdc105ca	-0.09424932
13	0xbdd899d5	-0.10576216
14	0xbe5dbb2f	-0.21653436
15	0x3e9b6413	0.30349788
16	0xbe93c639	-0.2886217
17	0xbdba86e7	-0.09107762
18	0x3e559cfc	0.20860666
19	0x3e90e2aa	0.2829793
20	0x3d6eaa6d	0.058268
21	0xbe0ea520	-0.13930178
22	0xbd06efa3	-0.03294338
23	0xbe3cc93b	-0.18436138
24	0xbe16c591	-0.14723803
25	0x3d3e557d	0.046468247
26	0xbde07733	-0.109602354
27	0x3b35352a	0.0027650096
28	0xbe363653	-0.1779416
29	0x3d8005ae	0.06251083
30	0x3d911e2e	0.070858344
31	0xbe958d85	-0.29209533
32	0x3ea1ef81	0.3162804
33	0x3e2b1915	0.16708787
34	0xbe351e40	-0.1768732
35	0x3c9030f2	0.017601464
36	0xbe82319a	-0.25428468
37	0xbde6c158	-0.11267346
38	0xbdcf083a	-0.10108991
39	0xbda76263	-0.08173063
40	0xbe2df590	-0.16988206
41	0xbdb99742	-0.09062053
42	0x3d1425c7	0.03616884
43	0x3cf455a8	0.029826
44	0xbe9d02aa	-0.30666095
45	0xbddbc55b	-0.10731002
46	0xbde78c9b	-0.11306115
47	0xba9d25c4	-0.0011989404
48	0x3cdaa979	0.026692139
49	0xbe15d596	-0.14632258
50	0x3eb0731b	0.34462819
51	0xbdea0c21	-0.11428095
52	0x3e8d701f	0.27624604
53	0x3ebf14aa	0.37320453
54	0x3de16536	0.110056326
55	0x3c91fff8	0.01782225
56	0xbda459a3	-0.08024909
57	0x3d6ce032	0.057830997
58	0x3d963f7a	0.07336326
59	0xbe1999aa	-0.15000024
60	0xbe2f5c29	-0.17125
61	0x3db237cc	0.08702049
62	0x3dbe6d1b	0.09298154
63	0x3ed346f6	0.41265076
64	0x3da55c5b	0.08074256
65	0x3db1f663	0.08689573
66	0x3e6b79f0	0.22995734
67	0xbe2ff01e	-0.17181441
68	0x3ecdcc78	0.4019506
69	0xbe38d4d7	-0.18049942
70	0xbdd35dbe	-0.10320614
71	0xbe95919d	-0.29212657
72	0xbcce0a24	-0.02515132
73	0x3e931612	0.28727776
74	0xbddc9e91	-0.10772432
75	0xbe33e927	-0.1756941
76	0xbe4b8073	-0.19873218
77	0xbe6ca032	-0.23107985
78	0xbe2244c8	-0.1584655
79	0xbd89f2d4	-0.06735769
80	0x3e30a7f7	0.17251574
81	0xbdab5989	-0.08366687
82	0xbe34d306	-0.17658624
83	0xbd0ef162	-0.03489817
84	0x3e82ff58	0.25585437
85	0xbe050d4b	-0.12993352
86	0x3c4ac661	0.012376399
87	0xbe3272b9	-0.17426576
88	0xbde42cde	-0.1114137
89	0x3e5f28c0	0.21792889
90	0xbda69745	-0.08134321
91	0x3e81a4e3	0.2532111
92	0xbe197aec	-0.14988297
93	0x3db26772	0.08711137
94	0xbdc6240b	-0.096748434
95	0x3e91100f	0.28332564
96	0x3dac17e3	0.084029935
97	0x3e6a85cd	0.22902603
98	0x3e8c837c	0.27444065
99	0x3d7324ab	0.05936114
100	0xbe769268	-0.24079287
101	0xbda6da30	-0.08147085
102	0xbe1247af	-0.14285158
103	0x3e5b92df	0.21442746
104	0xbe2cc8db	-0.16873495
105	0xbdaf5fbf	-0.08563184
106	0x3de5c7ca	0.11219747
107	0x3ea34398	0.31887507
108	0x3d98d977	0.07463353
109	0x3e82e0c0	0.25562096
110	0xbe16aa8b	-0.14713494
111	0xbe61301d	-0.2199101
112	0x3ecd8a8a	0.4014476
113	0x3d15caca	0.036570348
114	0x3e101bce	0.14073107
115	0xbda04603	-0.07825854
116	0xbdef6f3f	-0.116911404
117	0x3da7b9d5	0.081897415
118	0xbe014792	-0.12624958
119	0xbe4d913f	-0.20074938
120	0x3bc4a3d1	0.0060009737
121	0x3e70157a	0.23445693
122	0x3e04a457	0.12953316
123	0xbd7e0253	-0.062013935
124	0x3cb0c3f4	0.021577813
125	0x3e1081bb	0.14111988
126	0x3dba80c7	0.091065936
127	0xbdc923d5	-0.098212875

advantage_stream.0.weight f4 [128, 128]
0	0x3d95b3a0	0.073096514
1	0x3e670265	0.22559507
2	0x3dfcdcbf	0.123467915
3	0x3d849aed	0.06474862
4	0xbe3a946a	-0.18220678
5	0x3d96adb5	0.07357351
6	0xbdc9af82	-0.098479286
7	0xbd04b58b	-0.032399695
8	0x3e26f576	0.16304573
9	0x3e81d31d	0.2535638
10	0xbc3bcd33	-0.0114624975
11	0xbe270a28	-0.16312468
12	0xbd21d862	-0.039513
13	0x3e6abf15	0.22924455
14	0x3d034272	0.03204579
15	0xbdb38bb0	-0.08766878
16	0x3e1623a6	0.14662036
17	0xbdde4fa4	-0.10855034
18	0xbd70d965	-0.058801074
19	0x3d3f42bc	0.046694502
20	0xbd95b6dd	-0.07310269
21	0x3d2f1f11	0.042754237
22	0x3ccf4f5e	0.0253064
23	0xbdbfa800	-0.09358215
24	0xbdb0663c	-0.0861325
25	0x3d61c589	0.055120025
26	0x3e16dab9	0.14731874
27	0x3d31c810	0.043403685
28	0xbdb3aff8	-0.08773798
29	0x3d3ee5f9	0.046606038
30	0xbd797ca0	-0.060909867
31	0x3b9b2ac3	0.004735322
32	0xbe088ef5	-0.13335784
33	0x3d6f2040	0.058380365
34	0x3dbf1fb9	0.093322225
35	0x3d93c5c4	0.07215455
36	0x3e09bca5	0.13450868
37	0xbc69952d	-0.014256758
38	0xbd3494e2	-0.0440873
39	0x3e009828	0.12558043
40	0x3e912e4f	0.28355643
41	0x3d3c986c	0.0460438
42	0x3d8437f3	0.06455984
43	0xbc47b041	-0.012188018
44	0x3e2b5808	0.167328
45	0xbe0b5038	-0.1360482
46	0xbd38df9e	-0.045135133
47	0x3b8a54ec	0.0042215493
48	0xbdb68ddc	-0.08913776
49	0xbe1169ca	-0.14200512
50	0x3cfeacb8	0.031088218
51	0x3e0b21da	0.13587132
52	0x3dafe03f	0.085876934
53	0xbc896d90	-0.016775876
54	0xbdc141df	-0.09436392
55	0x3dbca896	0.09211843
56	0xbe3dd421	-0.18537952
57	0x3def334e	0.116797075
58	0xbde1cb5d	-0.110251166
59	0x3e35e670	0.17763686
60	0x3d23a08e	0.03994804
61	0x3d9ec684	0.077527076
62	0x3e136cfe	0.14397046
63	0x3bde8603	0.006790878
64	0x3e359add	0.17734857
65	0xbd058ed1	-0.032606903
66	0xbe065b09	-0.13120665
67	0x3a023fbd	0.0004968604
68	0xbdbede40	-0.093197346
69	0x3d5ec8e2	0.054390796
70	0x3dc1d8b4	0.09465161
71	0x3de227df	0.11042761
72	0x3d5ff818	0.05467996
73	0xbdf8a849	-0.12141473
74	0x3caa3a97	0.020779891
75	0xbd9f39d6	-0.07774703
76	0x3d405e3a	0.04696486
77	0x3e7c4b27	0.24638043
78	0x3db27df7	0.08715432
79	0xbd38fb7f	-0.04516172
80	0x3bc8793d	0.0061179684
81	0x3d967b40	0.07347727
82	0x3e179657	0.14803444
83	0xbdee6909	-0.116411276
84	0x3d9293e4	0.07157114
85	0x3d6a99c1	0.057275537
86	0x3c60a98e	0.0137123
87	0x3dc1ac97	0.09456747
88	0x3d2984fa	0.041386582
89	0x3e4969b9	0.19669236
90	0x3e0ae72e	0.1356475
91	0x3e0a87ce	0.13528368
92	0x3df0afcd	0.11752281
93	0xbda77b31	-0.08177794
94	0x3de1a478	0.11017698
95	0xbdcfa1ab	-0.101382576
96	0x3d554a03	0.052072536
97	0xbd6c277c	-0.057654843
98	0xbd3354e9	-0.04378215
99	0x3a0852a9	0.00052003056
100	0xbe28184c	-0.16415519
101	0x3e39d862	0.1814895
102	0xbda5bb24	-0.08092335
103	0x3e205b04	0.1565972
104	0xbac9b857	-0.001539002
105	0x3e1691a2	0.14703992
106	0x3db1c4cb	0.086801134
107	0x3d29a1c0	0.041414022
108	0x3e191c03	0.14952092
109	0x3db21181	0.08694745
110	0x3d42e3dd	0.04758059
111	0xbcb2c4e8	-0.021822408
112	0xba906134	-0.0011015297
113	0xbe79ae71	-0.2438295
114	0x3de751fa	0.11294933
115	0x3dd7179a	0.105025485
116	0xbdbe3348	-0.09287125
117	0xbdb784dd	-0.089608885
118	0x3e882de0	0.265975
119	0x3e139772	0.1441324
120	0xbc235d36	-0.009970954
121	0x3db7fa8a	0.089833334
122	0x3e2776e7	0.16353951
123	0x3dbc9d60	0.092097044
124	0xbd0f160e	-0.034933142
125	0xbe588177	-0.21143137
126	0xbda1f84e	-0.079086885
127	0xbd00d372	-0.03145165
128	0x3d57553e	0.052571528
129	0x3d1f44ce	0.038883977
130	0xbda53e36	-0.080685064
131	0xbd1d95c3	-0.038472902
132	0x3e666e4e	0.22503015
133	0xbd722f9c	-0.059127435
134	0xbda7b566	-0.08188896
135	0x3c3341ea	0.010941008
136	0xbbc497a7	-0.0059995237
137	0xbb85de0b	-0.0040853075
138	0xbcd29a76	-0.025708418
139	0x3e03bfa5	0.12866075
140	0xbda6f860	-0.081528425
141	0x3db0123c	0.08597228
142	0x3e3bd4a4	0.18342835
143	0xbe63eea3	-0.22259001
144	0x3dc05bbe	0.093924984
145	0x3db3f723	0.08787372
146	0xbd80c7e9	-0.0628813
147	0xbd9411f3	-0.07229986
148	0x3ce8c8ba	0.028416026
149	0xbe4a5229	-0.19757904
150	0xbbc08976	-0.0058757616
151	0xbdc1bb08	-0.094595015
152	0xbeb319fd	-0.34980765
153	0x3d2693dd	0.040668357
154	0xbcb4abb0	-0.022054523
155	0xbd5c9e53	-0.053861927
156	0xbd03ff6b	-0.032226007
157	0x3d201df4	0.039091066
158	0x3dc8e275	0.09808818
159	0xbd473845	-0.048637647
160	0xbe52bf6d	-0.20580836
161	0x3e85e33b	0.26149926
162	0x3e141549	0.14461245
163	0x3e7393eb	0.23786895
164	0x3e151e71	0.14562394
165	0xbe0b0501	-0.13576128
166	0x3de96c6f	0.11397635
167	0x3daf2d8f	0.085536115
168	0xbd33e3a6	-0.043918274
169	0x3d832b02	0.064046875
170	0x3dbdf60f	0.092754476
171	0x3dd7ae75	0.10531322
172	0x3d595d78	0.053067654
173	0x3e125cc7	0.14293204
174	0xbd00095f	-0.031258937
175	0x3e17ddd5	0.14830716
176	0x3d144a33	0.036203574
177	0xbddb218c	-0.10699758
178	0xbd98c53e	-0.07459496
179	0x3de7426c	0.11291966
180	0xbdea5262	-0.114414945
181	0x3cf910aa	0.030403454
182	0x3df9064f	0.121594064
183	0x3de0e0fd	0.10980413
184	0x3d2c93b4	0.04213305
185	0x3e0e4f5c	0.1389746
186	0xbe3fb7c9	-0.18722452
187	0xbd722301	-0.059115414
188	0x3e42ff86	0.19042787
189	0xbc2a183b	-0.010381754
190	0x3de7c2b5	0.11316434
191	0xbbd11915	-0.006381164
192	0xbc61cb82	-0.01378143
193	0xbe240d8a	-0.1602079
194	0xbe3934e8	-0.18086588
195	0xbdb81943	-0.08989193
196	0xbe6ebf64	-0.23315197
197	0x3d1bf900	0.03807926
198	0x3e3b64d8	0.18300188
199	0xb9b272de	-0.00034036388
200	0xbdc5ea66	-0.096638486
201	0xbd20e773	-0.039283227
202	0xbe0ef2ef	-0.1395986
203	0xbe1c95ed	-0.15291567
204	0xbe155e62	-0.14586785
205	0xbd08f1e2	-0.033433802
206	0x3dcae3de	0.099067435
207	0x3d3aa0d1	0.045563523
208	0xbda1f03b	-0.079071485
209	0x3e14eb6d	0.14542933
210	0xbdd4c1c3	-0.103885196
211	0xbe12a845	-0.14322002
212	0x3d2d8ef0	0.042372644
213	0xbd644f61	-0.055739764
214	0x3d7d5435	0.061847884
215	0xbde96e0c	-0.11397943
216	0xbde91897	-0.11381643
217	0x3c704093	0.014663833
218	0x3d262167	0.0405592
219	0x3e08e3d8	0.13368165
220	0xbafcb8e9	-0.0019281182
221	0x3c0ca085	0.008583193
222	0xbcbc7e11	-0.023009332
223	0xbd0e354b	-0.034718793
224	0x3c86fb13	0.016477143
225	0xbe68575f	-0.2268958
226	0x3c5ae113	0.013359326
227	0x3d237a78	0.039911717
228	0x3c6a5361	0.014302106
229	0xbd2f4d39	-0.042798255
230	0xbbd14fc6	-0.0063876836
231	0x3c98d613	0.018656766
232	0x3e160766	0.1465126
233	0x3e113691	0.14180972
234	0xbdcb127f	-0.09915637
235	0xbe210359	-0.15723933
236	0xbdb7491b	-0.08949491
237	0xbd181e18	-0.037138075
238	0x3c708ce3	0.0146820275
239	0xbe8edd6c	-0.27903306
240	0x3d09ad64	0.033612624
241	0xbda9b283	-0.082860015
242	0xbe3a0591	-0.18166186
243	0x3d9be791	0.07612527
244	0x3e2aea5f	0.16690968
245	0xbd91d1e1	-0.07120109
246	0x3e093fd2	0.13403252
247	0xbcb943f0	-0.022615403
248	0xbd5a5444	-0.05330302
249	0xbd259fe4	-0.040435687
250	0x3e33d1dd	0.17560525
251	0x3e7b3704	0.24532706
252	0xbd12d2a8	-0.03584543
253	0xbe5c2b83	-0.21500973
254	0x3c714500	0.014725924
255	0xbc9b2ab6	-0.018941265

advantage_stream.0.bias f4 [128]
0	0xbaef6adb	-0.0018266098
1	0xbbedf03b	-0.0072613037
2	0xbc5c436f	-0.013443812
3	0x3c834964	0.016026206
4	0xbcd8ea29	-0.026478844
5	0x00000000	0.0
6	0x00000000	0.0
7	0x3cfc28af	0.030781118
8	0x3cf35bb2	0.02970681
9	0x3c4e8db1	0.012607024
10	0xbc311f0b	-0.010810624
11	0x3d12ba34	0.03582211
12	0x3d276fd6	0.04087814
13	0xbc16ebf4	-0.009211529
14	0x00000000	0.0
15	0x3cb6c90a	0.02231266
16	0xbb1a4f54	-0.0023545818
17	0x3ccd2f9c	0.025047116
18	0x3d2777bf	0.040885683
19	0x3d44eff2	0.048080392
20	0xbc01ee06	-0.007930284
21	0x3d2322f9	0.039828274
22	0xbbdbca89	-0.0067074937
23	0x3d1fdf00	0.03903103
24	0x3da82f1d	0.08212111
25	0xbc66143f	-0.014042913
26	0xbba84a71	-0.005135827
27	0x00000000	0.0
28	0x3b9743de	0.0046162447
29	0x3d1e32e6	0.03862276
30	0x3b8a842e	0.004227183
31	0xbbe53233	-0.0069945096
32	0x3cbe57a2	0.023235146
33	0x3cb2b3f8	0.021814331
34	0xbc073440	-0.008252203
35	0x3c8f70d5	0.017509857
36	0x3d68b0e3	0.056809317
37	0x3d443139	0.047898505
38	0xbbd8deae	-0.0066183424
39	0xbbdcf966	-0.006743598
40	0x3d2c1781	0.042014603
41	0x3d6844cb	0.05670623
42	0x387765f7	5.898435e-05
43	0x3c1023fb	0.008797641
44	0x3cc3f25c	0.023919277
45	0x3d67b5a1	0.0565697
46	0x3d49296d	0.049111772
47	0x3d25d25a	0.04048381
48	0xbb769792	-0.0037626964
49	0x3d62fecc	0.055418774
50	0x3d8480b0	0.06469858
51	0xbc34a210	-0.011024967
52	0xbc4033e6	-0.011731124
53	0xbbbfc8a8	-0.0058527775
54	0x3cd4c873	0.025974488
55	0x3d72fb33	0.059321593
56	0x3d595f36	0.053069316
57	0x3cb8c2b7	0.022553785
58	0x3d142d9f	0.03617632
59	0x00000000	0.0
60	0x3cd1929c	0.025582604
61	0x3d530d3c	0.051526293
62	0x3d191a0e	0.037378363
63	0x3d014626	0.03156104
64	0x3cf78add	0.030217582
65	0x3cfefb43	0.03112567
66	0x3d5ae4be	0.0534408
67	0x3da99d7e	0.082819924
68	0x3cf89f41	0.030349376
69	0xbc87d5c2	-0.01658142
70	0x3cf47c87	0.029844536
71	0x3c1a380b	0.009412776
72	0xbac4c97c	-0.001501366
73	0x3c91abe0	0.017782152
74	0x3bac067c	0.0052497964
75	0x3cd0ba88	0.02547957
76	0xba3bf3fe	-0.00071698416
77	0xba255335	-0.00063066493
78	0x3c825f1a	0.015914489
79	0xbb8b3bfc	-0.004249094
80	0x3db76d5e	0.08956407
81	0x3d4b0abf	0.049570795
82	0xbae8a5be	-0.001774959
83	0x3d8ea44f	0.06964933
84	0x3d0090d6	0.031388126
85	0x3d4c228e	0.04983764
86	0x00000000	0.0
87	0x3c8fc9e6	0.017552327
88	0x3ca56695	0.020190516
89	0x3c8c189c	0.017101578
90	0x3cf2d6b0	0.029643387
91	0xbc081ab7	-0.008307151
92	0x3bb3cbd4	0.0054869447
93	0x3c6ad10d	0.014332068
94	0xbd077c58	-0.033077568
95	0x3cf949fc	0.030430786
96	0xbbadc84c	-0.0053034183
97	0xbc01ad54	-0.00791486
98	0xbbe9c8a0	-0.007134512
99	0xbd022fc5	-0.031783838
100	0x3c559e29	0.013038197
101	0xbc2918e5	-0.010320877
102	0x3cc945a0	0.024569333
103	0x3d3d7887	0.046257522
104	0x3b19aa26	0.0023447364
105	0x3d2f317e	0.04277181
106	0x3cf56def	0.029959647
107	0x3dbd6eb4	0.092496306
108	0xbb5115ba	-0.003190382
109	0x3cafb6c5	0.021449456
110	0xbb98cf19	-0.00466336
111	0x3a99d8b7	0.001173756
112	0x3ce8f0fb	0.028435221
113	0xbc2ac9e7	-0.010424114
114	0xbbb69ec0	-0.0055731237
115	0x3d373e7e	0.04473733
116	0xbbf5d166	-0.007501769
117	0x3d66599c	0.056237802
118	0x3c796000	0.015220642
119	0x3ccfd5bc	0.025370471
120	0x3d01deb1	0.031706516
121	0xbb56c3f8	-0.0032770615
122	0xbb04fa86	-0.0020290925
123	0x00000000	0.0
124	0x3c836573	0.016039586
125	0x00000000	0.0
126	0x3d79ddbe	0.061002485
127	0xbc0c753e	-0.008572875
