dqn.pt (torch, 23584 bytes, 6 tensors)

network.0.weight f4 [64, 11]
0	0xbef0be5e	-0.4702024
1	0x3f460282	0.77347577
2	0x3d8079b8	0.06273216
3	0xbf0f522c	-0.5598476
4	0x3ce4dcdc	0.027937345
5	0xbdc6cf5a	-0.09707518
6	0xbed5b9e0	-0.41743374
7	0xbec06f12	-0.3758474
8	0x3f0d90bd	0.5529898
9	0xbe6d47e5	-0.23171957
10	0x3f21c464	0.63190293
11	0x3d9b8b63	0.07594945
12	0x3eaaa909	0.3333209
13	0x3f0e1080	0.55493927
14	0x3f683c04	0.90716577
15	0xbd499d15	-0.04922207
16	0x3e4af0c2	0.19818404
17	0xbecd13ed	-0.40054265
18	0xbe484654	-0.19558078
19	0x3f6af35a	0.91777575
20	0xbed040e0	-0.40674496
21	0xbea69d48	-0.3254187
22	0xbef069ac	-0.4695562
23	0xbf0f20e2	-0.5590955
24	0xbe4746aa	-0.1946055
25	0x3ee1e277	0.4411809
26	0xbe3c88cc	-0.18411559
27	0x3f38fa0f	0.7225656
28	0x3f2f3325	0.68437415
29	0x3f68565d	0.9075678
30	0x3f6e02b6	0.92972887
31	0x3e41724a	0.18891254
32	0x3e398cf2	0.18120173
33	0xbf15061b	-0.5821244
34	0x3d86ea62	0.06587674
35	0xbf3513bb	-0.7073323
36	0xbea20d2a	-0.31650668
37	0x3f631daf	0.8871717
38	0xbe014f98	-0.12628019
39	0x3f225f77	0.6342692
40	0xbe04b3c0	-0.12959194
41	0x3f681fff	0.9067382
42	0xbb92a76e	-0.0044755256
43	0x3e85c64d	0.26127854
44	0xbf2590d8	-0.6467414
45	0xbe02b179	-0.12763013
46	0x3f325f2f	0.6967649
47	0xbf35fd8d	-0.7109001
48	0x3e8549ea	0.26032954
49	0x3ee12c77	0.43979236
50	0x3e6b39f8	0.22971332
51	0x3dde3880	0.1085062
52	0xbede28ab	-0.43390402
53	0x3f3c00b3	0.73438567
54	0xbe05b918	-0.13058889
55	0x3e2acaec	0.16678971
56	0x3f4d6f88	0.8024831
57	0xbee5f94b	-0.44916758
58	0xbf2c0b95	-0.6720517
59	0x3f30323c	0.6882665
60	0xbeae3614	-0.34025633
61	0x3f3a522c	0.72781634
62	0xbdbc5e1a	-0.09197636
63	0xbe413ddb	-0.18871252
64	0x3f170601	0.58993536
65	0xbe9c1096	-0.30481404
66	0x3ee0603d	0.43823424
67	0x3e9d7528	0.30753446
68	0x3f1dd5f7	0.6165461
69	0xbf38c72f	-0.7217893
70	0x3ec49202	0.38392645
71	0x3c964bd2	0.0183467
72	0xbee32f31	-0.44371942
73	0x3f359e0d	0.7094429
74	0x3df618be	0.12016438
75	0x3ee3fbbf	0.44528005
76	0x3ef187b0	0.47173834
77	0x3eb61a29	0.35566834
78	0x3e1654c3	0.14680772
79	0xbdd48d2c	-0.10378489
80	0x3f009897	0.50232834
81	0xbf005fa2	-0.50145924
82	0x3ed5e07f	0.4177284
83	0xbe33b68f	-0.1755011
84	0x3f212a94	0.62955594
85	0x3ed71503	0.42008218
86	0x3efaf2cf	0.49013373
87	0x3f1a7ddc	0.60348296
88	0x3f29ce89	0.6633077
89	0xbf1a08ff	-0.60169977
90	0x3f675161	0.9035855
91	0xbdaf5d44	-0.08562711
92	0xbe869c99	-0.2629135
93	0xbe568809	-0.20950331
94	0x3eec70c2	0.46179777
95	0xbf19ec2d	-0.60126
96	0xbd30bf48	-0.04315117
97	0xbec727fe	-0.388977
98	0x3eb975c7	0.3622267
99	0x3f4512fd	0.769821
100	0x3e6bb259	0.23017253
101	0x3ec361e8	0.38160634
102	0xbf335021	-0.7004414
103	0xbf15b81d	-0.5848406
104	0x3e8b34fc	0.2718886
105	0x3f5c8f9b	0.86156625
106	0xbea25fce	-0.31713718
107	0x3ebd2f4e	0.36950153
108	0x3eac25ce	0.33622593
109	0x3e48d971	0.19614197
110	0xbf075f31	-0.52879626
111	0xbf8357db	-1.0261186
112	0xbed9dc9c	-0.42551124
113	0x3e6504a6	0.22365054
114	0xbe0b5a9a	-0.1360878
115	0xbdc15a8d	-0.09441099
116	0x3f8326ad	1.0246178
117	0x3ec71285	0.38881317
118	0xbe92854f	-0.2861733
119	0x3f29bd14	0.66304135
120	0x3f90e802	1.1320803
121	0x3eb277ec	0.34857118
122	0x3f0387a8	0.5137887
123	0xbf8352bb	-1.0259622
124	0x3df56343	0.11981823
125	0x3edec5ab	0.43510184
126	0xbe9e9fc6	-0.30981272
127	0x3edbd6ce	0.4293732
128	0x3e848670	0.25883818
129	0x3e4b70c7	0.1986724
130	0x3ea25a35	0.31709448
131	0x3f695034	0.91138005
132	0xbe576c4e	-0.21037409
133	0x3f655f13	0.89598197
134	0x3e05eccd	0.13078614
135	0x3f690ff2	0.91039956
136	0xbe84e04e	-0.2595238
137	0x3ed8cb2e	0.42342514
138	0x3f63d888	0.89002275
139	0x3f0ebba8	0.5575509
140	0xbdfaf5b4	-0.122538954
141	0x3f6213ba	0.8831135
142	0xbed2a0f1	-0.41138414
143	0xbef2a38a	-0.47390395
144	0x3e45797d	0.19284625
145	0xbf4dc369	-0.803763
146	0xbf07d6ee	-0.5306233
147	0xbf4384ef	-0.76374716
148	0x3e309c1d	0.17247052
149	0x3e073c07	0.13206492
150	0x3f30ed15	0.6911176
151	0x3da5a5a3	0.08088233
152	0xbec65e14	-0.3874365
153	0x3f57be26	0.8427452
154	0xbf4f27be	-0.80920017
155	0xbe878f59	-0.26476553
156	0x3ea76482	0.3269387
157	0xbed323c7	-0.41238233
158	0x3f8358e2	1.02615
159	0xbe8a782a	-0.27044803
160	0x3d020f7d	0.031753052
161	0x3f1cd0ab	0.612559
162	0x3f0fe1a2	0.56203663
163	0x3f852345	1.0401388
164	0x3ef3bf29	0.4760678
165	0xbef605bc	-0.4805125
166	0x3f579b75	0.84221584
167	0x3f4be0eb	0.7964007
168	0xbf454bfb	-0.7706906
169	0xbdc3d01f	-0.0956118
170	0xbe318743	-0.17336755
171	0xbea5fe50	-0.32420588
172	0xbec5c50c	-0.38626897
173	0x3f60b449	0.87775093
174	0x3d9a8c2b	0.07546266
175	0xbd3680c0	-0.04455638
176	0xbd506910	-0.050881445
177	0xbebbaf22	-0.36657053
178	0xbe2c38d4	-0.16818553
179	0x3d8b2560	0.06794238
180	0x3d0488e0	0.032357097
181	0xbf1607ca	-0.58605635
182	0xbe4f0988	-0.2021848
183	0xbe25de00	-0.16197968
184	0xbf031a80	-0.5121231
185	0xbf1dd7fc	-0.6165769
186	0xbd0e02a0	-0.034670472
187	0xbf23e422	-0.6401998
188	0xbecd6ea5	-0.40123478
189	0x3f0584de	0.52155864
190	0xbeaae563	-0.33378133
191	0xbf143e8f	-0.57907957
192	0xbee03dcc	-0.43797147
193	0x3f4f7ef8	0.81053114
194	0x3f31ff22	0.69529927
195	0x3f190693	0.59775656
196	0xbe9e7a9e	-0.30952924
197	0x3ee49e15	0.44651857
198	0x3dd918ac	0.10600409
199	0x3f02245b	0.50836724
200	0x3ed9c7a6	0.42535132
201	0x3f23ce9c	0.63987136
202	0xbf31c4ae	-0.69440734
203	0x3c3987a8	0.011323847
204	0xbc3e598d	-0.01161803
205	0x3da332c0	0.07968664
206	0x3e736625	0.23769434
207	0xbe99b7d7	-0.3002307
208	0x3a90ec82	0.0011056813
209	0x3f788f80	0.97093964
210	0x3f02df58	0.51122046
211	0x3e91e58f	0.28495452
212	0x3f10a22b	0.5649745
213	0xbf1183cd	-0.5684174
214	0xbf33da8b	-0.70255345
215	0xbe64faf1	-0.22361352
216	0x3daf7e46	0.085690066
217	0x3cc4a1b0	0.02400288
218	0x3ebdcff0	0.37072706
219	0x3f07b72c	0.53013873
220	0xbe92fed0	-0.28710032
221	0xbeb0bd6e	-0.34519523
222	0xbf4aee98	-0.79270315
223	0xbf68a086	-0.9086994
224	0x3eb75f0d	0.35814705
225	0x3e324c7b	0.17411987
226	0x3e89726c	0.2684511
227	0x3ed46b85	0.4148828
228	0xbe772e20	-0.24138689
229	0x3f678084	0.90430474
230	0x3f3295c7	0.6975979
231	0x3f1aa8f3	0.60414046
232	0x3e56f353	0.20991258
233	0x3f35aefd	0.70970136
234	0x3f383280	0.71952057
235	0xbebd6fd3	-0.36999378
236	0x3ed4b5ee	0.4154505
237	0x3f02cf56	0.5109762
238	0xbf0ef43a	-0.5584141
239	0x3de0e713	0.10981574
240	0xbd9c6fc0	-0.07638502
241	0xbe0564f9	-0.130268
242	0xbe255bee	-0.1614835
243	0xbddd0866	-0.107926175
244	0x38b0a8eb	8.4237974e-05
245	0x3f20e270	0.62845516
246	0x3dc80b17	0.0976774
247	0xbd2c9469	-0.042133722
248	0x3f29a86c	0.66272616
249	0xbe120e4d	-0.14263268
250	0x3f0908bf	0.5352897
251	0x3f029a6f	0.51016897
252	0x3f5175de	0.81820476
253	0xbf3ccad2	-0.7374698
254	0x3eb4b28e	0.35292476
255	0x3f5582e4	0.8340285

network.0.bias f4 [64]
0	0x3e38d801	0.18051149
1	0x3e171c64	0.14756924
2	0x3e9e89a9	0.309644
3	0x3e2552e2	0.16144899
4	0x3c87a0d8	0.016556188
5	0x3e945be8	0.2897637
6	0x3e7aff28	0.24511397
7	0x3d7347ef	0.059394773
8	0x3d5050b0	0.0508582
9	0x3e9212d8	0.28530002
10	0x3e9e76d8	0.30950046
11	0x3e7c03f7	0.24610887
12	0x3e59fbe1	0.2128749
13	0x3e1b0e9b	0.1514229
14	0x3e5cf944	0.21579462
15	0x3e20eb8a	0.15714851
16	0xbd15e786	-0.03659775
17	0x3eb78235	0.35841528
18	0xbdc5e2b3	-0.0966238
19	0x3e23dce7	0.16002236
20	0x3e4511d2	0.19245079
21	0x3d81d9be	0.06340359
22	0x3e162ee5	0.14666326
23	0x3e201502	0.15633014
24	0x3e058171	0.13037659
25	0x3d9ec6cc	0.07752761
26	0x3e0eea1f	0.13956498
27	0x3e9237e2	0.2855826
28	0x3d23ef1b	0.04002295
29	0x3eabbee4	0.33544075
30	0x3e9c9d5b	0.30588803
31	0x3e72f9ef	0.23728155
32	0x3e6bf41e	0.23042342
33	0x3ca78860	0.02045077
34	0x3e97bcf9	0.29636362
35	0x3e5f236e	0.21790859
36	0x3ea5e029	0.32397583
37	0x3c6a079d	0.014284042
38	0x3e5506cf	0.20803379
39	0x3c9c7ef7	0.01910351
40	0x3d9f948f	0.07792007
41	0x3e9d265c	0.30693328
42	0x3e1912e2	0.1494861
43	0x3e637bc9	0.22215189
44	0x3e9055a2	0.28190333
45	0x3c646b83	0.013941648
46	0xbe10f3d9	-0.1415552
47	0x3d08ed78	0.033429593
48	0x3e331fa7	0.17492543
49	0x3ded5ecb	0.11590346
50	0x3dd767e6	0.10517864
51	0x3e8cb290	0.27479982
52	0x3e8ec883	0.27887353
53	0x3e5eb47d	0.21748538
54	0xbcaa0539	-0.020754443
55	0x3c3a7d94	0.011382479
56	0x3d386bd0	0.045024693
57	0x3a1156ac	0.0005544226
58	0x3d8464f0	0.06464565
59	0xbe0ee543	-0.13954644
60	0xbd97ce6b	-0.07412418
61	0x3e8e5ec4	0.27806675
62	0x3eb8f041	0.361208
63	0xbdcb49ba	-0.099261716

network.2.weight f4 [64, 64]
0	0xbe8ce8b7	-0.27521297
1	0x38ce22b1	9.829307e-05
2	0x3d38edb0	0.04514855
3	0xbe4e9de1	-0.20177414
4	0x3df9d2b0	0.121983886
5	0xbe23f4e8	-0.16011393
6	0x3d691a26	0.056909703
7	0xbdd9d214	-0.10635772
8	0xbe6fe1da	-0.23426
9	0x3e6982a6	0.22803745
10	0xbc2a4a80	-0.010393739
11	0xbdb98d8d	-0.09060202
12	0xbe265302	-0.16242602
13	0xbe101064	-0.14068753
14	0x3d9329e1	0.07185722
15	0x3e3dacca	0.18522945
16	0x3c6b9f80	0.0143812895
17	0xbdb0ad4c	-0.08626804
18	0x3d78a3d8	0.06070313
19	0x3e5ee211	0.21765925
20	0x3b949f2e	0.0045355773
21	0xbd282a98	-0.041056246
22	0x3e00a8ca	0.12564388
23	0x3d7b5020	0.06135571
24	0x3e423ee7	0.18969308
25	0xbe1c9fcb	-0.15295331
26	0x3e4cac9e	0.19987723
27	0x3e649106	0.22320947
28	0x3d2c4af8	0.042063683
29	0xbc59d2a0	-0.013294846
30	0x3e192ce3	0.14958529
31	0xbe8d7923	-0.27631482
32	0x3e1b585c	0.15170425
33	0xbe0362ef	-0.12830709
34	0x3e921b49	0.28536442
35	0xbe048556	-0.12941489
36	0xbe937ded	-0.2880701
37	0xba145800	-0.0005658865
38	0x3c818480	0.015810251
39	0x3e57bd9a	0.21068421
40	0xbe3a2c05	-0.18180855
41	0x3e673d8a	0.22582069
42	0xbdd88472	-0.10572137
43	0xbe5ac5cc	-0.21364516
44	0xbe96cbba	-0.29452306
45	0xbe6caa94	-0.23111945
46	0xbca68190	-0.020325452
47	0x3dbc79fc	0.09202954
48	0xbdb0daf0	-0.08635509
49	0x3e283386	0.16425905
50	0x3d4dc505	0.05023672
51	0x3e451cac	0.19249219
52	0x3d22dd58	0.03976187
53	0xbe9284d7	-0.28616974
54	0xbe008f7d	-0.12554736
55	0xbe84c8e3	-0.25934514
56	0xbe3d4cef	-0.18486379
57	0x3d6aec58	0.0573543
58	0xbe8deba7	-0.2771885
59	0x3e8ec12f	0.27881762
60	0xbe8990ef	-0.26868388
61	0xbd3f29c3	-0.046670686
62	0xbddfdd48	-0.10930878
63	0x3e8ac77d	0.27105322
64	0x3d70aa59	0.058756206
65	0xbe2ed71b	-0.17074244
66	0xbe5f3890	-0.2179892
67	0xbe4680e7	-0.1938511
68	0x3e33ba8b	0.17551629
69	0x3d5cc5e8	0.053899676
70	0x3d5f9536	0.054585658
71	0xbe53ad33	-0.20671539
72	0xbe6c27a6	-0.23062
73	0x3df0ba6b	0.117543064
74	0xbdbc4460	-0.09192729
75	0x3d7397c4	0.059470907
76	0xbe959e75	-0.29222456
77	0xbd5b3cc0	-0.053524733
78	0xbd194cc8	-0.03742674
79	0xbb921380	-0.004457891
80	0xbd83b9c8	-0.06431919
81	0x3e136a38	0.14395988
82	0x3e64ff92	0.22363117
83	0xbe775870	-0.2415483
84	0x3e2c200a	0.16809097
85	0xbe3fc184	-0.18726164
86	0x3e238ee6	0.1597248
87	0xbe9729c1	-0.29524043
88	0xbe34d217	-0.17658268
89	0xbe010280	-0.1259861
90	0x3e84e8b0	0.25958776
91	0x3dae7e6e	0.08520208
92	0x3c0de1a0	0.00865975
93	0xbe01c64c	-0.126733
94	0xbdb207a1	-0.08692861
95	0xbe806d8c	-0.25083578
96	0x3e5c5e4a	0.21520343
97	0xbdceb589	-0.10093219
98	0x3e42f67b	0.19039337
99	0x3e7e3c0a	0.2482759
100	0xbbc721fc	-0.0060770493
101	0xbdde7685	-0.108624496
102	0x3e7feb2e	0.24992058
103	0x3d61ca46	0.055124544
104	0x3e1c174c	0.15243262
105	0xbd50afdb	-0.05094896
106	0x3e40341e	0.18769881
107	0xbe74d9b2	-0.23911169
108	0xbe831894	-0.2560469
109	0xbe8e9235	-0.27845922
110	0x3dda687f	0.10664462
111	0xbd9de623	-0.07709911
112	0x3e49a51a	0.19691887
113	0x3e1611af	0.14655183
114	0xbce367db	-0.027759483
115	0xbe9e7513	-0.30948696
116	0x3e4d0fe6	0.20025596
117	0x3d6834c8	0.05669096
118	0xbd03a448	-0.032139093
119	0x3dddf792	0.10838236
120	0xbdba131e	-0.090856776
121	0xbd3d0d9b	-0.046155553
122	0xbe192dc7	-0.14958869
123	0x3d6bcdcf	0.05756932
124	0x3e580082	0.21093944
125	0xbdb624b2	-0.08893718
126	0x3e7e3792	0.24825886
127	0xbe9c311e	-0.30506223
128	0x3f0b18c6	0.54334676
129	0x3df180d4	0.1179215
130	0xbeb7c27c	-0.35890567
131	0xbecaad4f	-0.3958535
132	0x3eb7540c	0.3580631
133	0xbd97c31b	-0.0741026
134	0xbdf83ee0	-0.121213675
135	0x3d9fed20	0.078089
136	0x3e6c8cc4	0.23100573
137	0x3e64db15	0.22349198
138	0x3dc8ace5	0.09798602
139	0xbe25089c	-0.16116565
140	0x3eb27662	0.34855944
141	0xbe4aa999	-0.19791259
142	0x3d3a734b	0.04552011
143	0xbd231d45	-0.039822835
144	0xbde3bf86	-0.111205146
145	0x3e4accb4	0.1980465
146	0x3ea75e0d	0.32688943
147	0xbb03d4ef	-0.0020115932
148	0x3de10031	0.10986365
149	0x3e298594	0.16554862
150	0x3d33d225	0.04390158
151	0x3ed45a79	0.41475275
152	0xbdc992ff	-0.098424904
153	0xbd5b426d	-0.053530145
154	0x3e5b02b5	0.21387751
155	0xbdf36dad	-0.11886153
156	0x3e15f346	0.14643583
157	0x3dd72d4e	0.10506688
158	0xbed2d114	-0.4117514
159	0x3eb07c7d	0.34469977
160	0x3ece3b24	0.40279496
161	0x3ec9ea6d	0.39436665
162	0x3ee44dfc	0.44590747
163	0xbe9eec57	-0.31039688
164	0x3e6e8ca1	0.23295833
165	0x3ea5a1f6	0.3235013
166	0xbe240438	-0.16017234
167	0x3e7fcbd8	0.24980104
168	0xbc5cc9b1	-0.013475821
169	0xbee73d9e	-0.45164198
170	0xbe4eef47	-0.20208465
171	0x3d6fab90	0.058513224
172	0x3e296891	0.16543795
173	0x3e9beeef	0.3045573
174	0x3dc1e48e	0.094674215
175	0xbd601928	-0.05471149
176	0x3ea46a6b	0.3211244
177	0x3eadf44e	0.33975452
178	0x3e4348b9	0.1907071
179	0x3dd08e36	0.101833746
180	0xbdceda97	-0.101002865
181	0x3aa43a97	0.0012529668
182	0xbdde3041	-0.108490475
183	0x3d9dfddc	0.077144355
184	0x3d61e230	0.05514735
185	0xbcbadf84	-0.022811659
186	0xbc23232a	-0.009957114
187	0xbe108c95	-0.14116128
188	0x3d328cd7	0.043591347
189	0xbc2f7f96	-0.010711571
190	0x3da033d0	0.078223825
191	0x3dcbff1a	0.09960766
192	0xbe32912b	-0.1743819
193	0x3e2819a5	0.16416033
194	0xbe34b8c4	-0.17648607
195	0xbd1718cd	-0.036888886
196	0x3dc86864	0.09785536
197	0x3d4a86b4	0.04944487
198	0xbe137ded	-0.14403506
199	0x3e9b4a00	0.30329895
200	0x3efa0ac5	0.48836342
201	0xbdb70eca	-0.08938368
202	0x3e08e932	0.13370207
203	0xbdaf91e0	-0.08572745
204	0xbe01898f	-0.1265013
205	0x3d32c113	0.04364116
206	0xbd69e63e	-0.05710434
207	0xbde25a0f	-0.110523336
208	0xbe146629	-0.14492096
209	0xbdcc8dae	-0.09987961
210	0xbd80aa66	-0.06282501
211	0xbe061234	-0.13092881
212	0xbee88383	-0.45412835
213	0xbe322752	-0.17397812
214	0x3eca51a8	0.39515424
215	0x3e6147fe	0.22000119
216	0x3e881d70	0.2658496
217	0x3e48cbb3	0.19608955
218	0xbf2d17cf	-0.67614454
219	0xbe807378	-0.25088096
220	0xbe67293c	-0.22574323
221	0x3d02cc8c	0.031933352
222	0xbe127d38	-0.1430558
223	0xbeb8a78d	-0.3606533
224	0x3d65bbe6	0.056087397
225	0x3e581322	0.21101049
226	0xbe63521b	-0.2219929
227	0x3d54b01e	0.05192577
228	0x3e354e0e	0.17705557
229	0xbd42df98	-0.047576517
230	0x3e64f2d8	0.22358263
231	0x3df13bd4	0.117789894
232	0x3daa0d86	0.08303361
233	0x3e553587	0.208212
234	0xbe0f7cbd	-0.14012428
235	0xbdf73cfd	-0.120721795
236	0x3ee0c5b1	0.43900827
237	0x3ed1767a	0.40910703
238	0xbeafdc51	-0.34347776
239	0xbde47911	-0.11155904
240	0x3c6bd5bf	0.014394223
241	0xbd66c46c	-0.056339666
242	0xbe90abe4	-0.28256142
243	0xbe1999d5	-0.15000089
244	0xbc8048b3	-0.015659666
245	0x3d0a0863	0.033699404
246	0xbe81879a	-0.25298768
247	0xbe8aecac	-0.2713369
248	0x3e280cef	0.16411184
249	0x3ea981ee	0.3310694
250	0x3eb32d47	0.3499548
251	0x3e753533	0.23946075
252	0xbda0b850	-0.07847655
253	0xbdf4938e	-0.11942206
254	0x3ef32f6b	0.47497115
255	0xbed9a868	-0.42511296

network.2.bias f4 [64]
0	0x3c46599b	0.012106325
1	0xbd850bbd	-0.064963795
2	0x3cedaf25	0.02901418
3	0x3d07534b	0.03303842
4	0x392bc1ad	0.0001637998
5	0x3e051ba5	0.12998827
6	0x3e5c3598	0.2150482
7	0x3cf41918	0.029797122
8	0x3d4b5e72	0.049650617
9	0x3cf7d014	0.030250587
10	0x3e4e0aac	0.20121258
11	0x3d7d3e0f	0.06182676
12	0xbdb1f323	-0.08688953
13	0x3d12c0b5	0.03582831
14	0x3e350065	0.17675932
15	0xbccf6823	-0.025318211
16	0x3c9b37f7	0.018947585
17	0x3cab6264	0.02092094
18	0xbdef4162	-0.11682393
19	0x3db8eb98	0.09029311
20	0xbd842dde	-0.06454061
21	0x3cd27724	0.025691576
22	0x3d9d4d9c	0.076808184
23	0xbd37659b	-0.044774633
24	0x3e500e30	0.20317912
25	0x3e4ff772	0.20309237
26	0x3e50aa57	0.2037748
27	0x3e01bf16	0.1267055
28	0x3cd9ff5e	0.026611026
29	0xbd3aec77	-0.045635667
30	0x3e07fec5	0.1328078
31	0xbcf0a5b3	-0.029375887
32	0x3d48f795	0.049064238
33	0x3e804f5a	0.2506054
34	0x3e091ae6	0.13389167
35	0x380bdaf5	3.3344102e-05
36	0x3dbf5e9e	0.09344219
37	0x3d4616f8	0.04836175
38	0x3da1265d	0.07868645
39	0x3d5bf35b	0.05369888
40	0x3e6d926b	0.23200385
41	0x3db2aacb	0.087239824
42	0x3d0929f3	0.03348727
43	0x3e024af3	0.12723903
44	0x3e57d057	0.21075569
45	0x3cc61a51	0.02418247
46	0x3e09ac08	0.13444531
47	0xbc491174	-0.012272228
48	0x3d3deefe	0.0463705
49	0x3dcbfb5e	0.09960054
50	0x3e4c06f5	0.19924529
51	0x3dec1098	0.115266025
52	0x3e137837	0.14401327
53	0x3d9aec0f	0.07564556
54	0x3e347b2f	0.17625116
55	0x3caa6601	0.020800592
56	0x3d900159	0.07031507
57	0x3c3de1a8	0.011589445
58	0x3ddefc14	0.10887924
59	0x3e076633	0.1322258
60	0x3da13fc9	0.07873494
61	0x3da31632	0.07963218
62	0x3e23787c	0.1596393
63	0x3e5c40d6	0.21509108

network.4.weight f4 [6, 64]
0	0x3daf27dd	0.08552525
1	0x3cc4bc89	0.024015682
2	0xbea1bebb	-0.31590828
3	0x3e959c15	0.29220644
4	0x3dd30a1a	0.10304661
5	0xbe547af6	-0.20750031
6	0x3eeff25b	0.4686459
7	0x3e08b41a	0.13349953
8	0x3eae887e	0.3408851
9	0xbde3757d	-0.111063935
10	0x3eff52b3	0.49867782
11	0xbe7ed29a	-0.24885026
12	0x3e42870c	0.18996829
13	0x3e2c9162	0.16852334
14	0xbd896708	-0.06709105
15	0x3e942b61	0.28939345
16	0xbe2471b5	-0.16059001
17	0x3df50a1c	0.11964819
18	0xbee877cf	-0.45403907
19	0xbec31c13	-0.38107356
20	0xbe56bda0	-0.20970774
21	0x3ebe42dc	0.37160385
22	0xbea77988	-0.32709908
23	0xbe08d896	-0.13363871
24	0xbd9ba84c	-0.076004595
25	0x3ee39a63	0.44453725
26	0x3ebf830e	0.37404674
27	0x3e82ce0a	0.2554782
28	0x3ccd96b0	0.025096267
29	0xbc1558e0	-0.009115428
30	0xbebb4c27	-0.36581537
31	0x3d9c22e0	0.076238394
32	0xbe316d37	-0.17326818
33	0x3f1100dd	0.5664194
34	0x3e4b6d6e	0.19865963
35	0xbe89c9f6	-0.26911896
36	0x3dc60242	0.096683994
37	0xbeac59b3	-0.33662185
38	0xbe81cf97	-0.2535369
39	0xbeb1a669	-0.34697273
40	0x3ea873bb	0.32900795
41	0x3e03891b	0.1284527
42	0x3c8d4b10	0.017247707
43	0x3edf412d	0.43604413
44	0x3ebd1b34	0.36934817
45	0xbe98213a	-0.2971285
46	0xbe5ad1f4	-0.21369153
47	0xbe3e794c	-0.18600959
48	0xbe839663	-0.25700673
49	0x3e76808b	0.24072473
50	0x3ecf85ee	0.40531868
51	0x3e19f326	0.1503416
52	0xbd78f917	-0.060784426
53	0xbece301f	-0.40271088
54	0xbf13a530	-0.5767393
55	0xbe1ce8ef	-0.15323232
56	0x3e1b7f16	0.15185198
57	0xbe378442	-0.17921546
58	0xbeb20ea7	-0.34776804
59	0x3e22e4be	0.1590757
60	0xbe894f45	-0.2681829
61	0xbd96dc6a	-0.073662594
62	0x3eec899e	0.46198744
63	0x3e91a2b7	0.28444454
64	0x3e5ae7d6	0.21377501
65	0xbe618e46	-0.2202693
66	0x3d5dbf9c	0.05413781
67	0xbe6b2a15	-0.22965272
68	0xbede5bf3	-0.43429527
69	0xbf0016b5	-0.5003465
70	0x3e3f7176	0.18695626
71	0xbe85ac6c	-0.2610811
72	0xbf22048a	-0.63288176
73	0x3e7569c9	0.23966135
74	0x3e634a49	0.22196306
75	0x3ddaac6f	0.1067742
76	0xbe21446c	-0.15748757
77	0x3e3ace6a	0.18242803
78	0xbd4ff128	-0.050767094
79	0x3e530e42	0.20610908
80	0xbe5d296d	-0.21597834
81	0x3af34952	0.001856128
82	0xbdd9eaaf	-0.106404655
83	0xbebf971c	-0.37419975
84	0x3e2f1d3e	0.17100999
85	0xbed9cd74	-0.4253956
86	0xbef944f9	-0.48685434
87	0xbca88550	-0.02057138
88	0xbe599fe0	-0.21252394
89	0x3f0e7e14	0.5566113
90	0x3eea06eb	0.45708403
91	0x3cb00dbe	0.021490928
92	0xbb267400	-0.0025398731
93	0xbcf6d1c0	-0.030129313
94	0x3ecd6394	0.40115035
95	0xbe8064bd	-0.25076857
96	0xbf0c76d9	-0.5486885
97	0x3f0aaf60	0.5417385
98	0xbeb36472	-0.3503757
99	0x3e72ed4c	0.23723334
100	0x3f146950	0.57973194
101	0x3ee7ffd7	0.45312378
102	0xbc0daa43	-0.008646551
103	0x3e0dcee6	0.13848457
104	0x3e0346e4	0.12820011
105	0xbed2763b	-0.41105828
106	0x3eebe761	0.46074966
107	0x3edc7b0e	0.43062633
108	0x3d62800b	0.055297893
109	0xbd346f77	-0.044051614
110	0xbe41a5ac	-0.18910855
111	0xbda3abf0	-0.07991779
112	0xbedee326	-0.43532676
113	0x3ce6d81b	0.028179219
114	0x3e1d3483	0.15352063
115	0x3cd3aed9	0.02584021
116	0xbe814c08	-0.2525332
117	0xbe0698a1	-0.13144161
118	0x3e302581	0.17201807
119	0x3f11c35a	0.5693871
120	0xbf120b4f	-0.57048506
121	0xbe6409ba	-0.22269335
122	0x3d84b012	0.06478895
123	0x3d5bbcad	0.053646732
124	0x3f1baae5	0.6080764
125	0x3e0865df	0.1332011
126	0xbe3df3d5	-0.18550046
127	0x3f0fd502	0.561844
128	0xbe412102	-0.18860248
129	0x3e095f48	0.13415253
130	0xbee8fbc4	-0.45504582
131	0xbd4973dd	-0.04918276
132	0xbea147a6	-0.31499976
133	0x3e0e6015	0.1390384
134	0x3f0dbede	0.55369365
135	0xbe87c117	-0.26514503
136	0x3f017a85	0.50577575
137	0x3e25214c	0.16125983
138	0x3e981bc2	0.29708678
139	0x3de02375	0.10944263
140	0xbd94020e	-0.072269544
141	0xbf0a06c8	-0.539166
142	0x3e9dd278	0.30824637
143	0x3e2e43f7	0.17018114
144	0x3e34e0b7	0.17663847
145	0xbeb8078d	-0.3594326
146	0x3dba7b58	0.09105557
147	0x3f0c9d58	0.5492759
148	0xbd2a74e8	-0.041615397
149	0xbec776b5	-0.38957754
150	0x3dc42675	0.095776476
151	0x3e4e11d9	0.20123996
152	0xbe6dbdd3	-0.23216943
153	0x3dfe4c3e	0.12416886
154	0x3f0bdade	0.5463084
155	0x3e8c0271	0.27345613
156	0xbdddd89c	-0.108323306
157	0xbe89495c	-0.2681378
158	0x3e936878	0.2879064
159	0x3d831e77	0.06402295
160	0xbe9ad5a9	-0.30241135
161	0x3ee8289e	0.45343488
162	0xbd3cb26d	-0.046068598
163	0xbd478bf8	-0.04871747
164	0xbe1652e0	-0.14680052
165	0xbe4d3e4e	-0.20043299
166	0xbd9c089a	-0.07618828
167	0x3d0741dd	0.033021796
168	0x3ecf46b5	0.40483633
169	0xbe8ade1e	-0.27122587
170	0x3ee1ffbb	0.4414042
171	0xbdca6865	-0.09883193
172	0x3f04d5b5	0.5188859
173	0x3d8ba05a	0.06817694
174	0xbea395be	-0.31950182
175	0x3df455b0	0.11930406
176	0xbee9ae8b	-0.45640978
177	0xbef1d43a	-0.4723223
178	0x3df0517b	0.11734291
179	0x3f0987d1	0.53722864
180	0xbea57294	-0.3231398
181	0x3ee7472c	0.45171487
182	0x3e36fbdd	0.17869516
183	0xbe810563	-0.25199422
184	0xbe98e846	-0.2986471
185	0xbe5ddfbc	-0.21667379
186	0xbf2c4647	-0.67294735
187	0xbd9bb6e6	-0.076032445
188	0x3e861040	0.26184273
189	0xbee66830	-0.45001364
190	0x3e227c21	0.15867664
191	0x3e10c714	0.14138442
192	0x3e988b17	0.29793617
193	0xbdb74c57	-0.089501075
194	0xbe192098	-0.1495384
195	0xbcbdc5f7	-0.023165686
196	0xbed4a714	-0.4153372
197	0x3f0ae920	0.5426197
198	0xbdd9edc7	-0.106410556
199	0xbe275d84	-0.16344267
200	0xbe99e764	-0.3005935
201	0xbe67ec9a	-0.2264885
202	0x3f0211f3	0.5080864
203	0xbe741925	-0.23837717
204	0x3e314635	0.17311938
205	0xbea71e6f	-0.32640406
206	0x3f24575f	0.6419582
207	0xbce9253b	-0.028460136
208	0xbe8181e5	-0.25294414
209	0x3d870538	0.06592792
210	0xbecdb1a3	-0.4017459
211	0xbde4c9a9	-0.11171276
212	0xbe1d6648	-0.15371048
213	0xbf26d8fb	-0.65174836
214	0xbe56526c	-0.20929879
215	0x3e44fdf8	0.19237506
216	0x3ee195ce	0.44059604
217	0x3eded09d	0.43518534
218	0xbde67d90	-0.11254418
219	0x3e78f311	0.24311472
220	0x3e1f1576	0.1553553
221	0xbe75ff90	-0.2402327
222	0xbbf22f4c	-0.007390892
223	0xbc1be1e6	-0.009514308
224	0xbe417383	-0.1889172
225	0x3dc20da7	0.0947526
226	0xbdf69f04	-0.120420486
227	0x3e6d5300	0.23176193
228	0x3eccdbd3	0.40011463
229	0xbeb0ac89	-0.34506634
230	0x3e86da9c	0.2633866
231	0xbe5810fd	-0.2110023
232	0x3ed738b4	0.4203545
233	0x3f236f96	0.6384214
234	0x3e6824a9	0.22670235
235	0x3d1675ff	0.036733624
236	0x3eaf696c	0.34260118
237	0xbef1d210	-0.47230577
238	0x3e5bce26	0.21465358
239	0xbe1856fd	-0.14876933
240	0x3d3e07bf	0.046394106
241	0xbe871d2c	-0.26389444
242	0x3f08fea2	0.5351354
243	0x3e94c953	0.29059848
244	0xbe45bb96	-0.1930984
245	0xbe10068f	-0.14065002
246	0x3e543eb7	0.20727049
247	0xbe1fd86a	-0.15609899
248	0xbe6377f4	-0.22213727
249	0xbdcffc46	-0.10155539
250	0x3ed64512	0.4184957
251	0xbeefd1c2	-0.4683972
252	0xbecd9ab0	-0.4015708
253	0xbe53c1a9	-0.20679344
254	0x3eda5803	0.42645273
255	0x3f0648f7	0.52455086

network.4.bias f4 [6]
0	0x3d9b6918	0.075884044
1	0x3e0f30b8	0.13983428
2	0x3e15285e	0.1456618
3	0x3e250dcd	0.16118546
4	0xbd8d5c75	-0.069024004
5	0xb96f3cdd	-0.0002281549
