dqn.pt (torch, 77600 bytes, 6 tensors)

network.0.weight f4 [128, 11]
00000000: fd8d 2f3e f1d8 363f f5c2 793d 387e bfbe
00000010: c3c7 eabd 1b9a d3bd b001 103f 4794 06be
00000020: 8899 bf3d 9a9d 4ebd 718b be3a 7b11 43bf
00000030: 6737 68be 4b90 3b3f 9a80 983e 6368 923d
00000040: 295f c93e d770 f53e 595d 3fbe d840 a63d
00000050: 76aa 773e ce86 903e e12d 2ebf ffcd 20bf
00000060: 5038 d6bc 96fd 6c3e 0016 a9bf d058 1e3e
00000070: fef0 f93e bbea 0c3f 2e6d bebe 0559 5e3f
00000080: 020a b23d e40c e03e 0224 963e ffd9 e63c
00000090: 8c8d b03e 4bf9 413e 7f17 c1bd 9e2b 06bf
000000a0: 5438 ff3d b4f9 04be 8aaa 6c3d 311c 94be
000000b0: e3b9 ce3e 64ed f5be 2c41 3d3e d227 d83e
000000c0: 2848 f4bd a5d0 3ebc b4ed 183e 334f 4bbf
000000d0: 3b9f 1d3f 2815 183f ce64 2a3e 63f4 e8ba
000000e0: 4976 a63e ff0f e5be 9015 5dbf dbc7 e9be
000000f0: 6453 713e e703 0abe 5fe7 883e e05a 603e
00000100: 83ab b13e 615d 473f 2e79 d5be df5f 1dbe
00000110: 5292 193f 8e24 80be 911f 30be 5eec 4e3e
00000120: 2c4a 2abf 1b5e 1ebf 5f77 ca3e 0ff6 163d
00000130: 9e2b ef3e 9f27 66be 625b 283e 3d23 15bf
00000140: 5c22 073f 922a debe 7a3e f73e 28d7 7c3e
00000150: f296 f73e ae35 bfbe 821c 2c3e 8007 e83e
00000160: 2686 ddbe f82a 253f 9557 563f 8202 18be
00000170: 3b77 c43d 7657 543d 2668 c83e 0541 3e3e
00000180: 958d 7d3f b82d a2bd 526d 02bf 37bd a73f
00000190: 6276 dc3e 8a2f 003e ec75 ee3e 90f8 dcbe
000001a0: 0744 2cbe 8d44 3d3d 9d8e 5fbe 5d20 253d
000001b0: 26b1 013f 9ba6 4fbf 6882 243e 8949 dc3e
000001c0: 494e 833f 8f2b 41bf eba8 463d 0c69 9cbd
000001d0: 6da6 123f 2dcc 5f3f 3027 45be f94d 313e
000001e0: 86fe c1be 35fb 43bf 7b4b 353e 2be1 10bf
000001f0: 8d03 2e3f 0734 82be 129e 0ebb 6f65 d3be
00000200: 7e23 f23d 0b77 4f3f 1f77 fabd 3f28 013f
00000210: f21d 6b3f eac4 08bf 2fc3 a9bd f6ac 3fbd
00000220: df2d 4a3d 8d49 2a3f e4da adbe 0694 57be
00000230: d01a 373f f5fb 523f 2712 85be 2b8f 393f
00000240: a121 fe3c e092 f8be 1999 b0be 1138 343e
00000250: ba2a ad3c d046 b23e 1d4a b03e 5217 0e3f
00000260: 0e71 f53d 37d2 efbe d3a0 d63e 7fda b33e
00000270: 56f5 823f a542 c23e 6516 863f 7dbd 09bf
00000280: 0cd3 cd3e 8f40 383e 75fb a3be 150d 4bbd
00000290: 1d6d 083f f138 e23e 9a1e 913f 58e5 cdbe
000002a0: 814f 0e3e d71e ca3e 0527 4e3d e78a d83e
000002b0: 75bd ff3e 021d 923e 8b03 32bf 3829 61bc
000002c0: 4618 88be c4cc b0be 1b7f 2dbf 1e22 a83f
000002d0: c2f7 5e3e 90f7 723e 93d9 2f3e 61a3 edbe
000002e0: 68fd 193f 1601 803e 24c0 d53e ad35 6a3f
000002f0: 6c57 7e3f fe54 293e 7780 dcbe a059 44be
00000300: cec8 313f 52c8 b23e f022 0bbe 4c11 a63e
00000310: ccf6 a93e 3d09 a13e 7ecf 883e b15e d6bd
00000320: d7b6 fc3d 8a1e 9d3e 16c5 a5be 56cf 87be
00000330: 5f9a 17bd a5bc 0f3f 3d37 a73e 278c ef3e
00000340: 237d a2be 1316 8fbe f921 083f 7bbf 923e
00000350: 31a0 11bf 5206 9b3e de02 98bd 072e cc3c
00000360: 5d55 c13e a497 ae3e 3880 a13d 4879 0b3e
00000370: 76bf 3e3f d387 eb3e 6a74 5ebd 9def 6b3d
00000380: d869 d43a 2216 903e 94f3 a7be 5cff 4d3e
00000390: d1e6 9e3e 166a 9bbe 0644 cf3c f03c d1be
000003a0: 7550 88be 232b d93e beb4 fbbe 44f2 fa3d
000003b0: 9e94 3abc e1c8 0abf 4620 b03e 80ce 0a3e
000003c0: d7de e23e aebc 353f 9479 10bf 59a2 3cbf
000003d0: 4e8d 913e 9a58 7fbe aed7 e63e 925b 943e
000003e0: 7fbf 3e3e 662c 04bf 5c44 37be 6d11 db3e
000003f0: 148b eb3e 64b6 873e 1aba c63e 9bd5 c43e
0.17144008 0.71424776 0.06097694 -0.37400985 -0.11463883 -0.10332128 0.56252575 -0.13142501
0.09355456 -0.05044327 0.0014537406 -0.7619855 -0.22677384 0.7326705 0.29785615 0.071488164
0.39330414 0.47937652 -0.18687953 0.08117837 0.2418612 0.28227848 -0.68038756 -0.62814325
-0.026149899 0.2314361 -1.3209839 0.15463567 0.48816675 0.5504567 -0.37192672 0.86854583
0.08693315 0.43759835 0.29324347 0.02818012 0.34482992 0.18942754 -0.0942831 -0.52410305
0.124619156 -0.12985879 0.057779826 -0.28927758 0.40376195 -0.48032677 0.18481892 0.4221788
-0.11927825 -0.011646424 0.14934427 -0.79417723 0.6157109 0.5940728 0.16640016 -0.0017773028
0.3251212 -0.44738767 -0.86361027 -0.4566029 0.23566967 -0.13478051 0.26739022 0.21909666
0.34701166 0.7787686 -0.41694015 -0.15368603 0.5998889 -0.2502789 -0.17199542 0.20207354
-0.6651943 -0.61862344 0.39544198 0.036855754 0.46712965 -0.22476052 0.1644111 -0.58256894
0.52786803 -0.43391854 0.48289853 0.2469145 0.4835735 -0.37345642 0.1680775 0.45318222
-0.4326641 0.6451869 0.8372739 -0.14844707 0.09593054 0.05184122 0.3914196 0.1857949
0.9904416 -0.079188764 -0.5094806 1.3104619 0.4305907 0.12518135 0.46574342 -0.43158388
-0.16822825 0.046207953 -0.21831746 0.040314067 0.5066093 -0.81113595 0.16065371 0.43024853
1.0258266 -0.7545709 0.048500936 -0.076372236 0.57285196 0.8742092 -0.1925323 0.173149
-0.37889498 -0.76555187 0.17704575 -0.5659358 0.6797417 -0.2543032 -0.0021761698 -0.41288325
0.11823176 0.8104102 -0.12229752 0.50452036 0.9184257 -0.53425467 -0.082891814 -0.046795808
0.049360152 0.6651848 -0.33956063 -0.2105256 0.7152529 0.82415706 -0.25990412 0.7248408
0.031021895 -0.48549557 -0.34491804 0.17599513 0.021138538 0.3481965 0.34431544 0.55504334
0.11984454 -0.4684007 0.41919574 0.35127637 1.023112 0.3794147 1.0475584 -0.5380476
0.40200078 0.17993377 -0.32027784 -0.049573023 0.53291494 0.44184068 1.1337464 -0.40214038
0.13897516 0.39476654 0.05033018 0.42293474 0.49949232 0.28537756 -0.69536656 -0.0137427375
-0.2658102 -0.34531224 -0.6777207 1.3135412 0.217742 0.2372725 0.17172842 -0.4641371
0.6015229 0.25000829 0.41748154 0.9148815 0.99352145 0.16536328 -0.4306676 -0.19174814
0.6944703 0.34918457 -0.13587546 0.3243507 0.33196104 0.3145236 0.26720804 -0.1046728
0.123395614 0.30687362 -0.32376927 -0.26525372 -0.037012454 0.56147224 0.3265933 0.46786615
-0.31736097 -0.2794653 0.5317684 0.28661713 -0.5688506 0.3027826 -0.07422422 0.024924291
0.3776044 0.34100068 0.07885784 0.13620484 0.74510896 0.46002063 -0.05431024 0.05760156
0.001620586 0.28141886 -0.32803023 0.20116943 0.31035474 -0.30354375 0.02530099 -0.40866804
-0.26623884 0.42415723 -0.49161333 0.1225324 -0.011387972 -0.54212767 0.34399623 0.13555336
0.44310638 0.7099103 -0.56435513 -0.7368522 0.2842812 -0.24936143 0.45086426 0.28976113
0.18627737 -0.51630247 -0.17897171 0.42786732 0.46004546 0.2650634 0.3881386 0.38444218

network.0.bias f4 [128]
00000000: a83f a23d 1aa4 e33d 1371 043e db90 293d
00000010: 843c e43d f337 fb3d 8931 ef3d 05d5 593d
00000020: faa3 e43d d730 843d 6a21 b33d 2437 f33d
00000030: dba8 483d b7b4 f23d b8a7 a53d ebf4 8c3d
00000040: 9520 083e 5460 a43d 9cac ac3d f0f4 cd3d
00000050: 09b8 413d 7937 1a3e ee53 b73d 0e2d 9d3d
00000060: 5416 893d 60a9 d03d cd6e da3d 2e91 b93d
00000070: 7f35 e03d a453 c73d d7dd fc3d bb0d fa3d
00000080: 11a8 563e 94e0 b93d a4be 1b3e d3b9 223e
00000090: 6a00 dc3d 1238 6e3d 37dc f63d fbed f63d
000000a0: 78ef a13d 692e df3d 3b9e 993d a1b6 c63d
000000b0: 0416 f4bc 5723 383c cb13 c43d 0000 0000
000000c0: 652f 563e 1953 c73d 6848 073e 2471 c53d
000000d0: 21e8 c33d f0ee d53d d588 9c3d 58ba 713c
000000e0: 55bc 83bc 6acf e03d a0e0 bc3c 2746 703d
000000f0: d56f d43d 2717 a73d fa31 c43c 6289 d83d
00000100: 9bfa de3d 8fec 103e 9f84 853d e6c4 cb3d
00000110: 7282 973d 3835 cc3d 5cb8 e33d 159b 603d
00000120: e81f c23d 91cc bf3d 466f ee3d 5e15 c83d
00000130: 96c9 c73d b12b c23d c20d dd3d 57b1 0dbc
00000140: 24ce d43d 8c72 3a3d 3bf0 993d 4860 8a3c
00000150: 5454 133e dd17 923d f26e 0d3e 6316 9d3d
00000160: 5bed aa3d 331f fd3d 685a 1b3e ab3b f63d
00000170: 17a3 c33d a79f ad3c ad5e b13d 2901 993d
00000180: 0371 f33d 63da a83d bb17 ac3d 608e b23d
00000190: f629 a63d a6d2 63bd 271e bb3d 63d2 893d
000001a0: 4e4d 0b3e 6bd6 243e 21cd 953d ea36 a73d
000001b0: 9f83 3f3c eef9 ca3d 6896 0e3e 81b1 d43d
000001c0: 6aac e03d f0dd a23d 7d2e ca3d 81e2 cb3d
000001d0: ce0c 113e a5e2 213d 228a b13d dcc8 c43d
000001e0: 314b 9b3d 28bd c03d 80fc 7e3d f57e 253d
000001f0: f6a8 6f3d f839 673d c2e1 dc3d d403 5d3d
0.07922298 0.11115284 0.1293376 0.04139791 0.11144355 0.12266531 0.1167937 0.053181667
0.111640885 0.06454628 0.087466076 0.118757516 0.048989158 0.11850875 0.080886304 0.06882652
0.13293679 0.08026186 0.0843136 0.10056484 0.04729465 0.15060224 0.08951555 0.07674609
0.06693712 0.10188556 0.10665665 0.09060894 0.109477036 0.0973275 0.12347 0.1220965
0.2096255 0.09076038 0.15209442 0.15891199 0.107422665 0.05815894 0.120537214 0.1205711
0.07907003 0.10897524 0.07500883 0.097028024 -0.029795654 0.011238894 0.09574088 0.0
0.20916517 0.097326465 0.13211215 0.096407205 0.095657595 0.10445964 0.07643286 0.0147539005
-0.016081015 0.10977061 0.023056328 0.058660652 0.10372893 0.08158713 0.023949612 0.10573079
0.10887643 0.1415274 0.06519436 0.09949665 0.07397927 0.09971088 0.11119148 0.054835398
0.09478742 0.0936519 0.116423175 0.097697005 0.09755246 0.0948099 0.1079364 -0.008648238
0.10390881 0.045519397 0.075165235 0.016891614 0.14387637 0.07133458 0.13811854 0.076702856
0.08346053 0.123594664 0.15171206 0.120230995 0.09552591 0.021194292 0.08660636 0.074709244
0.1188679 0.08244779 0.08402964 0.08718562 0.08113472 -0.055620812 0.091366105 0.06729581
0.13603708 0.16097419 0.07314516 0.08164771 0.011689096 0.099109516 0.13924563 0.10385419
0.109703854 0.079524875 0.09872148 0.099553116 0.14165041 0.039522786 0.08668925 0.096086234
0.07582701 0.09411079 0.06225252 0.04040428 0.058510743 0.056451768 0.107852474 0.05395873

network.2.weight f4 [128, 128]
00000000: 2f9a 9abe 5300 55be 4bcf 31be 1e46 d8bd
00000010: 9471 a33d 056f 0a3e 6684 83bd f99c 633d
00000020: 01c1 09bc cd96 f23c 076f fdbd f4d2 303e
00000030: d2e5 593e 4892 86bd 0cf2 ec3c 8421 1d3e
00000040: baaf 88be 7ec8 9e3e 12f0 083e a882 6fbb
00000050: 6310 3d3e 136f 88be 97e1 0abd ba34 f4bd
00000060: 7316 673e fe95 9b3e 9d41 0abe d5b5 26bd
00000070: 8f5d c03d e4d4 c4bd dbf6 06be 4b02 023d
00000080: 27bb bb3e 30bd e43d adf8 37be 6eeb df3d
00000090: fcdf 41be 5414 36be 0ee2 073d c1f1 78be
000000a0: 5635 43bc 3494 3c3e bc46 463e b892 533e
000000b0: 8d48 81bc 2858 01bd 2502 e7bc 353b ed3c
000000c0: 5083 9c3e 3cea 10bd 9fa5 62be 4ed7 a7bc
000000d0: 89d1 05bd 521c 223e e9b5 023e b9f7 10be
000000e0: 2596 0fbe f195 e23d ffc2 63bd d02b c7be
000000f0: 780d d13d c883 0d3d 5d9f 803e d9f3 debc
00000100: bb0f f93d dfaf 92bb f20c a9bd a892 64bd
00000110: 4290 863e a479 2c3c d7a0 c7bd c394 4c3e
00000120: fc41 ec3c dd1d b63e b9a4 93bc 4d79 78bc
00000130: c8b4 243c 2aea cd3d f25e b33e 076c 4bbd
00000140: 8662 be3c 95e0 fdbc 66f5 703d 7b6a 643c
00000150: 1e7d 873d 8d96 c53d 3017 883e d494 38bc
00000160: e8e0 9ebe 9724 773e fec1 1b3e f5f1 1fbe
00000170: c345 aa3d 7198 61bb 2c73 53bd 10aa 46bd
00000180: 1f14 f0bd e520 4ebe ef2b b7bb da18 0ebe
00000190: 40c4 34be 76f7 aabd f35d 5a3e f4ca 723e
000001a0: 61b7 93bd ce6e 683e d4f7 563e d297 cd3d
000001b0: a4eb 97bc 6d63 cd3c d57a 4ebd e245 853e
000001c0: 144b 513d c3b2 38be e599 92be 1a5e c1be
000001d0: ded6 44be ed4f 6a3e 94ed 52bd a2c0 b6bd
000001e0: b114 da3c 403d 623e cdf9 333d eccc 873d
000001f0: 7ddd d33d 513a 8f3e 10dd 313e 5fd5 113e
00000200: b2ea 733e 860e 9e3e 4512 5c3e 65ca 4abd
00000210: e2d4 c23d 822d 42bd d16f 353e c720 623e
00000220: 7a6e a43d 5e0f 98bd 84e3 f03d 708e 893d
00000230: 3cc9 1b3e ed58 46bd 0c0b ffbc 0d82 6f3c
00000240: f462 e6bd 4230 fb3d fd93 223e ef07 b13b
00000250: 7958 bfbe 2a10 bc3e 7711 12bd f3d4 463e
00000260: 3f8e b6bd a0a5 a43c 9643 2f3e a614 3b3e
00000270: 35e8 29be 7944 e3bd 4646 783d c56b 883e
00000280: 16af 9dbc 7f9e 833c f788 45bc 99f3 18bd
00000290: ea52 143e c5fb 4b3e 4900 fbbb 1255 4e3e
000002a0: 1054 eb3c b16d acbd 7f43 6e3e 1232 3dbd
000002b0: 558b 0dbc 51f0 4f3e 997f cabd 8a5c 92bc
000002c0: 0923 003e 62c7 413e acc7 863e 7e0e 24bd
000002d0: 0e31 1b3d 6600 673e 91ec 9f3c 5953 cd3b
000002e0: 384f fd3d 8ffd 863e 7eb6 013e 636c 1a3e
000002f0: c405 853c e012 0fba 4a3c 83be 6c72 ebbd
00000300: 0efe ae3d e4c3 c4bd 2b13 52bd a37a 853e
00000310: 6972 84bd 54cd d53d 1224 3cbe 400d 833d
00000320: 9ada 473e 557a c03c 6ef4 263e 7133 17be
00000330: 2af6 3fbd faa2 24be 601c f73d 60c9 c0bd
00000340: 2a70 413d c17c 3ebc 90d0 9d3c faf7 44be
00000350: 7385 463e 3e9e 523d 4d39 2b3e b135 2ebe
00000360: 697c 15bd d3ba 973d 3ae1 393e e50a 8e3d
00000370: e490 fdbd eab9 b23d b6dd b43d e8df fb3c
00000380: 934e 903e 4dd0 9e3d 60c1 8bbb 8e96 573e
00000390: bc9e 763e fcc4 193e d2d9 133e 6f84 e63c
000003a0: 8b28 973e da0c 4fbe ae24 49be fb6c 9cbc
000003b0: da1c ed3d fe1c 173e b272 8d3d 0fa2 a0ba
000003c0: 9ea6 ef3d 8b2d b13d 1039 e43e 7705 d53d
000003d0: 2662 77bc dc1d c93d 68e8 f63c 448c 243d
000003e0: 910a 063e 5197 3e3e b247 acbd 1c5f 85be
000003f0: 581e 2e3e 435c 2b3d d43a 03bd 97aa a3bc
-0.30195758 -0.20800905 -0.17364232 -0.10560249 0.07980648 0.13518913 -0.064217374 0.055569623
-0.008407832 0.029612923 -0.123746924 0.17267972 0.21279076 -0.0657087 0.02892401 0.15344816
-0.2669657 0.31012338 0.1337283 -0.0036546383 0.18463282 -0.26647243 -0.033906545 -0.11924119
0.22567157 0.30387872 -0.13501592 -0.040700752 0.09392845 -0.09610918 -0.13180105 0.031740468
0.36666223 0.11168897 -0.17965956 0.109335765 -0.189331 -0.17781192 0.033174567 -0.24310972
-0.011914572 0.1841591 0.1936292 0.20661438 -0.015781665 -0.031578213 -0.028199265 0.028958896
0.30568933 -0.035379633 -0.22133492 -0.020488407 -0.03267053 0.15831116 0.12764706 -0.14156999
-0.1402212 0.11063755 -0.055605885 -0.38900614 0.10207647 0.034549505 0.25121585 -0.027215885
0.121612035 -0.004476532 -0.08254422 -0.055803925 0.26281935 0.010527048 -0.09747475 0.19978623
0.028840058 0.3556966 -0.018022882 -0.015165639 0.010052867 0.10054429 0.35033375 -0.04966357
0.023240339 -0.030990878 0.05882778 0.013941403 0.06615661 0.09647856 0.2658019 -0.011265952
-0.31030965 0.24135052 0.15210721 -0.15619643 0.08314087 -0.0034423138 -0.05162351 -0.048502028
-0.11722588 -0.20129736 -0.005589954 -0.13876668 -0.17652988 -0.08347981 0.21324901 0.23710233
-0.07212711 0.22698519 0.20992976 0.10038723 -0.01854498 0.025071824 -0.05041011 0.2602988
0.05109699 -0.18036942 -0.28633037 -0.37767106 -0.1922259 0.22882052 -0.051496103 -0.089234605
0.026621195 0.22093678 0.0439394 0.066308826 0.1034498 0.2797418 0.17369485 0.14241551
0.23819998 0.30870456 0.21491344 -0.049509425 0.095132604 -0.04740668 0.17718436 0.22082816
0.08028884 -0.07424806 0.11762145 0.06716621 0.15213484 -0.04842465 -0.031133197 0.014618409
-0.112493426 0.12265064 0.15876766 0.005402557 -0.37372187 0.36731082 -0.035661187 0.19417171
-0.0891385 0.020098507 0.17115626 0.18269596 -0.16592486 -0.110970445 0.060613893 0.26644722
-0.019248527 0.016066788 -0.012056581 -0.037341688 0.14484754 0.19920261 -0.007659946 0.20149639
0.028726608 -0.084193595 0.23267935 -0.04619033 -0.008639176 0.20306517 -0.098876186 -0.017866392
0.12513365 0.18923715 0.26324213 -0.040052883 0.03788858 0.22558746 0.019521983 0.0062660393
0.123686254 0.26365325 0.12667271 0.15080409 0.0162381 -0.00054578297 -0.25631934 -0.114964336
0.08544551 -0.09607676 -0.05128781 0.26070127 -0.064671345 0.10439554 -0.18373135 0.063990116
0.19516984 0.023495832 0.1630418 -0.14765717 -0.04686562 -0.16077796 0.12065959 -0.09413409
0.04722611 -0.011626423 0.01926449 -0.1923522 0.19386844 0.051420443 0.16721077 -0.17012669
-0.0364956 0.07408681 0.18152323 0.06935672 -0.12381151 0.087268665 0.088313505 0.030746415
0.28184947 0.07754574 -0.0042649955 0.21053526 0.2408399 0.1501655 0.1443856 0.028139321
0.2952312 -0.20219746 -0.19642898 -0.019094935 0.115777686 0.14757153 0.06906642 -0.0012255328
0.117017016 0.08651265 0.44574785 0.10401433 -0.015099084 0.09820148 0.030140117 0.04017283
0.13089968 0.1861241 -0.08412112 -0.26049125 0.17003763 0.041836035 -0.032038525 -0.019978805

network.2.bias f4 [128]
00000000: 4f21 8e3c d238 8b3d 0000 0000 a459 0a3d
00000010: 48d3 afbc 48eb 12bb 9ddc e43c 0000 0000
00000020: 7c90 853d dbe0 c8bb d778 8a3d 93bc 933d
00000030: aa2b 0abc 737d a2bb 1328 4e3d f8f0 6a3d
00000040: 053e b83d 75fb 6e3d ba9a 643d eb5f 233c
00000050: 41ea 823d c9ba 8f3d f0f0 c1bc 000c 4c3b
00000060: 3c15 d1bb 43e0 523d ade6 853b 3670 7c3d
00000070: a41c a63d 8096 b03d a0d3 223d 5ab5 e93b
00000080: dbee cfbc 51ff a43d de4e 2fbb 0b5b b03d
00000090: d46b 903d c59c 27bb 0106 733d 61b1 d9bb
000000a0: f486 893d 5388 16bd faa6 9abc 9dc0 803d
000000b0: 6423 1fbc 2eac 15bc 2508 87bc ff30 1c3d
000000c0: e3ad e53d e362 aabc 0000 0000 590b 743d
000000d0: da69 7b3d 082f b33d 52ee bc3d 6d8b 863d
000000e0: 4462 ce3d 2340 dc3d b832 883d c194 8c3d
000000f0: 0000 0000 db30 6d3d e593 e9bc 5351 783d
00000100: 0000 0000 dcbe 873d a5d6 44bc f76e 2fbc
00000110: c4e8 513d 9df2 3c3d 585d 9fbc 7fee 4cbc
00000120: 1f90 5dbc 356b a93d b6f5 81bc f385 8c3d
00000130: bd0a e53d 9d91 993d c0ad 713d 86c0 22bc
00000140: 0000 0000 e9ec a03d 72cc cab9 52e2 8a3d
00000150: 1aae febc d9cd 553c 30af 26bc 16b8 683d
00000160: 6d25 863d b979 9b3d 56df d33c f0e4 a73d
00000170: 0229 923d 13a0 c63b 10eb 96bc 1b8c 58bc
00000180: d6d2 a6bc fda6 0a3d 6fa4 943d fd16 8c3d
00000190: b0c0 8abb 6fec b23d afe4 443c 4039 7a3d
000001a0: fb96 7b3d d698 90bc a9d7 8e3d da69 2aba
000001b0: b311 703d 408f 783d 1c90 03bc 258b ea3d
000001c0: 8c80 c4bb 44b9 85bc 5a9e ebbb 6dee bc3c
000001d0: 3d26 57bc f338 533d 0000 0000 c993 853d
000001e0: 64fa 903d d606 5a3d 0370 b43d de2f 713d
000001f0: af64 6b3d 0245 79bc aef4 e0bc 7566 293d
0.017349867 0.06797947 0.0 0.033776894 -0.021463051 -0.002241807 0.027937228 0.0
0.06521699 -0.0061303205 0.067613296 0.07213702 -0.008433262 -0.0049588024 0.050331187 0.057358712
0.08996204 0.058345277 0.05581162 0.009971599 0.06392337 0.07018048 -0.023674458 0.0031135082
-0.006380705 0.051483404 0.0040863366 0.06163045 0.081109315 0.086224556 0.039752603 0.0071322145
-0.02538245 0.0805651 -0.002674989 0.08611115 0.070518166 -0.002557562 0.059331898 -0.0066434597
0.067151934 -0.036751103 -0.018878449 0.06286738 -0.009713028 -0.009135289 -0.016483376 0.038132664
0.11214807 -0.020799106 0.0 0.059581134 0.061380245 0.08749205 0.092251435 0.06569562
0.100773364 0.107544206 0.06650299 0.0686431 0.0 0.05790792 -0.028512904 0.06062443
0.0 0.066282004 -0.012014066 -0.010707608 0.051247373 0.04612981 -0.01945369 -0.012508034
-0.013523131 0.08272401 -0.015864234 0.06861486 0.11183689 0.07498477 0.05900359 -0.0099335965
0.0 0.07857687 -0.00038680766 0.067814484 -0.031088877 0.013049566 -0.010173604 0.056816183
0.06550107 0.07591576 0.02586333 0.08197963 0.07136728 0.006061563 -0.018422633 -0.0132169975
-0.020364206 0.03385066 0.07257926 0.06840322 -0.004234396 0.087365024 0.012017413 0.061089754
0.061423283 -0.017651003 0.06974728 -0.00065007585 0.05861063 0.06068349 -0.008029964 0.11452321
-0.0059967693 -0.016323693 -0.007190508 0.023062909 -0.013131675 0.051567983 0.0 0.065223284
0.07079008 0.053229176 0.08810427 0.05888354 0.057469066 -0.015214207 -0.027460422 0.041357476

network.4.weight f4 [6, 128]
00000000: 4573 c13d cdae 6ebd caae 493e 4590 9fbe
00000010: 00c5 3d3d 2739 283e 33eb cc3e 4924 68bd
00000020: c015 1d3e 695c 9f3e d63d 5a3e 176e 96be
00000030: 82a1 afbd 4537 24bd e1b0 a2bd 2abc 8f3e
00000040: 2ee0 aa3d c43b 2f3e b747 de3d 6fbf 3ebd
00000050: ad42 68bb 6c6d 8abd 0d4e a53d fea3 b2be
00000060: 9b17 d7bd 9150 c8bc 943b 8abe 65da 5fbe
00000070: ae3b abbe b9ef 713e c354 00bd 4201 893e
00000080: 3ba3 2cbe 9ce7 83bd 6f88 b6be 9818 bfbe
00000090: 0267 ebbc fd81 22be d107 a73d f465 223c
000000a0: 5a7a aebd 5a0b 3bbe 0547 a1bd 0720 e5bd
000000b0: e6f8 6b3c 8943 94be 1d54 dd3c 3305 653e
000000c0: 0efd 4b3e e23b 3a3c 1ae2 82bd ea05 4e3e
000000d0: 76df 843e 453c 79bc 8254 9b3e 0254 acbd
000000e0: a505 793e 601f 643e a358 47bc 5b47 963e
000000f0: 4c58 aa3c e40e 16be 7734 c63d f0c0 233d
00000100: a39f 7e3e 07e0 84bd 998e fdbc 2a99 413d
00000110: 273a 96bd b4e6 abbe 0a74 f63c 4b9e 9ebe
00000120: db03 eb3d 6743 213e 62b7 2c3e a278 443e
00000130: b494 863d b419 173e 380e db3d bb6d 7cbe
00000140: f409 e5bd 079b aebd 457c 65be 8b5b df3d
00000150: 203f 28bd c480 793d 2b90 093e 6d37 33be
00000160: 00ff 50be 85a8 603e 4c29 08be 5bf0 323d
00000170: 84f2 d2bc 5e78 02bc df28 1a3e 60e3 9e3a
00000180: df9f 343e 6950 ca3c 187b d33d 412e 9cbd
00000190: de42 0cbd e60c 3fbe c32f a73e 1ba1 33be
000001a0: 4562 283e b96a 8b3d 1056 5e3e 9f87 d5be
000001b0: 7d5d 083e b105 fdbe b8eb 82bd 50b2 ccbb
000001c0: 0323 263b c638 56bd eca2 ff3d 641f 8b3e
000001d0: 9ee1 46be ec53 46be 2aaf 18bd d354 d8bc
000001e0: c324 70be 2050 8abd 9706 373e 0057 34bd
000001f0: ce78 2fbe 8438 b6be 4adc 403d 3ec8 c1be
00000200: 2255 abbe 11c1 893e c17d a1be 532d b9be
00000210: d4f7 b5bd 4604 e03c b87e d1be 7c7a 2ebc
00000220: 2523 1bbe 16e6 dc3d 94c5 f6bd d113 c8bc
00000230: f5f7 eb3c bf98 aabe b7f3 babe 5e35 5f3e
00000240: 551a 6d3e b6e2 96be b56f 113e df27 b23c
00000250: 76a5 363e e1ae 313e e778 d0bd b324 93be
00000260: bb94 383e edf2 68be 3a8e cabe f028 25be
00000270: 8fd5 613e 56f3 043d f694 143e de6f 22be
00000280: 9f94 90be cacc 40bd 13e7 c8bd c8f0 b1be
00000290: c215 01bd b6b1 523e 67e6 313e de93 49bd
000002a0: 0d6d 51bd 62f9 04be 24a0 423d 6438 1d3e
000002b0: 1d14 3fbe 95bf 34be 7d1d b43d 3056 2c3e
000002c0: 5b53 133e d58e 803d 9f24 fc3d 46aa 92be
000002d0: 0f64 a0bd ed79 3a3e 50e5 cabe d7cb dbbb
000002e0: 0f99 c83d 0550 233e f200 9a3e 0fe4 ca3d
000002f0: 9f1d 453d fb63 d3bc b183 34bd b9a7 c83c
00000300: 309d 5cbd ce26 0a3e b955 11be 0904 0bbd
00000310: 7feb d3bd 4180 b93e d217 14bb dd25 af3c
00000320: 2f1f 523e b40a a3be 3cf9 b83d 6ba6 aebe
00000330: 6750 f73d 4308 44be 50b2 5cbe 53b5 02bd
00000340: 85e4 2dbe d9da be3d 0ccf 823d d447 d6bd
00000350: be00 c53d 87e5 62be 8ed7 b03c a5c9 3c3d
00000360: eb1a 0d3c a5e2 dabd 88e1 5d3e 2c37 4f3e
00000370: 8ebd 903b 6960 8cbd ab21 e7bd e081 3c3e
00000380: cab2 993d 35b7 193d 58c3 debd b4b2 9dbd
00000390: f1ae 4abd 6c90 a5bc 9f85 5d3e d8ad 073e
000003a0: 22dd 48bc f0f3 1cbd 56d0 48bd aa96 dc3d
000003b0: 2c94 a73c 4511 0ebe 6a67 163c 781e 12be
000003c0: 8a5e ecbc c108 af3d 4426 2fbd a57c a7be
000003d0: 5b55 2fbe 3d90 8f3e 31b2 a4bd 8149 b5bd
000003e0: 4743 c53c 76df 64bc ca79 fabd 836a 363e
000003f0: f929 e6bd 5d0b f5bc db2c 1bbd 4385 1e3e
0.09445814 -0.05827217 0.19695583 -0.31164756 0.046330452 0.16428052 0.40023193 -0.05667523
0.15340328 0.3112519 0.21312651 -0.29380867 -0.08575727 -0.04009177 -0.07943893 0.28073245
0.0834354 0.17112643 0.10853522 -0.046569284 -0.0035440132 -0.06759152 0.08071528 -0.3489074
-0.10502549 -0.02445248 -0.2699858 -0.21860655 -0.3344397 0.23626603 -0.031330835 0.26758772
-0.16859142 -0.0644066 -0.35650966 -0.3732345 -0.028735641 -0.15869899 0.08155788 0.009912003
-0.085194305 -0.18266049 -0.07874874 -0.11187749 0.014402604 -0.28957775 0.027017647 0.22365265
0.19920751 0.011366816 -0.06390782 0.20119444 0.25951737 -0.015212123 0.30337912 -0.08414461
0.2431856 0.22277594 -0.012167129 0.29351315 0.020794056 -0.14654118 0.096779756 0.03997892
0.24865584 -0.06488042 -0.030951785 0.04726521 -0.073353104 -0.3357445 0.030084629 -0.30980143
0.11475345 0.15748368 0.1686683 0.19186643 0.065713316 0.14755899 0.106960714 -0.24651234
-0.11183539 -0.08525663 -0.22410686 0.10906132 -0.041075826 0.060913816 0.13433902 -0.17501612
-0.20409775 0.21939285 -0.13297004 0.043686252 -0.025750406 -0.007963268 0.15054654 0.0012122206
0.17639111 0.024696546 0.10326213 -0.0762601 -0.034243457 -0.18657264 0.32653627 -0.17541926
0.16443737 0.06807465 0.21712518 -0.41705033 0.13316913 -0.49418405 -0.06392616 -0.0062468424
0.0025350458 -0.052300237 0.12482247 0.27172387 -0.19422004 -0.19367951 -0.037276424 -0.026407635
-0.23451523 -0.06753564 0.17873608 -0.044028282 -0.17135927 -0.35589993 0.047085084 -0.37848085
-0.3346339 0.2690511 -0.31541255 -0.36167392 -0.0888516 0.027345788 -0.4091699 -0.01064932
-0.15150125 0.10786073 -0.12049404 -0.024423512 0.028804759 -0.3331966 -0.36514065 0.21797702
0.23154576 -0.29469842 0.14202769 0.021747528 0.17836556 0.17351867 -0.1017931 -0.28738937
0.18025486 -0.22748919 -0.39561635 -0.16128898 0.22054122 0.032458626 0.14509949 -0.15862986
-0.2823839 -0.047070302 -0.09809699 -0.34754014 -0.03151489 0.20575604 0.17373048 -0.049213283
-0.05112939 -0.12985757 0.047516003 0.15353543 -0.18660016 -0.17651208 0.08794687 0.16829753
0.14387266 0.06277243 0.123116724 -0.28645533 -0.07831585 0.18210573 -0.39628077 -0.006707649
0.097948186 0.15948494 0.30078846 0.0990678 0.048123952 -0.02580451 -0.044070903 0.024494039
-0.053860843 0.13491365 -0.14192857 -0.033939395 -0.10347652 0.36230662 -0.0022597206 0.02138036
0.20519708 -0.31844103 0.09031913 -0.34111342 0.120758824 -0.19143777 -0.21552396 -0.031911206
-0.16981705 0.09319086 0.06387147 -0.10462919 0.09619282 -0.2215787 0.02158716 0.04609074
0.008612375 -0.1068776 0.21668065 0.2023589 0.004417128 -0.06854326 -0.112857185 0.18408918
0.075048044 0.037528235 -0.108771026 -0.077001005 -0.049483243 -0.020210467 0.21633004 0.1324991
-0.012259753 -0.038318574 -0.04902681 0.107709244 0.020456396 -0.13873775 0.009179929 -0.14269435
-0.028853673 0.085465916 -0.042761102 -0.32712284 -0.17122404 0.28039733 -0.080418 -0.088519104
0.024079932 -0.013969293 -0.12230261 0.17814068 -0.112384744 -0.029912645 -0.037884574 0.15480523

network.4.bias f4 [6]
00000000: 108a 073d 8582 923c 912c f13c 5903 073d
00000010: 41d5 4fbd d8d4 69bd
0.03309065 0.017884502 0.029440196 0.032962177 -0.050740484 -0.05708775
