dqn.pt (torch, 77600 bytes, 6 tensors)

layers.0.weight f4 [128, 11]
000000 d3 9e b3 3e c3 2c c8 be b6 09 03 3d 73 35 94 3c
       0.3508211 -0.3909665 0.031991683 0.018091893
000010 28 60 29 bf fe ab 44 be c4 9f 2d 3f 5a 25 bb 3e
       -0.6616235 -0.19206235 0.6782191 0.36551934
000020 c4 4b 67 3f ea 05 80 3e 33 3f 5d bc b5 ea 22 3d
       0.90349984 0.25004512 -0.013503837 0.039774615
000030 fa 5d d9 be 8d 74 21 3f 28 d4 2f 3f d5 69 be bd
       -0.4245451 0.6306847 0.686831 -0.092975296
000040 23 67 8c be c5 7f 14 bd 59 03 32 3f 30 80 8e 3f
       -0.27422437 -0.036254663 0.6953636 1.113287
000050 90 e5 80 3f 40 4c dc 3e 53 77 51 3f 69 54 dd be
       1.0070057 0.43026924 0.818227 -0.43228462
000060 0c 92 ee be 3d c9 9d bd ef 62 f7 3d 44 95 f1 3b
       -0.465958 -0.07704399 0.12079417 0.00737253
000070 27 fe 96 bd 94 e0 58 bf 4f d1 2e 3e 5b 61 14 be
       -0.073726945 -0.8471768 0.17072032 -0.14490263
000080 86 16 82 be 32 8b a7 be 30 f8 3f 3f f9 d3 3d bf
       -0.2540781 -0.32723385 0.7498808 -0.7415157
000090 1c 28 c3 3e fc e4 30 3e f4 c0 ba be 7c d0 4c 3f
       0.3811654 0.1727485 -0.36475337 0.8000562
0000a0 5f 36 96 3f 34 45 ca be 62 06 96 3f f6 5e 86 3f
       1.1735343 -0.39505923 1.1720698 1.049773
0000b0 4a 56 38 3f 75 a4 f8 be 71 0f 40 3f eb 26 d3 3e
       0.72006667 -0.4856297 0.7502356 0.4124063
0000c0 a2 ba 96 3e 69 b2 36 bf 60 33 96 3e db 0e 8b 3c
       0.29439265 -0.7136598 0.2933607 0.016974857
0000d0 eb da 82 bd ac e9 48 3f a5 bc d3 3d 3b 03 d6 3e
       -0.063894115 0.78481555 0.103387155 0.4179934
0000e0 a2 80 9a 3d e0 6c 5c 3f 23 e3 74 3e ae 11 12 be
       0.07544066 0.8610363 0.23914771 -0.14264557
0000f0 8a 00 17 3f 76 22 19 3f e1 20 ac be cd 3f d6 3e
       0.589852 0.5981821 -0.33618835 0.4184555
000100 34 08 85 be 8f d8 af 3e 0b 69 ef be 87 63 3f 3f
       -0.2598282 0.3434491 -0.4675983 0.7476124
000110 ab 33 af 3e d6 1a 33 bf ef a1 05 bd 86 ad fe bd
       0.34219107 -0.69962823 -0.032625135 -0.12435441
000120 9a 33 c2 3e 6d 60 9a 3e ed e3 a4 be ee e7 82 bf
       0.37929994 0.30151692 -0.32205144 -1.0227029
000130 b6 04 60 3f be 30 92 be d5 8d b6 be 37 a9 55 3d
       0.8750719 -0.28552812 -0.35655084 0.05216333
000140 8c 06 bb bd f7 6a eb 3d ee cc 60 be 01 c8 0f 3f
       -0.09132108 0.11495011 -0.21953174 0.56164557
000150 32 19 68 3f 15 bd c1 3d 24 ce fb 3e a7 8e 11 3f
       0.90663445 0.09459893 0.4918071 0.56858295
000160 58 c7 bc 3e 83 15 73 3e 4c e5 bd be 6e 1e 2c 3f
       0.36870837 0.23738675 -0.37089002 0.6723393
000170 64 17 48 3e 42 1f c7 3d c1 c4 21 be b0 cf 07 3f
       0.19540173 0.09722759 -0.15797712 0.5305128
000180 b0 c4 da 3e 38 7d 23 3f 59 bc 4b 3f 26 1a 72 bd
       0.42728186 0.63862944 0.7958427 -0.05910697
000190 91 ec 90 bd 09 7f 43 3d a3 31 90 be 87 af e5 be
       -0.070763715 0.047728572 -0.2816287 -0.4486048
0001a0 13 17 d9 be e8 1e 80 3f 61 f4 b0 3e b3 49 bc 3e
       -0.42400417 1.0009432 0.34561446 0.36774978
0001b0 ad 20 88 3f dd aa 8e 3f 5f 6d 0e be 0e b8 c8 3e
       1.0634972 1.1145893 -0.1390891 0.39202923
0001c0 23 59 42 bf 9c 38 a0 be 2a 38 56 3d 1f 89 90 3c
       -0.7591726 -0.3129319 0.052299656 0.01764351
0001d0 ad 8d 2e 3f 65 83 f9 3e 1d 73 d8 3e 60 45 e3 3e
       0.6818493 0.4873306 0.42275324 0.44388866
0001e0 c1 57 d4 3e 95 0e 8e be 58 ff 50 3e cd 26 44 be
       0.414732 -0.277455 0.20409906 -0.19155426
0001f0 66 a4 dd bd d2 e6 03 3e 7e 30 b8 be 00 45 87 3f
       -0.10822372 0.1288102 -0.35974497 1.0567932
000200 00 70 14 3f c8 3c f7 3e 82 f8 ed 3e d3 6d 95 3e
       0.579834 0.4828856 0.4647866 0.29185352
000210 ac a0 70 be e5 0e 02 3c e6 c8 fc 3d 19 1b a4 be
       -0.23498791 0.007938121 0.12343006 -0.32051924
000220 be af 2a 3f 62 db 96 bc c0 0b 27 3f f1 12 20 3e
       0.6667441 -0.018415157 0.65252304 0.15632226
000230 12 20 08 3d 80 a6 8c be 6a b3 13 3f 5a 8d 98 3e
       0.03323371 -0.2747078 0.5769564 0.29795343
000240 8f 34 f7 3d c9 0e 8d 3e e8 3b 2e 3e 4a f6 76 bd
       0.12070572 0.27550343 0.1701504 -0.060293473
000250 92 77 28 be b2 24 5d 3f b3 ac 07 3f 70 86 a5 3f
       -0.16451862 0.8638412 0.52997893 1.2931652
000260 f5 b5 b8 be cc 76 aa 3e f9 9e 02 3f 5b 11 ba 3d
       -0.36076322 0.3329376 0.51023823 0.090853415
000270 10 97 01 3e 60 e1 6a 3f 2d 24 81 3f 0e 83 fb be
       0.12655282 0.91750145 1.0089165 -0.49123424
000280 4f b3 06 3f 1f a3 13 3f bd c8 83 3f d4 7f 24 3f
       0.52617353 0.5767078 1.0295635 0.6425755
000290 d2 28 07 3e 7b cd 6b 3f bd 52 84 3e ef 20 d0 3e
       0.13199165 0.92110413 0.25844374 0.40650126
0002a0 25 e1 ca bc c2 d0 b4 3c be 69 2c 3e 89 bb 55 3f
       -0.02476556 0.0220722 0.16837212 0.8348928
0002b0 fa 21 a3 bf 94 80 30 3e ed a6 ff be 3d ec df 3e
       -1.2744744 0.17236549 -0.49932042 0.43734923
0002c0 59 a2 71 3f c0 9a 23 3d e4 ec f7 be 24 c3 6f 3d
       0.9438835 0.039942503 -0.4842292 0.05853571
0002d0 dd 13 82 3e 4f 55 90 bd 70 fb b7 be 3f cd a2 3e
       0.2540578 -0.07047521 -0.3593402 0.31797215
0002e0 4b f7 07 bf 23 30 58 bf f7 a9 cc bd a1 2f 9c 3e
       -0.53111714 -0.8444845 -0.09993356 0.30505088
0002f0 59 9b 4f 3f f2 02 f9 3e 14 2a 82 bd 22 96 04 3f
       0.81096417 0.4863506 -0.06355682 0.51791584
000300 d8 63 fa be 34 13 8d be a0 26 12 bf 84 30 de bb
       -0.489043 -0.27553713 -0.5709019 -0.006780686
000310 de 28 bb bd 7e 92 2e bf ef da 10 bf 86 d7 27 3d
       -0.09138654 -0.6819228 -0.56584066 0.040977024
000320 84 eb a5 3e 1c 81 41 3f fd b3 9b be b6 f1 0e be
       0.32406247 0.7558763 -0.30410758 -0.13959393
000330 92 0f d0 be 5c 2b ba 3e bf a8 a0 be c3 86 a3 be
       -0.4063688 0.36361206 -0.31378743 -0.31938753
000340 3e a9 17 be 1e 1e 83 3d f8 a6 e7 3d 7d bd ac be
       -0.14810655 0.06402229 0.11311144 -0.33738318
000350 2f ab c0 3e 5a f9 6f 3f 0c 9a 10 3d b2 d4 11 bf
       0.37630603 0.93739855 0.03530316 -0.5696517
000360 31 55 87 3f 78 7f bd be e9 30 a9 be a2 b8 c8 be
       1.0572873 -0.37011313 -0.33045128 -0.39203364
000370 3a 01 65 be 14 fc 39 be 24 43 c7 be 4f 85 8c bf
       -0.22363749 -0.18162566 -0.38918412 -1.0978183
000380 77 70 00 be a1 a3 72 be f3 60 78 bf bc 40 97 be
       -0.12542902 -0.23695232 -0.9702293 -0.29541576
000390 81 4f ca be 53 39 ab be c1 2c 40 3f 48 3a 6d 3e
       -0.39513782 -0.33442172 0.7506829 0.23166764
0003a0 a3 4b 4c bf c8 4f 4a 3e 4d 49 aa be 69 d4 f8 bb
       -0.7980291 0.19756997 -0.3325905 -0.0075936806
0003b0 4c 6c 56 bf 70 13 b2 be ca 6a 0c 3f 92 e8 35 3f
       -0.83759 -0.34780455 0.5485045 0.71058
0003c0 5e 3e 1b 3e 0b e2 a7 3e 11 90 7e 3f fc da 06 bf
       0.1516051 0.32789645 0.9943858 -0.52677894
0003d0 85 42 18 3e d1 43 d1 be 4a aa 4b 3d e1 6f fd 3e
       0.14869125 -0.40872052 0.049722947 0.4949942
0003e0 d1 1d b7 be db d6 44 3d 67 ae 43 be b1 44 88 bc
       -0.35764936 0.048056465 -0.19109498 -0.016634317
0003f0 ab 48 11 be 8b 26 12 bf e5 d9 bb 3e d1 0b f9 be
       -0.14187877 -0.5709006 0.36689678 -0.48641828

layers.0.bias f4 [128]
000000 2e 0a da 3e 06 97 00 3f 28 53 72 3e 63 1b eb 3e
       0.4258589 0.50230443 0.23664534 0.45919332
000010 0f 3a 7c 3e 22 fd 37 3e da a0 3d 3e 66 8d da 3e
       0.24631523 0.17967656 0.18518391 0.42686003
000020 0a 20 e9 3e 58 e0 f3 3e 43 67 dd 3e 78 a0 ed 3e
       0.45532256 0.47632098 0.43242845 0.4641149
000030 39 f5 ea 3e 82 67 e4 3e df e5 03 3f 5b 6d 82 3e
       0.45890215 0.4461022 0.5152263 0.25474057
000040 e8 84 07 3e 1d 42 cf 3d 4e 7e 60 3e a4 32 66 3e
       0.13234293 0.10120032 0.21923181 0.22480255
000050 cd cc cc 3d 37 38 dd 3e e1 eb df bc 78 a8 e7 3e
       0.1 0.4320695 -0.027334156 0.4524572
000060 71 15 c7 3d 2a 87 ed 3e 20 76 30 3d 27 96 e0 3e
       0.097208865 0.46392184 0.043081403 0.43864557
000070 cd cc cc 3d eb 96 45 3e 3d 0c bd 3d 0c e5 da 3e
       0.1 0.19295852 0.0923085 0.42752874
000080 fe e4 8f 3e 8e e1 8d 3e 9f 70 ec 3e 4f a4 c0 3e
       0.28104395 0.27711147 0.46179673 0.37625358
000090 40 12 ad 3e 9d aa ff 3e 04 55 f4 3e 79 9a da 3e
       0.33802986 0.49934855 0.47721112 0.42695978
0000a0 f6 6d c9 3e 5c 81 c4 3d 58 21 e0 3e e2 26 67 3e
       0.39341706 0.09594986 0.4377544 0.22573426
0000b0 ce 21 d5 3e af 5f 8c 3e 53 f6 c3 3e 8b 2f b7 3d
       0.41627353 0.2741675 0.38273868 0.08944615
0000c0 1c 85 d8 3e f1 34 a4 3e 8d 5b e4 3e a5 2d e5 3e
       0.42289054 0.3207164 0.44601098 0.44761387
0000d0 73 00 a5 3d 2e 7f 14 3d 1e 24 ab 3e cc dd e4 3d
       0.08056726 0.0362541 0.33425993 0.11175117
0000e0 3c f4 e1 3e 95 8b 6f 3e f6 2d 3a 3e fe 2b fb 3e
       0.4413165 0.2339309 0.18181595 0.49057
0000f0 84 db 3f 3e 44 fa e7 3e 63 cb 2b 3e a4 01 da 3e
       0.18736082 0.45308125 0.16776805 0.42579377
000100 4e 9d 44 3e 89 4a e6 3e 05 6f 6e 3e dc ad dd 3e
       0.19200632 0.4497874 0.23284538 0.43296707
000110 e1 62 7f 3c 90 e3 cf 3e 0f 4d 85 3e 04 5f c8 3e
       0.015587539 0.40603304 0.26035354 0.3913499
000120 40 a0 da 3e 59 da 50 3e 1d b6 ee 3e 28 03 96 3e
       0.42700386 0.20395793 0.46623316 0.29299283
000130 9a 11 c6 3e 6b 8e 05 3e ca 73 cb 3e f4 7d d5 3e
       0.38685304 0.1304261 0.39736778 0.41697657
000140 fa 57 d2 3e 22 54 0d 3e 5e 9f 08 3d bd 82 87 3e
       0.41082746 0.13801625 0.03335511 0.26466933
000150 a6 4f e6 3e 46 e9 d4 3e 77 12 88 3e f3 72 00 3f
       0.44982642 0.41584224 0.26576588 0.501754
000160 b8 80 30 3e 16 72 b4 3e 0f b4 17 3e 7c da 5b 3d
       0.17236602 0.3524329 0.1481478 0.05367516
000170 4a 7b cf 3e 0d 55 2e 3d b7 5f db 3e 52 fd d3 3e
       0.4052375 0.04256158 0.42846462 0.41404206
000180 01 d2 f2 3c b0 c9 d8 3e f1 92 ea 3e 30 36 88 3e
       0.029641153 0.42341375 0.45815232 0.26603842
000190 f1 c3 2e 3e 02 b7 89 3e ab 99 80 3e 6d 0e b4 bb
       0.17066933 0.26897436 0.2511724 -0.0054948837
0001a0 0b 23 d1 3e 2b ed 0c 3d ee 87 b9 3e b4 4b e0 3e
       0.40847048 0.03440587 0.3623652 0.43807757
0001b0 58 fb e4 3e b2 b4 b3 3e be e3 c5 3e cd 93 d2 3e
       0.4472301 0.35098797 0.38650316 0.41128388
0001c0 c9 6a ee 3e e0 b3 fa 3e 36 62 5c 3e 34 9b 40 3e
       0.46565846 0.4896536 0.2152184 0.18809205
0001d0 5b a8 ee 3d 6c 26 eb 3e 6e 0f bb 3e c8 b9 5d 3d
       0.11653205 0.4592775 0.3653521 0.054132253
0001e0 35 ff 8b 3e 6d 34 ee 3e 12 8a cb 3e 8d c4 c8 3e
       0.27343145 0.46524373 0.39753777 0.39212456
0001f0 78 82 99 3e e6 45 9e 3e 2c 28 8a 3d 08 ad f5 3d
       0.29982352 0.30912703 0.067459434 0.11995894

layers.2.weight f4 [128, 128]
000000 18 25 5b 3e 96 ad 2e 3e c1 c4 70 be 6e d4 7d 3e
       0.21400869 0.17058405 -0.23512556 0.24788067
000010 51 c5 d3 bd d6 87 04 3e b7 1f 27 bd 71 4a d9 3e
       -0.103403695 0.12942442 -0.04080173 0.42439607
000020 5f 97 84 3d c7 c0 7a 3e d5 10 a7 3e 1d 3d f8 3e
       0.06474184 0.24487601 0.3263003 0.48484126
000030 d0 74 8e 3e 29 09 5a 3e 8b ec 4f 3e 5d c3 ae bc
       0.27823496 0.21292557 0.20305078 -0.02133339
000040 3c 85 9b bd 35 c7 81 3e 5c 5c fc bd 0d ac 89 be
       -0.07593772 0.25347295 -0.12322304 -0.26889077
000050 a7 1c c7 bd bf 38 b4 3e 52 de 50 3a 20 ac e1 3e
       -0.09722262 0.35199544 0.00079676986 0.44076633
000060 19 2e 4c be bd 55 a2 3e 2f e9 26 be 7f b6 b0 3e
       -0.1993946 0.31706038 -0.1629989 0.34514233
000070 b1 1d e7 bc 6a 8c c1 bd 6b c3 cd bd 10 d9 d8 3d
       -0.0282124 -0.0945061 -0.10047039 0.105882764
000080 c1 d6 97 3e 59 38 43 3d 6e c4 ca 3d 6e d2 a2 3e
       0.29656032 0.04766116 0.09900747 0.3180117
000090 8e 43 d3 3e 44 ed 27 3e 4f 76 7f 3d ab 84 d9 3e
       0.41262478 0.16399103 0.062368687 0.4248403
0000a0 f1 9c bd 3e 50 e9 10 bd 3b 97 26 3e 71 7d 79 be
       0.370338 -0.035378754 0.16268627 -0.24364258
0000b0 4e 9c ab 3e 9d 3c 33 3d 88 79 d5 3e c8 91 13 be
       0.3351769 0.043758977 0.41694283 -0.1441108
0000c0 f7 06 24 bd 26 36 94 3e e5 5a 2b 3e 98 2d 64 3e
       -0.040045705 0.28947562 0.16733892 0.22283018
0000d0 de 8e 81 3c cc 6f bc bd 26 b0 91 3d 8a af 93 bd
       0.015815195 -0.09201011 0.07113676 -0.07211216
0000e0 07 d0 ae 3d 05 91 69 3c df c6 8f bd 14 d6 a7 3e
       0.08535772 0.014255767 -0.070203535 0.32780516
0000f0 a4 ea 8a 3d e5 6e c7 3e 43 a9 1c bd c3 10 c2 3e
       0.067830354 0.38951793 -0.038247358 0.37903413
000100 91 99 dc be d7 ae e2 3e 43 6f f8 bd 9d 79 73 3e
       -0.43085912 0.44274017 -0.121305965 0.2377686
000110 f4 f0 2e bd 66 cd 80 3e 90 6f bc be 09 97 c8 3e
       -0.04271026 0.25156707 -0.36803865 0.3917773
000120 c4 0c f1 3e bc 93 21 bd 86 4c 3b 3e 43 9e fd bb
       0.47080052 -0.03944753 0.1829091 -0.0077398135
000130 b7 dc 8e 3e a1 b1 60 3c 9c 1b be 3e db f4 7d 3e
       0.27902767 0.013714225 0.3713044 0.24800436
000140 10 94 88 3e e6 9b 8b 3e d6 f7 ad bd 5c f2 66 3e
       0.26675463 0.2726738 -0.084945366 0.2255339
000150 cd 7c d8 3e 44 c9 7d 3e 01 90 a0 3d 4f 41 98 3e
       0.42282715 0.24783808 0.078399666 0.29737327
000160 47 a9 57 3e f7 7b 32 3e e7 a7 39 be 27 ab 47 be
       0.21060668 0.17430101 -0.18130456 -0.19498883
000170 e1 73 93 3e e4 58 72 be c5 55 95 3d 21 86 eb 3e
       0.28799346 -0.23666722 0.0729175 0.4600077
000180 9b 95 9d bd 98 6d e3 3e 8f 40 c4 3e 20 94 f1 3c
       -0.076945506 0.4441955 0.38330504 0.029489577
000190 55 fc 3a 3e f6 41 f0 3d a5 56 9c bd 6e 53 ad bd
       0.1826032 0.11731331 -0.07633714 -0.084631786
0001a0 01 21 a3 3e 69 fd 33 3d 58 74 db 3d 3a ec d8 3d
       0.31861117 0.043942843 0.1071555 0.10591932
0001b0 c5 a7 97 3e 5d c2 4b 3e 83 bf 9c 3e 65 fc d3 3e
       0.29620185 0.19898362 0.30614862 0.414035
0001c0 28 a4 9b 3e 41 30 79 3e 92 d8 84 3e 5d d5 71 3e
       0.3039868 0.24334814 0.2594648 0.23616548
0001d0 a3 54 a3 bd 22 5f c0 3e e0 10 a5 3e 26 fa 60 bd
       -0.079751275 0.3757258 0.32239437 -0.05492606
0001e0 16 fa 9c be ad 76 32 3d 5d d3 ac 3e 12 f4 59 3e
       -0.3065955 0.04357021 0.33755007 0.21284512
0001f0 0f 84 1d 3d 5b e0 50 3e 77 7d 46 3d ae 5e 9c bd
       0.03845602 0.20398085 0.048459496 -0.07635246
000200 dd ac 3f 3e ab 35 dd bc 07 81 e5 3d 71 70 b7 3b
       0.18718286 -0.02700313 0.11206251 0.005598121
000210 c7 d0 1c 3c c3 96 83 3e 46 53 0e 3e 1c a3 cf bd
       0.009571261 0.2570096 0.13898954 -0.101385325
000220 80 93 7d be 62 4c 51 3e d0 b4 0b bc 54 73 71 bd
       -0.24763298 0.20439294 -0.008526996 -0.058947876
000230 02 70 1f be c0 e0 91 3d 65 cc 8b bd 93 68 62 3d
       -0.15570071 0.07122946 -0.068260945 0.05527551
000240 85 2e 8e be 32 13 72 be ed a7 86 be ec 29 7d be
       -0.27769867 -0.23640135 -0.26299992 -0.24723023
000250 27 fd 25 bd ea e0 25 3e b5 15 cb 3d ed 41 aa bd
       -0.040524628 0.16199079 0.0991625 -0.083133556
000260 8b cc 8b be 81 2c 4e 3e d7 a1 c8 bd 95 18 8f be
       -0.2730449 0.20134164 -0.097964935 -0.27948442
000270 61 db e8 3d 98 8e ab 3d ef 0d fa 3c 61 1c 43 be
       0.11369968 0.08376807 0.030524222 -0.19053794
000280 a9 dc 52 3d 1d 72 eb bd 32 d1 5f 3d 7f 2b e6 bc
       0.05147997 -0.11496375 0.054642864 -0.028096912
000290 e8 62 a6 bd 3c 9d 0f 3e 09 c9 8f 3e 16 5d a3 3d
       -0.081243336 0.14024824 0.28083065 0.07976739
0002a0 67 a0 cf bd 74 f5 49 bd 8c 25 ac be 2b 3d a0 bc
       -0.10138016 -0.049306348 -0.33622396 -0.019560417
0002b0 8b d2 fa bd 48 58 68 bc 94 11 c8 3d 40 d4 f3 bd
       -0.12247189 -0.014181204 0.09768978 -0.11905718
0002c0 82 5e 0b be 82 a8 83 bc 54 37 4f 3e 49 7c 29 bd
       -0.1361027 -0.016071562 0.2023595 -0.041378293
0002d0 ad 81 7f 3e 9f cf bc 3c 5c 73 45 be 45 ce 9c 3d
       0.24951811 0.02304822 -0.19282287 0.0765653
0002e0 2e de 46 3c 6c c3 25 3e ff c2 1e 3e b6 47 44 bc
       0.012137933 0.16187829 0.15504073 -0.011979988
0002f0 d2 4e 42 be bd 1c ae bc 5e aa 5b be a1 e0 28 3e
       -0.1897538 -0.021253938 -0.21451709 0.16491939
000300 10 1c 88 bd 78 72 bb 3d 14 13 9e 3d 9e 9b 9b be
       -0.066459775 0.091526926 0.077184826 -0.30392164
000310 62 15 76 be 69 ce e2 3d 5c ae d0 be 9f 9b 5c bd
       -0.24031594 0.11074526 -0.40758026 -0.05385935
000320 63 f0 33 3d f1 49 5d be ed 2a 8d 3d 73 05 41 be
       0.043930423 -0.21610238 0.06892953 -0.18849735
000330 31 c2 4e 3e 4a d7 47 3b 98 c8 1e 3e c3 c1 0e 3d
       0.20191266 0.0030493313 0.15506208 0.034852754
000340 2a fd 3a 3e e5 97 a2 bd dd 98 39 3d 55 6c 0d 3e
       0.18260637 -0.07939128 0.045311797 0.13810857
000350 a2 6d 3b 3d fe 02 42 bd bf 2e b7 bd 06 57 e0 3d
       0.04575885 -0.047366135 -0.08944463 0.109540984
000360 77 1f fa bd 3c bf b2 be 05 c0 c5 bd 1a f3 1a 3e
       -0.12213033 -0.34911525 -0.096557654 0.15131798
000370 bd c1 04 bd 07 87 92 bd 2c 6f b3 be d9 c5 0b be
       -0.032411326 -0.07154661 -0.35045755 -0.13649692
000380 bd 93 82 be f8 f8 f8 3d e7 56 e8 bd 67 63 84 3e
       -0.2550334 0.12156862 -0.113447 0.25857088
000390 2e ec 59 be 75 2a 86 3d 93 d6 6f bd 99 4b a3 bc
       -0.21281502 0.06551067 -0.058554243 -0.019933509
0003a0 17 3a c4 3d 96 0a 95 bd 2f f4 dc bd 8f 09 5b be
       0.09581392 -0.0727741 -0.10788762 -0.21390365
0003b0 7b 26 71 3e 56 25 b7 3e 97 d7 fc 3d 52 66 28 3e
       0.23549835 0.35770673 0.12345808 0.16445282
0003c0 66 24 f8 3d 79 39 ab 3e d4 f2 4f 3e 6f 0a 7a 3e
       0.121163175 0.33442286 0.20307475 0.24418043
0003d0 44 60 bf 3d 62 1e 21 3d d9 79 08 3e a5 e0 6e 3c
       0.09344533 0.039335616 0.13327731 0.014579927
0003e0 94 d2 cf 3b 3b 0b 16 bd 6d 0f 10 be c4 c6 60 3d
       0.0063422415 -0.036631804 -0.14068384 0.054877058
0003f0 cf 26 cf 3e 79 6f 55 bd 86 b0 e0 3b 81 83 90 bd
       0.40459296 -0.05210826 0.0068569807 -0.070563324

layers.2.bias f4 [128]
000000 76 06 b8 3e b9 6d d9 3d 00 39 09 3d 3f 8f f8 3d
       0.3594243 0.10616631 0.033501625 0.12136697
000010 16 ce 01 3e f5 f7 b5 3d 73 04 b9 3d 80 b4 d6 3d
       0.12676272 0.08885185 0.09034052 0.104836464
000020 68 8b fc 3d 94 34 21 3e cd cc cc 3d 3a 31 0e 3e
       0.12331277 0.15742713 0.1 0.13885966
000030 38 70 9d 3d 2b d5 a7 3e 22 8f af 3d 5a 38 8b 3e
       0.0768742 0.32779822 0.08572222 0.2719143
000040 19 79 8b 3e a0 1e 9b 3e 94 a7 99 3e 2e 80 ad 3d
       0.27240828 0.30296803 0.30010664 0.08471714
000050 79 db 0a 3e 91 33 b3 3e 56 58 33 3e e8 1f a6 3e
       0.13560285 0.3500028 0.17514166 0.32446218
000060 87 f1 c6 3d af 51 b1 3e d7 0b 11 3e cd cc cc 3d
       0.097140364 0.34632632 0.14164673 0.1
000070 93 41 fe 3d 04 ae 47 3e c8 ad bb 3e a9 ea 00 3e
       0.12414851 0.19499975 0.36656022 0.12589516
000080 8f 8f 00 3e 7f 32 b7 3d 1e 37 bf 3d 75 de bb 3d
       0.12554763 0.08945178 0.09336685 0.0917329
000090 87 b7 b6 3d a6 ca bb 3d cc 39 0a 3e 2f b6 c9 3d
       0.08921724 0.091695115 0.1349861 0.09849202
0000a0 cd cc cc 3d 6f 9f 9e 3e f8 25 a8 3e 23 23 f6 3d
       0.1 0.30981013 0.32841468 0.120184205
0000b0 c8 7d eb 3d 90 28 b0 3d 67 6c a2 3e e5 6c a8 3e
       0.114986 0.08601487 0.3172333 0.3289558
0000c0 fe 91 97 3e c2 63 da 3d 50 33 b3 3e 1f fc 4f 3e
       0.2960357 0.106635585 0.35000086 0.2031102
0000d0 cb e1 85 3d 34 5d 53 3e 10 fb a5 3e d2 96 c4 3e
       0.06537207 0.20641023 0.32418108 0.38396317
0000e0 63 6d 30 3d 8a 86 bd 3e 66 93 cf 3e 98 3e ff 3d
       0.04307307 0.37016708 0.40542144 0.12463111
0000f0 53 ab 42 3e a2 b2 10 3e 15 a8 1e 3d a8 9a b3 3e
       0.19010668 0.14130643 0.038734514 0.3507893
000100 64 1b 5b 3e a1 f0 ad 3d 7c a5 ae 3d d5 1f 0c 3e
       0.21397167 0.08493162 0.085276574 0.13684018
000110 7f 56 03 3e b4 49 6a 3d 2f 8e ab 3d c3 ac b7 3d
       0.12825964 0.057199195 0.08376729 0.089684986
000120 1e 11 25 3e 9d 33 94 3d cd cc cc 3d cd f2 ed 3d
       0.16119811 0.07236407 0.1 0.11618576
000130 98 c7 b8 3d 9d 14 a9 3e c8 2b 03 3e 58 05 27 3e
       0.090224445 0.3302354 0.1280967 0.16310632
000140 df a5 35 3e e8 81 02 3e 72 c2 d0 3e 2d ab 82 3e
       0.17739056 0.12744868 0.4077335 0.25521222
000150 fe 8a b4 3e 43 20 b7 3e 0b 59 b4 3e 96 7e 56 3e
       0.35262293 0.357668 0.35224184 0.20946726
000160 a2 1e aa 3e 20 2e 13 3e 36 cb a4 3d 9e 4e a3 3e
       0.33226496 0.14373064 0.08046572 0.31895918
000170 55 2c 98 3e 68 9f bc 3e 8e f6 21 3e 15 99 aa 3e
       0.29721323 0.36840367 0.1581671 0.33319917
000180 81 cc bc 3e cd cc cc 3d e0 7f 57 3e 86 29 04 3e
       0.36874774 0.1 0.21044874 0.12906465
000190 ae 27 01 3e aa f0 61 3d ec b0 89 3e f9 49 bc 3e
       0.12612793 0.055161156 0.26892793 0.36775187
0001a0 fc 8b 15 3e c5 c8 da 3d 4d 11 bb 3e 52 c5 b8 3e
       0.14604181 0.10682825 0.36536637 0.36088043
0001b0 c2 bc 7f 3e 54 07 a2 3e 07 b1 d3 3d f6 7e bf 3e
       0.24974349 0.31646216 0.103365 0.3740155
0001c0 93 0b ae 3d 42 0d b1 3d f1 7d 94 3e d6 c6 c2 3e
       0.08498301 0.08645107 0.29002336 0.38042325
0001d0 43 e8 8b 3d 50 89 8d 3e 5f 94 9c 3e 40 92 3e 3e
       0.0683141 0.27643824 0.30581948 0.18610477
0001e0 cb e3 a4 3e 50 99 24 3e 26 e8 14 3e 00 fc 1c 3e
       0.32205042 0.16074109 0.14541683 0.15330505
0001f0 b4 89 9f 3d 66 bd bd 3e cd cc cc 3d 29 28 c1 3e
       0.07789937 0.37058562 0.1 0.37725952

layers.4.weight f4 [6, 128]
000000 47 41 75 3e 64 12 eb 3d 15 8a 37 3c d9 6d 68 be
       0.23950683 0.11478117 0.011202355 -0.22698154
000010 cd 45 3c 3e d7 f2 57 be 5d 98 58 be 8a 94 6a 3e
       0.18386002 -0.2108873 -0.21151872 0.22908226
000020 d7 f3 9b 3c 43 23 c7 3d f6 de 0a 3e af fb 6c bd
       0.01903717 0.097235225 0.13561615 -0.05785721
000030 b4 f4 11 bc 7d a9 de 3e 3a 3a ed bd c9 b0 9a 3e
       -0.008908439 0.43488684 -0.115833715 0.30213
000040 1e 21 ea 3e 07 90 04 3f cd 8d a1 3e fa 08 d6 3a
       0.4572839 0.5178227 0.31553498 0.001632958
000050 ee 58 23 be e1 d0 be 3d d1 3e cc be 85 45 d3 3e
       -0.15951893 0.09317184 -0.39891675 0.41263977
000060 f5 da a7 3d 1d 48 20 3e 84 f4 44 be 63 1d 92 bd
       0.081960596 0.15652509 -0.192339 -0.07134511
000070 20 21 99 3d 69 5b 9f bd 66 3a 4a 3e 81 a2 df bd
       0.07477021 -0.07781107 0.1974884 -0.10919667
000080 e9 b1 9b 3d 2a 73 67 be 7e f6 1d be bd 47 42 3d
       0.07602293 -0.22602525 -0.1542606 0.047431696
000090 c8 e6 c8 3c d4 67 94 bd c3 73 77 be 49 0b c1 3e
       0.024524108 -0.07246366 -0.24165253 0.37703922
0000a0 90 6c cb ba eb 07 95 3e cc 3e 31 3e 6b 6b 21 bd
       -0.0015520025 0.29107603 0.17309111 -0.039409082
0000b0 16 16 67 3e fd a1 3c be bb 89 4f 3e 2f 75 c3 3e
       0.22567019 -0.18421169 0.20267384 0.3817534
0000c0 c2 0c bf 3d e9 63 2f 3e eb 52 bc 3e 40 88 9f 3e
       0.09328605 0.17127956 0.3678201 0.31158638
0000d0 2d 2a ae bc a0 f1 89 be 8e 23 34 3e 43 24 a2 3e
       -0.021260345 -0.26942158 0.17591688 0.3166829
0000e0 35 be 0c be f9 5c cf 3e d6 bf 58 3e e6 49 a0 3c
       -0.13744433 0.4050062 0.2116693 0.019566488
0000f0 c5 62 4a be cb f8 63 3d 31 1f 66 be 57 6c 6c 3e
       -0.1976424 0.05565719 -0.22472836 0.23088203
000100 11 0e c9 3e 9f 2c 20 3e cc bd 27 be a9 b0 9f be
       0.39268544 0.15642022 -0.16380996 -0.31189469
000110 9d 5b 85 be a7 41 94 be 9d 00 b6 3c 0c 9c 16 3d
       -0.26046458 -0.2895634 0.02221709 0.03676991
000120 d8 df a4 be 4b 74 29 bd af 4d ec bb bc 87 95 3e
       -0.3220203 -0.04137067 -0.007211409 0.2920512
000130 69 35 e0 bc 54 ad 53 3e 1c d0 4e be d6 aa bc be
       -0.027369218 0.20671588 -0.20196575 -0.36849087
000140 93 82 e9 3e 18 dd 43 be 6b d8 23 3e 4b a4 0d bd
       0.45607433 -0.1912731 0.16000526 -0.03458051
000150 ef c3 14 3f 28 9c 69 3e 17 9b 67 3e 48 af cc 3c
       0.5811147 0.22813475 0.22617756 0.024985924
000160 df 55 6e 3e 92 8d 2f bd 4f 1c 54 be 23 34 b4 3e
       0.23274945 -0.04285962 -0.20713924 0.35196027
000170 e5 cc cb 3e 64 4c 66 3e 53 da 9a be 7e 73 5c 3d
       0.3980476 0.22490078 -0.30244693 0.05382108
000180 fe db a6 3d 62 a1 bb bc 19 d2 8b bd 0b 97 eb be
       0.08147429 -0.022904102 -0.06827182 -0.46013674
000190 b3 7b 7e be 12 e4 6d be 5e de e1 3e eb b7 57 3e
       -0.24851875 -0.23231533 0.44114965 0.21066253
0001a0 91 e4 d0 3d 9c e1 d9 3d 51 34 b7 3e a2 1d 2f 3e
       0.101998456 0.10638735 0.35782102 0.17101148
0001b0 cf 90 0e be 6d 77 1c 3e dc b0 d9 3e a7 a4 89 3e
       -0.13922428 0.15279932 0.42517745 0.26883432
0001c0 3e c4 08 bd 7c a6 41 be 67 73 87 3e 6e f9 cf 3e
       -0.033390276 -0.18911165 0.26455233 0.40619987
0001d0 02 d1 49 be 91 37 3e 3c 3a ad ec 3e ad ea bb 3e
       -0.19708636 0.011609928 0.4622591 0.3670248
0001e0 7a 40 82 3e 14 aa 86 3d c2 2f 58 be f3 89 ea be
       0.25439817 0.065754086 -0.21111968 -0.45808372
0001f0 28 8c af be 2a c5 87 3e b4 2a 23 3d 87 70 52 3e
       -0.34286618 0.26517612 0.039835647 0.20550738
000200 ca 1f ba 3e 50 ed e2 bd 9e 35 0d be 8c f3 64 3e
       0.36352378 -0.1108042 -0.13789985 0.22358531
000210 f9 01 3e be ef ee 66 be 2b 96 1c 3d 45 0a b3 be
       -0.1855544 -0.22552083 0.03822915 -0.34968773
000220 6e da d8 bd 53 8f 9b be 6a a4 fd bd 60 1a d3 3d
       -0.10588537 -0.30382785 -0.12384875 0.10307765
000230 fd c9 14 3b c3 38 8e 3e ef 00 10 bd 18 b9 97 3e
       0.0022703402 0.2777768 -0.03515714 0.29633403
000240 e4 a2 95 3d f4 71 f1 3d d2 7c f1 3d 14 83 41 bd
       0.073064595 0.11789313 0.11791386 -0.047244146
000250 0d a9 8c 3e 7a 29 a0 3e 0a 18 ae 3e 69 bb e4 3c
       0.27472726 0.31281644 0.34002715 0.027921395
000260 e7 52 54 be 94 a4 b0 3d 71 4c c7 be 7b e7 10 3e
       -0.2073475 0.08625141 -0.38925508 0.14150803
000270 3f 19 2a be ac e5 b2 3e 96 d9 e3 3e d5 32 47 3e
       -0.16611193 0.3494085 0.44501942 0.19452985
000280 fd a2 93 be b2 79 f8 bd b6 b6 3d 3d b9 c0 8d 3b
       -0.28835288 -0.121325865 0.046316825 0.004325953
000290 94 31 dd 3d 33 31 50 3e 04 1a 7a 3e fe 08 75 be
       0.10800472 0.20331268 0.24423987 -0.23929211
0002a0 f4 35 d9 b8 cb b4 e1 3d fd 66 ba 3e 73 54 e2 bd
       -0.00010357416 0.11020812 0.364067 -0.11051264
0002b0 05 9c 53 be 64 94 17 be b0 6f 2e 3e 94 be fa 3e
       -0.20664985 -0.148027 0.17034793 0.48973525
0002c0 7d 40 ac 3e 51 98 12 be d4 d4 77 3e 35 d0 db bd
       0.3364295 -0.14315917 0.24202281 -0.10733072
0002d0 01 a0 5c be 3b eb b6 3e 71 10 0c 3e 9e 66 5c 3e
       -0.21545412 0.35726342 0.13678147 0.2152352
0002e0 96 d7 43 be 1e 24 b1 3e 90 65 9a 3e 32 43 c8 be
       -0.19125208 0.34597868 0.3015561 -0.39113766
0002f0 bd 6d 3b 3e c7 70 bb 3d 26 44 f8 bd 66 48 cd 3e
       0.1830358 0.0915237 -0.12122373 0.40094298
000300 f9 21 e8 3b 84 bb cf 3c b7 19 a3 be 5e 6f a1 3d
       0.007084128 0.02535797 -0.31855556 0.0788257
000310 05 76 86 bd c7 62 e0 bc 36 54 15 bd 34 fc 24 3c
       -0.06565479 -0.02739085 -0.036457263 0.010069896
000320 c4 4c 06 3e 9b 6b 15 bd 6d 20 96 bd c9 63 04 be
       0.13115221 -0.036479574 -0.073304035 -0.1292869
000330 6c 93 22 bd fd fa 30 bd dd cb 31 3e 5a 1e e5 3e
       -0.039691374 -0.04320811 0.17362924 0.4474972
000340 fa 65 24 3e 88 1b ed bc 45 01 99 3e 8b 8f 91 3e
       0.16054526 -0.028943792 0.2988378 0.28429827
000350 75 9a 63 3e 60 96 e9 3e 9f 2e 82 3e 8d 23 a0 3d
       0.2222689 0.4562254 0.25426194 0.07819281
000360 91 2d 87 3e 7f 62 38 bb 09 2f ad be df 8f 82 3d
       0.26401952 -0.002813488 -0.33824947 0.063750975
000370 07 9d e9 3d 20 92 fd 3e e1 f3 98 3e 88 46 8b 3e
       0.11406904 0.49525547 0.29873565 0.2720225
000380 00 59 c4 3e 5d b6 43 3d b8 b9 32 3f 46 e8 21 3e
       0.38349152 0.047781337 0.69814634 0.15811262
000390 44 4d f7 3d fb d7 b7 be e0 99 b8 3e ce ad c0 3e
       0.12075284 -0.35906968 0.36054897 0.37632602
0003a0 35 5e 96 be 21 83 9d 3e 7b 51 8e 3d 14 af 83 3e
       -0.2936875 0.30764106 0.06949135 0.25719512
0003b0 6d 86 b5 3e c5 5d 4f 3c 15 1a 2d be 20 33 c8 3e
       0.3545412 0.012656634 -0.16904481 0.39101505
0003c0 00 fb db 3c c0 29 8d 3e 26 32 56 be d8 50 a9 3e
       0.026853085 0.27570915 -0.20917568 0.3306949
0003d0 20 61 f3 bd a5 b1 d0 3e 7d cc da 3e 05 c6 5b be
       -0.118837595 0.40760532 0.42734137 -0.21462257
0003e0 66 a0 73 3e de 83 05 be 7a 17 21 be 30 62 81 3e
       0.23791656 -0.13038585 -0.15731612 0.25270224
0003f0 ba 46 09 3e 05 00 c3 3e 1f 6a 02 3e 3a fc ad 3e
       0.13405886 0.38085952 0.12735794 0.33981496

layers.4.bias f4 [6]
000000 2b fd 71 3e 6c c8 61 3e e9 20 74 3e c2 dc 5f 3e
       0.23631732 0.22049111 0.23840679 0.21861556
000010 3f a0 6d 3e bf dd 53 3e
       0.2320566 0.20690058
