dqn.pt (torch, 23520 bytes, 6 tensors)

net.0.weight f4 [64, 11]
000000 4b b6 02 3f 3b 3d 11 3f 11 63 77 3f a2 01 6c bf
       0.51059407 0.56734055 0.9663554 -0.9218999
000010 2f 55 99 be 23 56 8c be 31 7e 20 3f af ca cd 3e
       -0.29947802 -0.27409467 0.6269255 0.40193698
000020 86 b5 5f be 1f 55 99 3e 1d 9a ce be 13 f4 19 bf
       -0.2184659 0.29947755 -0.40351954 -0.6013805
000030 f0 57 28 3f 83 e4 1a bf 9d 4c 2a 3f c4 4e 1c bd
       0.6575918 -0.6050493 0.6652315 -0.038161054
000040 17 0a 3a 3c 46 23 38 3e 2f 3e 35 bf e0 a5 29 3f
       0.011354945 0.17982206 -0.7079801 0.6626873
000050 5e 4f af bc ba 68 11 be 81 96 18 bc bf c8 6e 3c
       -0.02140015 -0.14200106 -0.009313227 0.014574229
000060 5b 00 ef be d4 57 04 3f 45 73 5f be f2 ea 24 3f
       -0.4667996 0.51696515 -0.21821316 0.64421
000070 3d b8 5f 3f 7c 6f f5 be 87 c3 30 3f d1 d8 bc 3e
       0.873905 -0.47936618 0.6904835 0.36884168
000080 f3 a9 25 3f 8f 77 05 3f c4 8d 84 3f 79 cd d4 bc
       0.64712447 0.52135557 1.0355763 -0.025976883
000090 57 60 bf be 8d 8a ab be 44 67 b6 be 7a 12 95 be
       -0.3737819 -0.33504143 -0.3562566 -0.2911566
0000a0 38 0a 03 bd 75 a3 1c bf b3 16 d2 3e f2 b2 f8 3e
       -0.031992167 -0.61186916 0.41032943 0.48574024
0000b0 29 64 16 be 52 e6 2d bf 8c 03 34 be 1f 26 5f bf
       -0.14686646 -0.67929566 -0.17579478 -0.87167543
0000c0 16 5d 89 3d 69 36 a4 3e b9 1f 61 3e a6 23 83 3f
       0.06707208 0.32072762 0.21984757 1.0245254
0000d0 3a a8 0d bf a7 0e 0e bd 0b 3e ec 3d f3 46 80 3e
       -0.5533482 -0.034681942 0.11535271 0.2505413
0000e0 a5 56 8d 3c 18 18 ef be ce 0a 44 bf 41 60 23 3f
       0.01725323 -0.4669807 -0.76578987 0.63818747
0000f0 96 dd 22 bf a7 53 8a be 0a 32 0f 3e de 53 bb be
       -0.63619363 -0.27016947 0.13983932 -0.36587423
000100 8a 1e fd bd 92 75 a6 bd c8 4a 51 bd a2 98 ab 3d
       -0.123593405 -0.081278935 -0.051096708 0.08378722
000110 9f b0 e2 be e1 86 c1 be 57 99 2a be 66 01 c8 be
       -0.44275376 -0.37798217 -0.16660057 -0.39063567
000120 3a 7b 1e 3f c7 57 02 3f 88 f8 26 3f df f2 0d 3e
       0.6190678 0.5091519 0.6522298 0.13862179
000130 93 6e 1b 3f ed 2e 1e 3f 38 75 cb be 57 fb 38 bf
       0.607156 0.61790353 -0.39737868 -0.72258514
000140 26 bd 70 be a6 6c 5d be c6 75 f4 be 01 ce 56 bf
       -0.23509654 -0.21623477 -0.47746104 -0.83908087
000150 d0 0e 35 3f 86 20 20 3e f0 5f 45 3e 03 ac 96 be
       0.7072573 0.15637407 0.19274879 -0.2942811
000160 14 69 ce 3e c5 ba 44 3f 84 bc 35 3f e7 23 2a bf
       0.40314543 0.7684749 0.70990777 -0.6646103
000170 3d 98 1a 3f ab a0 56 bd b5 e7 0e 3e b8 5e 7f be
       0.6038855 -0.05239932 0.13955577 -0.24938476
000180 89 e6 81 3e 97 03 7a be d0 66 60 bf 20 bd 97 3e
       0.25371197 -0.24415432 -0.8765688 0.29636478
000190 64 30 19 3f e8 37 cc be b6 31 0f bf f2 b5 2e bf
       0.59839463 -0.39886403 -0.5593523 -0.68246377
0001a0 0d 12 c6 3e f0 b8 d9 bd 09 ce 36 3b 99 7d b0 3e
       0.38685647 -0.10630977 0.0027893803 0.34470823
0001b0 16 3e e2 be c2 69 78 3e c5 5b 29 bf ed 9b 96 be
       -0.44187993 0.24259093 -0.66155654 -0.29415837
0001c0 20 dc 27 bf c0 d9 b7 bd 73 c7 9d be a7 ea 03 bf
       -0.6557026 -0.089770794 -0.3081623 -0.51529926
0001d0 1b 15 20 bf c0 1d 04 bd 0a 4f c1 3e 68 a8 49 be
       -0.62532204 -0.032254934 0.37755615 -0.19693148
0001e0 ac ff 1e be 83 bf 36 bf 36 97 1c bf df ef c0 3e
       -0.15527219 -0.71385974 -0.6116823 0.37683007
0001f0 df a6 84 3e 77 fe 92 3e cc 9e 43 be 27 a4 88 3e
       0.25908563 0.28709766 -0.19103545 0.26687738
000200 e1 96 11 3f a4 10 ab bc 83 4c 11 be 21 e8 34 be
       0.5687085 -0.020881958 -0.14189343 -0.17666675
000210 6a f9 08 3f 40 57 25 3f c5 55 86 3f 85 a2 d6 3e
       0.53505576 0.6458626 1.0494925 0.41920868
000220 d2 83 c4 bd c4 8d 06 3d a9 cb 18 3d 17 98 0b 3e
       -0.09595455 0.032850042 0.0373036 0.13632236
000230 b7 7d 30 be 97 72 96 be 91 52 d7 3e b7 64 3d 3f
       -0.17235456 -0.293843 0.4205518 0.73981804
000240 86 4c 10 3f f4 ed 18 bf 49 0f 1e bf 04 aa 35 be
       0.56366765 -0.5973809 -0.61742073 -0.17740637
000250 b2 0b bd 3e 7b 0d 27 3e 0a 72 c6 be bc 70 c8 bd
       0.36922985 0.16313736 -0.3875888 -0.097871274
000260 aa ca d6 3e 38 8b d9 3e 97 26 55 3f d4 2d a4 be
       0.41951495 0.42489028 0.8326201 -0.32066214
000270 ae bd 1c bf ed 57 47 3f 42 9f d2 3d de 7e 1e 3f
       -0.6122693 0.7786854 0.10284282 0.61912334
000280 ba 24 71 3f 26 d2 5c 3e b2 1c 3d 3f be 28 59 bf
       0.94196665 0.2156454 0.7387191 -0.8482779
000290 ec 05 21 be ba be e8 3e 31 96 9e 3d 04 21 11 3f
       -0.15724915 0.45458013 0.077434905 0.56691
0002a0 a1 2a cc 3d 85 67 8e 3e 12 b2 2e bd 5c ed 81 3f
       0.09969068 0.27813354 -0.04265029 1.0150561
0002b0 4e 0e 2a be 3b ab 16 3f bf 50 65 3f b7 64 a6 3d
       -0.1660702 0.58855027 0.89576334 0.081246786
0002c0 6f 22 55 bf 33 48 dd 3d 65 e6 8b 3f f3 37 0e 3f
       -0.83255666 0.108047865 1.0929686 0.5555412
0002d0 30 15 f8 3e 3c c5 06 3f 5f 0a 8b 3d 5a 0e 49 3f
       0.48453665 0.52644706 0.067890875 0.78537524
0002e0 17 36 5e 3e 16 b0 1a 3f 78 af 55 bd a0 28 25 bf
       0.21700321 0.60424936 -0.052169293 -0.64515114
0002f0 80 51 29 3f cc 86 86 3d c9 0c a4 3b 5e f5 46 be
       0.66139984 0.06568679 0.005006407 -0.19429538
000300 33 b1 ab be 75 a3 f5 3c 48 e6 7b be c0 4e e4 3e
       -0.3353363 0.029985169 -0.24599564 0.4459133
000310 71 30 91 3f 99 8f 35 3e f7 09 c0 3d 10 08 b9 bc
       1.1342908 0.1773056 0.09376901 -0.022586852
000320 0e 65 a8 be 7f 1b 56 bf 09 11 8b 3e 7a 11 d9 3d
       -0.328896 -0.83635706 0.27161434 0.105990365
000330 3d b9 f1 be cf ee 31 3f 7a c2 1c 3f f7 ff 18 3e
       -0.47211638 0.6950502 0.6123425 0.14941393
000340 03 c9 1b 3f a5 81 28 3f 2c 26 c4 be 51 3b d7 3e
       0.60853595 0.6582282 -0.38310373 0.42037442
000350 a4 c1 40 3f d2 74 08 3e bb 64 dc be cb ed 9f 3e
       0.7529547 0.13325813 -0.430456 0.3123611
000360 17 7a f9 bd 96 85 0a 3f 67 a1 0f bf 5d 41 c5 be
       -0.1218149 0.54110086 -0.56105655 -0.3852643
000370 78 b6 1e be df 0c 2f 3e 63 9c 07 bf 8e 04 15 bf
       -0.15499294 0.17094754 -0.52973 -0.58210075
000380 63 50 4f bf 07 62 46 be 8e d8 62 3f 07 65 47 be
       -0.80982035 -0.19373332 0.88611686 -0.19472133
000390 66 cb 17 3f 00 ac 4c be af 7d 19 3e 7d 5f ad be
       0.59294736 -0.19987488 0.1498935 -0.33861914
0003a0 ff 07 99 3e 61 c0 21 bf 89 fa 48 3f 73 a2 45 be
       0.29888913 -0.6318417 0.78507286 -0.1930025
0003b0 24 a1 a1 be 8e 78 2a bc c1 eb ca 3e 87 3b ab be
       -0.31568253 -0.010404719 0.3963299 -0.33443853
0003c0 1b 09 01 bf 98 e7 64 bf ef 50 5d 3e fc cc 3d 3f
       -0.5040452 -0.89415884 0.21612905 0.74140906
0003d0 37 75 d1 bc aa 8d 76 3e 93 14 5d bf b1 71 2c bf
       -0.025568588 0.24077478 -0.8635952 -0.6736098
0003e0 07 8e ce 3e ac 20 88 3e 9a 93 ad 3e a0 9e 16 3f
       0.40342733 0.26587427 0.33901674 0.5883579
0003f0 77 ed 39 3f 32 2f a7 3e 56 0a cc be 64 46 26 bf
       0.7262797 0.32653195 -0.39851636 -0.6495116

net.0.bias f4 [64]
000000 25 8d 91 3d 88 4e c1 3d 4a f7 8d 3e fc e5 1b 3e
       0.07106999 0.09438807 0.2772773 0.15224451
000010 76 79 94 3e da 38 c4 3b b9 99 83 3e de be cb 3d
       0.28998917 0.0059882225 0.2570322 0.099485144
000020 fc 7d a8 ba 3f 77 a1 3d 50 77 d5 bc db 01 29 3e
       -0.0012854929 0.078840725 -0.02605787 0.16504614
000030 d2 d4 d4 3d bc e8 e0 3d 8a e3 5b 3e 7b ec 94 3e
       0.10392155 0.109818906 0.21473518 0.2908667
000040 5f 0c 5b 3e 96 f2 bf 3e 0b ef 79 3e 03 e6 7a 3e
       0.21391438 0.37489766 0.24407594 0.24501805
000050 f3 07 78 3e 0e 3a ee 3d 3f 46 9a 3e 4a 39 09 bd
       0.24221782 0.11632167 0.3013172 -0.0335019
000060 4d e8 02 3e b0 18 53 3e eb e6 f2 3d 28 3f 48 3d
       0.12783928 0.20614886 0.1186045 0.048888355
000070 40 15 ef 3b f8 44 73 3e f7 73 8c 3e e7 56 6d 3d
       0.0072962344 0.23756778 0.27432224 0.057944205
000080 56 75 b2 3e 90 74 84 3e 19 44 75 3e c5 1c f2 3d
       0.34855145 0.2587018 0.23951758 0.118218936
000090 ed b0 7c 3d 5a 1b 87 3e d8 5d 28 3e b7 a0 09 3e
       0.061692167 0.26388055 0.16442049 0.13440214
0000a0 aa 6e 04 3e 27 1a dd bd 0c 94 26 3e de 30 90 3d
       0.1293284 -0.10796004 0.16267413 0.07040571
0000b0 bd 0a 8f 3d 4d 7b 95 3d c5 a3 c3 3d a1 33 9f 3e
       0.0698447 0.072989084 0.09552721 0.31094077
0000c0 38 b9 7d 3d 50 26 af 3d 98 bc a2 3e 39 aa 06 3e
       0.061944216 0.085522294 0.3178451 0.13150872
0000d0 e7 da 81 3d 24 c2 22 3e ca 3f 82 bc 98 50 3a 3e
       0.063405804 0.15894371 -0.015899558 0.18194807
0000e0 fa 11 96 3e 1e 57 a0 3e c9 51 98 3e a1 4c 00 3e
       0.2931059 0.31316465 0.29749897 0.12529232
0000f0 d7 58 8f 3e 81 06 94 3e 1d 50 b6 3d ef be 00 3e
       0.27997467 0.28911212 0.08901999 0.12572835

net.2.weight f4 [64, 64]
000000 4d 09 76 3e 07 c9 e9 be 9d 51 71 3e 80 0f 96 3d
       0.24026985 -0.45661184 0.23566289 0.07327175
000010 fd 73 2c 3d 8e 5f b7 3d c3 02 9c 3e 38 aa a7 3d
       0.042102803 0.089537725 0.30470857 0.081867635
000020 c2 d9 27 be 9d a9 d2 be 9a 98 7c 3e 28 ed a3 3e
       -0.16391662 -0.4114503 0.24667588 0.32016873
000030 dc cc dd bd d4 56 a5 be bd 1b 3f be 69 e0 07 be
       -0.108300894 -0.32292807 -0.18662925 -0.132692
000040 38 35 2b 3e 94 7d 58 3e d1 f7 90 3e 24 a7 ba be
       0.1671952 0.21141654 0.2831407 -0.36455643
000050 5f 03 a9 3e 99 9b d8 be b6 ce 5e 3d e4 fc ad 3d
       0.33010384 -0.42306212 0.054396354 0.08495501
000060 02 65 5a 3e a4 b1 5a 3e 9a 07 90 be 66 7c c1 bd
       0.21327594 0.21356827 -0.281308 -0.09447555
000070 0a ea 67 3e 30 e1 b4 3e 06 91 1c 3e 2c ff 9d 3e
       0.22647873 0.35328054 0.15289697 0.30858743
000080 6d 53 43 3e 0a 5b df 3e e4 64 2e bd da 71 56 be
       0.19074793 0.43624145 -0.042576686 -0.20941868
000090 8a 2e 53 be 03 d5 f1 3e 41 39 d6 bd e4 24 94 be
       -0.20623222 0.47232828 -0.10460139 -0.28934395
0000a0 57 21 24 be c6 44 89 be 44 07 5b 3b a1 3b 86 3c
       -0.16028343 -0.26810282 0.0033421079 0.016385855
0000b0 39 d9 03 3e cb 68 13 bf 5b 0f 5b 3e 3c 3c e7 bd
       0.12875833 -0.57581776 0.21392576 -0.11290786
0000c0 86 b2 e2 3a ae d6 04 bf 3a 8d ba 3d 44 62 6f be
       0.0017295636 -0.51890075 0.09108968 -0.23377329
0000d0 e6 41 83 be bb f2 07 3e 61 e0 89 3e 02 0f 40 3d
       -0.25636214 0.13276188 0.26929 0.046889313
0000e0 b4 1a b9 3e 98 72 28 3e 1e b5 94 bd 1b f0 10 be
       0.36153185 0.16449964 -0.07261108 -0.14154093
0000f0 9e 06 95 3e d9 cb ab 3e f4 69 da bc 31 2a 9f 3d
       0.2910661 0.3355396 -0.02666185 0.07771719
000100 57 32 b6 be c0 ec a7 bd 95 96 e9 3e 2a 86 11 bf
       -0.3558528 -0.08199453 0.45622697 -0.56845343
000110 94 7d 4f 3e c5 f1 24 3d 50 b8 b0 3e 68 cf 58 be
       0.20262748 0.040269632 0.3451562 -0.21172869
000120 f0 0e 20 be 95 a0 fe bd 28 e2 10 3e 5d 4b 09 be
       -0.15630698 -0.12432972 0.14148772 -0.13407655
000130 be 4b 5b be 42 98 06 bd 87 c7 ad 3b 7a f9 a9 3d
       -0.21415612 -0.032860048 0.0053033265 0.08299537
000140 c1 5e 12 3e 26 f6 11 bc 90 cc dc 3e da ac 65 be
       0.14293958 -0.008908784 0.4312482 -0.22429219
000150 4e 08 13 3d 1d 67 af bc 77 c7 c6 bc 50 a3 6f be
       0.03589659 -0.021411473 -0.024265034 -0.23402143
000160 8e 8f b0 bd 45 31 03 3f c2 9b 1c be af 4b 19 be
       -0.08621131 0.51247054 -0.15293792 -0.14970277
000170 38 d5 98 be 21 f6 a8 3e f3 91 e7 bd ea 34 a2 bd
       -0.29850173 0.3300028 -0.113071345 -0.07920249
000180 52 24 65 3e dc ab 94 3e d6 22 8c be bd 79 ab be
       0.22377136 0.29037368 -0.27370328 -0.33491316
000190 cf 83 94 3d 7a c2 85 3e 03 b2 1d bf 34 d1 a3 3d
       0.07251703 0.26124936 -0.6159975 0.07998887
0001a0 f5 19 9c be 4e 19 4a 3d e5 c2 a7 be 76 52 95 be
       -0.30488554 0.04934054 -0.3276588 -0.29164475
0001b0 f9 48 53 3e c4 11 80 be 86 dd a5 be 2c 76 5e bc
       0.20633306 -0.25013554 -0.3239557 -0.013577979
0001c0 ea 47 13 3d 4f 2b 15 bd 66 a8 91 3b cc d1 18 be
       0.035957254 -0.036418255 0.0044451235 -0.14923781
0001d0 a0 2a f7 3d fd 53 0b 3c 66 7e 22 bd cc 8b de bd
       0.12068677 0.008503911 -0.039671324 -0.10866508
0001e0 db 3e f4 3e 91 34 af 3e 59 92 00 3f 04 d7 29 bd
       0.47704205 0.34219792 0.5022331 -0.04146482
0001f0 53 29 05 3f 95 6c 00 be c3 b4 75 be 03 70 7d bd
       0.5201618 -0.12541421 -0.23994736 -0.0618744
000200 e8 65 40 be b7 a3 cd 3e ba fe 6b bb 06 c4 84 3e
       -0.18788874 0.40163967 -0.0036009983 0.25930804
000210 9c 9a 08 bf 44 1f f1 3e 82 4f 9a 3e 38 a8 1c 3e
       -0.53360915 0.47094166 0.30138785 0.15298545
000220 5a 9e a0 3e c4 9a c6 3d 2b 31 88 3e 25 0c 27 3e
       0.31370813 0.09697488 0.26600012 0.16313227
000230 55 b3 6a be 19 59 28 3e 60 5c 69 be 5a 1d 0f be
       -0.22919972 0.16440238 -0.22789145 -0.1397604
000240 78 be 72 3e 31 2d 41 3e ec 49 ac 3e f5 0d 03 bf
       0.2370547 0.18864895 0.33650148 -0.5119317
000250 ee e7 9a 3e 0c 6c 52 be 56 a2 0b 3e 37 90 96 3e
       0.30255073 -0.20549029 0.13636145 0.29406902
000260 83 b4 5c 3e 48 d7 44 bd 3b 15 b4 bb 82 f9 a4 3e
       0.21553235 -0.04805687 -0.005495695 0.3222161
000270 d0 21 3a bd c9 9f 44 be 94 fc 74 3d 1a b1 97 be
       -0.045442402 -0.19201578 0.05981119 -0.29627305
000280 d0 42 df 3e a0 7c 4e 3e 57 b0 aa be b4 39 75 be
       0.4360566 0.20164728 -0.33337662 -0.23947793
000290 cf 62 67 3e d3 71 73 3e b9 ed e9 bd 6c ed ea 3e
       0.22596286 0.23773889 -0.11422295 0.45884264
0002a0 9a fb 4a be ae cf 1e 3e 5d 96 7d 3e ed 93 01 3d
       -0.19822541 0.15508911 0.2476439 0.031635214
0002b0 8e 26 9c 3b 71 63 d6 bd 63 50 ad be 93 ef ae bd
       0.0047653383 -0.10468186 -0.33850393 -0.08541789
0002c0 5e 95 96 be 6e bc f9 3d c5 b8 aa 3e 2d 11 57 bd
       -0.29410833 0.12194143 0.33344093 -0.052506614
0002d0 c6 71 b4 3c 4f 33 aa 3e d7 5b 6d be d8 3d 9f bd
       0.022026908 0.3324227 -0.23179565 -0.07775468
0002e0 a2 15 05 3e 62 4a 0b 3e ad 84 d4 3d 6b 70 8a be
       0.12996534 0.13602594 0.103768684 -0.27038893
0002f0 82 8e dc be b4 53 0b 3e db e4 d3 3d 3e ed 46 3c
       -0.43077475 0.13606149 0.10346385 0.012141524
000300 41 5e 53 3d 61 f8 13 be 99 af 61 3e dd 0a ce 3b
       0.05160356 -0.14450218 0.22039641 0.006287916
000310 13 e7 04 3f 7d 03 8c 3e b4 29 ae 3e 4e b3 c7 be
       0.5191509 0.2734641 0.34016192 -0.39003986
000320 ff d2 4c be ad b3 4b be 76 41 1b be e4 e6 64 3e
       -0.20002364 -0.1989276 -0.1516169 0.22353703
000330 21 60 34 be 2d 4c c5 be 1f d0 16 be 32 4f ac 3e
       -0.17614795 -0.3853468 -0.1472783 0.3365417
000340 5c af 5d be 91 40 de 3d 90 b9 8e 3d 5c 50 5d 3e
       -0.21648926 0.10852159 0.06968987 0.21612686
000350 87 7d 2f 3d 19 f1 8f 3d 9a df 38 3e 00 ea 41 3d
       0.04284432 0.070284076 0.18054047 0.0473423
000360 f0 e6 a8 be 03 96 d7 3e b8 5a 99 3d 04 1a af be
       -0.3298869 0.42106637 0.07488006 -0.34199536
000370 0a 9f 78 be af fe 5e 3e 1d 16 b2 bd 9f 0e fc 3d
       -0.24279419 0.21776842 -0.08695624 0.12307476
000380 09 cd ad bc 69 52 f0 3e 62 a3 a0 be 04 01 c1 be
       -0.021215932 0.46937874 -0.3137465 -0.37696087
000390 9f 59 3c 3d ac 1c 79 3e cf 4f f4 be a3 09 ef be
       0.045983907 0.24327344 -0.4771714 -0.4668704
0003a0 3f 9b df be 00 88 05 be 32 78 07 3e 11 0e 8c be
       -0.4367313 -0.13040161 0.13229445 -0.27354482
0003b0 df 11 3c 3e 09 a4 5e be c8 f1 88 be 18 1c 5e 3e
       0.18366192 -0.21742262 -0.26746964 0.21690404
0003c0 be 6a 8f be 6d c4 55 be db 8c 00 3f d6 f7 0f 3e
       -0.28011125 -0.20875712 0.5021493 0.14059386
0003d0 b4 c7 77 be 4f 07 c5 3d a6 7f 52 3c 6b fa 0b 3e
       -0.24197274 0.09620535 0.012847817 0.13669746
0003e0 61 b7 af 3e 5d 7d 7f 3c d0 54 86 3e 60 c1 7b bd
       0.34319595 0.015593854 0.26236582 -0.061463714
0003f0 e5 08 05 3f 29 98 c9 bb 78 80 e4 be 37 ae 9a be
       0.51966697 -0.006152172 -0.44629264 -0.3021104

net.2.bias f4 [64]
000000 34 3b b9 3d 58 94 22 3e 29 8b 92 bd af d5 3c 3e
       0.09044495 0.15876901 -0.07155449 0.18440889
000010 ff 36 1c 3d af 4f f2 bc 14 06 7c 3d 7a 93 83 3e
       0.038138386 -0.029579012 0.061529234 0.25698453
000020 58 2c 7b 3d 46 84 6d 3d 51 9d 18 3e f6 b1 27 3d
       0.061321586 0.057987474 0.14903761 0.0409412
000030 28 90 bb 3d e8 62 e8 3b 29 be 81 bd ef 7e 53 3e
       0.09158355 0.0070918687 -0.06335098 0.2065389
000040 d5 fa b3 3d 52 b5 b5 3b 1e dc f8 3c e0 0e c8 bc
       0.08788077 0.0055452967 0.030378398 -0.024421155
000050 df 3a 94 bd 7f 19 20 3e 3a 04 ca 3c a2 a0 b5 bc
       -0.07237791 0.15634726 0.024660219 -0.022171322
000060 f8 f6 cc bc df 1b 50 3e b8 0f ca 3d 5f 9b 66 3e
       -0.025020108 0.20323132 0.09866279 0.22520207
000070 e5 12 a2 3d 67 68 84 3e 4a c6 31 3e 05 c1 20 3e
       0.0791376 0.25860903 0.17360798 0.15698631
000080 3e 6c 22 3e d1 26 1c 3e 98 ec 2b 3e b9 57 57 3e
       0.15861604 0.15249182 0.16789472 0.21029557
000090 a5 e9 7e bc 1a 2a 74 3e f2 a7 a9 bd 76 7c 2a 3e
       -0.015558635 0.23844185 -0.08283986 0.1664904
0000a0 10 f5 b3 bd 66 17 15 bd 78 0c 0f bc 37 ec 66 3e
       -0.08786976 -0.036399268 -0.008731 0.22551046
0000b0 71 d5 25 bd 0c 8f 60 3e 36 fb 88 3e bc c2 76 3e
       -0.040486757 0.21929568 0.2675416 0.24097723
0000c0 08 09 46 bc b0 b6 66 bc 6e ec 02 3e 80 da 0c 3e
       -0.012087114 -0.014081642 0.12785503 0.13755226
0000d0 40 32 01 3e 37 9f 9e 3c f2 31 02 bd 2d dd c6 bd
       0.12616825 0.019363029 -0.031785913 -0.09710155
0000e0 3e fa 3a 3e e9 1b 71 3e 0d 85 bc 3d 0e 16 1b 3d
       0.18259522 0.23545803 0.09205065 0.03786283
0000f0 48 a1 4a 3d f8 b2 4f 3e 13 a6 1a 3e ae 5b 3d 3e
       0.049470216 0.20283115 0.15102415 0.18492004

net.4.weight f4 [6, 64]
000000 09 f1 09 3f 8c 4b 76 3e 53 8e 1e bf 24 b4 06 3f
       0.53883415 0.24052256 -0.6193592 0.5261862
000010 62 1e 80 bd 2d d3 fc bd 71 f4 3b be 49 2b 06 3f
       -0.06255795 -0.12344966 -0.18354966 0.524098
000020 0e 58 d5 3d a6 ca f4 bd 6e 04 71 3e a3 20 bb bd
       0.10417186 -0.119527146 0.23536846 -0.09137084
000030 e4 e5 ba 3e bf f7 16 be c9 d0 96 bc 7b 0c fd bd
       0.36503518 -0.14742945 -0.018410103 -0.12355896
000040 0a 75 ed 3d 8e 42 fc be 43 eb 27 bf 40 22 d7 3b
       0.11594589 -0.49269527 -0.65593356 0.006565362
000050 35 a9 98 be 80 9a e9 be 47 10 6f be e0 be 31 be
       -0.29816595 -0.45625687 -0.23346053 -0.1735797
000060 a1 50 a0 be 25 7a c0 3e 6d e8 05 be 9f 20 57 3d
       -0.31311515 0.3759319 -0.13076945 0.052521344
000070 68 ed 8a 3e 02 88 82 3e d5 66 cf 3e 2c e6 89 3c
       0.27134252 0.2549439 0.40508142 0.016833387
000080 87 f0 c4 be 01 ef 1a 3f 83 ee 29 3f 37 ff 0c 3f
       -0.38464758 0.6052094 0.66379565 0.55076927
000090 10 6b 84 be 78 e0 0e 3f f6 f6 21 3e 42 a0 35 3e
       -0.25862932 0.5581126 0.15816864 0.17736915
0000a0 96 66 97 bd e1 ad 15 be 6f c6 90 3e e8 6e 02 3e
       -0.073926136 -0.14617111 0.28276393 0.1273762
0000b0 1b 06 43 3e 77 b1 07 bb 33 c8 a8 3e 69 1a 96 3e
       0.19045298 -0.0020705143 0.3296524 0.29317024
0000c0 0b 58 27 3e 0a ba 8a 3e 0b 4b 00 bf 5a 2e 91 3d
       0.1634218 0.27095062 -0.50114506 0.07088919
0000d0 b0 0d 76 bd f9 d7 2d be b7 a3 70 be 13 34 3c bc
       -0.060071647 -0.16976918 -0.23499952 -0.011487025
0000e0 a0 63 3a bc f2 6c fd 3e 7a 48 4a bd d1 e1 0b bf
       -0.0113762915 0.4949718 -0.049385525 -0.54641443
0000f0 7d 88 03 bf 9a c5 5a 3e 06 41 cd 3d 7d 7a af 3d
       -0.5138014 0.21364442 0.10022168 0.08568285
000100 65 ff 82 3e e3 68 e5 3e a6 32 be 3e 54 d4 0b 3f
       0.25585476 0.44806585 0.37148017 0.5462086
000110 d7 ea 7f be 36 23 b2 be 0e 2a dd 3d 32 cd 01 3f
       -0.24991928 -0.3479249 0.10799037 0.5070373
000120 d8 52 bc 3e a1 47 da be f6 e0 32 3e 14 5e 77 be
       0.36781955 -0.42632774 0.17468628 -0.24156982
000130 9e ec 19 be 20 72 2e 3e e3 6d 94 be 6e f2 e8 3e
       -0.15031669 0.17035723 -0.28990087 0.4549746
000140 ac c7 23 3f 1b bb aa 3d 9b 95 e2 be b1 49 9c 3e
       0.6397655 0.08336469 -0.44254765 0.30524972
000150 cb ec 86 be 9f 61 58 be 81 bc 89 3e a3 f1 87 bd
       -0.26352534 -0.2113099 0.2690163 -0.066378854
000160 01 ae e6 3d 60 5d 87 be 6d db a3 be 0b ef b6 3e
       0.11263657 -0.26438427 -0.32003346 0.3572925
000170 cf c7 ca 3d ce 00 76 3e e3 09 90 3e 5d c2 eb 3d
       0.09901392 0.24023744 0.28132543 0.11511681
000180 63 69 cf be 18 3d 53 bf 7f 3f f2 3e 4e 38 ea 3e
       -0.4051009 -0.82515097 0.4731407 0.45746082
000190 ef 4b 52 3d d7 17 e5 3c 1d ae 35 3e 8d 08 2b 3e
       0.051341947 0.02796547 0.177422 0.1670248
0001a0 f2 43 93 bd 11 5c 47 3e e2 95 1e be f0 a9 fa 3c
       -0.07190694 0.19468714 -0.15486863 0.03059861
0001b0 b8 4a 86 be 85 a2 a1 be 96 c6 87 be d9 f2 47 3e
       -0.2622888 -0.31569305 -0.26518697 0.19526233
0001c0 68 55 70 be 5e 07 f4 3d 23 c1 85 3e 73 9c d1 3e
       -0.2347008 0.11915468 0.26123914 0.40939674
0001d0 2d 8b 92 bd f0 e0 2e bf fb a8 0e be 55 be a3 3e
       -0.07155452 -0.6831198 -0.13931648 0.3198115
0001e0 54 72 32 be 21 46 92 3e ff f7 2d be 98 1b 73 bd
       -0.17426425 0.2856913 -0.16989134 -0.059352487
0001f0 63 21 5d 3e 64 4e 49 3d 15 46 bb 3e 32 23 96 3e
       0.21594767 0.049147025 0.36576906 0.29323727
000200 45 9c 85 3d d9 7a d2 3e 19 24 b0 3c 25 77 1e 3e
       0.06523947 0.4110935 0.021501588 0.15475138
000210 52 87 6f 3e 9e 91 b5 3e 00 60 a3 be 08 bd ff 3e
       0.23391464 0.3546266 -0.3190918 0.49948907
000220 b5 a4 b8 3d b2 4b 70 bc 78 71 e5 3e ca 4f fc 3d
       0.090157904 -0.014666485 0.44813132 0.12319906
000230 ec d1 df bd b0 d1 09 3d a5 3d 89 3e 39 ad b9 be
       -0.10928711 0.03364724 0.26804844 -0.3626497
000240 2d 22 8a bd f8 48 74 be fd 83 90 3e 5c ea 49 be
       -0.067448 -0.2385596 0.282257 -0.19718307
000250 41 cb 9b bc 78 45 0f bf 53 b6 8a 3e 97 de bb bd
       -0.019017817 -0.55965376 0.27092227 -0.09173315
000260 4b 5e b2 bd 14 ad 9a 3e 2c 23 47 be a8 71 e2 3e
       -0.08709391 0.30210173 -0.19447011 0.44227338
000270 de 96 cc 3e 23 ae b2 3e 1f dd 0f be 91 e7 8d 3e
       0.39958853 0.3489848 -0.14049195 0.27715734
000280 ec 92 07 be da e9 8e be 05 9f 5c be 2b 84 05 3e
       -0.1323964 -0.2791279 -0.21545036 0.130387
000290 e8 da 9b bd a3 f2 6a 3e f9 54 9c 3e 0d 9e 0d 3f
       -0.076101124 0.22944121 0.3053358 0.5531929
0002a0 32 b8 24 be 7d d5 0e 3d be 22 6a 3e 31 41 23 3f
       -0.1608589 0.034871567 0.22864816 0.6377135
0002b0 13 b2 c8 be 0c 6f 2f bf da 6f d4 bc e9 10 e7 3e
       -0.3919836 -0.6852882 -0.025932241 0.4513009
0002c0 2b f0 e7 bd f0 7a 73 3e 12 f4 b9 be f5 d6 7b 3e
       -0.11325105 0.23777366 -0.36319023 0.24593718
0002d0 9a e9 1d bf 48 9e 03 3f bf b9 62 3e 73 34 79 be
       -0.6168457 0.51413393 0.22141169 -0.24336414
0002e0 c6 58 2d 3f fe 4c 05 3e d9 27 d4 be 67 52 90 bd
       0.6771358 0.13017651 -0.4143665 -0.07046967
0002f0 a5 4c 98 bd c2 ad 9d bd b7 d4 a5 3e 7e ea bf 3e
       -0.07436494 -0.07699157 0.3238885 0.3748359
000300 cd 80 00 3f dd 70 97 3e 30 d0 32 3e 34 6e ed 3c
       0.50196534 0.29578295 0.1746223 0.028983213
000310 79 c0 9c 3e 6d 47 15 bf 1a eb 69 3e 92 fc 44 bd
       0.30615595 -0.5831211 0.2284359 -0.048092432
000320 c5 91 ad 3e 65 9b ba be c4 b0 15 bf c5 79 96 bc
       0.33900276 -0.36446682 -0.5847285 -0.018368611
000330 90 c1 b3 bd 8e 8c 33 3e 1d 7f 99 be b6 08 15 3f
       -0.087771535 0.17534086 -0.29979792 0.58216417
000340 51 a0 13 be 03 54 a5 be ba 17 bd 3e c9 7f 5c be
       -0.14416625 -0.32290658 0.36932164 -0.21533121
000350 64 21 8c 3e 75 74 d9 be ca da e8 3e 8e ad c3 3d
       0.27369225 -0.42471662 0.45479423 0.09554587
000360 b3 39 da be 31 2a d7 3e 1f 81 4d be 7a 04 a4 3e
       -0.42622146 0.42024377 -0.20068787 0.32034665
000370 00 3a 39 bc c7 41 6f 3e e0 fd 33 3d 6c dc 02 3f
       -0.011305332 0.23364936 0.043943286 0.5111759
000380 33 2d dd be 64 6c 54 3e 34 03 a3 3d 48 2d d0 bb
       -0.43198547 0.20744473 0.07959595 -0.006353054
000390 75 06 5a 3e ba 1c c3 3e 0e a3 37 3e fb 8f d0 3e
       0.21291526 0.38107854 0.17933294 0.40734848
0003a0 54 5b 0d bd 4d 55 b5 bd 32 90 2c 3e 51 88 96 3e
       -0.034510925 -0.088541605 0.16851881 0.29400876
0003b0 1b a0 c9 be 1a ce a4 3e 83 d1 da be 78 fc 8e 3e
       -0.39379963 0.32188493 -0.4273797 0.27926993
0003c0 a4 2e b6 bd ef 97 20 bf a8 87 e7 be 95 bf fe 3e
       -0.08895615 -0.6273183 -0.45220685 0.4975554
0003d0 c2 30 0f be 27 2f ae 3d 5d 36 a0 bd 6d 35 4d 3d
       -0.13983443 0.08505087 -0.07822869 0.05009978
0003e0 41 48 d6 3e 1c b6 3c bd 84 22 b4 bc 73 af b5 be
       0.41852 -0.04607211 -0.021989115 -0.3548542
0003f0 f5 d1 9f bc 21 be 16 3f 37 e5 97 3e 04 cc 3d 3e
       -0.019509295 0.58883864 0.29667065 0.18534857

net.4.bias f4 [6]
000000 e1 1a 25 3e 63 d3 01 3e d7 fc b6 3d e8 5b 67 3d
       0.16123535 0.12678294 0.08934944 0.056484133
000010 d6 2a 96 bd b3 83 88 bd
       -0.07332389 -0.06665745
