dqn.pt (torch, 78112 bytes, 6 tensors)

network.0.weight f4 [128, 12]
00000000: 1b32 0c3f 3ea3 0d3f e916 35bf 054c a2be
00000010: fe87 1d3b 0cb6 273d 5f88 313e c38b 353d
00000020: 9044 e1bd bd12 c8bd 3f6f f63e c991 8c3d
00000030: fcc6 06bf 03f8 81be c810 443e 6bdb 323f
00000040: 8115 893f 265b 583f 51c1 423f 8758 5fbe
00000050: 8a18 2e3e e7e0 29bd 5187 46be d161 5e3f
00000060: 8125 0dbf a203 203f 20ee 14be 3144 fb3e
00000070: e574 46be 6a79 3b3e 3dcb 303d 6ed2 263e
00000080: c5c5 843f 1cc1 a8be 5210 34bd c50f cc3e
00000090: ff9e 563e 8b57 163e a155 9b3e 6ebd 3f3f
000000a0: 32ae 3e3f 2aba 573f 46fe 753e 21f4 0fbf
000000b0: 6908 7f3e 3121 d5be cc43 f73e cff8 b63e
000000c0: 9623 5d3e 59f7 903e 51c6 04bf dfb9 273e
000000d0: c32b df3e edb6 c43e 8bdf 9b3e fb11 083e
000000e0: edf7 953e 196a 613e d454 07bf 4a6a 903b
000000f0: 20c2 6abe cdcd 183f 16d8 6cbc 4f19 1f3e
00000100: 4910 2b3e dde2 753d 8163 20be 6fd6 f5bd
00000110: 2a9a c0be 4cd2 8cbd 0be0 55be 46ff 403d
00000120: ed77 a5bd 83b4 4cbd d286 13be 4f08 4dbe
00000130: 50ef 82be 03be 993d b5c9 27bf c6c8 3bbe
00000140: ada1 1ebf 0e12 dabe f15f a73e 53d6 72be
00000150: 680f 2b3e 6f8f 1bbf adbb 713e 9754 863f
00000160: be0d b63d ea62 a43e 0b2a aabd eec9 9a3e
00000170: a53b 1c3e 5d55 353e 490c b13e 1cf5 bebe
00000180: e38e 8ebe 6643 5f3f 122a d53d 42ab 513f
00000190: 4117 203e cfb1 4dbd a80b c83e 81cd c43d
000001a0: 1f64 14bf 88e8 42be 0065 e6be e843 633f
000001b0: c48a 523e 3085 5e3e bde9 053f b0ea 80bf
000001c0: d2a4 ee3e 0816 263b 0f9f a83e 8e7f 3b3e
000001d0: 5a7b 763f dc35 b03e 311e 5b3e 455a a43e
000001e0: 3c90 c9bd f6dd 93bf a603 fe3c 51ef 3d3f
000001f0: c44d 17be d782 8b3e eb84 c43e 73a2 b33e
00000200: 8342 193f 857d 953e 828a 7ebd 3e9f c1bd
00000210: 6d3a 193f 8ce8 d0be a9ad 9cbe 5c99 60bf
00000220: 1db3 a93e e289 793f e0b8 31bd 3037 80bd
00000230: 92d6 8e3e dc46 29be 4819 4a3e ca1a f23d
00000240: f23e 613e 0058 bdbd 03e1 1fbf 0318 89bf
00000250: 9e31 653e 29f7 e8be eb09 a93e f1ec 2c3e
00000260: 0b14 bf3e 484f 033e e5f1 3cbd 5333 ba3e
00000270: 5ce6 563f 950a 1a3f 3088 f43d d9bf a13d
00000280: 8225 a0bd df92 803e dca6 08bf a1f8 2cbe
00000290: 1d4f e43e a753 e53d 66c4 36bf 9368 aabd
000002a0: 4c59 503e 8eab 083d b3c9 20bc 3e6b d43e
000002b0: d498 64bc 5ee3 05bf b2cc 83be 5128 953e
000002c0: 11a9 ddbe 26d0 d63e 2ede 3ebf 2f9e 96be
000002d0: 089c b1be 8f35 093f bd4a 023f 5b0b 373e
000002e0: 4e10 3f3e 370e 203e b950 fe3c fe7d 473f
000002f0: c0b3 233f 0343 acbe 460a 9d3d 150e 6c3e
00000300: bfcb 4c3f ca01 3a3f e9b9 3b3f e760 40bd
00000310: 843d 0a3f 2437 e73e 3425 bcbd 48c1 353f
00000320: 19c2 863e 7350 15be 3caf 1a3e a176 293f
00000330: 0f5f 793d 24e9 333e cfc6 ad3e 8371 d83e
00000340: 08c6 013f e4af adbd 16af 5d3f 3986 203e
00000350: 01f8 373f 23b3 873f 6998 97bd 9e90 cebd
00000360: 8797 d4be b53b db3e ae36 0d3f c008 39be
00000370: 3476 e63e 34d7 ad3e 02a0 053f 0a60 19bf
00000380: aec9 0e3f c498 d83e a76c 83bf 0325 a3be
00000390: 0a90 e4be 6933 13bf a457 8dbe 1512 dbbe
000003a0: f40e d8be c5cf d63d 5309 453f 6d10 9f3e
000003b0: 5470 3d3d f678 ca3e d94a b23e b3c5 93be
000003c0: c17b 413f 9df0 e73d 9860 f73e 051d 53be
000003d0: fb5e a7bd 2db0 ddbe 9284 2ebc 9b8d 9c3e
000003e0: afec 20be bf28 94be 2553 87be d35b 123f
000003f0: 756d 6a3e e2be eebc 368c 2d3f 6b85 a6be
0.54763955 0.5532721 -0.70738083 -0.31698623 0.0024037356 0.040945098 0.17337178 0.04432274
-0.109994054 -0.09769199 0.4813175 0.06863744 -0.52647376 -0.2538453 0.19147027 0.69866055
1.0709687 0.8451408 0.7607623 -0.21811114 0.17001548 -0.04147425 -0.19387557 0.86868006
-0.5513535 0.62505543 -0.14543962 0.49075463 -0.19380529 0.18308035 0.043162573 0.1629121
1.0372854 -0.3295983 -0.043960877 0.3985578 0.2095909 0.14681832 0.30338767 0.7489842
0.7448455 0.8426844 0.24022779 -0.56231886 0.24905552 -0.41626886 0.48293912 0.357367
0.21595606 0.2831371 -0.51865107 0.16379498 0.43588075 0.3842081 0.30443987 0.13288109
0.29290715 0.2201313 -0.5286381 0.004407202 -0.22925615 0.5968903 -0.014455816 0.15536998
0.16705431 0.060030807 -0.15662958 -0.120037906 -0.37617618 -0.068760484 -0.20886247 0.047118448
-0.08079515 -0.049976837 -0.14406899 -0.200227 -0.25573206 0.07506945 -0.65542156 -0.18338308
-0.6196545 -0.425919 0.32690385 -0.2371457 0.16705096 -0.6076574 0.23606749 1.0494565
0.0888934 0.32106715 -0.083088 0.30232185 0.15257128 0.17708345 0.34579685 -0.3729638
-0.2784339 0.87212217 0.10408415 0.81901944 0.1563387 -0.0502184 0.39071393 0.09609509
-0.5796527 -0.19034016 -0.44998932 0.8877549 0.20560747 0.21730494 0.5230978 -1.0071621
0.46610123 0.0025342721 0.32933852 0.18310377 0.9628197 0.3441609 0.21398236 0.3210012
-0.09841964 -1.1552112 0.0310076 0.7419329 -0.14775759 0.2724826 0.38382658 0.35084876
0.59867114 0.29197326 -0.06214381 -0.09454201 0.59854776 -0.4080242 -0.30601242 -0.8773401
0.33144465 0.9747602 -0.0433892 -0.06260526 0.2789808 -0.16530937 0.19736207 0.11821516
0.21996668 -0.092453 -0.62452716 -1.0710453 0.22382209 -0.45501068 0.3301538 0.16887261
0.3731998 0.12823212 -0.046129126 0.36367282 0.8394525 0.60172397 0.11940038 0.0789792
-0.07819654 0.25112054 -0.5337961 -0.1689172 0.4459161 0.11197596 -0.7139343 -0.08320727
0.20346564 0.033366732 -0.009813714 0.4148807 -0.013952453 -0.5230006 -0.25742108 0.2913232
-0.4329305 0.4195568 -0.7455777 -0.2941756 -0.34689355 0.5359735 0.5089529 0.17875426
0.18658563 0.15630423 0.031044351 0.77926624 0.6394615 -0.33644876 0.07667975 0.23052247
0.7999839 0.7265898 0.7333055 -0.046967413 0.54000115 0.45159256 -0.091867834 0.7099805
0.2631996 -0.1458147 0.15105909 0.6619664 0.06088167 0.17569405 0.3394074 0.42274103
0.50692797 -0.08480814 0.86595285 0.15676202 0.718628 1.0601543 -0.07402117 -0.10086177
-0.41521856 0.4281899 0.5516156 -0.18069744 0.45012057 0.3395325 0.5219728 -0.5991217
0.5577649 0.4230405 -1.0267533 -0.31864175 -0.44641143 -0.5750032 -0.27605927 -0.42787233
-0.42198908 0.10488848 0.7696735 0.3106722 0.046249703 0.3954541 0.3482273 -0.2886177
0.7557946 0.1132519 0.48315883 -0.20616539 -0.08172413 -0.43298474 -0.010651724 0.30576786
-0.15715288 -0.28937337 -0.26430622 0.5717136 0.22893317 -0.029143754 0.6779207 -0.32523665

network.0.bias f4 [128]
00000000: 6e99 4f3e 3272 0f3e 77e6 113e 7d79 e23d
00000010: daf4 1d3e 22d2 1a3e 0000 0000 4cb7 313e
00000020: 31a0 0a3e 8181 373e bb75 413e 70dc 073e
00000030: a1d4 4c3e 6027 133e 64b1 f93d 379a 263e
00000040: cbd8 033e eef0 0b3e 7ebd 113e f6ac 383e
00000050: 82c0 1f3e 09c6 ea3d a518 3a3e eda8 233e
00000060: 3ae2 1b3e 7b63 4a3e 385c 163e b6d2 e43d
00000070: ce1e 503e 538b f83d 20ea 453e 3a62 103e
00000080: bf88 183e b3df 163e f8d3 4f3e 681f 743e
00000090: 4f79 493e 4a12 523e 831e 0f3e 4ffe 333e
000000a0: 01c4 083e 7f2d 373e fb70 353e 556e 3f3e
000000b0: d6bd 473e e5c5 523e 0000 0000 7e71 023e
000000c0: 0000 0000 521e 363e 0ed8 173e 27d2 ac3d
000000d0: 81e7 2e3e 4d23 dd3d f171 7e3e 9d41 283e
000000e0: d758 7b3e 5f07 ab3d 02f7 1f3e 6615 033e
000000f0: 5242 073e ca27 143e b577 163e a362 433e
00000100: 491c 643e 7a46 223e 4eaa 113e 055a 0b3e
00000110: 01ca 413e 097b 873d 59e9 433e 5216 1f3e
00000120: 32d9 013e aa61 4a3e 0dfc 253e 1c47 ec3d
00000130: 3135 1c3e 0859 323e 19e9 133d 00eb f13d
00000140: e7c9 113e 49a6 243e 2690 433e 23bf f13d
00000150: b039 323e 27c2 183e 86b3 ee3d 1ceb 503e
00000160: be26 593e feb0 253e 13f1 0e3e 5c45 f43d
00000170: 7cdd 4d3e 1de5 1d3e 259c 2f3e 9930 053e
00000180: f7ad e13d c2e2 7b3e c875 4b3e a187 183e
00000190: 49bf 113e f33f 503e fb3c 213e 43a9 163e
000001a0: 5f59 123e c7c9 223e 88b0 473e 5880 913d
000001b0: 863c 393e 00a9 413e 2da2 463e 5881 533e
000001c0: 88fc 2f3e 99e5 363e cd32 403e ff93 623e
000001d0: 0344 123d 7328 2b3e da42 273e 9ff9 2c3e
000001e0: 62e1 213e 34a3 093e 083a 893d 97b4 143e
000001f0: 0b8e 213e cfec 203e db02 253e fafa 293e
0.20273373 0.14008406 0.14248072 0.11058328 0.15425435 0.15119222 0.0 0.17355078
0.1353767 0.17920496 0.18892567 0.13267684 0.20002986 0.14370489 0.12192038 0.16269766
0.12875669 0.13666126 0.14232442 0.1803473 0.1560078 0.114635535 0.18173464 0.15982409
0.15223017 0.19764511 0.14683616 0.111730024 0.20324251 0.12135949 0.19327593 0.1409997
0.14895914 0.14733772 0.20295703 0.23840106 0.19675182 0.20514789 0.13976483 0.1757748
0.1335602 0.17888449 0.1771888 0.18694432 0.1950601 0.20583303 0.0 0.12738606
0.0 0.17785004 0.14828512 0.08438521 0.17080499 0.10797749 0.24848153 0.1643128
0.24545608 0.08351015 0.1562157 0.12801132 0.13208893 0.14468303 0.14694102 0.19080596
0.22276415 0.15847197 0.14225122 0.13608558 0.18924715 0.06615264 0.19131984 0.15535858
0.1268051 0.19763818 0.16209431 0.115370005 0.15254666 0.17416775 0.03611097 0.11812401
0.14237176 0.16079058 0.19097957 0.118040346 0.17404819 0.14917813 0.11655335 0.20402187
0.21206185 0.16180798 0.1395915 0.11927292 0.20104021 0.15419431 0.17149408 0.1300682
0.11019509 0.2459822 0.19869149 0.14895488 0.14233126 0.20336895 0.15745918 0.14713006
0.14291905 0.15897284 0.19500935 0.07104558 0.18089494 0.18912125 0.19397803 0.2065481
0.17186177 0.17861022 0.18769379 0.22126769 0.035709392 0.16714649 0.16334096 0.16892098
0.15808633 0.13441163 0.06700522 0.14522015 0.15776841 0.15715335 0.1611437 0.16599646

network.2.weight f4 [128, 128]
00000000: 860e 5d3e e2e8 76bd ed7b 8b3e c866 393d
00000010: 417c 453e b9ca 3c3e f48c 80bc 273a c03d
00000020: 1cc9 ae3c f048 45bd d6d9 4a3d ad61 94be
00000030: 295c bdbd 06f9 8f3e 9a60 393e 62e5 fc3d
00000040: bd98 ae3d 33dd b83d ce1b 333d 95f3 a5bd
00000050: 0a04 a03c 4cc5 053c b3f8 12be 7099 f83d
00000060: eeac 9f3d 9f23 9f3e 018c 113e b76a 55bd
00000070: 07bb 843e 018a 83bd 4e48 a5bd e16e 36bd
00000080: 37c5 bfbc 8e7f 9d3e f8d1 64be d903 d53c
00000090: 2e28 06bd d6c3 3f3e 9958 93be 35c7 18be
000000a0: cb37 8abd 60c4 3ebe 4d9c 68bd f4f1 84bb
000000b0: aed4 453d aa1e 093e 350f acbd 207c ad3e
000000c0: beba 253d 306f 0d3a e922 b7bd 1503 a83e
000000d0: 02fd 723e 733e 633e 8bb8 92be 9148 8b3d
000000e0: 768a 2ebe 725f 41bc c4e9 aa3e e78e 0fbe
000000f0: 55b2 09be 6224 d43d 2ac5 9cbd daf0 353e
00000100: 1c92 e43d e186 0abe 8566 9ebb 8e59 d93b
00000110: 3f60 103e 71cb 583b 5406 633e 9ca4 a03e
00000120: 9d59 adbd e422 4dbe 82e2 bd3d b092 ae3e
00000130: da74 673e 76a2 a73d 5a82 023e 8b72 25bd
00000140: 68ca 963d a4b8 10be 3d29 f53d ab1a 693e
00000150: 869b 8a3c 8f47 883e ea2d 213e 4115 81bc
00000160: 96ff 883d 3879 a13e f3b8 973e 436f 443d
00000170: 546e 7d3e f323 3ebb 8a46 e13d 3985 0c3e
00000180: 7739 c1bd 2468 f33c d3e3 fdbd a45c d63e
00000190: 21fa 113e 0691 29be 25cf eebd 4ef2 733e
000001a0: 1179 e73e 38b2 a03e 548f d33d 934d d5bd
000001b0: 1c79 bd3e 33f1 27bd e880 cfbd a55f 51bd
000001c0: bf41 1d3e bc6a 323d dcc9 85be 83b5 153e
000001d0: 523e bbbd 4ff7 b8bd 76bb 8a3e 1fdc 3cbd
000001e0: 0e91 bd3d de88 503d 51d5 b0be d068 d33d
000001f0: dbea 76be 12a0 44be 5bf0 123f 0ba1 ef3d
00000200: 08dc 02be 69a0 893d a13b 90be 3f6b cc3d
00000210: de09 753d e03c 62be 33e8 42bd 5634 a73d
00000220: 0bfe aabe f037 343e 17be e13d 8d8f 9a3e
00000230: d417 603e d085 b93e f62d d2be 14f8 173e
00000240: 3b01 5d3e 1f40 2c3e 2895 0a3e 1e83 c73e
00000250: 6247 9f3d 8119 643d 7d51 8b3d 43a4 253c
00000260: ad23 a9bd 4d52 ac3c 0515 93be 506e 593e
00000270: b001 76bd 9dc2 d23d b89d 3e3e de29 663e
00000280: 1161 1b3e 3f6e a0bd 17a7 0f3e c7e8 3d3e
00000290: 1a62 98be 1d4b 68be b5d9 143e 64f6 2b3e
000002a0: e46b 343e 8b44 81bc e38d 613e 52fa b33c
000002b0: d305 343e cf58 863d f867 ff3d 6043 72bd
000002c0: c5aa f0bc adf7 b83e 3fad c63e c1d8 46bc
000002d0: f769 0bbd 4730 8b3d 2621 a3bd 375b a33e
000002e0: e5bf 8f3d bf61 bdbd 314b c83c a096 4f3e
000002f0: 22ef 743e 5d0a 2f3e 73f8 873d 7108 b9bd
00000300: ea03 f7bd fcfe 273e f64e cbbd dcc4 073e
00000310: cb60 90ba 8396 d4bd a365 b33c 49fb 683e
00000320: 3f0d d83e a4a3 4e3e 8e98 89bd 0d5a bd3c
00000330: f4b9 283c 2cff 2f3c dd2c 02be a15e 663e
00000340: 27ea 0f3e 5315 3dbd 850c a33e 1a20 7fbe
00000350: 4368 343e 1509 593c b086 113e b11b acbd
00000360: c94b e63d 04a0 86be 405a 803e 5665 3c3e
00000370: 2900 a1bc 1c69 0c3d 51ff 20be bea8 eebd
00000380: 430d 1c3d 3a82 873e 1676 b23c 154d 3cbe
00000390: 83a1 873c 7c02 0e3d 675b 4e3e 7f1f 08bd
000003a0: 3242 3abe dd84 3fbe 7dac 1b3e 3c4d a13e
000003b0: a7b3 e63d 76e0 683e 416c 873e ccd8 863e
000003c0: 0111 6c3e 5058 423e 1807 d53d 291e 16be
000003d0: c362 4f3e 5c8d 6abe 6f29 1dbe 6449 1a3e
000003e0: a454 3ebd eb3f b73e 1a40 a23e 348c 04be
000003f0: e614 2c3e b69f 543e a2e0 72be 85da 64be
0.21587572 -0.060280688 0.27242985 0.045264035 0.1928568 0.18436708 -0.015692212 0.09386092
0.02133613 -0.04816526 0.04952415 -0.2898077 -0.09246094 0.28119677 0.18103257 0.12348439
0.08525226 0.090265654 0.04372769 -0.081031 0.019533176 0.008164715 -0.14352684 0.12138641
0.077966556 0.31081864 0.14213564 -0.052103724 0.2592394 -0.064228065 -0.08070432 -0.044539336
-0.023409469 0.3076138 -0.22345722 0.026002811 -0.032753162 0.18727049 -0.28778532 -0.14919741
-0.06748923 -0.18629599 -0.056789685 -0.0040571634 0.04829853 0.13390604 -0.08401338 0.33883762
0.040461294 0.00053952914 -0.089422055 0.3281485 0.23729327 0.22191791 -0.2865642 0.0680095
-0.17045006 -0.011802541 0.33381474 -0.14019357 -0.13446935 0.10358502 -0.076547936 0.17767659
0.11160681 -0.13528015 -0.0048339986 0.00663299 0.14099215 0.0033080245 0.22170383 0.31375587
-0.08464358 -0.20032841 0.092717186 0.3409629 0.22603169 0.08185284 0.12745038 -0.04039244
0.07362825 -0.14132935 0.11970756 0.2276408 0.016919862 0.26617095 0.15740171 -0.015757205
0.06689374 0.31537795 0.29633293 0.04795767 0.24749118 -0.0029013127 0.109997824 0.13722695
-0.09434789 0.029712744 -0.1239697 0.41867554 0.14255573 -0.16559228 -0.116606034 0.238229
0.45209554 0.3138597 0.10330072 -0.10415187 0.37006462 -0.04100151 -0.10132009 -0.051116604
0.15357111 0.04355882 -0.2613057 0.14620022 -0.09142746 -0.09031545 0.27096146 -0.04610836
0.092561826 0.050911777 -0.34537748 0.10322726 -0.24113028 -0.19201687 0.57398003 0.117006384
-0.12779248 0.06720049 -0.28170493 0.09981393 0.059823863 -0.22093534 -0.047584724 0.08164279
-0.33396944 0.17599463 0.11022585 0.30187646 0.2188409 0.36234903 -0.4105069 0.14840728
0.215825 0.16821335 0.13533461 0.38967222 0.07777287 0.055688385 0.06802652 0.010109964
-0.08258758 0.021035338 -0.28726974 0.21233487 -0.060060203 0.10291026 0.18614852 0.22476909
0.15173747 -0.07833528 0.14028583 0.18545829 -0.29762346 -0.22684903 0.14536174 0.1679321
0.17619282 -0.015779754 0.22026782 0.021969948 0.17580347 0.06559908 0.12471002 -0.059146285
-0.029378304 0.36126462 0.3880405 -0.012136639 -0.034036603 0.067963175 -0.07965307 0.3190553
0.07019023 -0.09247159 0.024449917 0.20272303 0.23919347 0.17093797 0.06639185 -0.09034813
-0.120612934 0.16405863 -0.0992717 0.1325869 -0.0011015175 -0.1038027 0.02189905 0.22752108
0.42197606 0.20179611 -0.067185506 0.023114229 0.010298241 0.01074199 -0.12712426 0.22497036
0.14054166 -0.046162914 0.3184549 -0.2491459 0.17617898 0.013246794 0.14211535 -0.08403719
0.112449236 -0.26293957 0.25068855 0.18398032 -0.019653397 0.034279928 -0.15722395 -0.11653279
0.038098585 0.26466542 0.021784823 -0.1838878 0.016556507 0.034670338 0.20152055 -0.033233162
-0.18189314 -0.18703027 0.15202518 0.31504238 0.11264735 0.22741875 0.2644978 0.26337278
0.23053361 0.18979001 0.10401744 -0.14659943 0.20252518 -0.22905487 -0.15347837 0.15067059
-0.04646744 0.35790953 0.3168953 -0.12944108 0.16804847 0.2076405 -0.23718503 -0.22348984

network.2.bias f4 [128]
00000000: 50d3 a23d a514 e43d b2d5 30bc 0c45 ef3d
00000010: 2f51 3cbc 84e6 bdbc 5b1e 6f3c b164 cc3d
00000020: 3a51 f4bb 3151 ed3d f259 8e3d bc3c d93d
00000030: 85a4 ad3d 74db 0f3e 917e 94bc 7a35 39bc
00000040: 2f9d 863c d3fb df3d 2de7 e83d dfd7 863d
00000050: 8e2f 14bd c7cf 023e f170 c4bb 924c de3d
00000060: 4657 efbc 7061 ea3d 2ce9 81ba 2bb0 c03d
00000070: 20bc 7a3d 52d5 6a3d 5ada 9c3d 06ed db3d
00000080: de39 21bc 694c c13d 4408 693d 77f4 ef3d
00000090: d6fa c9bc d220 a53d abfb b3bc 65e7 a13d
000000a0: 1e0a b43d c26a 4e3d 7f92 133e c3b3 f03d
000000b0: a141 613d 9ac9 093d d0e6 823d eec0 ac3d
000000c0: 0000 0000 d004 923c 7386 213e 8b84 b53d
000000d0: 0000 0000 e1a8 c3bb 93ec 853c e32e 0f3e
000000e0: e7ff b33d 6b2c 5b3d 0000 0000 0000 0000
000000f0: 0a14 763c afc6 ad3d f179 bcbc 06ea 0b3e
00000100: c280 3f3d 4bc9 443d 0612 37bc 1b9d fb3d
00000110: 9d50 4c3d 8724 a83d f2f8 0b3e 9f69 c43d
00000120: abbd 44bb 5112 f23d 123a a53d b415 843d
00000130: 5fb0 1e3d 3ffc d73c 4f6d 42bc 1930 e63d
00000140: 1a96 943d 23f1 023e e61b e33d c654 bc3c
00000150: 4805 623d f739 333d 1b38 ff3d 2198 cc3d
00000160: 60c3 b43d c5ff b23d e326 a43d e0db 343d
00000170: 3e8f 293d 2e7f bd3d c6b3 59bb 4c81 a23d
00000180: e1c3 8c3d b894 eabc ad69 76bb 0000 0000
00000190: 56c0 cd3d d8d2 db3d 62d5 e63d 6c70 ac3d
000001a0: 626e a43d ceb2 a03c 2439 9f3d 7ba1 453d
000001b0: 591b 003a bf39 943d 05d8 e93d ad35 ae3d
000001c0: ca10 853d bd11 82ba 34ec 91bb 1579 5abc
000001d0: c858 ed3d 5c1d b33d d769 6d3d cc0a d83d
000001e0: 1b01 053e 6e55 5e3c e4b7 22bc e33e f53d
000001f0: 0a60 6f3d 6c47 c33d d02f 953d e240 1f3e
0.07950461 0.1113675 -0.010793136 0.116830915 -0.011493965 -0.023181207 0.01459464 0.09980143
-0.007455972 0.11587752 0.069507495 0.10607287 0.08478645 0.14048558 -0.018126758 -0.011304254
0.016432373 0.109367035 0.11372218 0.06584143 -0.036178164 0.12774573 -0.005994909 0.108544484
-0.02921642 0.11444366 -0.000991141 0.094086014 0.061214566 0.057332344 0.07658835 0.10738568
-0.009840457 0.09438402 0.05689265 0.1171655 -0.02465574 0.080629006 -0.02197059 0.07905463
0.08790992 0.05039478 0.14411353 0.11753037 0.05499423 0.033639528 0.0639168 0.08435236
0.0 0.01782456 0.15773945 0.08863171 0.0 -0.0059710597 0.016348159 0.1398273
0.08789044 0.053509157 0.0 0.0 0.015019426 0.084851615 -0.023007365 0.13663492
0.046753652 0.04804353 -0.011173731 0.12285825 0.049881566 0.08210092 0.13669184 0.09590458
-0.0030020277 0.118199 0.08067717 0.06449452 0.03874242 0.026365397 -0.0118668815 0.11239643
0.07255192 0.12787299 0.110893056 0.022989642 0.055180818 0.04375645 0.12461873 0.09989954
0.08826327 0.087401904 0.080152296 0.044155 0.041396372 0.09252773 -0.0033218726 0.07934818
0.068732984 -0.028635368 -0.0037599609 0.0 0.10046451 0.10733575 0.11271168 0.0841988
0.08028866 0.01961651 0.077745706 0.048249703 0.00048868876 0.07237577 0.114181556 0.085063316
0.06497343 -0.0009923499 -0.0044532064 -0.013334532 0.11589199 0.08745834 0.057962265 0.10548934
0.12988703 0.013570173 -0.009931538 0.11974885 0.0584412 0.09535107 0.0728451 0.15552095

network.4.weight f4 [6, 128]
00000000: 5582 d7be 628f 6d3e 3c76 83bd 418a cd3d
00000010: 387c aabd 558e 2a3d 54df a0be 2ba3 223d
00000020: 1ffc 39be 24f9 233e e2ba 553e ca66 553d
00000030: 9853 ebbd d2d6 323e 5ff0 b93d 0f68 e8bd
00000040: 3cf5 a8be 0a06 bb3e 46cb 37bc 4f24 2fbe
00000050: bb1b 8e3d b77f ee3d 0d3b d4bd 2332 7b3e
00000060: b6ea 713e 584c f5be 36f7 1f3d 1362 b0be
00000070: cef7 d03e 8a6d 6fbe 563a 2e3d 291f 9fbc
00000080: 11b3 d5bd c041 8cbe 3535 98be 3f29 8c3e
00000090: f76d e13d aa01 85be 5009 5dbd 33ea 5d3e
000000a0: 06c6 0cbe 35b5 8ebe 7297 cf3e 5cda a33e
000000b0: 78c7 bfbe 2d62 e43c 17c4 94be 07a0 fdbd
000000c0: bb0e f43d 93d0 efbd ad02 243e 35fb dabe
000000d0: 1daf 6e3d c68a 803d 6c1a 4abd 2056 7bbe
000000e0: 528d aa3d 139c debd d4cf 91be ea71 8fbd
000000f0: 25d5 a8be 1581 26be fe35 e7bd 09aa b1be
00000100: e2f8 913e 1191 debd d61d 263e 5a0c f13e
00000110: 0175 99be 604c a83c c07e d03e f603 a5bd
00000120: aa4d 1dbd 1755 cdbe 743f 2c3e 6242 bbbd
00000130: e426 d8be 2765 acbe 8ee0 583d a78c ed3e
00000140: 0e05 63bd 43c3 dd3e 9292 2abe dc5b cebe
00000150: 304d 39be 9725 993e d8f5 75be 9d38 ac3e
00000160: 4233 9a3e 8563 2bbe 336f 1bbe 6e19 7cbe
00000170: c426 17be e925 a9be e894 77be 03dc 27be
00000180: eb34 84be 60c8 893d 78ba dcbc 99a3 9d3d
00000190: 023d 5fbe 8804 8f3e 62c5 6c3e 9efe 13be
000001a0: 0c60 ecbd 6779 063e f675 333c 40a6 663e
000001b0: 791e b2be dad9 1a3e 26e2 ddbc a375 513e
000001c0: b5aa 14be 8ad7 e93d 08c6 43be f0ac 1fbe
000001d0: b7f7 67be 3afd a2be c163 f1bb 99bd 663c
000001e0: b955 bd3e 2c35 2bbf 587a c6bd 5dcb 813e
000001f0: cb7e 39be 28b2 a13e 87a7 16be 815a dcbc
00000200: 205c 183e d968 61be a57f 6d3e cbe1 1cbe
00000210: 6c6a fe3d dcdc 163d e6de 86be b77f 62be
00000220: 8f78 94bd 9f5b 343e 1bc1 77be 9c81 5a3e
00000230: e095 933e 2fd6 823e c5d2 773c 3d93 77bd
00000240: 796c be3d 7595 8fbd fbec 64bd c7ac 74be
00000250: c547 32be bdd3 4bbd e31d 5cbd da53 0e3e
00000260: 5942 1d3e 5df2 803e dcc3 30be fa62 6dbe
00000270: d952 82be 4ebb 7f3e 2fc2 dfbe c2b0 acbe
00000280: b42b e23d c665 85be 2363 833e 1b1c 16bd
00000290: 14bf 6ebe c585 04be ce5a 843d dfad 32be
000002a0: c81d 3abc 10be 01bf e162 22be 4b18 6dbe
000002b0: 2ddb b93e ff8b 503d e723 02be d9c6 c1bd
000002c0: daee cc3c 2d2f ac3d 0dca c4be 2bfb 563d
000002d0: b715 2d3e ccf7 7c3e 8407 523c 6d48 9b3e
000002e0: 9fa3 15be e9f1 ca3d 2ab2 193d 1136 93bd
000002f0: 61d2 6abe 2370 ae3e a344 79bd c073 3d3e
00000300: 8927 c8bd f965 afbe 9b48 193d 433d 963e
00000310: 50ef 7b3d 0794 94be e09d d33e dba6 35be
00000320: 3013 513c 7da6 97bd 60ab 893e 079a 95be
00000330: 1b31 e73e 5a52 8e3d 4495 7ebe e470 6bbe
00000340: 8409 8a3e 40aa b73e 46d5 b83e 590e f1bc
00000350: 8c4b cbbb 9d86 2bbe 3fb5 59be 271e af3e
00000360: 5b1f 2cbe 58ba 35be 4eee ddbe da44 04be
00000370: 2104 d03e 4704 963e 34aa c13d af8a 143e
00000380: 483f a2be 128e 1ebb adda 2abe 3cea efbc
00000390: dcad 86bd 1c86 393e eecc 8dbd a67f 353e
000003a0: 7b28 45bd 4391 b4be a96d 0fbd 321e b2be
000003b0: 700f 8cbe 785b afbd 2996 ebbc fceb 9c3e
000003c0: be5a c7bd 49ea 833d ce64 9b3d b6e1 af3d
000003d0: 8d53 35be c905 4fbe 25ba 1dbe 63a2 e33e
000003e0: bb34 37be b1f1 b7bd beea 1abe 073d 233e
000003f0: e59b 233e e82d 8fbd 32b4 293e 3fac f93e
-0.42091623 0.23199227 -0.06419036 0.100361355 -0.08324474 0.041639645 -0.31420386 0.03970639
-0.18162583 0.16013008 0.20872071 0.05209998 -0.114905536 0.1746476 0.0907905 -0.113479726
-0.329996 0.36528045 -0.011217898 -0.17103694 0.06938883 0.116454534 -0.103628255 0.24530844
0.23624691 -0.47909808 0.039054118 -0.34449825 0.4081406 -0.2338163 0.042536102 -0.019424038
-0.10434545 -0.27393913 -0.29728094 0.27375218 0.11007302 -0.25977832 -0.05396396 0.21671371
-0.13747415 -0.27872625 0.4054523 0.32002532 -0.3745687 0.027878845 -0.29055855 -0.123840384
0.11916872 -0.11709704 0.16016646 -0.4276978 0.05827247 0.06276469 -0.049341604 -0.24544573
0.08327736 -0.108696125 -0.28478873 -0.07004149 -0.32975116 -0.16260178 -0.11289595 -0.3470004
0.28510195 -0.10867513 0.16222319 0.47079736 -0.2997208 0.020544231 0.40721703 -0.08057396
-0.038404144 -0.4010398 0.1682108 -0.09143521 -0.4221717 -0.33670923 0.052948527 0.46396372
-0.055424742 0.43313035 -0.16657475 -0.40304458 -0.18095851 0.2991149 -0.24019563 0.33636943
0.30117232 -0.16737182 -0.15179138 -0.24619076 -0.14760882 -0.33036736 -0.24177897 -0.16392522
-0.25821623 0.067276716 -0.026944384 0.076972194 -0.21800616 0.27933145 0.2312217 -0.14452597
-0.11541757 0.13132249 0.010953417 0.22524357 -0.34788874 0.15122166 -0.027085375 0.20455031
-0.14518245 0.11418064 -0.19118512 -0.15593314 -0.2265309 -0.31833822 -0.007366628 0.01408329
0.36979464 -0.6687801 -0.09691304 0.25350466 -0.18114774 0.31581235 -0.14712344 -0.026898624
0.14878893 -0.22012652 0.23193224 -0.15320508 0.12422642 0.03683172 -0.26341933 -0.22119032
-0.07249557 0.17613076 -0.24194758 0.21338505 0.28825283 0.25554034 0.015125935 -0.06044315
0.09298033 -0.070109285 -0.055890065 -0.23894034 -0.1741019 -0.049762476 -0.05373944 0.13899174
0.15357341 0.25184909 -0.17262214 -0.23182288 -0.25453833 0.24973795 -0.43702838 -0.33728606
0.11043492 -0.2605421 0.25661573 -0.036647897 -0.23315078 -0.12941654 0.06462632 -0.17449139
-0.0113596395 -0.5068064 -0.15858032 -0.23153798 0.3630003 0.05091476 -0.12709008 -0.09461755
0.025016237 0.084074356 -0.38435403 0.052485626 0.16902815 0.24703902 0.012819175 0.30328694
-0.14613198 0.09909422 0.037523426 -0.07188047 -0.22931816 0.3406993 -0.060856473 0.18501186
-0.09773166 -0.34257486 0.037422758 0.29343614 0.061507523 -0.29019186 0.41331387 -0.17739432
0.012760922 -0.07404802 0.2688856 -0.29219076 0.45154652 0.06949301 -0.24861628 -0.22992283
0.26960385 0.35872078 0.36100215 -0.029425787 -0.0062040742 -0.1675057 -0.21260546 0.34202692
-0.16808836 -0.17746866 -0.43345875 -0.1291689 0.4062815 0.29300138 0.09456292 0.14506029
-0.31688905 -0.0024193567 -0.1668498 -0.029286496 -0.0657613 0.18117565 -0.06923853 0.17724475
-0.04813431 -0.35267076 -0.03501669 -0.34788662 -0.27355528 -0.08562368 -0.028758125 0.30648792
-0.097341046 0.06441171 0.07587586 0.08587973 -0.17707653 -0.2021705 -0.1540304 0.4445983
-0.17891209 -0.08981646 -0.1512861 0.15941249 0.15977438 -0.06991178 0.16572645 0.48764226

network.4.bias f4 [6]
00000000: 3636 443d 19d7 cd3c 85dc 27bc 8bbd e43c
00000010: 59f3 48bd 833f 48bd
0.047903262 0.02512698 -0.010245447 0.027922412 -0.0490602 -0.048888694
