dqn.pt (torch, 23520 bytes, 6 tensors)

net.0.weight f4 [64, 11]
000000 f7 37 6a 3e 3d 8e e0 3e ef 46 46 bf b8 ef 05 3f
       0.22872911 0.4385852 -0.77451986 0.52318907
000010 f3 c2 8d 3e 54 68 22 3f 6d c4 1c 3e 0e 36 a1 3d
       0.27687797 0.6344044 0.15309305 0.07871638
000020 ae c1 6e 3f 5d b1 a4 3e 6b c5 38 3e 21 1b 15 bf
       0.9326428 0.32166567 0.18044059 -0.5824452
000030 af 34 ab 3e 22 2f 4a be 40 26 e7 3d 6e 04 fc 3e
       0.33438632 -0.19744542 0.112865925 0.4922213
000040 c4 e9 1d 3f 60 a7 10 3e 06 1a e9 3b 9d 01 34 bf
       0.61684823 0.14126348 0.007113698 -0.7031496
000050 99 29 35 bf 7e 0d 8a bf 84 a0 9c 3e 70 6a 55 be
       -0.707666 -1.0785367 0.30591214 -0.20841384
000060 47 9e b1 3e b2 ba 5f 3f 07 7c b0 be 1e d9 0f 3f
       0.3469107 0.8739425 -0.34469625 0.5619067
000070 c6 1b 19 3f 5b fb 06 bd 13 f0 06 3f ab b2 30 3e
       0.59808004 -0.032954555 0.52710074 0.17255656
000080 2b 8c 9e 3e ef f9 9f 3e 40 83 45 3f fc c1 c4 be
       0.30966315 0.31245372 0.77153397 -0.38429248
000090 75 8a db 3e ac d5 d6 be a1 d2 01 bf c9 85 00 3c
       0.42879072 -0.41959894 -0.5071202 0.007844397
0000a0 c6 98 dd 3d 86 95 60 3f 6c 59 12 3e 2a bd ce 3d
       0.10820155 0.87728155 0.14291924 0.10094674
0000b0 2c f9 f5 be e5 81 81 be 1d 5a 2b bf 2d 7a 05 3f
       -0.48041666 -0.25294414 -0.66934377 0.5213955
0000c0 7a c1 4f 3f 29 4c 2e bf b4 42 6f 3f 25 fe 07 3f
       0.81154597 -0.6808496 0.93461156 0.5312217
0000d0 df 9c 93 bd d8 0a 13 be 95 3a bf 3e aa 4a 26 bf
       -0.07207655 -0.14359605 0.37349382 -0.6495768
0000e0 f8 78 0b bf 7f 90 43 3f 45 f8 43 3f c3 f6 6a 3c
       -0.5448146 0.7639236 0.76550704 0.014341059
0000f0 5e 1e 23 be 2b 2c 4a be 9b a6 51 3e c8 19 f4 be
       -0.15929553 -0.19743411 0.20473711 -0.4767592
000100 d3 2b 37 3d 53 c6 03 bf 68 07 4f 3f 12 2a 2c bf
       0.04471953 -0.51474494 0.80870676 -0.67251694
000110 18 ab 2d 3f 6c aa 1d bf 9e 65 61 be bb 28 ef be
       0.67839193 -0.6158817 -0.2201142 -0.46710762
000120 82 b2 8e 3c c0 08 7b 3e a6 30 95 be 30 21 a2 3b
       0.017419104 0.24515057 -0.29138678 0.004947804
000130 1e c1 85 be 69 00 21 bf 60 20 2f 3e 10 ca 10 3f
       -0.261239 -0.6289125 0.17102194 0.5655832
000140 74 30 f7 3e a4 36 0b bf c6 3a 1b 3f 9d 41 bb 3e
       0.48279154 -0.5438025 0.60636556 0.36573496
000150 5a dc 8b 3e ab 63 67 bd 92 6d a2 3f df 16 85 3f
       0.27316552 -0.056491535 1.2689688 1.0397605
000160 9f a1 b0 3e 63 f8 68 3f 9c b3 df 3e 6e 5c 33 bf
       0.34498307 0.9100401 0.4369172 -0.7006291
000170 eb 2b c2 3d a7 2c 3b be 01 10 c5 be 31 55 bf 3c
       0.09481033 -0.18278752 -0.38488773 0.023356052
000180 dd d7 24 3f 0a 82 0d bf 4c 66 a7 be c8 f9 0a 3f
       0.6439188 -0.5527655 -0.32695234 0.54287386
000190 4c 8a 87 bf e6 27 9f bd 54 28 e4 3e 4b 47 88 be
       -1.058908 -0.07771282 0.44562018 -0.26616892
0001a0 db 74 1d 3f 68 60 84 3f 69 b9 78 3f 2f c7 e5 3e
       0.6150643 1.0341921 0.97157913 0.44878528
0001b0 31 0f 3d bf c2 05 65 3f 78 23 0e 3f cc ef ad 3e
       -0.73851305 0.8946191 0.5552287 0.33972013
0001c0 a8 e9 1a bf b7 70 fd 3e eb c4 eb 3e a9 38 21 3f
       -0.6051278 0.49500057 0.46048674 0.6297708
0001d0 28 b9 c9 3e 6a 50 8b bb a0 40 2a 3f f5 54 b6 3c
       0.39399076 -0.0042515295 0.6650486 0.022257308
0001e0 cf 79 a6 be 8f 8b 51 be a7 67 31 3e ce ca 0f bf
       -0.32514808 -0.20463394 0.17324696 -0.5616883
0001f0 4f bf 2e 3f cd 39 0d 3f 27 48 d0 bc 40 9e 63 3e
       0.68260664 0.5516632 -0.02542503 0.22228336
000200 a3 32 63 3f b3 87 33 3f 13 09 1d 3f 48 dd 7c 3e
       0.8874914 0.70128936 0.6134197 0.24693787
000210 e8 cd 14 bf 74 10 9b be c0 f0 98 bc 97 be 61 3f
       -0.5812669 -0.3028599 -0.018669486 0.8818144
000220 69 98 05 bf 2d 8d 3f 3d 60 eb 80 bf f7 e9 c5 3e
       -0.52185684 0.046765495 -1.0071831 0.38655064
000230 f8 24 c1 be c7 b9 dd 3e f7 34 c7 be bf e9 43 3f
       -0.37723517 0.433058 -0.38907596 0.76528543
000240 72 d4 48 bf 64 d1 20 3f bf 56 84 3e d0 6b 52 3d
       -0.78449166 0.62819505 0.25847432 0.05137235
000250 e1 8f 04 3f 73 44 e7 be 24 ea e2 3d cd 33 af be
       0.5178204 -0.4516941 0.11079815 -0.34219208
000260 8c 8e dc 3e c1 83 85 3d 75 c0 37 bf 3e fd cd 3e
       0.43077505 0.06519271 -0.7177804 0.4023227
000270 d7 72 fb 3c 5b 55 9b be 28 2b 2c be 96 6c a9 3e
       0.030694408 -0.3033856 -0.16813338 0.33090657
000280 8b 2f 83 3e 0e 53 b7 bd d7 dd 0b 3f c0 51 8b 3f
       0.2562221 -0.08951388 0.54635376 1.0884323
000290 78 10 01 3f 5f 7f 05 3f ed 4c 20 be ad 31 e2 3e
       0.50415754 0.5214748 -0.15654345 0.44178525
0002a0 e4 84 24 bf b2 58 33 3f e3 0f 1e 3e d4 9b 39 bf
       -0.64265275 0.70057213 0.15435748 -0.725034
0002b0 5f 71 1f 3f 51 97 97 3d 4e 3b dd 3e 6e 19 20 3e
       0.62282366 0.07401908 0.43209308 0.156347
0002c0 78 0f f2 3e fd 74 e7 3e 63 c4 86 bf 61 7c 41 bf
       0.47277427 0.45206442 -1.0528682 -0.7558041
0002d0 0e 78 63 3e e4 66 89 3d dd 0d 8b 3e bb 65 15 bf
       0.22213766 0.06709078 0.27159014 -0.58358353
0002e0 37 7c cc 3e c0 1b c5 be 7a 0a 6e 3e c9 bf 22 3f
       0.39938518 -0.38497734 0.23246184 0.6357389
0002f0 09 e2 81 3e f6 1f bf 3b 08 cc 6b 3f 81 35 94 3e
       0.25367764 0.0058326675 0.921082 0.2894707
000300 14 41 f1 be c4 f8 ce 3e 53 79 b0 3d 5a c5 fe 3e
       -0.47119963 0.40424168 0.08616891 0.49759942
000310 01 4d 83 be 9c fb c0 3e 34 37 44 bc e4 d6 75 3f
       -0.25644687 0.37691963 -0.011976052 0.9603102
000320 12 2d 88 3e 19 89 7e bf 40 44 c3 be 90 f8 eb be
       0.26596886 -0.99427944 -0.38138008 -0.46088076
000330 7c ff 9f be 4f 41 56 3f 1f ef 3b 3f b8 16 92 3e
       -0.31249607 0.83693403 0.73411745 0.28532958
000340 43 15 6a 3f 35 59 e8 be d4 85 6a bf db ec 15 3f
       0.9143869 -0.4538056 -0.91610456 0.5856454
000350 ec 1d a3 bc c0 6b e6 3e 5b 6a 62 be 93 fc a6 3e
       -0.019911729 0.45004082 -0.22110884 0.32614574
000360 bf 2f 18 bf 24 3c af be 1c 89 cf 3e f1 85 c2 3e
       -0.59447855 -0.3422557 0.40534294 0.37992814
000370 36 a1 e7 be 9a b9 12 bf 52 d1 87 3e 08 ef 8a 3e
       -0.45240182 -0.57314456 0.26526886 0.2713549
000380 29 1d ea be a1 62 36 3e 85 cc 8d be cd b3 6d 3f
       -0.45725372 0.17811061 -0.276951 0.9285248
000390 a4 c1 58 3f 5a 73 01 bd 8f 64 2d 3f 3f 7a 6c be
       0.8467047 -0.03160415 0.67731565 -0.23093508
0003a0 63 23 6e 3e f5 2f b4 3e 47 e6 82 3e 1c 2b 18 3f
       0.23255686 0.35192838 0.25566313 0.5944078
0003b0 66 71 5d 3e f6 7b 22 3f 37 c4 1a bf ea 26 c4 be
       0.2162529 0.634704 -0.6045565 -0.3831094
0003c0 a3 3e 9a bd c2 e4 9c 3d d1 23 f4 be 8c f5 62 3f
       -0.07531478 0.076608196 -0.47683576 0.88655925
0003d0 12 4c a4 3e 49 7c 19 3f 6f e7 11 3c 98 9f ff bd
       0.32089287 0.5995527 0.008905276 -0.12481612
0003e0 15 96 77 3e 95 1c 73 be 97 49 64 bd 7f 2a 15 3f
       0.24178346 -0.23741372 -0.055734243 0.5826797
0003f0 49 f3 57 bf 23 d9 83 bd 74 a4 60 bf 38 c1 34 bf
       -0.843556 -0.064379 -0.87750936 -0.7060733

net.0.bias f4 [64]
000000 5f fc 1b 3e 7f 83 a6 bd 27 7b 1f 3d 0f 7d 5b 3e
       0.1523299 -0.0813055 0.038935807 0.21434425
000010 73 83 8d 3e ff 7b 85 3d 7d 70 5d 3e 05 bc 96 3e
       0.2763935 0.06517791 0.21624942 0.29440323
000020 b3 86 bd 3b 38 25 94 3e d6 c6 ce bc db 45 a5 3e
       0.0057838797 0.28934646 -0.025241297 0.32279858
000030 a7 26 53 bb 42 13 3a 3e 8c 4a b2 3e 7a ae ae bb
       -0.0032219084 0.18171409 0.348225 -0.005330858
000040 48 18 62 3e 1d c7 23 bd ac 62 6f 3e 44 15 a0 3d
       0.22079575 -0.03998481 0.23377484 0.07816556
000050 c0 3b c9 3e bf a4 5e 3d 03 88 9f bb 10 5f 9d 3e
       0.39303398 0.054356333 -0.004868509 0.3073659
000060 10 48 22 3d 5c 90 82 3e 61 50 15 3c 13 a0 92 3e
       0.039619505 0.25500762 0.009113402 0.28637752
000070 73 b8 c6 3e 26 f3 49 3e e2 d4 80 3e eb ab 5f 3e
       0.388126 0.1972166 0.25162417 0.21842925
000080 72 43 c9 3d 76 4e a1 3e 92 49 27 3e 18 4a b7 3d
       0.09827317 0.31505173 0.16336659 0.08949679
000090 17 31 09 3e ed 06 44 3d f2 c5 85 3e fd f8 18 3e
       0.13397633 0.047858167 0.26127583 0.14938731
0000a0 25 a8 d7 3e ea d9 36 bd 25 4a 7b 3e ad 8f 6b bc
       0.42120472 -0.044641413 0.24540003 -0.014377517
0000b0 c2 51 13 3e 46 75 92 3e 2c bc e9 3c ff 1e 20 3e
       0.14386657 0.28605098 0.02853211 0.15636824
0000c0 d9 01 0f 3e 21 fb 82 3e a3 49 4f 3e 2e bf 42 3e
       0.13965549 0.2558222 0.20242934 0.19018242
0000d0 1f 39 1e 3e 64 a4 01 3e 73 a0 5e 3e aa f1 e8 3c
       0.15451477 0.12660366 0.21740894 0.028435547
0000e0 ab 14 0a 3e e1 fd 96 3e d7 db 3f 3d 66 e2 0d 3e
       0.13484447 0.2949057 0.046840515 0.13855895
0000f0 de 4a 1a 3d 60 27 36 3e 30 c7 03 3e b8 d5 2c 3c
       0.037669055 0.17788458 0.12868953 0.010549001

net.2.weight f4 [64, 64]
000000 71 b7 75 3e 7d 9b ef 3e 73 c3 21 be e7 95 ef 3d
       0.23995759 0.46798316 -0.15797214 0.116985135
000010 f1 91 6d 3d 37 66 b8 bd bd 97 2e 3d 94 f9 ad 3b
       0.05800051 -0.09003871 0.042625178 0.005309293
000020 03 76 5e 3e 63 eb 24 bf 21 1d d5 3e b1 59 76 3e
       0.21724705 -0.6442167 0.41623786 0.24057652
000030 3c da 29 3d e6 25 aa be c3 5e 53 3e 30 78 f1 3c
       0.04146789 -0.3323204 0.20641617 0.029476255
000040 6a 37 d4 bc 58 85 05 3e 4b 0a f6 3e f1 2b 8b be
       -0.02590533 0.13039148 0.48054728 -0.27181962
000050 bc e0 fd be 1b 93 04 3e 83 34 25 3f 60 e1 ae be
       -0.4958552 0.12946741 0.6453325 -0.34156322
000060 80 8a 0e 3f 78 2f f0 3d 08 34 d7 3c c6 89 29 be
       0.55680084 0.11727804 0.026269928 -0.16556463
000070 ee cd 0e bf 5e 6c e6 bc 28 d9 f4 bd 5f 40 cb 3e
       -0.55782974 -0.028127845 -0.11955482 0.3969755
000080 1a 83 9c 3e 9b 2b 97 3e 5a da 05 bf 3e 32 05 3e
       0.30568773 0.29525456 -0.52286303 0.13007447
000090 c1 6e 0a 3f ed 14 3f be ce 25 ba bd d8 a1 ed 3e
       0.5407525 -0.18660326 -0.09089242 0.4641254
0000a0 0d 81 fa bd 48 de 9a bd a5 98 68 3e 48 28 c3 be
       -0.12231646 -0.07561928 0.2271448 -0.3811667
0000b0 3f 12 01 bf a4 be a1 3e 95 89 89 be bf d4 8d 3e
       -0.50418466 0.3159076 -0.2686278 0.27701375
0000c0 d4 b9 87 be ad 40 69 be d5 bd 54 3e ff 44 03 bf
       -0.26508963 -0.22778578 0.2077554 -0.51277155
0000d0 e9 f5 e2 3e fa 38 e4 3e 6f 70 f9 3c 0a 74 4a 3e
       0.4432824 0.4457472 0.03044912 0.19770828
0000e0 51 f8 fa 3e f3 61 3f bf 0a 0f 14 be e3 a6 09 3e
       0.49017575 -0.74758834 -0.14458862 0.13442568
0000f0 81 a3 32 3e 5b d9 75 3e 7f 96 c2 3e 56 5d 00 bd
       0.17445184 0.24008696 0.38005444 -0.031339012
000100 ce 0c 90 be 12 06 93 3e 52 e0 87 bd 9f 6f 1c 3e
       -0.2813477 0.2871557 -0.066345826 0.15276955
000110 84 64 ad be 6a 54 aa 3e e3 88 11 3f 43 c2 75 3e
       -0.3386575 0.33267528 0.568495 0.23999886
000120 7e 80 77 bc 54 14 6f be 7f e7 05 3e 91 ec fe bd
       -0.0151063185 -0.23347598 0.1307659 -0.12447465
000130 59 50 59 3e 41 f3 d8 3e c4 ff b2 bd 1c 5b a4 3e
       0.21222056 0.42373088 -0.0874019 0.3210076
000140 b8 8b b0 bc ac 46 30 3e c1 5c bb 3d 5b 81 5b 3d
       -0.021550998 0.17214459 0.09148551 0.05359016
000150 b5 ad 1e be bb f0 a8 3d 50 20 4d be 69 e3 dc be
       -0.15495951 0.08249041 -0.20031857 -0.4314225
000160 d0 7c 95 3e 8c 56 b4 3e 08 ef ad 3d 37 8d 63 3d
       0.29196787 0.3522228 0.08492857 0.055554595
000170 cb c7 00 3e 8c d2 29 3c 36 11 1d be 25 45 b7 3c
       0.12576215 0.01036514 -0.15338597 0.022371838
000180 37 43 08 3c a5 cf 43 3c fa bb 80 bd f4 04 e6 3e
       0.0083168065 0.011951362 -0.06285854 0.44925654
000190 39 98 0f be b4 01 75 bc 8e 6d bc 3c e5 64 4a be
       -0.14022912 -0.014954019 0.023001458 -0.1976505
0001a0 b9 1e d3 3e 92 cb 32 3e f6 e3 ff 3e b9 a3 ac bd
       0.41234377 0.17460468 0.49978608 -0.08429665
0001b0 a5 5b 8f 3e 30 a6 a3 3d 33 e3 88 3b 9d 2a d8 3d
       0.27999607 0.07990682 0.004177475 0.10555003
0001c0 f5 5c cc 3e bf 4c 77 3e a1 8f 6e be 42 dd c2 3e
       0.3991467 0.2415037 -0.23296978 0.3805943
0001d0 21 4e c1 bd 5c d0 3c bd a2 5c e1 3e 9d 2e 02 3e
       -0.0943873 -0.046097144 0.44015986 0.12713094
0001e0 e4 96 44 3e a7 e5 b4 3e 8a 81 cd 3e 12 c5 4a 3e
       0.19198185 0.3533146 0.40137893 0.19801739
0001f0 c0 8b 7f 3e 0b 7f b2 be 17 3d a1 3d dd 6f 8b 3e
       0.24955654 -0.3486255 0.0787298 0.27233782
000200 78 4d 1a be 29 a3 ec bd 64 a2 0a 3e 75 be b6 bd
       -0.15068614 -0.11554558 0.1353851 -0.089230455
000210 95 76 74 be 11 2a 02 bf aa d0 4a 3e 41 6a bd be
       -0.2387336 -0.5084544 0.19806162 -0.36995128
000220 44 a6 bb bb 1c 62 05 be f8 15 de 3d da 5f 89 be
       -0.0057266075 -0.13025707 0.10844034 -0.2683094
000230 72 b3 25 be 1b 05 a1 bc 42 c9 7c be 3c 77 c9 3d
       -0.16181734 -0.019655755 -0.24686149 0.09837195
000240 44 78 64 3e eb ea 45 3e 18 23 76 3e 72 d2 f1 bd
       0.22311503 0.19327895 0.24036825 -0.118077174
000250 1a 84 f0 be 64 9b 73 be 9f 6c 54 3c 5d 32 9e be
       -0.46975785 -0.23789746 0.01296535 -0.308978
000260 9d c4 84 3e 30 54 36 3d 47 7b c4 be 00 1b 46 3e
       0.25931254 0.04451388 -0.38375303 0.19346237
000270 eb 8c a5 bd 6b 50 ac be ca f5 cd 3e 3f 73 ee 3d
       -0.080835186 -0.33655104 0.40226585 0.11643075
000280 05 03 e7 bb 59 c8 a4 bd bb ff b6 3e 07 f7 b3 3d
       -0.0070499205 -0.08046026 0.35741982 0.08787351
000290 e4 59 92 3e c3 8f f9 be 65 7f 87 3e 83 f4 8b be
       0.28584206 -0.48742494 0.26464382 -0.27334985
0002a0 62 f2 a0 3e 68 d3 83 be 8d c3 07 3e e7 2d ad bd
       0.31434923 -0.25747228 0.1325819 -0.08456021
0002b0 2a a6 97 3e 07 eb 75 be 88 1f 88 bc ea 70 36 3e
       0.2961896 -0.24015437 -0.016616598 0.17816511
0002c0 3a e9 c4 3e a8 07 95 be 71 09 5a be 85 c6 d3 3e
       0.38459188 -0.29107404 -0.21292664 0.41362396
0002d0 5b 87 1f 3e 04 a0 39 bd 2e f1 38 3e da 6b 5e be
       0.15578978 -0.04531862 0.18060753 -0.2172083
0002e0 2b c9 b7 be 3a 48 98 3e 1d 96 6c 3e a2 89 40 be
       -0.35895666 0.29742604 0.23104139 -0.18802503
0002f0 03 c5 0b 3e ef c2 29 be 1a 85 3e 3d 24 8b db bd
       0.13649373 -0.16578268 0.046513654 -0.10719898
000300 48 d9 77 be df c1 0d 3e fd 26 bd 3c b2 57 bc 3d
       -0.2420398 0.13843487 0.02308988 0.09196414
000310 e4 76 6b 3e 68 9a a5 3e a3 59 a8 bc 72 85 06 3f
       0.22994572 0.32344365 -0.020550555 0.5254737
000320 9a d9 79 3e 39 c2 54 be 49 f0 5b bd 32 3a c2 3e
       0.24399415 -0.20777215 -0.05369595 0.37935024
000330 0f ad 16 bd da 89 d4 bd 62 c7 84 3e 05 0d 32 3e
       -0.036786135 -0.103778556 0.25933367 0.17387779
000340 bd ff b7 be fa a6 20 3e 6c 61 76 3d 6a 3a 83 bd
       -0.359373 0.15688697 0.060151502 -0.06407626
000350 32 b7 b3 3e c7 33 a9 3e ec 4b 6d bd e8 f5 f1 3d
       0.35100704 0.33047315 -0.057933733 0.11814481
000360 5b e0 15 3e 6c 61 d6 3d 2e d0 a1 3e 80 33 33 3e
       0.14636366 0.104678005 0.3160414 0.17500114
000370 ab 3e ca 3d 18 6d 46 bd 21 fe 84 3e 65 3b da bd
       0.09875234 -0.048443884 0.25975135 -0.1065586
000380 c6 2a f8 bd 9d 7a b3 3d bb 16 5d be e1 16 ea 3d
       -0.121175334 0.08763621 -0.21590702 0.11430145
000390 72 ec 22 3b 0e 18 ab be 9d 16 98 3e 6d 35 8e 3d
       0.002486017 -0.3341679 0.29704753 0.06943784
0003a0 7f 43 77 bd df 28 8d be 6d db 86 3e 78 8d e5 bd
       -0.060367104 -0.27570245 0.26339284 -0.11208624
0003b0 54 bd be bd 96 76 44 3e 33 92 b3 be 9f 67 89 3d
       -0.09313455 0.19185862 -0.3507248 0.06709217
0003c0 2e ec 11 3d 60 3a 7b 3e 95 6c 94 3d f0 5b 3a be
       0.03562563 0.24533987 0.07247273 -0.18199134
0003d0 e7 ae 95 3e 7c 93 bd 3d aa e7 89 bd a9 00 d5 bd
       0.29235002 0.09256646 -0.067336395 -0.104005165
0003e0 04 58 60 3e ee 9f 44 be 56 c2 54 be a5 c4 73 bd
       0.21908575 -0.19201633 -0.20777258 -0.059513707
0003f0 ed 0e 87 3e 2b b8 1b 3e d4 68 8d be 4b 87 5e 3e
       0.26378575 0.15206973 -0.2761904 0.21731298

net.2.bias f4 [64]
000000 37 20 0a 3e 05 67 b3 3d 6b b9 0d 3e 12 e5 7f 3e
       0.13488851 0.08759884 0.13840263 0.24989727
000010 28 86 1c bd 6f 51 8a bd 3d c1 ae 3e 28 b8 39 3d
       -0.03821388 -0.067538135 0.34131804 0.04534164
000020 a6 a9 24 3e ac 9e 3a 3c 0f e0 fc 3c 56 66 15 3e
       0.1608034 0.011390369 0.030868558 0.1458982
000030 47 2a 43 3d ae 4e 60 3d 5b b5 73 3e 3e 70 62 3e
       0.04764774 0.054762535 0.2379965 0.2211313
000040 b9 c5 fd 3d 04 4b 10 3e 40 be f9 3a 06 0b 6f bd
       0.12391228 0.14091116 0.0019053891 -0.058360122
000050 f8 76 1c 3e ba 2b 10 3d ea 6b fe 3c 11 1b 30 3d
       0.15279758 0.03519795 0.031057317 0.042994563
000060 fb 81 bf 3d b9 2d 59 bc 1f ba 9f 3d c0 fc 51 3d
       0.09350964 -0.01325553 0.07799172 0.05126643
000070 b8 2a ef 3d e9 c1 99 3d ce 5e 08 3e 49 fc 32 3e
       0.1167807 0.075076886 0.13317415 0.17479052
000080 19 c9 2f 3d 6a 2f 35 3e 71 6c 3e 3e 0a ab be bd
       0.04291639 0.17693868 0.18596055 -0.09309967
000090 1e 88 c5 3d 4a a0 f0 3c 7e e4 3e bd e8 93 8f bd
       0.09645103 0.029373307 -0.046604626 -0.07010633
0000a0 43 ff 19 3d ba 74 3e 3d f1 c3 88 bc f1 55 31 3b
       0.037596952 0.046498038 -0.016694995 0.0027059282
0000b0 d7 64 86 bd 0d b7 a4 3e 8a 6e 80 3d 02 bb 16 bd
       -0.065622024 0.32170907 0.06271084 -0.03679944
0000c0 84 de 65 bd ad bd 44 bd 48 ad 25 3e 34 62 24 3e
       -0.05612041 -0.04803245 0.16179383 0.16053087
0000d0 0f c4 32 3e 9e 7a 24 bd 6b a4 ab bd a4 05 c9 3d
       0.17457603 -0.040156 -0.083809696 0.09815529
0000e0 5d be d8 3d 23 6e 07 3e 76 4d 02 3e 10 a3 ff bc
       0.10583184 0.13225608 0.12724862 -0.031205684
0000f0 72 6a 93 3d bb af 1b 3e 68 79 91 3c 34 7b 0c bd
       0.07198037 0.15203755 0.017758086 -0.034297183

net.4.weight f4 [6, 64]
000000 40 8d 51 bf d8 a9 13 bd 68 b2 b7 3b 16 d2 51 bd
       -0.81856155 -0.036050647 0.0056059845 -0.051225744
000010 ef 85 ee 3d 1d 0a 4c be 79 46 27 3f 04 1f 58 3e
       0.116466396 -0.19925733 0.6534191 0.21105582
000020 06 f8 52 be 4e 48 ca be 07 90 00 bf dc df 06 bd
       -0.20602426 -0.3950829 -0.5021977 -0.032928333
000030 d0 1d ec be 30 01 87 bd 42 20 ea 3e 79 83 42 3f
       -0.46116495 -0.065920234 0.45727736 0.7598186
000040 14 d4 91 be 2c 05 a8 3e 08 d0 31 3d ed 01 67 3d
       -0.28482115 0.32816446 0.043411285 0.05639832
000050 2e 89 d3 3d 68 91 42 3e a5 0d 9a be be f6 a8 3e
       0.10328899 0.1900078 -0.30088535 0.3300075
000060 d4 a7 b0 3e 5b 6e ca be c8 da 0b 3d de 05 27 3e
       0.34503043 -0.3953732 0.034144193 0.16310832
000070 2d 31 f8 3e e2 37 96 bd b5 4f 46 bd 95 ed c1 3e
       0.48475018 -0.073348776 -0.04841586 0.37876573
000080 e0 e1 15 3e a2 0b 2a 3e d0 79 a5 3e 00 68 d1 3d
       0.14636946 0.16606 0.32319498 0.102249146
000090 bf 0c f3 be 14 b0 d8 3d 1d b3 59 be b5 ff 8e be
       -0.47470662 0.10580459 -0.21259733 -0.27929464
0000a0 1d 5f 8c 3e 46 b3 1c bd 76 49 f2 be 91 bc 49 3e
       0.27416316 -0.038256906 -0.4732167 0.19700839
0000b0 5b c3 27 3e 29 54 c6 3e e8 9d 97 3e 02 52 89 3e
       0.16383116 0.38736084 0.2961266 0.2682038
0000c0 8e 48 24 3e e0 0b fd be 18 63 ae 3e c9 24 00 be
       0.16043302 -0.49423122 0.34059978 -0.12514032
0000d0 33 de 5c bd 11 bb c6 bc 94 34 1f be 65 15 c5 3d
       -0.053922843 -0.024259122 -0.155474 0.09623221
0000e0 7a f5 f3 be 57 b9 71 be 60 b8 31 be d4 02 89 be
       -0.4764822 -0.23605858 -0.1735549 -0.2675997
0000f0 f8 9c c5 3e 93 30 56 bc a9 20 fd 3c 50 8c d2 3d
       0.3859632 -0.013073104 0.030899363 0.10280669
000100 e8 0f 50 3d af 29 33 be c3 1b d1 be d1 ec 0c 3f
       0.05079642 -0.1749637 -0.40841493 0.55048853
000110 84 e2 40 be 3c a2 00 bf 73 e8 c5 3e ea 4c d0 3e
       -0.18836409 -0.5024755 0.38653907 0.4068368
000120 f6 70 2b 3e 5b 26 23 be aa c0 32 be 24 13 37 3e
       0.1674231 -0.159326 -0.17456308 0.17878395
000130 85 35 57 3b 59 57 bc 3e 8c a2 d0 3e 77 a3 ff 3e
       0.0032838297 0.3678539 0.40749013 0.499294
000140 9f 81 da be a8 65 7e 3e b4 63 8b 3d e7 d8 81 be
       -0.42677018 0.24843466 0.06806126 -0.25360796
000150 c1 4c 70 3e e5 62 03 be 84 9a a4 bd 36 11 6e be
       0.2346678 -0.12830694 -0.08037284 -0.23248753
000160 b2 89 ee be 96 8f f1 be a0 3b a4 3e 87 44 e7 be
       -0.46589428 -0.4717986 0.3207674 -0.4516947
000170 fa 8b ab 3a 13 69 b6 3e 1c 02 85 bc e3 b5 e4 be
       0.0013087981 0.3562704 -0.016236357 -0.4467002
000180 6c bd b1 3c c4 0d 34 3f 3e a0 67 3e 5c ef 1b bf
       0.021696769 0.70333505 0.22619721 -0.6091211
000190 3a 99 88 be 4e 7f 0c be a8 7e e4 bd ce eb 18 3e
       -0.26679403 -0.13720438 -0.1115697 0.14933702
0001a0 5e 2e e3 bd 9a 17 09 bf 69 d0 17 be 51 74 2c be
       -0.11092828 -0.5355164 -0.14825596 -0.16841246
0001b0 5b 8f 8e bc 2a ec 0b 3e 39 cb 18 bf 33 4b 54 be
       -0.017402342 0.13664308 -0.59685093 -0.20731811
0001c0 7f c3 9c bd 89 6b d2 3e 67 e2 62 3e 38 b1 cd 3d
       -0.076544754 0.41097668 0.22156678 0.100435674
0001d0 76 c0 0e 3f 65 9c 30 3e ad 61 13 bf b9 b0 fa bd
       0.5576242 0.1724716 -0.57570916 -0.122407384
0001e0 7e 4f 88 be 60 27 81 be b1 44 1d 3d 7f ed 85 be
       -0.26623148 -0.25225353 0.038395587 -0.26157758
0001f0 d8 8c 83 be 26 12 04 3f e4 4c 98 be b4 0b 3f 3e
       -0.25693393 0.5159019 -0.29746163 0.18656808
000200 6a 3e 07 3d 46 5b 07 bf b6 59 6e 3e 60 7e 14 be
       0.033018507 -0.5287365 0.2327641 -0.14501333
000210 c7 9a 88 bd 1f e6 01 be 18 1a 40 3e f4 71 dc be
       -0.066701464 -0.1268544 0.18759954 -0.4305569
000220 a3 3c ab 3e 1b 23 89 be f1 ff d4 bd 03 07 41 be
       0.334447 -0.26784596 -0.104003794 -0.18850331
000230 5b 95 93 be 9c af fb be 48 79 62 3e 72 34 d0 3e
       -0.28824887 -0.49157417 0.22116578 0.40665013
000240 fb e5 c9 be 1b e5 b1 3e e6 f6 0c 3e 8d bc 6c 3e
       -0.39433274 0.34745106 0.1376606 0.23118801
000250 22 f1 d6 3c dd 08 8d 3e 51 7b 5d be 7a ef 8d be
       0.026238028 0.27545825 -0.21629073 -0.2772177
000260 33 4d ed be da b1 c8 be 52 69 ed be 8a 36 df bc
       -0.4634796 -0.3919819 -0.46369416 -0.027247686
000270 40 ba 08 bf b7 de 1d 3e 8c d8 e7 be fa d9 fe 3e
       -0.53409195 0.1541699 -0.452824 0.49775678
000280 47 ec 02 bf 59 ad a3 3d d6 04 1a 3f 7e c7 2b 3d
       -0.5114178 0.07992048 0.6016363 0.041938297
000290 a2 6d bd be 75 55 97 3d 4b b6 bb be 46 bb c7 bd
       -0.36997706 0.073893465 -0.36662516 -0.097525164
0002a0 a5 f5 90 3e ed 6e d3 bd 70 ff b3 be d1 17 30 3e
       0.28312412 -0.10323892 -0.3515582 0.17196585
0002b0 51 7c 63 3d 4b 4c 04 3f 50 c5 9c bc 22 02 f9 bd
       0.05553848 0.51678914 -0.019137055 -0.1215861
0002c0 d1 8e 48 3d e1 e6 81 3d 30 1a d5 3e 2e dc fc be
       0.048964325 0.06342865 0.41621542 -0.49386734
0002d0 38 6d ff 3e 76 93 91 be 87 df 12 3e 0c 83 f4 3e
       0.49888015 -0.28432816 0.14343081 0.4775623
0002e0 f1 8e 4f be 38 1f 13 3f b6 f3 19 3e 0e aa 6d 3d
       -0.20269372 0.5746951 0.15034375 0.058023505
0002f0 bc f5 5a be 1e e6 c5 be e2 83 ba be e1 3b b9 3d
       -0.21382803 -0.38652128 -0.36428744 0.09044624
000300 df a2 4e 3d f3 fd 3e 3e 42 70 f9 3e 03 5e c2 3e
       0.050448295 0.18651561 0.48718458 0.3796235
000310 c2 66 27 3d fb c3 dd be 2e a2 0d 3f 20 e6 f0 be
       0.04086948 -0.43313584 0.5532559 -0.4705057
000320 3c 2d 1b be ae 59 9c 3d 8d d9 05 bf 6a ff 94 3e
       -0.15153974 0.076342925 -0.5228508 0.29101115
000330 28 2e 9d bd 72 c1 71 be d5 61 18 3f 0e 4e 8f 3d
       -0.07674819 -0.2360895 0.5952428 0.069973096
000340 12 d5 e1 bd 25 84 3a 3d ca c0 38 3e c9 d5 cf be
       -0.11026968 0.04553618 0.18042293 -0.40592793
000350 15 1a 78 be 3b 6d 91 be a6 5e 0c be 6e d8 b1 be
       -0.242287 -0.2840365 -0.1370798 -0.34735435
000360 24 4c bd 3e c2 63 b2 be 07 1a ae 3d 54 58 93 3e
       0.36972153 -0.34841734 0.08501058 0.28778327
000370 fc 92 04 be 16 ee 7d bd 7e 2d 30 3e fc e5 8c 3e
       -0.12946695 -0.061994635 0.17204854 0.27519214
000380 1b 19 88 be ca 53 07 3f 2f 9e 08 3f f4 54 1c 3e
       -0.26581654 0.52862227 0.5336637 0.15266782
000390 6f 45 00 3e ad 6f 89 3e bc db 04 3e 86 75 92 bd
       0.12526487 0.26843014 0.12974447 -0.07151322
0003a0 a0 74 03 3c 0f 2f c0 be ae 98 a7 be 8d 1e af 3d
       0.008023411 -0.37535903 -0.32733673 0.08550749
0003b0 8e a1 81 3e 57 2d 39 3f fb fc 96 3d 20 7f a4 3d
       0.2531857 0.7233481 0.07372471 0.0803206
0003c0 a4 0a 17 3c 4d 61 82 bd 2b a4 8e be 69 73 c7 be
       0.0092188455 -0.06366215 -0.27859625 -0.38955238
0003d0 0e 00 1b be 30 48 ac bc 5c b6 2a bd 56 44 3a be
       -0.1513674 -0.021030515 -0.041677818 -0.1819013
0003e0 59 5e 9d be 13 6c c8 bd 0b 28 2e 3f c4 37 a2 3d
       -0.30736044 -0.097862385 0.6802985 0.07920793
0003f0 9f b9 2f be 9a 9d a3 3e 7c 1f 1e bf a0 0d fa 3d
       -0.17160653 0.31956178 -0.6176679 0.1220963

net.4.bias f4 [6]
000000 31 58 83 3d dc 5e 43 3e fc 1e 83 3d 8c 3f 11 bc
       0.064133056 0.19079155 0.06402394 -0.008865248
000010 be 76 08 be 58 0f 85 bd
       -0.13326547 -0.06497067
