dqn.pt (torch, 78112 bytes, 6 tensors)

network.0.weight f4 [128, 12]
00000000: ae1a 413f 9af6 603f a766 d23d a58f 29bf
00000010: 7ed4 d53d 4ff2 853e 6388 66be 12f3 0f3f
00000020: 03ea 9b3c 8285 52bd 65ba 2c3c 1d04 33bf
00000030: f18d f53b 1e4d 65bd 6698 483e a542 a4be
00000040: 659d 073e 10c2 98be b931 3a3b 00e3 a43e
00000050: 89bc 2c3f 9177 503f 147c a2be aa08 0fbd
00000060: 8e22 293f 5cb2 163f 989d 19bf e616 863e
00000070: cb15 a3be ace3 4cbf 5887 353e 8f03 e8bd
00000080: 9f7c 91be 9bc3 183f ede8 1b3e 62ff 7b3e
00000090: ac34 31bf ab77 6cbe 6150 333e a8f9 83bf
000000a0: b18c a83e 7a3b e53e d8da 3b3e aef6 11bf
000000b0: 7bfa ff3e ce6b ac3d 0e2a 213f 977f 7e3e
000000c0: 787e 903d 7180 5c3f 601b 94be 56b5 00bf
000000d0: 8f54 9cbe bf3f 4cbe 8a1e 163f f5e7 64bf
000000e0: 3c2c 5c3f 469d 9f3e fe7b abbe 7e98 b7bd
000000f0: 8c90 163f 1e0a 3f3e c426 603e fc74 0c3f
00000100: 4ceb 823f b67b a33c 4c46 8cbf c74f cd3e
00000110: 726c 39be 33ba 173e e5a6 39be 3f95 743e
00000120: 9ff8 413e 6f93 123f e37d 8a3f 6060 223e
00000130: 93c6 87bd b94b 713e c5a5 b6be ef57 4abe
00000140: a954 073f 94cb 983e 9387 e23e 020f 8ebe
00000150: 95e6 0dbd e050 babe fb31 123f a99d 4abf
00000160: 71f2 adbd 3697 a5bd 6238 ee3e ad54 1d3e
00000170: 36ea adbd dd62 adbe 7828 04be 2246 b5bf
00000180: 4e04 bdbe c148 643e 68c7 97be d90c f2bc
00000190: 5df5 8f3e 6211 79be 0fa4 29be 93bf f9be
000001a0: 2693 b13e d3bc d0be c177 61be 9241 1cbe
000001b0: 503e 98be 44a8 bc3e 291d 483f c858 74be
000001c0: 2c06 593e c45b 103e e117 3fbf e582 303f
000001d0: e5c1 07bf f430 863f eeaa d03e 247c abbe
000001e0: 3e5f bdbd a36b 763e d550 273e ac1a 3a3e
000001f0: 4677 fd3e fe93 67be 977b b6be 4124 7d3e
00000200: 6cc6 d53e 1fd1 b93e 4f92 1ebe 0b65 023f
00000210: 67e6 8b3e 3b5c c33e 953a 8cbf d67c 76bd
00000220: 83fb 193e f524 4b3e e9a1 8f3e e5c1 773d
00000230: aff5 1b3f 00d6 0c3e d3f0 40bd fd3e b2bd
00000240: 0bd4 a33d 128f 11bd ce7b ddbd eb47 d8be
00000250: f0e1 8c3f 783f 82bc ba46 4bbd 730b 103d
00000260: 9445 14bf 4166 5e3f 39a4 353e 0070 e4bc
00000270: f50e 8f3a 5820 27be 8cdc 24bf 0bf9 833f
00000280: e28b 8a3e 3603 4d3e e1a7 38bd 65e6 48be
00000290: 7da0 893c 7339 0bbe 0682 4d3e 29af 07bf
000002a0: cc03 253f 6485 f53e dd85 693f 32d5 433e
000002b0: c431 acbe 8fd4 62bf da1b 983e 60d8 babd
000002c0: 68be 173f aa97 423f 73db abbd e50d 5fbe
000002d0: a15d 273f 5c1e 17bf e72f e33e 3934 903e
000002e0: 3eed 913d e449 ad3e dce7 b83e 782e d13e
000002f0: 0691 bfbe ef1a fdbe f997 8c3e ef73 18be
00000300: 4bcc 8a3e 31bf f6bc 50b5 8ebe de88 5f3f
00000310: 51cd 40be b2f1 dd3e 576b 0a3d 603f 16bf
00000320: c8bd 0bbe 9f7d cf3e 76af 17be 8852 4ebe
00000330: a1c5 98bd 9287 b83b 1fe3 363f 2110 04bc
00000340: e741 b73e a80a f0be d4ca f0be 99b8 64bf
00000350: 4143 78be 5221 833f ecfc e7bd b510 1e3f
00000360: a7a5 403d 0d9e 603d 4194 6dbe fdba 77be
00000370: 03c7 71be dd44 ddbd 223d 8c3e f659 e3bd
00000380: 01b7 ed3e fa31 bb3e 7300 ac3e 1f6a 2ebf
00000390: fb05 38be 4d2b 043f 8de9 27bd 2e32 4f3f
000003a0: d311 1abe 5891 013f 0a3a 743e efb5 ee3d
000003b0: 30e6 d5bc d589 1dbe 5eb0 a93d d30a d63e
000003c0: 13c1 45be 1f8a d73e c323 b93d 4535 27bf
000003d0: 0fc1 58bf dc82 50be bf39 de3d e679 b13d
000003e0: 2d87 9ebe 8f53 e23e 6513 cb3e b1fb b7be
000003f0: 9465 65bd 7f40 cd3e 5955 c2bc b490 f03d
0.75431335 0.87876284 0.10273486 -0.6623481 0.1044092 0.2616143 -0.22512965 0.5623027
0.019032484 -0.051396854 0.010542487 -0.6992815 0.0074937274 -0.055981748 0.19589385 -0.32082096
0.13243635 -0.29835558 0.0028410985 0.32204437 0.6747518 0.81432444 -0.3173529 -0.034920372
0.6606835 0.58865905 -0.60006094 0.26189345 -0.31852564 -0.800349 0.17727411 -0.11328804
-0.2841539 0.5967347 0.15225573 0.2460914 -0.69220996 -0.23092525 0.17511131 -1.0310564
0.3291984 0.4477194 0.18345201 -0.5701703 0.4999579 0.084189996 0.62954795 0.24853359
0.07055372 0.86133486 -0.28927135 -0.50276697 -0.30533263 -0.19946192 0.5864035 -0.8941644
0.86004996 0.31174678 -0.33493036 -0.089646325 0.5881431 0.18656203 0.21889788 0.54866004
1.0228057 0.01995645 -1.0958953 0.40099928 -0.18107775 0.14817123 -0.18130071 0.23885058
0.18942498 0.57256216 1.0819668 0.15857077 -0.06629672 0.23564042 -0.35673347 -0.19760107
0.52863556 0.29842818 0.4424406 -0.27745825 -0.03464373 -0.36389828 0.57107514 -0.7914682
-0.08493508 -0.08085482 0.46527392 0.15364332 -0.08491938 -0.3386449 -0.12906063 -1.4162028
-0.36917347 0.22293378 -0.29644322 -0.029547142 0.28116885 -0.24323037 -0.1656649 -0.48778972
0.34682578 -0.4076906 -0.22018339 -0.15259388 -0.2973504 0.36847126 0.78169495 -0.23861992
0.2119376 0.14097506 -0.7464581 0.6894973 -0.53030235 1.0483689 0.4075541 -0.3349315
-0.09246682 0.24064498 0.16339429 0.18174237 0.4950506 -0.22615048 -0.35641167 0.24720861
0.41752946 0.3629236 -0.154855 0.5093543 0.2732422 0.38156304 -1.0955378 -0.060177647
0.1503735 0.19838317 0.28053215 0.060487647 0.6092176 0.1375351 -0.047104668 -0.0870342
0.07999428 -0.035536833 -0.108146295 -0.4224237 1.1006451 -0.015899405 -0.049627997 0.03516717
-0.5791867 0.8687478 0.17738427 -0.027885437 0.0010914492 -0.16320932 -0.6439903 1.0310377
0.27059847 0.20020756 -0.045081977 -0.19619139 0.01680016 -0.13596134 0.20069131 -0.5300165
0.6445892 0.4795333 0.91219884 0.19124296 -0.33631718 -0.8860559 0.2970875 -0.091233015
0.5927491 0.7601267 -0.08391466 -0.21782644 0.6537724 -0.590307 0.44372484 0.28164843
0.071253285 0.33845437 0.36114395 0.40855765 -0.37415332 -0.4943461 0.27459696 -0.14887975
0.27108988 -0.030120464 -0.27872705 0.8731822 -0.18828322 0.4334846 0.033793774 -0.5869045
-0.13646615 0.4052553 -0.14813027 -0.2014867 -0.0745957 0.0056313956 0.7144031 -0.008060486
0.35792467 -0.4688313 -0.47029746 -0.89344174 -0.24244405 1.0244544 -0.11327538 0.6174424
0.04703298 0.05483823 -0.23201086 -0.24192424 -0.23611073 -0.1080415 0.2739039 -0.11101143
0.46428683 0.36561567 0.33594093 -0.6813068 -0.17971031 0.5162857 -0.040994216 0.80935943
-0.15045862 0.506124 0.23850265 0.11655795 -0.026110739 -0.1538461 0.082855925 0.41805133
-0.19311933 0.42097566 0.09040024 -0.6531566 -0.84669584 -0.20362419 0.10850858 0.086658284
-0.30962506 0.44204375 0.39663234 -0.35934213 -0.056005076 0.4008827 -0.023722338 0.1174635

network.0.bias f4 [128]
00000000: e4d7 433d fccb e63d bdb3 d33d bebd b43d
00000010: f3f3 f33d 2701 5e3d fb12 ab3d a4fa 0f3e
00000020: 7774 013d 1b27 a33d 4f05 9b3d b0f5 d93d
00000030: 4114 cc3d 2cdb a03d 21d1 a33d 8bd6 123e
00000040: e7d4 ab3d a08b 933d dd00 f53d 752d ca3d
00000050: 4834 873d df77 8a3d 19f2 cf3d e157 003e
00000060: a22f cd3d 531e af3d cc61 bf3d 87e6 e63d
00000070: ba5c a33d f85a cd3d ef86 df3d 5f28 243d
00000080: 2122 d33d 2265 f43d 1151 1f3e d097 433e
00000090: 0cf5 bd3d b077 913d f54e 033e 8e38 7f3d
000000a0: 2693 873d 8efe f03d ebe6 ad3d 0d22 983d
000000b0: 36a8 ff3d 730d 003e 862a da3d 054d 123e
000000c0: c7b5 44bd 35a4 db3b d70c 053e 0402 953a
000000d0: 4c48 683d 405e bc3d 3fa8 fb3d 79f6 ce3d
000000e0: 80eb b63d 76ad 993d 0ddf e83d b61a bf3d
000000f0: aecb d53d 3909 63bd d2af 6d3d 525b 073e
00000100: 7490 c23d 2d1b 913d 1db9 b03d 0509 f93d
00000110: 4d01 a83d f3f3 bf3d f719 dc3d 35de c13d
00000120: 3397 e93d 8f89 e33d b829 bb3d 28c1 003e
00000130: feb1 b13d 2af2 aa3d a599 d43d 0a83 c23d
00000140: 39a0 8e3d cc7c c83d 14a5 dd3d e996 c3bc
00000150: 25f9 df3d 658c 013e 6485 303e 0082 bf3d
00000160: 01ee 6a3d b1f0 133e 47f0 093e 505d 363d
00000170: 3c5d da3d 2fd9 563d 51a3 b13d df0b cb3c
00000180: f6e4 5c3d 1520 dc3d 56ba 4e3d 0ee7 e63c
00000190: f55d 613d 9514 c03d 4eb5 fc3d 6688 c73d
000001a0: ff7b 173e c3ec a23d ddb0 b43d 7912 a63d
000001b0: 6205 b0bc cc0e e03d f6a7 f73c 4087 7a3d
000001c0: f180 b83d 055a 2d3d 3197 ea3d ec85 083e
000001d0: 0000 0000 4234 083e 933a 6d3c 2dff 8d3d
000001e0: 1772 9d3d c192 e4bc 518a f93d 4a5f e63d
000001f0: 4630 013e 4c9f b93d 1973 de3d 6829 a53c
0.04781331 0.11269376 0.10337017 0.08825253 0.11911764 0.054200318 0.083532296 0.14060456
0.03160521 0.07966443 0.07569372 0.10642564 0.099648006 0.07854304 0.079988725 0.14339654
0.08390217 0.07204366 0.11963055 0.098719515 0.06601769 0.06761145 0.10153598 0.12533523
0.10018851 0.08550706 0.09344825 0.11274438 0.079766706 0.100271165 0.109144084 0.040077563
0.10309244 0.11933352 0.15558268 0.1910088 0.092752546 0.07102907 0.12823088 0.062309794
0.06619863 0.117673025 0.0849131 0.0742837 0.124832556 0.1250513 0.10652642 0.14287193
-0.04802492 0.0067029246 0.1299318 0.0011368399 0.056709573 0.09197664 0.1228795 0.10105605
0.08931637 0.07503788 0.113706686 0.093312666 0.104392394 -0.055428717 0.058029003 0.1321843
0.095002085 0.070852615 0.086290576 0.121599235 0.08203373 0.093727015 0.1074714 0.09466211
0.11405792 0.111102216 0.091388166 0.12573683 0.086765274 0.083469704 0.10380868 0.0949765
0.06964154 0.09789428 0.10822502 -0.02387567 0.109361924 0.12651213 0.17238384 0.093509674
0.057355884 0.14447285 0.13470565 0.044522583 0.10662314 0.052453216 0.08673728 0.024785934
0.05392929 0.10748307 0.050470673 0.028186347 0.055021245 0.09378926 0.123392686 0.09742813
0.14793395 0.07955315 0.088227965 0.08108992 -0.021486942 0.10940322 0.030231457 0.06116414
0.090089686 0.042322177 0.11454619 0.13332337 0.0 0.13301185 0.014479297 0.069334365
0.076877765 -0.027902009 0.12184585 0.11248644 0.12616071 0.090635866 0.10861797 0.020161346

network.2.weight f4 [128, 128]
00000000: 6c6d 6dbd dd9b 6e3e 1f62 8d3d 0a38 533e
00000010: abcb 2e3e e186 92be 8cb4 a43d 6fab c53d
00000020: f624 96be 6d5a 203e 59b7 f4bd cdbe 813d
00000030: ad29 123e 7c32 8bbc 8ce7 393e 8ec0 853b
00000040: fbcb fe3d ddb1 75be 5a00 293e 2664 1abd
00000050: 886e 493d d3c5 5cbe 1e25 fc3d a606 9fbd
00000060: 2d71 573e d581 b33d 660f b5b9 1bc7 863e
00000070: 2bbd 733d e4f5 b13e 4ce7 95bd e2c5 82bd
00000080: 6834 5dbd dbb0 293d e5ce aa3e ea51 833e
00000090: 18c0 553e a0ca 123e 8f53 11bc 120d 27be
000000a0: 52dd bcbc 6efe 5f3c aae8 973e c404 a0bd
000000b0: 8963 a8bd 5636 e5bd d329 c9bd f0dc 4abe
000000c0: cb25 72be 309a 3fbe b8dc a43e 5404 bd3c
000000d0: 3164 b23d c6dd a73d c880 94bd aed7 b23c
000000e0: cd8d e43e 1e4a 1f3d 1241 97bb 3933 183e
000000f0: 92ff ddbd 567d 7abd cb5b e0bd 2a41 053e
00000100: 78fc 94bd 19c9 e93d 385f 1ebc 0073 0b3e
00000110: acc4 433c dba9 a63e 9bfa 923d 9c61 8cbd
00000120: 7083 e33c 3f49 713d 8005 d73d cc0a 0fbe
00000130: 84ae 29bc da2b 72be 0176 fb3d 59d9 9c3e
00000140: f4f9 42bd 84b7 9c3e c94f 8e3e 3d32 893e
00000150: 852a 993d e656 813c 5a8c 9c3d 8c7e 7cbe
00000160: f520 98bd c77f 223e 8280 713e e939 0c3d
00000170: 3a93 fabc af07 6bbd c2fd 893d 54e0 123e
00000180: 5ac8 18be f7c8 553e 3fbd db3c f56a e7bd
00000190: 15bf 883d 95cf f23d 6278 8bbc fcd5 373d
000001a0: b819 84be daa1 583d 4667 953d 1dfa 90bd
000001b0: 5c59 7cbe a4e3 2abe 2391 6a3c 35f7 e33d
000001c0: f43a 73bd c5a9 393e b854 963d ff39 b4bd
000001d0: c4a7 08be f6f9 6b3e da1c 60bd 22a7 1bbe
000001e0: c44d 6b3e 8680 7a3d 7c51 21be da69 fa3d
000001f0: 4828 66bd 0635 e53c 62bb 62be c23b 19bd
00000200: 8fd7 033e af34 37be 2a60 57bd 8382 80bd
00000210: 796e 383e b038 503e 4a8e 27bd 7338 7bbe
00000220: b81b 423e cf42 5d3d ed00 2a3e ff1a 163e
00000230: 748c e63d 36ca a0bd eb2d 27bc 521e c8be
00000240: 914e 7bbe 7284 38bd fac6 453e 4c25 2a3e
00000250: 240e 1f3e 8f0d 8cbd 541b ee3d 930f 1cbe
00000260: 5ebb 353c 42dd 6e3e 0fc0 383e 6ea5 413e
00000270: ec15 0f3e e145 453e 5cde 6ebe d45e afbd
00000280: e0e0 83bc aedb d9be bc07 8e3d b57b 51be
00000290: f539 47bd 5b7d 12be faae 8d3d 9b2a e23c
000002a0: bfa1 883e 57fe 313e 5203 90be 99a2 6abd
000002b0: fb1d fbbd d443 71be 3334 273e f420 1c3e
000002c0: bfdc 6cbe cc23 c13c 4a68 4abe 833f 713e
000002d0: 30d3 b6bd 4977 cb3d b4e1 a73c e4b5 ecbd
000002e0: 7c90 b2bd 3664 b23d 0336 83bd a5f4 113e
000002f0: b6c8 173e fb5a dbbd 4a8b 653e b0e0 9dbe
00000300: adc7 acbc 47b1 4f3c 7309 5f3e 57f1 eabc
00000310: 8a87 50bb 9150 583d 26dd 0a3e 4e03 213e
00000320: 28a3 8ebe a35f d4be 8973 863d afc0 133d
00000330: 41e0 1abd 4810 943c eb41 28bd 9243 e6bd
00000340: 95d0 a5ba ab49 0f3d 193e 493d e262 ebbc
00000350: c873 363e abf7 953e 9fc0 5dbd 6db7 5d3e
00000360: 9443 0b3e ad7a dcbd f934 99bc 97f8 9b3e
00000370: 5a49 cb3d 33a4 b6bc b1c0 01be 182a eb3d
00000380: edb7 6f3e e6f1 a8bc 7c2a 343e 2af4 1d3d
00000390: 98f6 d13d 7579 c13d 3e0c 283d 1bee b3bd
000003a0: 81e3 b3bd edad 643d 2191 7bbc a896 a8bd
000003b0: 5f2d 1abd 0a4b d13c 66dd f7bb f054 2c3e
000003c0: feaf dd3e c451 c4bd d69a a23e a2df 4bbe
000003d0: 35d0 7c3c 45a1 1c3e fb99 a13c 5ab7 ef3c
000003e0: 8c1e ecbd bb2d 003d ced5 b53d 52ff bc3d
000003f0: 3c16 c53d a627 373d 9299 743e 495a 1e3e
-0.05796568 0.23301645 0.06903481 0.20626846 0.1706988 -0.2861853 0.08042249 0.09651839
-0.29325074 0.15659495 -0.11949033 0.063352205 0.1427371 -0.016991846 0.18154734 0.004081792
0.1244125 -0.2399363 0.1650404 -0.037693165 0.049177676 -0.21559839 0.12311767 -0.0776494
0.21039267 0.08764998 -0.00034534483 0.2632378 0.059506577 0.34757912 -0.07319507 -0.063853994
-0.054005057 0.04142843 0.33360973 0.25648433 0.20874059 0.14335108 -0.00887002 -0.1631358
-0.023054752 0.013671501 0.29669696 -0.07813409 -0.0822211 -0.111920044 -0.098224305 -0.19810843
-0.2364723 -0.18711162 0.32199645 0.023073353 0.08710516 0.08196597 -0.072511256 0.02183136
0.44639435 0.038889043 -0.0046159113 0.1486329 -0.10839762 -0.061154686 -0.10955008 0.1301314
-0.07274717 0.114153095 -0.009666257 0.13618088 0.011948746 0.32551464 0.071767054 -0.06854555
0.027772635 0.058907744 0.10499096 -0.13968962 -0.010356549 -0.2364954 0.12278367 0.30634573
-0.047601655 0.3060876 0.27795246 0.2679614 0.07478813 0.015788507 0.076439574 -0.24657649
-0.07428161 0.15869056 0.23584178 0.034234915 -0.030587781 -0.057380375 0.067378536 0.14343387
-0.14920178 0.20877443 0.026823638 -0.11299697 0.06677071 0.118559994 -0.017025176 0.044881806
-0.25800872 0.05288873 0.072950885 -0.07078955 -0.24643463 -0.166884 0.01431683 0.111311354
-0.059382394 0.18131168 0.073403776 -0.088001244 -0.13345248 0.23044571 -0.054715015 -0.15200475
0.22978884 0.061157726 -0.1575374 0.12227221 -0.05619076 0.027979385 -0.22141793 -0.037410505
0.12875198 -0.17891191 -0.052581944 -0.06274893 0.18010892 0.20334125 -0.04090718 -0.24533252
0.18955886 0.05401879 0.16601916 0.14658736 0.11257258 -0.07851069 -0.010203819 -0.39085633
-0.2454169 -0.045048185 0.19314185 0.1661579 0.15532738 -0.068385236 0.11626306 -0.15240316
0.011092035 0.2332659 0.18042015 0.18910763 0.13973206 0.19264938 -0.23327011 -0.08563009
-0.01609844 -0.42550415 0.06935069 -0.20457347 -0.048639257 -0.14305632 0.0691814 0.027608206
0.26685902 0.17382179 -0.28127533 -0.05728397 -0.12261578 -0.2356103 0.16328506 0.15246946
-0.23131083 0.02357664 -0.19766346 0.23559384 -0.089269996 0.09934861 0.020493366 -0.115581304
-0.087189645 0.0871052 -0.06406786 0.1425348 0.14822659 -0.107107125 0.22416416 -0.30835485
-0.021091307 0.012676544 0.21780948 -0.028679533 -0.0031819069 0.05281121 0.13560924 0.15723917
-0.27858853 -0.41479215 0.06565005 0.03607243 -0.03781152 0.01807417 -0.04107849 -0.11243357
-0.0012650663 0.034982365 0.049131487 -0.028733674 0.17817605 0.29290518 -0.054138776 0.21652003
0.13599998 -0.10765586 -0.018702017 0.30463096 0.099261 -0.022295093 -0.12671162 0.11482638
0.23410006 -0.020623159 0.17594332 0.03856293 0.10252112 0.09446994 0.0410273 -0.087856494
-0.08783627 0.05582993 -0.015354426 -0.082318604 -0.037640925 0.025548477 -0.0075642345 0.16829276
0.43298334 -0.09585908 0.31758755 -0.19909528 0.0154305 0.15295894 0.019726744 0.029262234
-0.11529264 0.031293612 0.08878671 0.09228386 0.096233815 0.044715546 0.23886707 0.15464129

network.2.bias f4 [128]
00000000: 42c8 813d 75e3 8f3d 8007 913d 5515 cebc
00000010: 7c4a 8c3d 2354 a73c 0000 0000 ab41 903d
00000020: e6e7 b5bc 481a 7fbc fc71 293d 525b b53d
00000030: 541b ab3d f842 84bc 0609 a63c 8f2e e13d
00000040: 4826 973d 8444 8b3d e4d3 973d cf94 8c3d
00000050: 3e1c 643d b227 b13d 8759 bc3d 2d53 673d
00000060: 0c67 af3c 298e c1bc b087 8a3d 62b2 d1bc
00000070: 90c6 83bc 54a5 cbba a7e5 893d fb5c 1e3d
00000080: 0328 8abc c6db 7e3d 20e4 c4bc 3770 a03d
00000090: 297e 58bc 1628 4d3d 8225 973d 55b0 7d3d
000000a0: 24c7 113d 64be 7a3d a677 d63b f6b5 a3bc
000000b0: 4871 0d3d 0000 0000 a1b7 843d 32c3 973d
000000c0: 3b11 2bbc 58df a73d 0000 0000 1b12 c13d
000000d0: 2c7b a13d d38d a43d 646e dabb 0870 a03d
000000e0: 174b 4f3c 1b6e 8fbb f5cc 8cbc 2170 84bc
000000f0: 6adc 41bc 0052 acbb 6134 8f3d b838 bfbc
00000100: 5d46 7f3d 00f4 9b3d 56c8 babc 038d 7d3d
00000110: 1ba7 643d 0000 0000 3f96 d0bc e23e 753d
00000120: 054e 673d 0000 0000 b77a ba3d 048b 32bc
00000130: c6f6 6d3d f1b2 833d 732a 4abc 0b89 93bc
00000140: bd25 4a3c f71f d4bc 768d 8d3d ce83 51bd
00000150: 592a 943d f6d5 843d 38f6 2e3d d9b8 9e3d
00000160: 6dcd 753d 0400 eaba 1eee d3bc d8d9 a9bb
00000170: 773d 883d 3396 763d 6436 c2bb 15e1 8dbc
00000180: 1f86 443d dc81 993d cbb6 2c3d d382 cbbb
00000190: aead a53d 9d4b a13c 6b0e 8f3d 28a5 cf3d
000001a0: 82af acbc e9eb 62bc 14a4 28bc eac3 12bc
000001b0: ae41 ce3d 01be 08bd 6c6e 513d 238d ab3b
000001c0: 91bf 8c3d d1db 593d b0bf a73d c28a 5a3c
000001d0: 8613 a83d 0af4 7a3d fabc 5a3d 0806 cbbc
000001e0: 8142 12b7 90a2 b13d e766 3e3d d8a8 9c3d
000001f0: 62f3 37bc 0ca2 ab3d ba7e 4abd e167 a53d
0.06337024 0.07025806 0.07081509 -0.025156656 0.06850144 0.020425862 0.0 0.07043775
-0.022205304 -0.015570231 0.04136847 0.088553086 0.08354822 -0.016145214 0.020267975 0.109952085
0.073803484 0.06800178 0.07413462 0.068643205 0.055690996 0.086501494 0.091967635 0.056475807
0.021411441 -0.023627358 0.067641616 -0.025597755 -0.016085893 -0.0015536943 0.06733256 0.03866289
-0.016864782 0.06222131 -0.02403456 0.07833903 -0.013213673 0.050087057 0.07380201 0.06193574
0.035590306 0.061216727 0.006545025 -0.019984227 0.03453186 0.0 0.06480337 0.074102774
-0.01044112 0.08196896 0.0 0.094272815 0.07884821 0.08034863 -0.0066659916 0.07833868
0.01265218 -0.0043771393 -0.017187575 -0.016166748 -0.011832336 -0.0052587986 0.06992412 -0.023342475
0.062322963 0.07614899 -0.022800606 0.061902057 0.055823427 0.0 -0.025462268 0.059874423
0.05647089 0.0 0.09105437 -0.010897402 0.05809667 0.06430615 -0.012339222 -0.018009683
0.012338099 -0.025894148 0.06911747 -0.05115109 0.0723464 0.06486122 0.04271528 0.07750101
0.060010362 -0.0017852788 -0.025870379 -0.0051834397 0.066523485 0.060201835 -0.005926894 -0.017319242
0.04797947 0.07495472 0.042166512 -0.006210664 0.080897674 0.019689376 0.06985172 0.10138923
-0.021079782 -0.013850191 -0.0102930255 -0.008957842 0.10071121 -0.033384327 0.051130697 0.0052353307
0.06872476 0.05318815 0.08190858 0.0133387465 0.08206849 0.06126789 0.05340288 -0.02478315
-8.717762e-06 0.086735845 0.046484854 0.07649392 -0.011227461 0.08380517 -0.049437262 0.08076454

network.4.weight f4 [6, 128]
00000000: 7433 983d 88b6 88be 45a5 c33d e4f9 afbb
00000010: a23a af3d a168 2a3d 9ef3 2abd 8736 0fbe
00000020: a521 18be 17cf a53c 55e3 af3e 910d 8c3e
00000030: b7a6 8c3d da01 25be abfb c13d e7f1 223e
00000040: dc98 31be 91d0 383c aede 9bbe 7ab8 aabd
00000050: 5c60 903e 8e3e 53be 841f 8abe 2861 00bc
00000060: b560 9bbe 30c8 1ebd e125 343e 92ed 443e
00000070: 13f9 153c 8865 803e aa31 5cbc 09c7 bbbe
00000080: 8697 9c3c 93f8 1fbd 4873 933d 6c89 d0bd
00000090: 0b3f bd3d e348 52be 81bd 223d 1452 d0bd
000000a0: 3a76 d2bc 44e3 73be a785 b6bd 2ae4 9e3d
000000b0: 6867 3e3e 0a6a 59bd 03a7 823e c7c4 4cbe
000000c0: 7ae2 303e ef1b 4dbd cf48 74bd 793f b73d
000000d0: 6810 833e c9c7 a9be 4ef7 6bbe bdd3 673d
000000e0: 6671 81be 23b4 99bd 99b0 3b3e 25cf d1bd
000000f0: 1dbc 31bd 923e 4bbe 398d 313e 13e0 65bb
00000100: b94d d23d beeb c13d 469b 93bc 391e 233e
00000110: c580 90bc acb9 c53d d430 e2bd a3de 95bd
00000120: b8c9 7f3a 7fb5 4e3e b02f 36be ec54 513d
00000130: 82a2 2bbe c501 33be 927c 1fbe 6566 073b
00000140: da0e 98be e11c 343d 390e aa3c 85bf 91bd
00000150: 7ba3 223d 2afc 833e 2ef9 b9be 5f56 acbd
00000160: f300 afbe 977f 623e 0ca1 ffbc 4176 0c3e
00000170: 4a33 4fbd ce58 a3be 5548 333d 17c6 3cbd
00000180: e13e 58be a27e 7abe 431c a43e 8d72 873e
00000190: ef43 0e3e 6077 4abe 1fbb a03d c4e1 bc3e
000001a0: e63e 553c 6019 d4bd 906d 663e 1fab df3d
000001b0: fd16 733e 875d e3be b2b0 3ebe 5e44 2e3e
000001c0: 9a15 c2bd 65bd 0ebd cd66 cabd 7206 10be
000001d0: e9d4 d93e 9665 cbbb d288 a8be b00c f4bc
000001e0: 342b b43c 2118 44bd 8fdb 833d 2346 8cbe
000001f0: 83e3 fbbb f2ff ff3d 67a7 41be f3f9 c73d
00000200: e350 66bb f1c3 fd3d fe03 803e b5f8 2a3e
00000210: 6176 413e 8487 823e dca6 c5bd 19f9 72be
00000220: 9e75 11be 37fb 383e 43bc 8ebe fe3c abbd
00000230: 8cf5 803e a4b3 d6bd a7f6 8fbd 98c9 58be
00000240: b8ec 98bd 0a51 013e 5163 5b3e 7f84 d63e
00000250: db7c 96be 8b08 91be db1f 6a3b f03a 283e
00000260: b02a 593e 9d34 983d 0735 ab3d 4d1c ad3c
00000270: 5137 7d3d 16ab ca3d c506 033e 64c8 7c3e
00000280: cfb2 89bc 910c 10be 212f 4a3d 9c0c a93e
00000290: 60ae 4cbe 5660 653e dab7 72be 59ff a03e
000002a0: 9bf3 17bd bf81 aabe 7650 acbd ed0a fdbe
000002b0: 6100 93be 2666 cebd d299 1fbe e6ed 0d3e
000002c0: 94ee dd3d 82a2 643d 896d 42be c81b bd3c
000002d0: aedb 7b3e 24c0 8cbe 5d30 80bb 2441 803d
000002e0: 7347 62bd 3240 3a3d 2c38 e03d 1c1d 0d3b
000002f0: 86c5 27be 6d6f 5fbe 2d48 0bbe 469d bcbd
00000300: 39a0 3b3e e2ae 1fbe d917 d83d 394c 903e
00000310: 3b08 a43d 7945 91bc 1d60 80be c12f 70be
00000320: a263 8ebd 68ec 41be 3903 e73e 36fe dcbe
00000330: 202d c13c 03c0 f9bc c6c6 d9bc d19e e9be
00000340: 673c c7bd 1afe 83bd f27c dabc 0195 74be
00000350: 6f24 143e fb13 ebbd 5f70 33be 571c e8bd
00000360: c927 7c3d 89df b9bd 9e56 1fbc 90a9 bcbd
00000370: c5eb 2fbe f1ee a83d 8dac 3fbe e08b 2ebe
00000380: a7dc e43c e731 273e 9cdf 24be 3a8e 07be
00000390: 9c35 773d 48ac 28be 81fe 1abd 014a ed3d
000003a0: ab62 acbd 033d aebe e736 3bbd 6d1f bebe
000003b0: abae 023e 0d94 78be c5cb 89be 9ba3 883c
000003c0: 907a a0bd f964 acbe d587 16be 75e1 e43c
000003d0: 5e69 53be c32a ffbd 9d7e 71bd 24d4 82be
000003e0: c62f 8f3d ef85 943e 7371 023d c4ef 673e
000003f0: 86f4 10be 976c 843d dcf9 033c 24d0 883e
0.07431689 -0.2670176 0.09553007 -0.0053703655 0.08556105 0.04160369 -0.041736238 -0.13985644
-0.14856584 0.02024035 0.34353128 0.273541 0.06867736 -0.16113988 0.0947183 0.15912591
-0.17343467 0.011280195 -0.3044333 -0.08335967 0.28198516 -0.20629331 -0.2697717 -0.007835664
-0.3034722 -0.038765132 0.17592575 0.19231251 0.009153622 0.25077462 -0.013439575 -0.3667529
0.01911522 -0.03905542 0.071997225 -0.10182461 0.0924054 -0.20535617 0.039731506 -0.10171905
-0.02569114 -0.23817164 -0.08912211 0.077583626 0.18594134 -0.053079642 0.25518045 -0.1999694
0.17273894 -0.050075468 -0.05963975 0.08947653 0.25598454 -0.33160236 -0.23043558 0.056598414
-0.2528183 -0.075050615 0.18329085 -0.10244588 -0.04339229 -0.19848087 0.17339028 -0.0035076186
0.10268731 0.094687924 -0.018018376 0.15929498 -0.017639527 0.09654555 -0.110444695 -0.07317855
0.00097575365 0.20186423 -0.17791629 0.05110638 -0.1676121 -0.17481144 -0.15574864 0.0020660397
-0.2969883 0.043972854 0.020758735 -0.071166076 0.03970669 0.25778323 -0.36322922 -0.084149115
-0.34180412 0.22118984 -0.031204723 0.13716985 -0.050586022 -0.3190369 0.043770153 -0.04608735
-0.21117736 -0.24462369 0.32052812 0.26454583 0.13893102 -0.197721 0.078481905 0.36890996
0.013015484 -0.103564024 0.22502732 0.10921311 0.23739238 -0.44407293 -0.18622091 0.17018268
-0.094767764 -0.03484859 -0.09882889 -0.14064959 0.4254525 -0.0062071783 -0.32916886 -0.029791206
0.021993257 -0.047874574 0.06438362 -0.2739726 -0.0076870336 0.124999896 -0.18911515 0.09764471
-0.0035143427 0.123908885 0.25003046 0.16696437 0.18892814 0.25494015 -0.096509665 -0.23727836
-0.14205024 0.18064581 -0.27878007 -0.08361243 0.25187337 -0.104834825 -0.07029467 -0.21170652
-0.074670255 0.1262857 0.21424605 0.41897961 -0.29392132 -0.2832683 0.0035724554 0.16428733
0.2120769 0.0743191 0.083597235 0.021131659 0.061820332 0.09895913 0.12795551 0.24685818
-0.016808895 -0.14067294 0.049361352 0.33017433 -0.19988394 0.2240003 -0.23702946 0.31444815
-0.037097555 -0.33302113 -0.08413784 -0.49422398 -0.28711227 -0.10078077 -0.15586022 0.13860282
0.10836521 0.055819042 -0.18987097 0.023084536 0.2459552 -0.27490342 -0.0039120154 0.062624246
-0.05524392 0.045471378 0.10948214 0.0021532243 -0.16383943 -0.2181985 -0.13601752 -0.09209685
0.18322839 -0.15594056 0.105514236 0.28183153 0.08009382 -0.017733322 -0.2507333 -0.23455717
-0.06952597 -0.18937838 0.45119646 -0.43162698 0.023581088 -0.030487066 -0.02658404 -0.4562898
-0.09728318 -0.064449504 -0.026670907 -0.23884965 0.14467023 -0.1147842 -0.17523335 -0.113335304
0.06156138 -0.09075839 -0.009725241 -0.09212029 -0.17179783 0.082486995 -0.18718167 -0.17045546
0.027937246 0.1632763 -0.16100925 -0.13237849 0.06035386 -0.1647197 -0.03784037 0.11586381
-0.08417257 -0.34030923 -0.045706656 -0.3713335 0.12761943 -0.24275227 -0.26913276 0.016679576
-0.07835877 -0.33670786 -0.14700253 0.027939538 -0.20645663 -0.12459328 -0.05895864 -0.25552475
0.06991534 0.29008433 0.031846475 0.22650057 -0.14155778 0.06466024 0.008055177 0.267213

network.4.bias f4 [6]
00000000: d762 1ebc 9e8f 333c 7e1c 2c3d aabd 113c
00000010: bbf5 4bbd e082 81bd
-0.00966712 0.010959534 0.04201936 0.008895317 -0.049794894 -0.063237906
