dqn.pt (torch, 77600 bytes, 6 tensors)

network.0.weight f4 [128, 11]
000000 a9 28 92 3e f7 2f 42 be 6f a4 ef be da c9 a9 bd
       0.28546646 -0.1896361 -0.4680514 -0.08290453
000010 2e b5 35 be cb db 54 3f ff 15 8e be d2 7f c9 3e
       -0.17744896 0.8314788 -0.27751157 0.39355332
000020 1e ae ee be 05 3a 51 be 66 e1 70 be 0c c4 48 3f
       -0.46617216 -0.20432289 -0.23523483 0.78424144
000030 b1 1d 9f 3f 50 23 ea 3e f1 be 41 3f 2f de 73 3e
       1.2430936 0.45730066 0.7568198 0.23815225
000040 bd 54 65 be 2b 7e 05 be 29 72 28 3f 61 7a 08 bf
       -0.22395606 -0.1303641 0.65799195 -0.53311735
000050 8f 2c 7f 3e a1 54 e9 3e 52 84 33 3d 91 fd eb 3e
       0.24919342 0.4557238 0.043827362 0.46091893
000060 c4 1e d7 3d d3 b2 b9 bd 17 82 81 3e 3a 27 5a 3f
       0.10503915 -0.09067311 0.25294563 0.85216105
000070 9b 36 c2 3e a6 78 c8 be 50 bd 7a 3f 5a 86 27 3e
       0.37932286 -0.39154547 0.9794512 0.16359845
000080 5b f9 3a be 85 e6 4c 3f 06 c4 08 3f 50 80 2e 3d
       -0.18259184 0.80039245 0.5342411 0.042602837
000090 a5 58 1d bf 19 43 9c 3e 45 85 33 bf cc 36 91 3e
       -0.61463386 0.3051994 -0.7012523 0.2836212
0000a0 1f a0 42 3e 7a 95 e9 be 1d 62 32 3e 2e 1e 1a 3f
       0.19006394 -0.45621854 0.1742024 0.602023
0000b0 b0 1a 3b bc 42 15 04 bf 04 77 c4 3d 07 70 cf be
       -0.011419937 -0.51594937 0.09593013 -0.40515158
0000c0 3d f4 0c bf d8 45 10 bf 86 2b d4 3e f8 e0 36 3f
       -0.5506018 -0.56356573 0.41439456 0.71437025
0000d0 e6 13 81 3d 5e e2 f5 be 09 96 69 bd ba f8 5d 3f
       0.063026235 -0.48024267 -0.05702785 0.8670765
0000e0 8d 58 8d be 17 56 9b bd 2b e9 b3 3e c4 79 a9 bc
       -0.2760662 -0.0758478 0.3513883 -0.020687945
0000f0 46 06 05 3f e6 72 42 3b c6 2d 8a 3f 2e fa 67 3e
       0.519627 0.0029670536 1.0795219 0.2265403
000100 b9 33 1e 3f 4e 61 9c 3d 1f 41 85 be d3 84 05 3e
       0.6179767 0.07635747 -0.26026246 0.1303895
000110 30 20 85 3e 43 74 3c be b6 95 de be 62 66 09 be
       0.2600112 -0.18403725 -0.43473595 -0.13417962
000120 bd 18 b2 3e d8 d8 64 be 46 a7 f3 3e 8c 11 5b 3d
       0.347845 -0.22348344 0.47588557 0.05348353
000130 00 80 25 3e c2 bc a8 3d ef bf dc be 97 c1 67 bf
       0.1616211 0.08239128 -0.43115184 -0.9052977
000140 24 a3 e7 be b1 cc ec 3e 65 01 e9 3e e6 f0 10 3e
       -0.45241654 0.46249917 0.45508876 0.14154395
000150 5a 2f f7 3d 6f 40 0e bf 43 53 8f 3f e8 2b db be
       0.120695785 -0.5556707 1.1197284 -0.42806935
000160 5e ed dd bc fb d6 b8 be ea 03 ca be 1e 0d 5a be
       -0.027090725 -0.36101517 -0.3945611 -0.21294066
000170 f3 af 7d 3e 89 0b 2d bf 2e 83 2a 3f f2 fc da bd
       0.2477415 -0.67595726 0.66606414 -0.10692777
000180 23 34 6f 3f 6f 52 58 3d c9 be 49 3e d7 a4 8d 3d
       0.9343893 0.05281299 0.19701685 0.06916206
000190 18 5d 62 3f fd be 77 bc e9 be 4b 3f 2d 13 a9 3d
       0.884233 -0.015121219 0.7958818 0.082556106
0001a0 3a 93 1b 3f 71 1b 75 3d 0e 28 71 3f d4 d9 6c bd
       0.60771525 0.059840623 0.94201744 -0.057824925
0001b0 db c7 92 be 05 0f 60 3f e4 98 02 3e a0 e6 f7 3d
       -0.28668103 0.8752292 0.12753636 0.12104535
0001c0 9b b5 50 bf c4 56 05 bf ad 2b d2 3e b7 21 a4 bd
       -0.8152711 -0.5208552 0.41048947 -0.08014243
0001d0 0a 00 80 3e c7 d3 bb be ba 8f 05 bf a5 3a bb 3e
       0.2500003 -0.3668501 -0.52172434 0.3656818
0001e0 31 bd ab be 3d 5b 0b 3f ce d2 dc 3e 54 12 cc 3e
       -0.3354278 0.54436094 0.4312958 0.39857733
0001f0 1a 99 9b be 2a 04 d1 bd 93 04 65 3f c6 29 fe bd
       -0.30390245 -0.10205872 0.89460105 -0.124103114
000200 71 49 7b 3e d3 f9 49 bf a3 50 5d 3f fc 2f 26 be
       0.24539734 -0.78896827 0.86451167 -0.16229242
000210 f8 1e 21 bf 5b 73 2d bf 00 88 a5 3d 2f a8 3f 3f
       -0.6293788 -0.67754143 0.080825806 0.74866
000220 6d 6d 1d be 8c 8e 58 3e 99 c8 b0 bd 8c f9 50 3f
       -0.15373774 0.21148127 -0.08632011 0.8163078
000230 be 74 6a 3e 9f 11 90 bd c1 41 fd 3d 1a 5a dd 3e
       0.22896096 -0.07034611 0.12366057 0.43232805
000240 8c 4f 10 bf 81 0f 95 be fa 9c 15 3d 5e eb 50 bd
       -0.5637138 -0.2911339 0.036526658 -0.051005714
000250 cb c4 33 be b2 ed 22 bf 75 1c 39 be db b5 d9 be
       -0.1755554 -0.63643944 -0.18077262 -0.42521557
000260 e6 69 34 3f dc 8b 09 bf 02 8b bc 3e 77 0a dc 3e
       0.7047409 -0.53729033 0.36824805 0.42976734
000270 08 cd d7 be d2 3c 18 bf 5c a6 51 be 96 25 85 3e
       -0.42148614 -0.59467804 -0.20473617 0.26005238
000280 b8 a6 23 3f f6 ba 20 3e 0d 3c b2 be ae 4c f4 be
       0.6392627 0.1569632 -0.3481144 -0.47714752
000290 a3 27 eb be f9 ea 99 be b4 80 6c 3e 5b 69 fa 3e
       -0.45928678 -0.30062082 0.23095971 0.48908505
0002a0 bb 01 11 bf b2 fe 13 3e 7d c2 cb 3e 86 37 fb 3e
       -0.56643265 0.14452627 0.3979682 0.490658
0002b0 96 3c b0 bd 50 f9 7d be b4 1b 40 bc 43 38 eb 3e
       -0.08605306 -0.24802136 -0.011725355 0.45941362
0002c0 9c 8b 15 3f bf ba 02 3e 0f 21 01 bf 22 67 85 3d
       0.5841615 0.1276655 -0.5044107 0.06513812
0002d0 10 1c 35 be 09 fd bd 3d 64 7f 60 3e b5 a4 0d 3e
       -0.17686486 0.09276778 0.21923596 0.13832362
0002e0 1a bd 0a 3f 6e 4c 50 3e 19 7d 14 bf f4 a6 55 3e
       0.54194796 0.20341656 -0.58003384 0.20864469
0002f0 24 79 ca 3e de 56 b5 be ce cd 02 bf 0e a4 95 be
       0.39545548 -0.35417837 -0.51095283 -0.29226726
000300 5d e9 01 bf 22 e0 f4 3e d4 25 4f be 22 98 36 3e
       -0.5074671 0.4782725 -0.20229274 0.17831472
000310 b2 88 1f be 07 da 56 3b 8b 52 ed 3e 2a 09 00 bd
       -0.15579489 0.0032783763 0.46352038 -0.03125874
000320 23 42 8c 3d e5 07 2a 3f 09 fa 3b 3f 18 ef 83 bf
       0.06848552 0.66418296 0.734284 -1.0307341
000330 81 c3 6c 3e c3 12 b7 3e 7f 33 08 3f 34 f1 6c be
       0.23121454 0.35756502 0.53203577 -0.23138887
000340 0d 99 0c 3d d8 90 13 3f 83 eb d2 3e 7b b6 3f 3e
       0.034325648 0.5764289 0.41195306 0.18721955
000350 d0 a0 52 3e d3 f8 21 3e 13 32 82 3e 15 02 f8 3e
       0.20569158 0.15817575 0.2542883 0.48439088
000360 42 fd 1f be 72 7f ad 3d 43 7e 69 be 39 91 09 3e
       -0.15623954 0.08471574 -0.22802071 0.13434304
000370 c7 ee 7c bf 7b 8a 58 3f 1b bd db 3e 31 08 0f be
       -0.98801845 0.84586304 0.42917714 -0.13967969
000380 56 bf 54 be 54 a1 7e 3d d7 1c 72 3e 64 78 1c 3f
       -0.20776114 0.062165573 0.23643814 0.611212
000390 1f 71 66 be 72 31 c6 3e 58 1a da be a7 3c 04 be
       -0.2250409 0.387096 -0.42598224 -0.12913762
0003a0 d3 75 11 3f ff 45 81 be 5b 8d 32 3f 44 5a 15 3e
       0.5682041 -0.25248715 0.6974694 0.14585215
0003b0 45 c6 12 bf 2a 54 92 3e 0e 8c f6 bd 23 93 43 3e
       -0.57333785 0.28579837 -0.12038432 0.19099097
0003c0 38 98 7f 3f 75 19 70 3e 49 7d 2c bf c4 a8 30 3f
       0.9984164 0.23447211 -0.6737867 0.69007516
0003d0 92 64 10 3f 88 44 08 bf c1 1b ae 3d ae f3 67 b9
       0.5640346 -0.5322957 0.085013874 -0.00022120654
0003e0 46 34 a0 3c fb a5 9b 3e 3e 8a 12 3e 11 79 64 3d
       0.019556176 0.3040007 0.14310548 0.05577952
0003f0 45 71 3e 3f 35 c4 3a 3f bf 98 c4 be ca c7 81 3e
       0.74391586 0.7295564 -0.38397786 0.2534774

network.0.bias f4 [128]
000000 1e 81 30 3d 42 0b f8 3c 5e 32 ac 3d b6 94 d9 3d
       0.043091886 0.030278806 0.08408044 0.106240675
000010 53 28 52 3d 95 d1 db 3d 20 11 db 3d 69 36 f7 3d
       0.051307987 0.10733334 0.10696626 0.12070925
000020 40 c7 1e 3e 09 86 68 3d c4 31 99 3b 4e 77 88 3d
       0.15505695 0.05676845 0.004675122 0.066633806
000030 b2 26 2d 3e 4d c1 df 3c 44 e0 47 3d 1e 7a e5 bb
       0.16909292 0.027313853 0.04879786 -0.007003083
000040 27 27 c9 3d 26 6f e9 3d 00 d3 d3 3d 75 ff a7 3d
       0.09821921 0.11398153 0.103429794 0.082030214
000050 a9 aa aa 3d 1b 6e 63 3d f4 1d f8 3d c0 ac 99 3d
       0.08333332 0.055524927 0.12115088 0.075036526
000060 15 c8 1a 3e 4a 70 8f 3d 73 77 9e 3d e5 3f e4 3d
       0.15115388 0.07003839 0.07737627 0.111449994
000070 9b bf cc 3d f1 cb d5 3d 00 00 00 00 f6 e1 cd 3c
       0.09997483 0.10439289 0.0 0.02513216
000080 fc fa d4 3d c1 55 c8 3d 39 f0 10 3e 00 00 00 00
       0.10399434 0.09781981 0.14154138 0.0
000090 ae f1 f4 3d d1 77 b3 3d 78 a4 fd 3d ea f7 93 3d
       0.11960159 0.087630875 0.123848855 0.0722502
0000a0 83 41 ec 3d 4f 66 e3 3d 9d 48 a1 3c 21 fe 96 3d
       0.11535933 0.11103498 0.019687945 0.0737269
0000b0 db 7a 7d 3d 89 e4 09 3e 63 aa 01 3e 2d 7b c5 3d
       0.061884742 0.13466085 0.12662654 0.096426345
0000c0 25 e2 ce 3d 19 1e 7a 3d d8 e9 e9 3d c8 ea aa 3d
       0.101017274 0.06106386 0.11421555 0.08345562
0000d0 74 67 f6 3d 0a c4 9f 3d c3 15 18 3e a3 86 02 3d
       0.12031451 0.07801063 0.14852051 0.03186668
0000e0 ba 9f e8 3d 64 ac 04 3e 44 e0 00 3e 8a df bb 3d
       0.113585904 0.12956387 0.1258555 0.09173496
0000f0 9e b8 ea 3d 99 47 08 3e 5b 65 d7 3d 06 a2 58 3d
       0.11460994 0.13308562 0.10517379 0.052888893
000100 72 da 22 3e 65 f5 13 3e 19 2b e5 3d 48 02 aa 3d
       0.15903643 0.1444908 0.11189861 0.08301216
000110 ab 27 f5 3d a5 5f 1d 3e de b6 9e 3d ae 7f ba 3d
       0.11970457 0.15368517 0.07749723 0.09106384
000120 3f c8 ac 3d 46 6d d5 3d 41 ee 0b 3e 7c d4 c6 bc
       0.084366314 0.10421233 0.13665105 -0.024271242
000130 4a 0a c3 3d 52 3e d9 3d 78 19 22 3e ca 27 e7 3d
       0.09523447 0.1060759 0.15830028 0.11286886
000140 64 5d 85 3d 12 1f a3 3d 60 ec aa 3d 80 4e c1 3d
       0.065119535 0.079649106 0.08345866 0.09438801
000150 3e 78 15 3e 42 d6 e1 3d 66 be ce 3d a3 84 f8 3d
       0.1459665 0.110271946 0.10094909 0.121346734
000160 fe 4a a1 3c 21 d1 11 3d 30 22 0b 3e 94 03 f3 3d
       0.01968908 0.03559983 0.1358726 0.11865917
000170 19 4f 80 3d dc a5 03 3e 60 18 c1 3d 7c dc 52 3d
       0.06265087 0.12856239 0.09428477 0.0514798
000180 29 ba b1 3d a0 57 a8 3d bb 54 fa 3d 15 20 a6 3d
       0.08678085 0.08219838 0.12223192 0.08111588
000190 cc 82 e2 3d 74 2d 0a 3e e0 59 ac 3d 8f d2 d0 3d
       0.11060104 0.13493901 0.0841558 0.10196411
0001a0 65 f1 d9 3d 59 24 c5 3d f1 c8 97 3b bd f8 e0 3d
       0.106417455 0.096260734 0.0046321084 0.10984943
0001b0 c4 5c cf 3d 46 ed b3 bc c8 b1 d5 3d 63 15 c3 3d
       0.101251155 -0.021963727 0.104343 0.095255636
0001c0 f0 18 98 3d 0c 0e 1b 3e 63 a1 a2 3d 51 f8 e1 3d
       0.074266315 0.15142077 0.07940938 0.11033691
0001d0 74 62 f2 3c 83 66 1f 3e b4 1d df 3d ed 25 d1 3d
       0.029587962 0.15566449 0.10894337 0.10212312
0001e0 7b 0f a2 bb d5 40 f3 3d ab 06 c4 3d 2d 7e df 3d
       -0.004945693 0.118776 0.09571584 0.10912738
0001f0 65 e9 d4 3d af d2 3b 3c 91 72 c0 3d 83 ea 09 3e
       0.10396079 0.011463805 0.09396852 0.13468365

network.2.weight f4 [128, 128]
000000 ab 62 5a 3e 42 e8 9e bd 3a e6 02 be 53 f1 37 3e
       0.21326701 -0.077591434 -0.12783137 0.17963152
000010 cf 17 4e 3e c0 9f 1a 3e ea 06 f0 bd 4e 4b 81 3e
       0.2012627 0.15100002 -0.11720069 0.25252765
000020 90 6f 88 3e 0a 28 89 3c bf 11 2a bd 7a fb b4 3d
       0.26647615 0.016742725 -0.04152083 0.08837028
000030 a3 ac ef bd b1 7b 1c 3e f3 a5 0d 3d 19 6c 05 3e
       -0.1170285 0.1528156 0.03458209 0.13029517
000040 89 64 c0 b9 f4 28 92 bd 96 65 da 3d f9 aa 87 bd
       -0.00036695998 -0.071367174 0.10663907 -0.06624407
000050 74 b7 0d be e1 05 9f 3d 3b 9f b9 bd 99 85 0d 3d
       -0.13839513 0.07764793 -0.09063574 0.034551237
000060 28 55 bf bd 18 41 25 3e 2d 6a 22 bd c1 ac dc bd
       -0.09342414 0.16138113 -0.03965204 -0.10775138
000070 f3 4a 48 3e cf 2e df bd 0c f2 f5 3d f7 52 8b bd
       0.19559841 -0.108976 0.120090574 -0.06802934
000080 de c9 6d 3e 16 00 31 be 49 64 1a 3e 0a 08 df bd
       0.23221537 -0.17285189 0.15077318 -0.10890205
000090 e5 e9 4a 3e db d9 10 be 5b b7 31 bd dc b5 81 3e
       0.19815786 -0.14145605 -0.043387752 0.2533406
0000a0 c2 99 1f 3e 61 1f 51 3d a0 a4 3f be 98 c4 47 be
       0.15585998 0.051055316 -0.18715143 -0.19508588
0000b0 8f b1 04 be 0d 93 24 3e 8e 1d 1f 3d e5 b1 82 3e
       -0.12958358 0.1607172 0.038846545 0.25526348
0000c0 e7 39 a8 3e 67 d2 11 3e 55 ad 16 3e 50 2e 7d bd
       0.32856676 0.14240418 0.14714558 -0.061811745
0000d0 e6 4d b9 3d 22 96 d0 3d 65 e9 5b be 58 91 84 be
       0.09048061 0.101848856 -0.21475752 -0.25892138
0000e0 5b c3 b6 3d 85 5a ab 3d fd c5 14 bd 3d 10 d8 3e
       0.0892398 0.083668746 -0.03632163 0.4219989
0000f0 0d 62 61 bd d8 3c 41 3e 40 1c 4d 3e 82 66 e4 3c
       -0.05502515 0.18870866 0.20030308 0.02788091
000100 73 b4 13 3e 7e fd a0 3d ac 1b 84 3e ce ae a2 bd
       0.14424305 0.0786085 0.25802362 -0.079434976
000110 bb 69 2f 3d 1e dc 0f 3e 33 66 2c 3e 8a e5 25 be
       0.04282544 0.14048812 0.16835861 -0.16200843
000120 d8 b0 44 bd 43 79 74 bc 7c 5b a0 be 96 90 72 bc
       -0.048020214 -0.014921489 -0.31319797 -0.01480498
000130 a1 c0 2c bc 1f 6c 92 bc 8d 21 2b 3d a5 a8 61 3e
       -0.010543973 -0.017873822 0.041780043 0.22036989
000140 ce 11 fe bc ff 5b df 3c 80 89 0f 3e bc 7a 42 3e
       -0.03101435 0.027265547 0.14017296 0.18992132
000150 ce 3c 47 3e 68 49 a8 3d fb aa 03 bd 97 78 b1 bd
       0.19456789 0.08217126 -0.03214548 -0.08665579
000160 02 40 51 3d 6c c8 30 be a4 48 c9 3d 79 0c 3c 3e
       0.051086433 -0.17263955 0.09828308 0.18364133
000170 16 5f b9 bd 9d ae 8e 3e 67 94 4c be 60 fd a1 3c
       -0.09051339 0.27867594 -0.19978486 0.019774139
000180 0d 37 ba 3d 8b a5 bb bd 70 e7 65 be 02 0a 31 be
       0.09092531 -0.09162434 -0.22451568 -0.17288974
000190 77 4a 64 3e c2 f0 35 be a0 9a 86 3c d4 81 29 3e
       0.22294031 -0.17767623 0.016431153 0.16553432
0001a0 29 f0 b3 bc 22 de 22 3e f4 7c 39 bd 1f 33 63 be
       -0.021965103 0.1590505 -0.04528518 -0.2218747
0001b0 55 23 08 3e 25 f8 3c 3e b1 50 e5 bc 88 8c 85 3e
       0.13294728 0.18454035 -0.027992578 0.2608378
0001c0 b3 d7 dc 3c 1e b2 38 3d 64 3c fd 3d e8 9f b5 3e
       0.026958322 0.04509174 0.12365034 0.3547356
0001d0 78 a0 b3 3e b5 59 c4 3d d1 79 07 be 59 a1 68 3e
       0.35083365 0.09587423 -0.13230063 0.22717799
0001e0 82 22 47 be d2 bc 34 bc 55 f1 10 3e f0 13 d5 be
       -0.19446757 -0.011031346 0.14154561 -0.41616774
0001f0 97 7d 4d 3e 89 a1 33 be d6 dc 4b 3d 62 25 1d 3e
       0.2006744 -0.1754209 0.049771152 0.15346292
000200 83 bb e1 3d d0 4b 55 be c4 d0 80 be dd 07 53 bc
       0.11022093 -0.20829701 -0.25159276 -0.012880293
000210 8f 11 01 3e ea a0 4f 3d d4 a9 d3 bc 30 97 92 bd
       0.12604354 0.05069057 -0.025837816 -0.07157743
000220 8a 54 0c 3e da 25 5f 3e cb ec 0f be ae ae 15 3e
       0.13704124 0.21791783 -0.14055173 0.14617416
000230 ca a4 8f 3c 13 80 fd bd eb 3e 45 bd 23 6a 13 be
       0.017534632 -0.12377944 -0.048155706 -0.14395957
000240 87 80 cc bd 2f 88 37 be 79 50 11 be 10 9a 51 be
       -0.09985452 -0.17923044 -0.14190854 -0.20468926
000250 02 b0 f5 be 28 b4 87 bd d2 ba 1c 3d 68 33 da bd
       -0.47985846 -0.06626159 0.038264103 -0.10654336
000260 b0 b4 34 3d d2 3b 2e 3e 94 36 b3 3a 2c ee 65 3d
       0.04411763 0.17015007 0.0013672882 0.05613534
000270 0a 27 b6 3c c9 a0 1a 3e b0 56 9f bd 29 19 bf 3d
       0.022235412 0.15100397 -0.07780206 0.09330971
000280 e2 61 0c 3e 8a 21 ce 3d 88 e7 98 3c c2 fe d0 3d
       0.13709214 0.10064991 0.01866509 0.10204841
000290 85 76 0c be 2c db 22 3b 7d 9b 0d 3e b1 cc 11 be
       -0.13717087 0.0024849875 0.13828845 -0.1423824
0002a0 9c 97 cc 3d 13 a5 21 3d 07 13 a1 be d6 18 75 3e
       0.09989855 0.039464068 -0.3145983 0.23935255
0002b0 6a 3d 8c bc d7 13 fb bc 25 3f 1a 3e 4c 09 9f bd
       -0.017119128 -0.030649109 0.1506315 -0.07765445
0002c0 4e b0 86 bc cf f3 26 3e b6 d2 47 bc 96 e8 a3 3d
       -0.01644149 0.16303943 -0.0121962335 0.080033466
0002d0 ee 6e c2 bd da 58 79 bb f6 d5 80 bd fa 76 cb bc
       -0.094938144 -0.0038047344 -0.0629081 -0.024837006
0002e0 3c 79 07 3e 48 62 f9 3d 6a 0b 22 bd 22 89 02 be
       0.13229841 0.12176949 -0.039561667 -0.12747625
0002f0 2f db 53 3e 38 88 eb 3a 69 9c 47 be 70 7b f9 3d
       0.2068908 0.0017969673 -0.1949326 0.12181747
000300 62 f5 73 3d e2 5a 9b 3d 50 5a 99 bd 02 ea 80 be
       0.059560187 0.07585694 -0.07487929 -0.25178534
000310 6e bc 5a 3d de e2 3c be 9c 14 05 3e a5 55 93 3d
       0.053402357 -0.18445918 0.12996143 0.0719407
000320 91 e3 51 bd b1 8a 3e be 04 ca b7 bd 62 8c 53 38
       -0.051242415 -0.18607594 -0.08974078 5.0437062e-05
000330 b2 b9 84 be 47 c6 3e bd 12 41 d4 3c e0 ba 46 3e
       -0.25922924 -0.04657581 0.025909934 0.19407225
000340 78 cd eb 3c 3e 0a cc bc cc d1 28 be 44 ed 07 3c
       0.028784499 -0.024907228 -0.16486281 0.008296315
000350 db a8 79 bd f9 ad 11 3e c1 59 82 be 4d 44 6e 3c
       -0.06095205 0.14226522 -0.25459102 0.014542651
000360 65 36 56 3d 40 13 dc bd fa 9a de bd 40 35 72 be
       0.05229797 -0.10745859 -0.10869403 -0.23653126
000370 7d 08 e1 3c fc 03 85 bd b6 9f e2 bd 77 df 3a bd
       0.027469868 -0.064949006 -0.11065619 -0.04562327
000380 01 00 c2 3d 1a 53 1a bd 7c e8 08 be 25 1c 63 be
       0.09472657 -0.037676908 -0.13369936 -0.22178705
000390 fb 85 7f be 6b 06 63 3e ad 36 51 be 36 4c b0 3d
       -0.24953453 0.22170417 -0.20431013 0.08608286
0003a0 8e 61 05 be 97 a2 fd 3d fa 98 97 3d 54 ee 03 be
       -0.13025495 0.12384527 0.07402225 -0.12883884
0003b0 f9 b6 82 bd 4a bb cd 3d 29 0a 03 3e 9b f7 46 bb
       -0.063825555 0.10045488 0.12796845 -0.0030359987
0003c0 28 40 b0 3d 2c fa 67 bb d1 52 a1 bc c8 31 e6 3c
       0.08605987 -0.0035396917 -0.01969281 0.02809991
0003d0 d9 f4 5b bd fa 0e 60 bd d9 d6 0c be e0 f6 2a 3e
       -0.0537003 -0.054701783 -0.13753833 0.16695738
0003e0 fe 8a a8 bd 24 9e 52 3d 8a f5 18 3d d9 c0 2e be
       -0.08229636 0.051420346 0.03734354 -0.17065753
0003f0 ca 08 d5 3c 2b 09 12 be ce 48 17 bd f0 72 8e 3d
       0.026005168 -0.1426131 -0.036934666 0.06955516

network.2.bias f4 [128]
000000 cc 44 a9 3d 2d 75 a9 bc dd a3 b4 bc c9 6d 56 3c
       0.08265075 -0.020685757 -0.022050792 0.013087698
000010 69 6a 70 3d f3 aa 1b 3d c1 5a e0 3d 03 84 ee bc
       0.05869523 0.038004827 0.1095481 -0.029115682
000020 44 69 8f 3d 90 ab c0 3d c9 74 a6 3d 49 fa 8c 3d
       0.070025 0.09407723 0.08127744 0.068836756
000030 e5 9e 8a 3d 28 98 95 3c f8 02 26 bc 1d c9 ee bb
       0.06768588 0.01826103 -0.010132544 -0.007287158
000040 07 6c a3 3d 52 a7 b9 3d b8 cf ca 3d ba 5e 6a bc
       0.07979589 0.09065117 0.099029005 -0.014304811
000050 f3 5a af 3d 77 c4 8a 3d 12 cc 6a 3d fa 14 85 bc
       0.08562269 0.06775754 0.057323523 -0.016245354
000060 57 82 81 3d 9b 3e ae 3d a2 b6 d6 bc 23 76 f2 bb
       0.063236885 0.08508035 -0.026210133 -0.007399337
000070 00 00 00 00 00 00 00 00 a3 2f b5 3d 31 05 86 3d
       0.0 0.0 0.088469766 0.06543959
000080 e6 cc 91 3a 7c 64 3e bd 29 2c f7 bb b1 1d f9 bc
       0.0011123687 -0.046482548 -0.007543106 -0.030409666
000090 3a 7f 6c 3d 70 c4 88 3d ce 84 94 3d ba 18 fb bb
       0.05773852 0.066780925 0.07251893 -0.0076628597
0000a0 c3 c3 f5 bb e6 c2 ad bc 1b 69 ca 3d 95 0b 1c 3d
       -0.0075001433 -0.021211099 0.098833285 0.038096983
0000b0 4c 5a 96 3d ed ca a0 3d 15 83 96 3d 3e be 7d 3d
       0.073414415 0.07851205 0.07349221 0.061949007
0000c0 79 d0 95 3d fd eb 14 bc 72 cf ac bc c1 65 9d bb
       0.07315154 -0.009089467 -0.021095011 -0.00480339
0000d0 ea 69 cf 3c c7 01 ce 3d 68 a3 9a bc 00 00 00 00
       0.025319058 0.10058933 -0.018876746 0.0
0000e0 00 00 00 00 73 28 18 3d 42 f4 55 bc 71 47 bb 3d
       0.0 0.03714795 -0.013058724 0.09144486
0000f0 36 bf ac 3d 5c 54 88 3c 78 f9 70 bc 7e 6e af 3d
       0.08434908 0.016641788 -0.0147079155 0.085659966
000100 b5 3a c9 bc 53 b3 c5 3d 6a c2 0f bd aa 00 6f 3d
       -0.024564127 0.09653344 -0.035097517 0.058350243
000110 17 56 42 3d 1a d0 91 3d ba 84 a1 3d 58 a2 f4 3b
       0.047445383 0.0711977 0.07886644 0.007465642
000120 2d a0 40 3d 00 00 00 00 52 ed c6 bc ea 3e 76 3d
       0.047027756 0.0 -0.024283085 0.060118593
000130 1c b0 a6 3d 01 fb a7 3d 9b db 34 3d d9 83 8f 3d
       0.08139059 0.08202172 0.044154745 0.0700757
000140 48 e8 1d bc 11 c5 1f bc 44 c4 e1 bc ab 71 a7 3d
       -0.0096379 -0.009751574 -0.027559407 0.08175977
000150 a3 fc 87 3d 62 2f 09 bd ae 86 85 3d fd 73 09 bc
       0.066399835 -0.033492453 0.06519829 -0.00838947
000160 27 62 9b 3d 9f f4 a6 3d 8e b4 12 bc fd de f2 bb
       0.075870804 0.081521265 -0.00895418 -0.007411836
000170 22 6a 71 3c 55 35 80 3d cc 85 2f ba e7 73 2a 3d
       0.014734777 0.06260172 -0.00066956575 0.04161444
000180 d0 3b bb 3d 06 08 7d 3d 9d a0 a2 ba 30 81 9c 3d
       0.09142268 0.06177523 -0.0012407486 0.07641828
000190 73 df ac 3d 42 57 b2 bc 90 be 9d 3d 1a f8 1e 3d
       0.08441057 -0.021770123 0.077023625 0.038810827
0001a0 e1 13 81 3d b3 db ba 3c bd 88 e2 3d 18 76 46 bc
       0.0630262 0.022809839 0.11061237 -0.012113117
0001b0 20 d7 a3 3c 00 00 00 00 41 51 86 3d e0 30 96 3d
       0.02000004 0.0 0.06558467 0.07333541
0001c0 0c 0b 83 3d 9a 90 de 3a 6c a8 04 3e 00 00 00 00
       0.063985914 0.001698035 0.12954873 0.0
0001d0 69 81 85 3d e0 19 13 3d af a8 aa 3d 5f 5d 78 3d
       0.06518824 0.03591335 0.08332955 0.06063592
0001e0 fe 0c 50 bc 80 c0 29 3c f7 0d bd bc ce ba 85 3d
       -0.01269841 0.010360837 -0.023077948 0.06529771
0001f0 68 71 c9 3c 00 00 00 00 00 00 00 00 35 86 80 3d
       0.02459021 0.0 0.0 0.06275598

network.4.weight f4 [6, 128]
000000 f7 18 1f 3d af 05 03 3e 62 32 44 be 86 e2 01 3f
       0.038842168 0.12795137 -0.19159845 0.5073627
000010 90 c5 75 3e 19 54 06 3e 16 58 a2 3e 58 e3 69 bc
       0.24001145 0.13118018 0.3170783 -0.014275394
000020 a4 b0 03 bc 64 67 e8 3d 7a 4c 4a be 72 5a 89 be
       -0.00803772 0.11347845 -0.19755736 -0.26826817
000030 39 04 26 bc ef 32 a9 bc e5 d4 8b 3d fc 22 cd 3c
       -0.010132843 -0.02065417 0.06827716 0.025041096
000040 c1 a8 b3 bd 04 1e 6f be ca 2f 1d 3e 38 aa 30 be
       -0.08772422 -0.23351294 0.15350261 -0.17252433
000050 4b f5 62 3e 8c c0 17 3d 39 5b 0d 3e 5e 24 b4 bd
       0.22163884 0.03704886 0.1380433 -0.08795999
000060 58 08 64 be bd 3b 6e bd ab 8f 8c bc 54 4d 35 bd
       -0.22268808 -0.05816244 -0.01715835 -0.0442632
000070 48 95 a9 bd f4 fa f9 3d 5d 16 82 be 7e f5 8b bd
       -0.08280426 0.12206069 -0.25407687 -0.06833933
000080 4d 6c 14 be 59 5f af bd f7 3c 3e 3a 08 40 d1 bd
       -0.14494438 -0.08563108 0.0007257009 -0.10217291
000090 b6 9d b5 3d d2 e1 84 3e 7c 54 7f be f8 3f 54 bd
       0.088679716 0.25953537 -0.24934572 -0.051818818
0000a0 d3 ab 66 bd 00 f7 44 3e 77 5f 2d bd d6 39 98 3e
       -0.056316208 0.19234848 -0.04232737 0.29731625
0000b0 e6 31 0c bf 41 38 77 bd d8 2b b9 be 62 3f 7e 3e
       -0.5476364 -0.060356382 -0.36166263 0.24828866
0000c0 8d 1f 79 be b2 ac b7 3d b0 a1 a2 bd 9b 4e 13 bd
       -0.24328442 0.08968486 -0.07940996 -0.035963636
0000d0 a4 9e c5 bc 4c f8 8f 3e 67 e3 da bd 2a a3 b5 3e
       -0.024123497 0.28119123 -0.10687905 0.35476047
0000e0 73 65 da bc e9 9e 33 3e d6 bc b0 3d 7f 73 a0 3e
       -0.026659703 0.17541088 0.086297676 0.31338117
0000f0 00 a8 2c be 3f 7b 8c be 82 d8 b3 3d 88 c1 2d be
       -0.16860962 -0.2743778 0.0878153 -0.16968358
000100 d8 44 0d bd 6f 64 dc 3e b8 5d d4 3d 53 3b 68 be
       -0.034489483 0.43045375 0.10369438 -0.2267888
000110 2e b5 79 3e 94 5d 9f bc 02 c0 35 3d d5 00 f4 bc
       0.24385521 -0.019453801 0.044372566 -0.029785553
000120 14 47 6a be d9 ad 9c 3d 26 96 15 3e 22 fe 83 be
       -0.22878677 0.07650346 0.14608058 -0.25779825
000130 b9 0e 56 3d 3c 36 bc bd f6 9f c2 be 55 ae 0c bd
       0.052260134 -0.09190032 -0.38012666 -0.034345943
000140 44 df ed 3c 0b 4e 67 3d 63 2e df 3d 1e 0d cf bd
       0.029037125 0.056470912 0.108975194 -0.10109924
000150 88 e0 de 3c b5 f3 88 3c ab 0a de 3d d3 82 f2 3d
       0.027206674 0.016717771 0.108418785 0.11841359
000160 aa 1e 61 3e 2d b1 49 3d f5 2a 23 be 51 c7 8c bd
       0.21984354 0.049241234 -0.15934356 -0.06873954
000170 3c 35 d9 be 89 29 d8 bc ef d7 f5 bb 03 28 88 3c
       -0.42423427 -0.026386993 -0.007502548 0.016620642
000180 e1 d0 ac bd eb 25 64 be 3f 8a be 3d 6b c8 1d be
       -0.08438278 -0.2228009 0.09303712 -0.15408485
000190 f6 1c 5b be 1e 2d 97 be 8e 66 8f 3d 6b be 1a 3e
       -0.21397766 -0.2952661 0.07001983 0.15111701
0001a0 eb d5 f1 be ce 0f 71 3c 16 ec 82 3e 66 56 9e 3d
       -0.4723352 0.014713241 0.25570744 0.07731323
0001b0 a1 a0 d6 3d 42 cb a5 bd 10 d1 d5 be 7c 32 0f 3e
       0.10479856 -0.08095409 -0.41761065 0.13984102
0001c0 3e d4 02 be 2e d0 8b bd ee 99 bd 3e d7 d9 a3 3d
       -0.12776276 -0.068268165 0.37031502 0.08000534
0001d0 e8 62 83 bd 36 04 87 be 26 44 a8 3e e3 b0 95 bb
       -0.06415349 -0.263704 0.32864493 -0.0045682057
0001e0 7d e5 6c bb 79 ae 70 be 44 e9 2c bc 58 f5 0a be
       -0.0036147528 -0.23504056 -0.010553662 -0.13570154
0001f0 8d 36 60 be 5c 91 e2 3d 6b fd 93 be 3a 16 9c be
       -0.2189581 0.11062881 -0.2890428 -0.30485708
000200 a5 08 9e 3d dc 58 40 bd ce 8a e3 39 b1 a8 4f 3e
       0.077164926 -0.046959743 0.00043400232 0.20279194
000210 c3 59 fa bd 62 50 aa be 97 69 75 be 8f 77 b7 3d
       -0.12224152 -0.33264452 -0.2396606 0.08958351
000220 3e 71 98 bd 87 e7 d5 3d d2 f6 fc bc 4b 85 0f be
       -0.07443474 0.10444551 -0.030879412 -0.14015691
000230 a2 26 28 3e 3c 8d e2 bd 2c 35 18 3e af f6 81 bc
       0.16420987 -0.110620946 0.14864033 -0.015864698
000240 4b b2 bf bd aa c1 83 3e 23 c0 38 be 35 b6 b5 bd
       -0.093601786 0.2573369 -0.18042044 -0.08872644
000250 aa fb 79 3d 42 66 7e 3e 79 3b cd 3d ec fb 88 3d
       0.06103102 0.24843696 0.10021109 0.06688675
000260 2d 8e a4 3d 00 fc 87 3e 59 f9 45 3d 1c b1 9e 3c
       0.080349304 0.26559448 0.0483335 0.019371562
000270 eb 84 1f 3c f8 8b 28 3e ce 1c a5 bd ed bd 9f be
       0.00973628 0.16459644 -0.08062135 -0.3119959
000280 86 dc e8 be c3 d9 4c bd f9 88 06 be ac db 8d 3d
       -0.45480746 -0.05001236 -0.13138188 0.06926665
000290 16 d4 11 be 55 d4 44 3e 54 be 97 3d 9b 66 f0 3c
       -0.1424106 0.19221623 0.07409349 0.029345801
0002a0 8f 29 20 3d d3 81 ba bd 1f 8d b3 3e f9 8a 82 bd
       0.039102133 -0.09106793 0.35068604 -0.06374163
0002b0 9e 60 8b bd d1 05 86 3e 2e 41 36 3e 68 f4 7b 3d
       -0.06805538 0.26176313 0.17798302 0.06151238
0002c0 54 4b 01 3e 28 04 83 3b 18 9e 95 bc 4a 52 a5 3d
       0.12626392 0.003998298 -0.018263862 0.08072336
0002d0 ca 3c a8 3e 3c e3 d2 bd f6 b6 c8 bd db d9 9d bc
       0.32858878 -0.10297248 -0.09800522 -0.01926892
0002e0 79 60 7d bd 1b 78 65 3c f9 cf 4d bd d9 fd 75 be
       -0.06185958 0.014005686 -0.050247166 -0.24022616
0002f0 66 66 b4 bb e5 e4 29 bc ed 6c ba bd 9d 34 b0 3d
       -0.005505371 -0.010369514 -0.09102807 0.08603785
000300 17 0b e9 3d a6 65 a2 3e 3c 91 b7 3d 17 a2 0e bd
       0.11379068 0.31718177 0.08963248 -0.03482255
000310 d0 c3 36 bd 9a 6f e0 3d 21 0c 9c 3e b4 ea 60 be
       -0.044620335 0.10958786 0.30478004 -0.21964532
000320 36 ae ba be 8a f5 92 3c c3 bd ab be d1 9b 83 3c
       -0.36461037 0.017939348 -0.33543214 0.01606551
000330 a4 80 59 3e 98 35 37 3e 86 e3 df bc ec 9a 99 3e
       0.21240479 0.17891538 -0.027330171 0.3000101
000340 b4 3e b6 be d9 0d 3f be 95 e5 c2 bc 18 8a a6 bd
       -0.35594714 -0.18657626 -0.023791114 -0.08131808
000350 34 4a d2 bd 72 bd 33 bd 3e 34 5c bd 54 26 31 bc
       -0.102680594 -0.04388184 -0.05376076 -0.010812361
000360 d5 4f 62 be f4 a4 7a bd 12 70 f2 3d 00 45 e4 3d
       -0.22100766 -0.061192468 0.11837782 0.11145973
000370 dd 5f 9c bc 18 69 98 3d 6e ba c1 bd 60 a9 be 3d
       -0.01908868 0.0744192 -0.09459387 0.093096495
000380 99 ef 37 3d ff e3 ef bd cc 09 3c bc 90 14 51 bc
       0.044906233 -0.11713409 -0.011476945 -0.01276125
000390 06 81 05 bd 6a 11 74 3d 8c 5b f1 bd 4c e3 33 be
       -0.03259375 0.05958692 -0.11785039 -0.17567176
0003a0 4b 6b 4b 3e 8c 13 2e be 6c d2 34 3e 18 c3 85 3d
       0.19865148 -0.16999644 0.17658395 0.06531352
0003b0 d3 54 d5 be 1c a7 3b 3d 27 53 e1 3d 02 42 54 be
       -0.41666278 0.045813665 0.11002188 -0.20728305
0003c0 2b be e1 3c 81 97 90 be 9b a8 42 3e 60 35 9e bd
       0.0275565 -0.28240588 0.1900963 -0.07725024
0003d0 04 da 28 bd 7f 8c 03 be ae d3 2e 3e 58 2a 7b bd
       -0.04122354 -0.12846564 0.17072937 -0.06131968
0003e0 79 e6 b9 3c 72 d7 4d 3d 77 92 8f bd 7b 32 8b be
       0.022692906 0.050254293 -0.07010358 -0.2718695
0003f0 71 1a 8f be 67 23 d3 3d e7 04 9b 3d a3 f3 6d be
       -0.2794986 0.10309487 0.075692944 -0.23237471

network.4.bias f4 [6]
000000 83 25 86 ba d0 89 18 3d c6 da 29 3d 2e e7 35 3c
       -0.0010234568 0.037240803 0.041468404 0.011102481
000010 1a b0 82 bd 8a c5 58 bd
       -0.06381245 -0.052922763
