dqn.pt (torch, 78112 bytes, 6 tensors)

network.0.weight f4 [128, 12]
00000000: 1dee 703c 4457 3e3e fbdf db3e fb97 2b3f
00000010: 002d 203f 0f8c 063f b324 7f3e ba05 823e
00000020: 2dad b3be 73cf b1be 67ab 0abe 592d 4a3f
00000030: 62b6 043e 8f7a eebd 16a0 f1bd 57d5 263f
00000040: 1d72 a5bd 5173 293f 7de8 afbe 034b c0be
00000050: 6e22 1bbf c025 1d3f 5d9a 773e 0894 17bf
00000060: 798b 4dbe 05f7 1dbf 47cb 2c3f d6db 12bf
00000070: fb7f 3ebf e761 d73e 0884 a2bd f0dc 463f
00000080: c857 083f a644 16be b07f cc3d 7bb1 1cbf
00000090: 3990 fabe 26e7 0a3f bacb f53c bd2a ed3e
000000a0: 85d7 3a3f a5c3 9f3e 4a28 11bd e678 2e3f
000000b0: 2204 09be 6ade 33be d759 993c a322 9c3e
000000c0: d817 be3e 803a 2c3d d85c 403f 5b8b 903c
000000d0: 3666 c73e 2587 fcbd 82f7 5dbd 398a 993c
000000e0: 3f53 8abe 674f d5be e23a d9bd 95bb 2cbe
000000f0: 7d29 783e eca9 16bf 18f6 03bf 811d 233f
00000100: 0bb0 bf3b 7ac4 11bf 6f32 7d3d 939c e53e
00000110: d5c7 2b3f 2f32 be3d 4df6 02be c650 fe3d
00000120: 959a a23d c26e a43e b910 c9be 7052 6bbd
00000130: a001 533e 088b 763e 9e8c 85bd e237 0abd
00000140: 7f02 7abf 5508 d5be 2c0f 85be f47e 78be
00000150: cdd3 343f 5f67 d43e 0779 a73e a449 5abe
00000160: 3a7d 36bd 5238 63be ebd6 18be 790d 24be
00000170: 8281 853f e4c2 023e 0b6b 493e b8ba 043d
00000180: a8db 81be 6bd1 b23e 9861 68be 877d 713e
00000190: 9782 3ebc 7099 d4be 1cd0 9f3e 4a71 4abd
000001a0: 7240 cb3d 2acc 9dbe dc57 bdbe 76b3 143f
000001b0: c42c 67bf 3fbc 85bd 4bae bebc cb5b bbbe
000001c0: 3476 cdbc 6fad 10bf 4d29 90be 5bbe 373d
000001d0: d5f8 0b3d 4697 6bbe 4e52 443e 690a 163f
000001e0: 57b8 75be c3e1 273d 7ada 27bc f668 3ebf
000001f0: bc62 19be 8e6a 613d 0fe3 4e3b 2ca0 4d3e
00000200: efd2 bcbe 7b17 413f e2ed b43e fcee 8c3e
00000210: e6ff 063f 272a 893e e944 e8be 3e42 14be
00000220: 34dd 05bf a66d 9c3d 40c7 ebbe 6468 07be
00000230: 6ad1 7dbd 94e3 d6be 06b6 04bc b414 403e
00000240: 6873 0b3f 4ed4 f43e 6014 f3be 6765 533f
00000250: 2f19 683e f300 b8be 2683 4ebf 167e 363f
00000260: 313e 79bd 578e 793e 4797 473e 34a6 c3be
00000270: 8b52 0e3e 4ae2 473f 8349 02bf b3c0 31bf
00000280: 5292 c23d 7db4 3d3e b651 d9be d8e8 543e
00000290: 67f0 8c3e 5176 b6be e534 7b3e 96aa fabc
000002a0: 49c9 533f fece 243e 4a1e be3c 64d7 cdbe
000002b0: 6a5a 67be 1f48 36be 5e98 7d3f 7bf2 193f
000002c0: 6587 2fbe b939 9bbd 3308 8f3e 3fd6 44be
000002d0: 618d 0ebf 3a3b a93e e5ed 503e d111 67be
000002e0: 32a2 06bf b3a5 f23e 1166 3f3f a18b 23be
000002f0: 0b21 12be bae1 253f 2ba6 80be 4450 8b3e
00000300: 69eb 9fbe c279 9bbe 9ae2 b63e 6251 66bd
00000310: e89b 9a3d e2be 41bc b28d ba3e e00d c03e
00000320: 6cce 2c3d 5bac 823e 1751 0bbb a7e3 1ebe
00000330: b7be 133e f87c 4f3e bc28 473f bb0c 893e
00000340: 2a9e b1be 7768 67be 73f7 423f 08f4 6bbe
00000350: eb6d 86bc f1df 9a3e 2b5f dfbe 8219 9c3e
00000360: 1fdd 563f fb30 703e 7a15 6c3e 15dd 38bd
00000370: f83c 2c3e fa47 f53e 6eab 50bf aa39 acbe
00000380: 554e 323e 8565 2a3f 4ab7 1b3e 20c9 233f
00000390: 9544 903d df56 e3be f390 453e 7db4 87be
000003a0: 1203 abbd 2109 f03e cbdf 913e f007 243e
000003b0: ad44 91bd 2caa b0bb 3f86 42be 4662 cb3e
000003c0: 68bf 8dbe 7bab 573f cca4 a33e 223c 85be
000003d0: 5ede cb3e ce42 9c3e 2f19 ac3f 1015 8e3f
000003e0: cc5c 9a3d c94a 143f f09a 873e 444f ea3e
000003f0: 21cf ad3e 34e0 5dbe 8238 01be db7f babe
0.014705208 0.18587977 0.4294432 0.6702878 0.62568665 0.5255746 0.24916343 0.25394994
-0.3509306 -0.34728584 -0.13541947 0.78975445 0.12960199 -0.1164447 -0.11798112 0.6516928
-0.08078406 0.66191584 -0.34357062 -0.3755723 -0.6059941 0.61385727 0.24179979 -0.5921025
-0.20072736 -0.61705047 0.67497677 -0.57366693 -0.7441403 0.4206688 -0.07935339 0.77680874
0.53258944 -0.14674625 0.09985292 -0.61208314 -0.48938158 0.54258955 0.030004371 0.4632167
0.72985107 0.31203952 -0.035438813 0.68153226 -0.13380483 -0.17565313 0.018719597 0.30495176
0.37127566 0.042047977 0.7514167 0.017644575 0.38945168 -0.12330464 -0.05419112 0.018742668
-0.27016637 -0.41662142 -0.10606934 -0.16868432 0.24234577 -0.5885303 -0.51547384 0.63716894
0.0058498434 -0.56940424 0.061815675 0.4484602 0.67101794 0.092869155 -0.12789269 0.1241775
0.079396404 0.32115752 -0.3927057 -0.057451665 0.20606089 0.24076474 -0.06520961 -0.0337447
-0.9766006 -0.4160792 -0.25988138 -0.24267179 0.7063568 0.41485116 0.32709524 -0.21317154
-0.04455302 -0.22189453 -0.14925735 -0.16020764 1.0430148 0.12769657 0.1966974 0.03240463
-0.25362897 0.34925398 -0.22693479 0.23583041 -0.011627815 -0.41523314 0.31213462 -0.049424447
0.09924401 -0.30819827 -0.36981094 0.58086336 -0.9030268 -0.06530046 -0.023276469 -0.3659347
-0.025080778 -0.5651464 -0.2815651 0.04485927 0.03417285 -0.23006925 0.19172022 0.58609635
-0.23996101 0.040986788 -0.01024496 -0.7437891 -0.1497907 0.05503326 0.0031568443 0.20080632
-0.3687968 0.75426453 0.3533774 0.2752608 0.5273422 0.26789972 -0.45365074 -0.14478394
-0.52290654 0.07638101 -0.46050453 -0.13223416 -0.06196729 -0.41970503 -0.008100038 0.18757898
0.5447297 0.47818226 -0.47476482 0.825766 0.22665857 -0.35938224 -0.80668867 0.7128614
-0.060850326 0.24370705 0.19491301 -0.3821274 0.13898675 0.78079665 -0.5089342 -0.6943466
0.09500565 0.18525882 -0.42445153 0.20791948 0.27527162 -0.35637143 0.24531896 -0.03059892
0.8272901 0.16094586 0.023207802 -0.40203393 -0.22593084 -0.1780095 0.9906062 0.6013562
-0.17141493 -0.07579369 0.27935943 -0.19222353 -0.5568448 0.33053 0.2040325 -0.2256539
-0.5259124 0.47392043 0.74765116 -0.15971233 -0.14270417 0.64797556 -0.25126776 0.27209675
-0.3123429 -0.3036633 0.35719758 -0.056229956 0.07549268 -0.011825295 0.3643623 0.37510586
0.042189047 0.25522122 -0.002125805 -0.1551653 0.1442822 0.20262516 0.7779653 0.26767525
-0.34690982 -0.22598444 0.7615883 -0.2304231 -0.016409835 0.3024898 -0.43627295 0.3048821
0.83931154 0.23456185 0.23055068 -0.045132715 0.16820133 0.47906476 -0.8151158 -0.33637744
0.17412694 0.66561157 0.15206638 0.6397877 0.07044331 -0.44402215 0.19293575 -0.2650489
-0.08350195 0.46881965 0.28491053 0.16018653 -0.07093177 -0.00539138 -0.18996523 0.39723414
-0.27685094 0.84246033 0.31961668 -0.2602244 0.3981809 0.30519718 1.3445185 1.1100178
0.07537231 0.57926613 0.26485395 0.457636 0.3394709 -0.21667558 -0.12619212 -0.3642567

network.0.bias f4 [128]
00000000: 4b44 e73d c74d 9f3d 2c86 0d3e 9e8e 063e
00000010: d7b3 fc3d 0623 ff3d c006 6c3b 0918 d43d
00000020: 2b28 033e 0000 0000 6001 273e 98c8 993d
00000030: f8ad af3d d78b a53d 0afd e53d c015 a63d
00000040: 880c 023e e3e1 213d 6be0 90bd 1675 0d3e
00000050: afdb cb3d 4856 303e 2787 033e 5518 9c3d
00000060: e67d 9a3d b904 a63d 2fba 8e3d 0000 0000
00000070: 31f1 b73d fab6 9b3d 384a e93d 4521 e13d
00000080: ca04 ba3d da5a a13c 1c9b 023e 9a75 803c
00000090: 11e7 b73d 8d2e f23d dbea c13d 12cc 003e
000000a0: 98a9 2e3e 388d 0f3e 56d3 c23d 67f4 163e
000000b0: 1d22 3c3d 5025 c43d 2cfc 043e 9807 de3d
000000c0: 1183 b73d eef0 08bd 84ba 473d 6144 753d
000000d0: b8c9 fc3d f0ad 253e 6cb5 c33d f598 023e
000000e0: dc1e ed3d 4089 c43d 918a 343b d626 d53d
000000f0: 6cc8 c43d fc2d 1f3e dacf 063e 0000 0000
00000100: 1fa9 c73d 648d e93d 79f5 5b3d 6b36 af3d
00000110: 871c e53d 95bb 573d 4778 1f3e 2b5f 713d
00000120: d28f cd3d 9654 3e3d a52c d53d 9dbb d43d
00000130: 33b3 023e 294e 863d b3b7 f83d 2d47 c73d
00000140: e224 c53d 8726 8c3d 6b51 133e 4f1d 953d
00000150: 54b0 003e 63a2 4d3d 292a 603d f96a af3c
00000160: c21f d33d c2de bc3d 5501 123e cbb1 073e
00000170: 0d3e ca3d 8d0a 263d 2235 ca3d 3e82 033e
00000180: fc7d 003e ae7b 8b3d 2833 133e 88e1 263e
00000190: 1e5d 8f3c 1dd9 9a3d 150c ff3d 00c4 96bc
000001a0: c22f cf3d 8bec 463e 5198 7c3c 339a 7b3d
000001b0: 330c fc3d 1ae2 c13d 98e0 c13d ae6e 183e
000001c0: 2171 103e a4e8 e13d 993d 9b3d e667 c73d
000001d0: bc69 a33d 175b e73d 1b1b ce3d 421b fe3d
000001e0: 39c8 293e 2d99 e6bc 6d0b c63d 82bf 163e
000001f0: 3864 0c3e 3a9c 0a3e 8f4f dc3d 7eb8 de3d
0.11292323 0.07778507 0.13820714 0.13140342 0.12338989 0.12457852 0.0036014766 0.10356147
0.12808292 0.0 0.16309118 0.07508963 0.08578104 0.08083313 0.11229904 0.08109617
0.12700093 0.039522063 -0.07074054 0.13814196 0.09954011 0.17220414 0.12844525 0.076218285
0.075435445 0.081063695 0.069691055 0.0 0.089815505 0.076032594 0.11391109 0.10992674
0.09082945 0.019696642 0.12754482 0.015681077 0.08979619 0.11825285 0.09468623 0.12577847
0.17056882 0.14018714 0.095129654 0.1474167 0.04593097 0.09577429 0.12986821 0.10841292
0.08960546 -0.033432893 0.04876186 0.059879664 0.12343162 0.16179633 0.09556088 0.12753661
0.115781516 0.09596491 0.0027548412 0.10407798 0.0960854 0.15544885 0.13165227 0.0
0.09749054 0.11403921 0.053700898 0.08555301 0.11187082 0.052669127 0.15573226 0.05892865
0.10037197 0.046467386 0.10408906 0.10387347 0.12763672 0.065578766 0.12144413 0.097303726
0.096261755 0.06843286 0.14386527 0.07280981 0.12567264 0.050203692 0.054727707 0.021413313
0.10308792 0.09222175 0.1425832 0.13251416 0.098751165 0.040537406 0.098734155 0.12842652
0.12548059 0.068106994 0.14374983 0.16296971 0.017500456 0.07560942 0.12453476 -0.018404007
0.10116531 0.19426171 0.015417174 0.061426353 0.12307014 0.094669536 0.09466666 0.14885971
0.14105655 0.11030701 0.07580108 0.09736614 0.079791516 0.11296671 0.10063764 0.12407543
0.16580285 -0.028149212 0.09670148 0.14721492 0.13710105 0.13536158 0.10757362 0.10875033

network.2.weight f4 [128, 128]
00000000: 52d6 ec3d dc80 76bd 647b 883e ab0f 80bb
00000010: 68de b9bc 81ce 0f3e 9f22 0e3e 9e22 20bd
00000020: 86d3 a23d b2b2 70bd 1ff5 40be 62a3 a53d
00000030: 9328 bebd 7f85 ed3c 7865 2cbe 28d4 2e3e
00000040: 9f68 8e3b 27b1 babc 98d0 32be 1f07 e7bd
00000050: aa0f 1e3e dcc9 dcbd d51b 273e e6c4 bd3d
00000060: ceec 05be d801 7cbd d9ab b1be 4a25 fe3d
00000070: 89ee 653e 3a5f e03e 67fd e43d 0a8a 773e
00000080: e759 a53e 7cfa e03e 1a20 163c da67 ab3e
00000090: 9e1e 50bd 72d8 fdbe e299 01be 1ccb d03d
000000a0: 3a7f c03d 7388 983d a5ad 743e 13e8 223c
000000b0: ae78 5fbe d7a7 cf3d 68cd febc db29 9fbd
000000c0: 60bd 3bbe d107 86bd fcf3 e23d 1b4a 25be
000000d0: 4886 013e 6e2f 2a3d 5f6d 4dbb 186e 3e3e
000000e0: e6b5 cb3d f532 81bd bd38 083d 1f0c 40be
000000f0: 6b07 07bd 79f0 1c3d fb4b b33d 8a3b fbbd
00000100: 9630 32be 4541 173e 1182 4abc e0d7 91be
00000110: d446 073e 8941 9cbe 777b 423e 3f66 36bd
00000120: 0aaa 3bbe cf57 c33b 59b8 2a3e d7e9 873e
00000130: a4fd 493c dffa bc3c 390b 1d3c 4594 c03d
00000140: e212 713d e74e ebbd 394e 103e 14ab a73e
00000150: ff6e 483e 4432 c03e 579c b73d 30a7 66be
00000160: ebf8 3c3e 3e4f 5abe 5ece d63d 6e9c 0b3e
00000170: 957c c4bc 21e5 923e f464 47bd e2a1 4c3e
00000180: 337f 92be b7b8 a23e 4cf3 ab3c 3407 5b3e
00000190: 083b 2f3d a1f6 073d 67c4 d9b9 af46 813d
000001a0: 5db4 913d 2ea7 fa3d 7f88 c1bd 2fa0 8f3d
000001b0: e0f9 613e e518 9c3e 09ef b83b 753b d33d
000001c0: b3e0 1a3e b101 a4bd acbe 593e 3338 9dbe
000001d0: 5754 043e 75a2 e53c eb95 873e 8e8f 8dbc
000001e0: 1e47 b8bd b819 56bd 6c03 063d bc90 2b3e
000001f0: 34c9 363e 21d2 063e 06e2 873e da5e 083e
00000200: c387 0f3e cefe cfbd b458 943e 70b5 633c
00000210: 39b7 683e bd1b 27be d0a1 9c3d cf5e 363e
00000220: c103 d6be 6558 10bd c230 5cbd 833d 78bc
00000230: ff9d c6bd c6fe 42be 8fa6 f1bc 49bc 803d
00000240: b406 e73d 91e7 993e 0572 04be 1bde 653e
00000250: cc96 bfbd 6564 903d 2538 2fbe 0425 443e
00000260: 3925 363e f997 fd3c 2349 99be ef87 583d
00000270: 8b2a 8e3e 3886 d8bc 9259 9b3d e124 a13d
00000280: 8dbb 0cbc 72e7 5abd a00d 1ebe 9bcd 6d3e
00000290: 4bae c53d c0cb 67be 9cc4 99bd 1421 c63d
000002a0: 9a64 543e 2e9a 5bbe 526a 633d 1d24 dabc
000002b0: f144 f4bc 3f4a c6bc 3973 0fbe 0797 a23e
000002c0: 7b82 303e deec c83d cdbf ad3d 5796 64bd
000002d0: 3746 f5bd 8225 20be dbbe f23d e982 053e
000002e0: 5c69 29bd 8a8d 83bd 3f20 d43d ef1d c2bd
000002f0: 1241 993d 2e83 eb3c 568c 18be b1c6 59bd
00000300: 8c41 4abe 47fa 63be d2d4 72be 604b 673e
00000310: 65ec 393c 6c3d a1bc 9642 3c3d 5303 2bbe
00000320: 27c6 41be 59f3 2f3d c2f5 74be 7923 783e
00000330: ac07 963d f7b2 a4bd 29da 3b3e 294f 393d
00000340: 05d6 ccbd 8bd3 c7bd e03b 433e 8962 fd3c
00000350: 7a6c 553e c03b 8abd f434 cabc e67b 25ba
00000360: 0322 283e 660b d83d 8891 bf3c 2b2f 513e
00000370: d0fe 003e 2a8e 0bbd 70a5 70be 76a8 bb3e
00000380: 25bc f6bd 2af1 c93d 4840 d63d eb67 2ebb
00000390: 3457 0e3c 22be 213d b06b 5ebe ddd7 b13d
000003a0: 28a2 c53e 7aee 5a3d f915 c23c 1921 babd
000003b0: 7408 bfbd 2077 283b 8fb3 bdbc 59ff d3bd
000003c0: 9fca 9dbe 557b afbd a8ca a63e c1c5 4cbe
000003d0: aa5e 18be 6c8a fcbd e068 f1bc 5ac9 71be
000003e0: 10a7 e7bc 3471 683d 33e7 30bd a400 d93d
000003f0: dccb 313e e0d6 2fbe 75e4 603e 0262 29bd
0.11564316 -0.060181484 0.2665664 -0.003908118 -0.02268906 0.14043619 0.13880394 -0.039095514
0.07950501 -0.058764167 -0.18843506 0.080878034 -0.09285083 0.02899432 -0.16835582 0.17073119
0.004345968 -0.022789551 -0.17462385 -0.11280655 0.15435663 -0.10780689 0.16319211 0.09266071
-0.13078615 -0.061525196 -0.34701422 0.12409456 0.22454275 0.43822652 0.11181145 0.24173751
0.32295153 0.43941104 0.009162927 0.3347767 -0.05081045 -0.49579197 -0.12656358 0.1019499
0.093992665 0.074479006 0.23894365 0.009943026 -0.2182338 0.10139435 -0.031103805 -0.07771655
-0.1833396 -0.065444596 0.110816926 -0.1614155 0.1264888 0.04154914 -0.0031345708 0.18596685
0.09946804 -0.063085474 0.033257235 -0.18754624 -0.03296606 0.03831527 0.087547265 -0.122672155
-0.17401347 0.14770992 -0.012360112 -0.28485012 0.13210613 -0.3051875 0.1899241 -0.044531103
-0.18326584 0.0059613953 0.16671886 0.26545593 0.012328539 0.023068843 0.009585195 0.0940328
0.0588559 -0.11489659 0.1409234 0.3274771 0.19573592 0.3753835 0.08965366 -0.22524714
0.1845433 -0.21319291 0.1048858 0.13633892 -0.023985187 0.28690436 -0.04868026 0.19983628
-0.2861267 0.3178155 0.020990036 0.21389467 0.042780906 0.033194188 -0.00041535796 0.0631231
0.0711448 0.12238918 -0.09449863 0.070129745 0.22067976 0.30487743 0.0056437296 0.10314075
0.15124778 -0.08008135 0.21264142 -0.3070694 0.12922798 0.028031567 0.26481566 -0.017280366
-0.089979395 -0.05227062 0.032718107 0.1675443 0.1785019 0.13166095 0.2653963 0.13317433
0.14016633 -0.10156022 0.28973925 0.013898239 0.22726144 -0.16319175 0.07648051 0.17809604
-0.4179974 -0.03524055 -0.053757437 -0.015151384 -0.09698104 -0.19042501 -0.029498367 0.062859125
0.112805754 0.30059484 -0.1293412 0.22448008 -0.09354934 0.07050399 -0.17111261 0.19154745
0.17787637 0.030956255 -0.2993861 0.05286401 0.27766833 -0.026431188 0.075854436 0.07868362
-0.0085896375 -0.05344338 -0.15434885 0.23222964 0.09652384 -0.22636318 -0.075082034 0.09674278
0.20741501 -0.21445534 0.055521317 -0.026628548 -0.02981803 -0.024205325 -0.14008798 0.3175585
0.17237274 0.09810804 0.08483849 -0.055807438 -0.11976283 -0.15639308 0.11852809 0.1303822
-0.041360244 -0.06423481 0.10357713 -0.09478366 0.07483114 0.028749075 -0.14897284 -0.053168003
-0.19751567 -0.22263442 -0.23713997 0.22587347 0.011347865 -0.019682609 0.04596194 -0.16700487
-0.18923245 0.042956684 -0.23921874 0.24232282 0.07325682 -0.08041947 0.1834494 0.04524151
-0.100017585 -0.097571455 0.19065809 0.030930774 0.20842162 -0.06749678 -0.024683453 -0.0006312713
0.16419224 0.10549049 0.023384824 0.2042815 0.12597203 -0.034071125 -0.2350061 0.36651963
-0.120476045 0.098604515 0.104614794 -0.0026612233 0.008687783 0.039487965 -0.21720767 0.08683751
0.38600278 0.053450085 0.023692118 -0.09088344 -0.09327784 0.002570577 -0.02315691 -0.10351438
-0.3081865 -0.085684456 0.3257649 -0.19997312 -0.14879861 -0.123310894 -0.029468954 -0.23611966
-0.028277904 0.056748584 -0.04318924 0.10595825 0.17362922 -0.17171812 0.2196215 -0.041353233

network.2.bias f4 [128]
00000000: 1d21 aa3d 7011 1b3d 595d 01bd 06b3 d03c
00000010: a70e 8c3d afc5 293d d479 ad3c e21f ce3d
00000020: 5ded c1bb 1f48 aa3d 0000 0000 f5c1 a53d
00000030: b78c c73d 98b7 a03d 16bd cb3c 11a6 f8bb
00000040: 8678 ea3d 1918 fcbb 46f5 9d3d bca1 783d
00000050: a071 663d 2f7b 943d fc7b 913d 9f01 a23d
00000060: 8459 a93d 3488 b23d 2a9a ca3d f9cc b43d
00000070: 9aa4 c23d 5e04 8cba 3b2e 4a3b 9283 ae3a
00000080: b2d5 9b3d 89e5 ceba cb89 ab3d 1ffb ad3d
00000090: bee8 873d 2335 52bc ddf5 8bbc 86f0 e83d
000000a0: 0000 0000 0000 0000 848a 433d ec81 56bc
000000b0: 1ef6 893d 00f9 d73d b63b f63d 5bb7 c0bc
000000c0: c8e7 b43d 8f2b 9c3d 7f00 8d3d f97d 993d
000000d0: 5613 943d c27b 103d 8fdb 8b3d f892 a13d
000000e0: bafe 883d 2c21 d33a 9fa6 4dbc 0b1d c0bc
000000f0: 535f b23d 0000 0000 c1f4 da3d 291e 953d
00000100: e9fb 863d ee1e 6f39 4d2d a43d f9e0 a9bb
00000110: 5d95 c13d 9094 8bbc 2e82 d13c 49d4 ebbc
00000120: d47c a93d e5c8 b93d 67a4 ee3d 93a0 c53d
00000130: 3093 923d a3e5 033e 751d ac3d 3e5d c33d
00000140: 3e5f bc3d 41df 7c3d 6f8a f23d 3894 553d
00000150: 91f4 c4bb 0ac1 bebc 6dba 87bc b92b 54bc
00000160: cdc4 9c3a 0000 0000 4ede 11bc 8cc0 6bbc
00000170: bc1d 8a3d 2c4a 113d 973b 873d 7e61 0bbc
00000180: d9b1 abbc ff07 923d 2755 8d3c 5752 803d
00000190: f4b4 1fbc 2a5d ba3d 7e7c 653d edcf be3d
000001a0: 76e0 a3bc 317c 3a3d 4e16 c43d c575 483c
000001b0: b381 b93d d5d9 4dbc 5eaa d33d 44ba b73d
000001c0: e8a3 3c3d 0000 0000 2405 c33d a410 b83d
000001d0: ea8c 01bc 27cb 093d 0ace 873d 596d 903d
000001e0: 6544 d73c 21f5 36bc 215f 58bc 4c82 eb3c
000001f0: b349 823c 025d 9a3d c930 efbb 8e44 aa3d
0.08307097 0.037858427 -0.031583164 0.02547599 0.06838732 0.04144829 0.021176256 0.10064675
-0.0059181885 0.08314537 0.0 0.08093635 0.09743636 0.07847518 0.024870437 -0.007588156
0.11448769 -0.0076933024 0.07712798 0.060701117 0.056260705 0.07250058 0.07103726 0.079104654
0.08269027 0.08717385 0.09892686 0.08828158 0.095040515 -0.0010682454 0.003085031 0.0013314357
0.076091185 -0.001578496 0.08375891 0.08495163 0.06636189 -0.012830052 -0.01708501 0.11374001
0.0 0.0 0.04773952 -0.013092499 0.06736396 0.1054554 0.12023108 -0.02352493
0.08833271 0.07625496 0.0688486 0.074947305 0.072302505 0.035274275 0.06828987 0.0788936
0.0668921 0.0016107908 -0.012551933 -0.023451349 0.08709588 0.0 0.10691214 0.07281143
0.06591017 0.00022804338 0.08016453 -0.0051842895 0.09452317 -0.017038614 0.02557477 -0.028787749
0.08275762 0.09071521 0.11652451 0.09649768 0.0715698 0.12880568 0.08404056 0.09539269
0.091978535 0.06173635 0.1184281 0.052143306 -0.0060106 -0.023285408 -0.016568387 -0.012949877
0.0011960507 0.0 -0.008903099 -0.0143891685 0.06743953 0.035471126 0.06603163 -0.008507131
-0.020958828 0.071304314 0.017252518 0.06265705 -0.009747732 0.09099801 0.056026928 0.093170024
-0.020004492 0.045528594 0.09574567 0.01223511 0.09057941 -0.012564142 0.10335229 0.08971074
0.04605475 0.0 0.09522465 0.08987549 -0.007907132 0.033641007 0.06631096 0.070521064
0.02627773 -0.011166842 -0.013206274 0.028748654 0.015904283 0.07537271 -0.007299517 0.08313857

network.4.weight f4 [6, 128]
00000000: 3afc 41be 60bf ad3c c46a a23d ff7f d1bd
00000010: 855d c0bd 32f2 df3e d90a bfbe 69d8 d8bc
00000020: e2d1 e6ba 3503 8b3e 144a e6bd f0cb 83be
00000030: 8b4b 8b3e 6c43 98be a130 a73d 9f41 af3c
00000040: 3a8b ab3e aeb3 97bd e71f a43e a66a e8bd
00000050: eb67 ac3e 07f3 d0be e975 783e bbd2 db3c
00000060: 8f91 f4bd 197f 033e 60e7 013e 4ba0 a63e
00000070: dbce 913e d161 b23c 7fbc cb3e 53a6 98bd
00000080: 0db4 75be 7864 773e 47eb a3be f505 91be
00000090: e081 4fbe 042e 88be fb6b 6c3b e7dd 8c3e
000000a0: 22e8 743e 37dd 1b3d f3c4 1bbe 5787 63bd
000000b0: 8f2c 5dbd 8abe 533e ca9d 823e 7ade ba3d
000000c0: 4a71 8bbe 969c dfbc 769b 3dbc 7ff5 59be
000000d0: 98ee 93be 3222 acbd a3e7 8dbc 3ba9 3c3c
000000e0: 6940 a7bd a7b8 a53d d338 603b 78d4 ccbe
000000f0: f4c1 fcbc 75a7 0cbe ff24 2c3e bec4 dd3e
00000100: a0af 01be bf10 58be e36a 523e 22b2 41be
00000110: 8df7 b53d b680 283e c62d 813d d225 043e
00000120: 7a18 263e 610b ecbd c394 4c3e 9246 c3be
00000130: c4e8 8d3d d956 5a3e c891 d33d 1d7a dbbd
00000140: a11e 253e 5f60 a5be 9377 3b3e 6f0f f13d
00000150: f4dd bf3c e80a f4bd ee11 f13d 9750 e6bd
00000160: 3e4a bb3d 1dcd 243d c17d 163e 234c e2be
00000170: dad5 82bc 7249 92be ed69 33be 8561 0b3e
00000180: e644 693d f89e c0bd 6d4f c6be 9acd 6abe
00000190: e37a 0bbe cbd7 313c 591f 393d b707 23bd
000001a0: ee54 883c 984c 9c3d 347d d4bd 9001 99bc
000001b0: 6c6a ab3e 62d8 a4bd a164 6f3e 0173 40be
000001c0: 7abb 733d 9c72 1f3e 8048 a73d 1c65 31be
000001d0: 5fe0 3b3e 6e7b 03be 80d9 193e f453 b93d
000001e0: 652e 66be 971b a93d 0b00 0f3e 822e b6bd
000001f0: 7ba3 e6bd 9e94 343e 138a a8bb 1db9 7ebd
00000200: d34e 913e 319c 373d 7a94 e23d f130 8e3d
00000210: b0e2 8bbe 7f77 3abe 345a ab3c 70a0 b23e
00000220: 351f 133b 3672 cebc 4b21 96bd 1a7b 723e
00000230: 192a d63e f974 03be 48c2 98bd 3751 dcbb
00000240: 9b06 4f3e c755 9cbe 16e3 a7bd 65a9 babd
00000250: 60a6 56be f0e5 9f3e 9d6e e63d 625b 81be
00000260: 8c30 a8bc a275 70bd b3ff 593e 94dd bbbc
00000270: 0192 d4bd bd53 58bd a221 06bd c433 87bd
00000280: bdc1 433d 04a7 c93d d4ab 873e 364e 443b
00000290: 6c69 86bd d1a2 0b3e 1582 e6bd 26ca 6abe
000002a0: 6d5e 1ebe c305 3e3e 5790 713e c122 a03d
000002b0: d69e 18bd 7a84 e73d f328 64be 17cd 783d
000002c0: e345 393e b048 49be 8eae 5bbe f96f 47be
000002d0: 3cfe eebd e04d 733e c816 46be e54e 343d
000002e0: 39a7 a7bd e6c0 74be 8a01 803c af32 fb3c
000002f0: 3ba9 f7bd bd5e cfbd 2287 953e e07e 693e
00000300: 7bce 36be 51fb 043e 55c6 3fbe f7dc d3bd
00000310: 555e a73e 010b e6bd 54dc bf3d f5a3 6c3e
00000320: bb2e 3ebe 5a66 6dbe dbdd ecbd 1766 b13d
00000330: 756d 093d 2bb4 8e3e 6855 a5be f23f a8bd
00000340: 1ebb 303e 6ac3 8fbe 5398 8cbd 60c1 ce3e
00000350: 7068 31bd d371 24be 218b 59be 4b48 e6bd
00000360: aa11 433e e25f ccbc 3ba4 c3bd b5c7 2cbc
00000370: 4f4b 05bd 9bec 2f3d d73a 56bd 6f57 2abe
00000380: a8b2 a7bc c475 9e3e 88b8 0ebf b986 36be
00000390: 1d56 eebc 47e5 3cbe 4d38 8bbe f1e7 303e
000003a0: 2857 e63d 8ec7 27be 63f6 2d3e fc44 18bd
000003b0: 4287 353e b476 b83d ed30 cd3e 5b46 bb3d
000003c0: 1c1a 70be cd39 07bd f5dd 0ebd 95e3 00be
000003d0: 737a a33d d851 603e 709c 7dbe cfb9 72be
000003e0: ce4e 29be fc7b 033c 8053 48be 2593 7c3e
000003f0: 01ff 95bd 04b7 59be 9b7b c93c e6c5 abbd
-0.18943873 0.021209419 0.0793052 -0.102294914 -0.093928374 0.43739468 -0.37312964 -0.02647038
-0.0017610157 0.27150884 -0.11244598 -0.2574153 0.27206072 -0.2973894 0.08163572 0.021393595
0.3350466 -0.07407318 0.3205559 -0.113484666 0.33673033 -0.40810415 0.24263729 0.026833883
-0.119418256 0.12841453 0.12685919 0.3254417 0.2847813 0.021775158 0.3979225 -0.07453599
-0.23994465 0.2415942 -0.3201544 -0.28324857 -0.20264387 -0.26597607 0.0036075104 0.27513048
0.23916677 0.038052764 -0.15211849 -0.055548992 -0.053997573 0.20678154 0.25511009 0.09124465
-0.2723487 -0.027296346 -0.011572709 -0.21285056 -0.2889297 -0.0840496 -0.017322367 0.011514957
-0.08166582 0.0809186 0.0034213557 -0.4000585 -0.030854203 -0.13735755 0.16810988 0.43314165
-0.12664652 -0.21100138 0.20548587 -0.18915609 0.08885107 0.1645535 0.06307559 0.12905052
0.16220275 -0.11525608 0.19978623 -0.38139778 0.06929162 0.21322192 0.1033054 -0.10716651
0.16124965 -0.32300088 0.18307333 0.11770522 0.023421265 -0.11916143 0.11770998 -0.1124584
0.0914502 0.040234674 0.14696409 -0.44198713 -0.015971113 -0.2857166 -0.17520876 0.1361142
0.056950472 -0.09405321 -0.38732472 -0.22929993 -0.13621096 0.010854672 0.04519591 -0.03980228
0.01664206 0.076317966 -0.10375443 -0.018677503 0.3347963 -0.08049084 0.2337823 -0.1879387
0.059504963 0.15571064 0.08168125 -0.17323726 0.1834731 -0.12840053 0.15024376 0.09049216
-0.22478636 0.082572155 0.1396486 -0.088955894 -0.1126165 0.17634818 -0.005143413 -0.062188257
0.2838045 0.04482669 0.11063476 0.069429286 -0.27321386 -0.18209647 0.020917036 0.3488803
0.002244902 -0.025200944 -0.07330569 0.23679772 0.41828993 -0.1283759 -0.07458931 -0.0067235488
0.20217364 -0.30534193 -0.0819761 -0.09114341 -0.20961905 0.31230116 0.112515666 -0.25265032
-0.020530961 -0.058705933 0.21288948 -0.022932805 -0.103794105 -0.052814234 -0.03274692 -0.066016704
0.047792185 0.09846309 0.26498282 0.0029953844 -0.065630764 0.13636328 -0.1125528 -0.22928676
-0.15465708 0.18556885 0.23590218 0.07819129 -0.037260853 0.11304565 -0.22281246 0.060742464
0.18093066 -0.19656634 -0.21453306 -0.19476308 -0.11669585 0.23760176 -0.19344628 0.044020552
-0.08186192 -0.2390171 0.015625734 0.030663816 -0.12092825 -0.10125492 0.2920466 0.22802305
-0.17852204 0.12986495 -0.18728001 -0.1034488 0.32689157 -0.112325676 0.09368196 0.2310942
-0.18572514 -0.23183575 -0.11565753 0.0866205 0.033551652 0.27871832 -0.32291722 -0.082153216
0.1725888 -0.28078777 -0.06864991 0.40381908 -0.04331249 -0.16059045 -0.2124448 -0.112442575
0.19049707 -0.024948064 -0.09552809 -0.010545661 -0.032542523 0.042950254 -0.052302208 -0.16634916
-0.020470932 0.30949223 -0.5575032 -0.1782483 -0.029093796 -0.18446837 -0.27191392 0.17275979
0.112470925 -0.16384718 0.1698852 -0.037175164 0.17727378 0.09007016 0.4007639 0.091442786
-0.2344746 -0.033014107 -0.034879643 -0.12586816 0.0798234 0.21906221 -0.24766707 -0.23703693
-0.16533968 0.008025166 -0.19563103 0.24665506 -0.07324029 -0.21261221 0.024595072 -0.083873555

network.4.bias f4 [6]
00000000: 7453 1b3d 3cbc 8f3c 84a0 8cbb d261 ec3c
00000010: 8c38 72bd db33 72bd
0.037921384 0.017545812 -0.004291596 0.028855238 -0.05913596 -0.059131484
