dqn.pt (torch, 78112 bytes, 6 tensors)

network.0.weight f4 [128, 12]
000000 52 5b bd 3e d3 b1 5d 3e f3 63 9a 3e be ef 05 bf
       0.36983734 0.21649866 0.3015438 -0.5231894
000010 e7 2c 18 be 92 0a 58 bf fc 1a 32 bc c3 50 f8 3e
       -0.14860879 -0.8439113 -0.010870691 0.48499116
000020 bf 1c bb be 4f 08 2a 3f 3b e7 be bc f8 45 28 bf
       -0.3654537 0.6641893 -0.023303619 -0.65731764
000030 40 f4 38 3d 9a 74 1a be 5b 1d 5f be b7 c6 68 3f
       0.04515481 -0.15083542 -0.21788542 0.90928215
000040 c7 e0 68 3e 0e 1d 22 3e 86 29 6e be 3c b7 ae 3d
       0.22741996 0.15831396 -0.23258027 0.08531043
000050 cf dc 74 be c0 34 e2 3e ad 1a 0b 3f b2 be 8b 3e
       -0.23912357 0.4418087 0.5433758 0.27293926
000060 27 7c c6 be de 70 8b 3e 88 05 5b 3d 44 79 e6 bd
       -0.38766596 0.27234548 0.053472072 -0.11253598
000070 4a 90 25 3e 23 17 32 bf fa 6f 0e 3f 6d 1e f9 3e
       0.16168323 -0.69566554 0.5563961 0.48656026
000080 41 2a 9c 3c b3 5e 34 3f bf 2d 6d 3f 48 28 2c 3f
       0.019063117 0.70457 0.9264793 0.67248964
000090 5d db bb be 31 61 38 bf 1a 87 01 3d 4d 0f 8f 3e
       -0.36690798 -0.720233 0.031622984 0.2794136
0000a0 6a 07 1c bf 0c d0 e4 be d4 ba 24 3f 1a d8 3d bf
       -0.6094881 -0.44689977 0.6434758 -0.7415787
0000b0 e6 b4 3e 3d b7 52 b3 3e ea 5b 90 be 34 0c b1 3c
       0.046559237 0.35024044 -0.28195125 0.021612264
0000c0 cf e3 3d 3e 91 87 23 3f c6 7a 46 bd 40 3a 95 be
       0.18543933 0.6387873 -0.04845693 -0.29146004
0000d0 1a 68 2d bf 35 3b ac bd 91 26 09 3e 01 3a 80 3e
       -0.6773697 -0.0840973 0.13393618 0.25044253
0000e0 ba a1 83 3e e5 22 e3 3e fb ab 8d 3e 4a e9 20 3e
       0.25709325 0.4436256 0.27670273 0.15713993
0000f0 d1 46 13 bd e5 59 a0 be b8 de 1f 3f e7 5d 33 be
       -0.035956208 -0.31318584 0.62449217 -0.1751629
000100 2b 63 0e 3f 4d 0b a5 3e 3e 79 02 3f 07 e2 22 3f
       0.5562007 0.32235184 0.5096625 0.6362614
000110 ec 81 02 3f 1f 13 2b be bf 29 45 3e ed 42 3d be
       0.50979495 -0.16706513 0.19254206 -0.18482561
000120 8f 44 1c 3f 85 0f 18 3d fb 87 8e be fe 6b d8 3e
       0.6104211 0.037124176 -0.2783812 0.42269892
000130 54 25 ca 3e 8f 9d a0 bd db bd 0c be f3 c9 88 bd
       0.39481604 -0.07842552 -0.13744299 -0.06679144
000140 48 e7 b9 be dd b4 82 3e 5f 29 65 be dc 84 f4 be
       -0.36309266 0.25528613 -0.22379063 -0.47757614
000150 c4 85 26 3f f0 a9 af be 4a 2a 97 3e bb b8 7f 3f
       0.6504786 -0.3430934 0.29524451 0.9989125
000160 3d 3a 81 3d ab 96 93 3d 40 a2 bd 3e 4b 27 21 3f
       0.06309936 0.07206472 0.3703785 0.6295058
000170 66 bb 11 3e 7b 6c 50 3d 16 bf 55 be 07 44 51 be
       0.14231643 0.050884705 -0.20873675 -0.20436107
000180 74 e4 5d bf 42 95 c7 be d4 af a6 3e e5 39 10 3e
       -0.86676717 -0.38981062 0.3255602 0.14084585
000190 82 cf fa 3e 14 a4 4e 3e 2b d5 47 3e 98 7b 23 3f
       0.4898644 0.20179778 0.19514911 0.63860464
0001a0 0b 54 4c 3f a6 18 94 3e 86 8e 59 3f a2 cd 07 bf
       0.7981574 0.28925055 0.849831 -0.53048146
0001b0 22 cb d3 3e eb d0 74 be 21 40 85 3f c6 da 8c 3e
       0.41365916 -0.23907821 1.0410196 0.2751066
0001c0 7a 3b 5c 3d a8 ba 81 be f0 06 bc 3e 45 0a f9 3e
       0.05376766 -0.2533772 0.36724043 0.48640648
0001d0 31 bf ad 3d 0d 12 44 bf 61 f3 9a bd b3 a6 8b 3e
       0.084837325 -0.76590043 -0.07565952 0.2727562
0001e0 dc 3d 94 bf d2 fd df 3e 29 07 dc 3e e2 9d 3c bf
       -1.1581378 0.43748337 0.42974213 -0.7367841
0001f0 58 a8 43 bf ac 06 15 be d8 fc fd 3d c5 8a 24 be
       -0.7642875 -0.14553326 0.12401742 -0.16068561
000200 12 65 81 bf a7 3a fc be 32 85 43 bd 02 14 41 3c
       -1.0108969 -0.49263498 -0.047734447 0.011784555
000210 ca fa a8 3e ad e9 88 bd 57 e7 0c bf 5a 81 3b 3e
       0.33003837 -0.06685195 -0.55040497 0.18311062
000220 d7 10 8e 3d a5 72 81 be 8f b8 69 bf be c6 11 3e
       0.06936806 -0.2528278 -0.9129724 0.1423597
000230 58 aa a8 3d ae 3c 95 3e ea 50 3c be 40 ce a4 be
       0.082356155 0.29147857 -0.18390241 -0.32188606
000240 46 f6 7c be 9d 75 38 3f 81 f6 61 3f 98 55 59 be
       -0.24703321 0.72054464 0.8826676 -0.21224058
000250 3f c6 67 3f b4 1d b3 3e 53 d6 69 3d 7a a0 71 be
       0.90536875 0.349836 0.05708916 -0.23596373
000260 2d 47 d9 3c 39 5f b6 be be 4e d0 bd 30 53 4f 3e
       0.026523197 -0.35619524 -0.10171269 0.20246577
000270 85 fe fe be e0 fa 93 3e 00 12 e2 be 85 7a c3 3d
       -0.49803558 0.2890234 -0.44154358 0.09544853
000280 57 63 a9 3e c2 69 34 bf 6d e5 27 3e ed 4b dd 3e
       0.33083603 -0.70473874 0.16396113 0.4322199
000290 63 17 b4 3e be da e4 be 0d 36 35 3f cb 83 c9 be
       0.35174093 -0.44698137 0.707856 -0.39358363
0002a0 5a 90 3f 3f 12 cb f6 bd de 28 d6 3c 7b d2 8d be
       0.7482964 -0.12050451 0.026142534 -0.27699646
0002b0 44 03 3a be 9c c0 0e be 3d 44 82 3e 73 a3 36 3e
       -0.18165308 -0.13940662 0.25442687 0.17835788
0002c0 cc 91 b8 be 2a 8d a7 3e 90 41 1b be 1d d2 eb 3e
       -0.36048734 0.32724887 -0.15161729 0.4605874
0002d0 0f b1 89 3d 96 6f 90 3d 7b 82 b7 be 28 9f df bc
       0.06723224 0.07052533 -0.35841736 -0.027297571
0002e0 ed b4 f1 3e 0e c3 f6 3e aa 36 80 3e 85 09 2d 3f
       0.47208348 0.4819569 0.25041705 0.6759265
0002f0 4e ae ca 3d 24 9a 07 be 37 74 ff 3e d7 44 27 3e
       0.09896527 -0.13242394 0.49893352 0.16334854
000300 d4 35 17 3f 1a 25 ab 3d 19 18 37 3f 3b 17 92 3e
       0.5906651 0.08356686 0.71521145 0.28533348
000310 a9 d7 08 3c 33 33 ce be 42 2d 00 bf 32 9d 04 3f
       0.008352199 -0.40273437 -0.5006906 0.5180236
000320 56 9a b8 3e 44 15 85 3e 04 53 1a be c9 67 59 3e
       0.3605525 0.25992787 -0.1507073 0.21230997
000330 46 1c 30 bf ba 82 3b 3f 8f 79 fb be e3 9b 10 3e
       -0.6879314 0.7324635 -0.4911618 0.14121966
000340 15 05 67 3f 26 d7 e6 3e 0c ce 11 bf a3 44 1b 3d
       0.9024213 0.4508602 -0.5695503 0.037907254
000350 4c 1d c6 bd ed fa 00 3e 3a c1 dd bd f5 11 b1 3e
       -0.09673557 0.1259572 -0.10827871 0.34584013
000360 aa 85 dd 3e 3e 59 3a 3e ab 58 54 be bb 4a b8 3d
       0.4326604 0.18198106 -0.20736949 0.08998629
000370 3b ec f0 be 2b e4 f3 bd 86 b6 8e bb fa 8a 48 bf
       -0.4705523 -0.11908754 -0.0043552546 -0.7833706
000380 14 e7 a7 3e 49 ea ca bd fd 95 b1 3c a2 b7 b6 be
       0.32793486 -0.099079676 0.021677965 -0.35686976
000390 14 94 05 3f 09 c1 00 3d 6e 8c c1 3e f2 bb dc be
       0.52179074 0.031434093 0.37802452 -0.4311214
0003a0 d7 9f 22 3f 8f 55 0a 3e 00 29 49 be 9f ed ab 3e
       0.63525146 0.135092 -0.19644547 0.33579728
0003b0 dc fe 04 3f 2f 91 12 bf 5e 19 60 be 24 1d 8d 3e
       0.51951385 -0.5725278 -0.21884677 0.27561295
0003c0 38 33 11 be 0b 43 dc 3e ad 82 20 be 6a c4 95 3e
       -0.14179695 0.430199 -0.15674849 0.29251415
0003d0 91 1f 9f bd 0c 2e 50 3f d9 7a 55 3e 1f a4 cb 3d
       -0.07769693 0.8132026 0.20847644 0.09943413
0003e0 b7 5e db 3e 4a 22 39 be d7 ca b1 be 37 22 25 3d
       0.428457 -0.18079486 -0.34725067 0.040315833
0003f0 f4 4a d6 bc 38 06 b1 3e f2 a3 3c 3e 13 14 a5 be
       -0.026158787 0.34575057 0.18421915 -0.32241878

network.0.bias f4 [128]
000000 96 17 b1 3d d9 36 4f 3d 91 ce ff 3d e6 75 ef 3d
       0.08647077 0.050589416 0.12490571 0.11692409
000010 15 b2 cc 3d cc 55 d6 3d 17 e4 93 3d 04 9f 94 3d
       0.09994904 0.10465583 0.07221239 0.07256892
000020 09 7e 08 3e b3 53 fc 3d 20 26 a5 3d 2f b7 81 3d
       0.13329329 0.12320652 0.080639124 0.063337676
000030 b0 49 ae 3d 11 38 5d 3d b7 d3 fc 3c e8 42 c3 3d
       0.085101485 0.054008547 0.030862672 0.09534246
000040 28 58 81 bc e5 58 d3 3d 7a f0 9d 3d 22 46 a6 3d
       -0.015789106 0.1031969 0.07711883 0.081188455
000050 e2 34 eb 3d fb a5 01 3e d3 9e 04 3e 17 aa cf 3d
       0.11484696 0.12660973 0.12951212 0.10139864
000060 33 b4 89 3d 70 f1 55 3d d9 cb 8c 3d fc a1 56 3c
       0.067238234 0.052232206 0.06874818 0.0131001435
000070 bf 0b 18 3d 6e 74 94 3d ff fe c0 3d 86 c5 be 3d
       0.037120577 0.0724877 0.09423637 0.09315018
000080 7d 04 15 3e d6 65 2c 3d 97 be ff 3d 50 f7 f2 3d
       0.14552493 0.042089306 0.12487524 0.11863577
000090 08 c6 7d 3d 63 19 c4 3d b3 83 a9 3d 00 aa eb 3d
       0.061956435 0.09575155 0.08277073 0.11507034
0000a0 81 24 ee 3d f4 35 f5 3d 44 f6 7a 3d c7 49 ce 3d
       0.11628056 0.11973181 0.061270013 0.10072666
0000b0 e7 80 ac 3d 10 ce f7 3d ae a6 a4 3d ad 61 00 bb
       0.08423024 0.1209985 0.08039604 -0.001958947
0000c0 88 df 05 3e bb 97 0b 3e 2f 82 16 3e 15 5b f7 3d
       0.13073552 0.136321 0.14698099 0.120779194
0000d0 a2 77 0d 3e 50 c5 e0 3d a9 71 6b 3d 48 32 92 3d
       0.13815168 0.109751344 0.05748144 0.07138497
0000e0 7f d3 ec 3d 00 00 00 00 c6 23 81 3d 6c 28 a6 3d
       0.11563777 0.0 0.06305651 0.081131786
0000f0 62 a2 90 3d e1 2b 6f bc bf 72 17 3e 5c f3 0e 3e
       0.07062222 -0.014597864 0.14789866 0.13960022
000100 9e 7d e0 3d 15 4e fe 3d d5 37 e8 3d 87 1c 27 3d
       0.109614596 0.12417237 0.11338774 0.04079869
000110 14 0f df 3d d7 3e c3 3d cd 51 fa 3d 66 4b b6 3d
       0.10891548 0.0953347 0.122226335 0.089011
000120 56 b6 f4 3d d4 31 99 3d 10 98 07 3e cb fb fc 3d
       0.1194884 0.07480207 0.13241601 0.12352713
000130 84 fd 7d 3d 51 a8 36 3e 2b 1c f1 3d 84 8d 89 bd
       0.06200935 0.17837645 0.11772951 -0.06716445
000140 18 d3 c3 3d e3 1e 66 3d ac cc 00 3e 39 ff 15 3e
       0.09561747 0.0561818 0.12578076 0.14648141
000150 47 81 98 3d f6 9d 3b 3d 18 fc fb 3d 0a 08 af 3d
       0.07446533 0.04580494 0.123039424 0.08546455
000160 fb c9 f8 3d 23 af e6 3d 09 99 b0 3d 8b fb 10 3c
       0.121479 0.112638734 0.08622939 0.008849035
000170 a2 7a c8 3d f7 3a ac 3d a9 74 f3 3d 2b cb e4 3d
       0.09789015 0.08409684 0.118874855 0.11171564
000180 9c fb 27 3c da cc 0b 3e 83 bc ea 3d 1a 0a 3d 3d
       0.010252859 0.13652363 0.11461737 0.04615221
000190 81 4d c9 3d c9 5d 25 3e 74 af 09 3e 4b 63 ea 3d
       0.09829236 0.16149057 0.13445836 0.1144472
0001a0 61 f9 7d 3c 35 c9 30 3c f6 6c ed 3d ac 68 d4 3c
       0.015501351 0.010790159 0.11593048 0.025928818
0001b0 df 20 03 3e d8 eb 06 3e 52 96 5d 3b bd 0f b1 3d
       0.12805508 0.13175905 0.0033811522 0.0864558
0001c0 86 34 23 3e 73 9e 17 3e c7 38 d3 3d 00 00 00 00
       0.15938005 0.14806537 0.10313564 0.0
0001d0 e8 24 a6 3d fd 90 d2 3d f7 aa 40 3d 6b 04 f8 3d
       0.08112508 0.102815606 0.047038045 0.12110218
0001e0 d6 bd 10 3d e4 e1 35 3e 52 01 de 3d 3f f1 1a 3e
       0.03533729 0.17761952 0.108400956 0.1513109
0001f0 e8 c7 24 3e 4c d1 13 3e 56 fc ac 3d f4 34 af 3d
       0.16091883 0.14435309 0.08446567 0.08555022

network.2.weight f4 [128, 128]
000000 42 fe 8d 3d c4 44 67 bb 1b 90 dc bd 47 c4 3e be
       0.069332615 -0.003528879 -0.107696734 -0.18629561
000010 be 4c d2 3d 18 c5 5a 3e eb 9f 40 be e8 d1 90 3e
       0.10268544 0.21364248 -0.18811004 0.28285146
000020 61 3a 46 3c 68 02 5c 3e 8b b2 52 bd fe 81 24 be
       0.01209888 0.21485293 -0.051439803 -0.16065213
000030 6b 9c 31 3e fa 79 b8 be 5d ed 0f 3e 59 d4 28 3d
       0.17344825 -0.3603056 0.1405539 0.041218136
000040 38 00 67 3e 1f 58 56 be c7 57 39 3e 51 5a 25 3e
       0.22558677 -0.20932053 0.1809989 0.16147734
000050 25 45 4d bd b5 ab 41 bc 5d 16 d2 3d 7d 4a ec bc
       -0.05011477 -0.011820723 0.10258172 -0.028844113
000060 b9 83 c5 3d 28 88 4d 3e 29 2d 3f bd 8c ed f2 bc
       0.09644265 0.2007147 -0.046673927 -0.029654287
000070 2b c5 9d bb a9 e4 32 3e 33 05 9d 3d 84 9d d4 3c
       -0.004814764 0.1747004 0.07667007 0.025954016
000080 6e 3f 70 bc c5 cf e0 3d 45 20 bd bd 0e 0d 13 3c
       -0.01466356 0.10977129 -0.092346705 0.00897528
000090 e3 8d 76 be f2 f2 fb bd 72 04 33 bd f7 4d 0b 3e
       -0.24077563 -0.123021975 -0.04370541 0.1360396
0000a0 a2 d3 32 be 9a 3e f1 3d 8a c8 d7 3d 54 f9 00 3e
       -0.17463544 0.117795184 0.10536297 0.12595111
0000b0 b1 c3 dc bb 34 b5 45 3e f1 eb 3a 3c b8 b5 e5 3d
       -0.0067371954 0.19307405 0.011408792 0.11216301
0000c0 90 69 53 3e 31 74 af 3e 66 5c 9e bd ab 3a 9e 3d
       0.20645738 0.34268335 -0.07732467 0.07726034
0000d0 e8 d6 53 3e 8f d1 a4 3e 68 51 a1 3e cc db c7 3d
       0.20687449 0.3219113 0.3150742 0.0975872
0000e0 46 f8 4a 3c e7 0b 8c 3d 43 c9 5a bd 26 1a 59 3e
       0.012388295 0.06838208 -0.053414594 0.21201381
0000f0 82 35 2e 3c 3b 18 36 3d bb 2c de bd d7 c6 41 be
       0.010632874 0.0444567 -0.108483754 -0.18923508
000100 e5 c6 10 be db 03 a1 bd 3f 52 61 be 82 dc 85 3d
       -0.14138372 -0.078620635 -0.2200403 0.06536199
000110 78 fe 3f 3d 14 af 96 3d 84 d1 5f 3e 77 d0 5c be
       0.04687354 0.07357612 0.21857268 -0.21563898
000120 3b d6 91 bd a7 71 71 3a 64 dc 94 3d 36 ed 12 3d
       -0.07120939 0.0009210356 0.07268599 0.035870753
000130 47 ef 04 3d af 5d 36 3e a2 7c 1b 3b 54 5a 84 3d
       0.032454755 0.17809175 0.002372541 0.06462541
000140 6e f3 32 3d 0e 8e 21 bd 65 3e 17 3d bc 20 07 3e
       0.043689184 -0.039442115 0.03692474 0.13196081
000150 da 59 91 bd 8f 5d 0b be 5d e0 83 3e 3c b0 93 bc
       -0.07097216 -0.13609909 0.25757113 -0.018028371
000160 76 33 1f 3e c9 c2 b7 be 8d b2 49 3e c6 6c 5a 3e
       0.15546975 -0.35890797 0.19697018 0.21330556
000170 56 ad 46 3d cb f7 53 bd 12 ac d8 3d 74 f7 43 3d
       0.04850515 -0.051749986 0.10579695 0.04784341
000180 7a 16 80 3e 11 9f d0 3d c3 a2 3e be e0 e6 f9 3d
       0.25017148 0.101865895 -0.18616776 0.12202239
000190 ae ee 95 bd e5 6d 06 3f 73 b8 0b 3e 4e c4 0f be
       -0.07320915 0.52511436 0.1364458 -0.14039728
0001a0 33 8d 4d be 71 06 c5 be 6e b3 3b 3c db 52 88 bd
       -0.20073394 -0.38481477 0.011456354 -0.066564284
0001b0 3e 65 24 be 72 f0 27 be 54 e1 8d 3e 67 93 70 bd
       -0.16054246 -0.16400316 0.27710974 -0.058734324
0001c0 a9 36 c3 3d 8b 2a b8 3d d7 cc 61 3e 19 b9 70 bc
       0.0953191 0.089924894 0.22050796 -0.014692568
0001d0 ba 88 f4 3d fd 15 42 3e f5 6c 40 3e cb 7d d6 3d
       0.11940141 0.189537 0.18791564 0.10473212
0001e0 33 df f8 3d ea bc a1 3e 22 1b e6 3e d2 32 6b be
       0.12151947 0.31589442 0.44942576 -0.22968605
0001f0 d8 d8 84 3e 77 e6 ee 3d db ae 01 3e d4 ad 80 3d
       0.2594669 0.116650514 0.12664358 0.06283155
000200 e4 19 b2 3d cf 4c 0e 3e 4b f7 7e 3d 36 08 f3 3c
       0.086963445 0.13896488 0.062247556 0.029667001
000210 a9 31 44 3e 71 f4 79 3e 1c 61 87 bd ee 9b 8f bd
       0.19159569 0.24409653 -0.06610319 -0.07012163
000220 0c 73 0c be 30 af 9c 3b 9c f1 3f 3d 4a 15 d5 bd
       -0.13715762 0.004781626 0.046861276 -0.10404451
000230 99 67 48 3e 6c cc 87 3e d3 0d 31 be 14 08 fa 3d
       0.1957077 0.2652315 -0.1729043 0.12208572
000240 19 2a af bd 37 49 69 bd 6b d6 c4 3d 3d 82 21 3e
       -0.08552951 -0.05695459 0.096112095 0.15772338
000250 73 bf 5f 3e 1e ba dc bd 73 fa 4b be 84 5d 1c 3e
       0.21850376 -0.107776865 -0.19919758 0.15270048
000260 de a4 c7 3c 45 3d 4c 3e c0 77 5c 3d a4 2b ae bd
       0.024370607 0.19945247 0.05382514 -0.085044175
000270 b6 1d ee 3d b4 93 95 3d dc 4a 8d 3e b3 09 e0 3d
       0.11626761 0.07303563 0.27596176 0.1093935
000280 71 15 47 3e 6a b0 da bd 3f 6e 6f 3d b1 1e 5c be
       0.19441773 -0.106781796 0.05845475 -0.21496083
000290 d7 09 9f 3e 7f e5 64 3a e6 43 98 3e d7 44 77 3b
       0.31062195 0.00087317073 0.29739302 0.003773024
0002a0 40 4b 24 3e 2c c2 64 bd 38 50 ab bd 95 4b f7 3d
       0.1604433 -0.05584924 -0.0836491 0.12074963
0002b0 0a af fb bd 31 2b 2a 3e d5 d0 e5 bd f9 6f 6b 3d
       -0.122892454 0.16618039 -0.11221472 0.057479832
0002c0 cc 8c 85 bd 09 6b fa 3d a5 e2 86 3e 3f 95 12 bc
       -0.065209955 0.122274466 0.2634479 -0.008946716
0002d0 41 19 60 be b5 ba 1a be 8e 75 06 3e 80 9d 07 3e
       -0.21884634 -0.15110286 0.13130781 0.13243675
0002e0 a1 ef 49 be da 85 87 3d 83 80 b2 bd 3c 06 07 3e
       -0.19720317 0.06617327 -0.08715918 0.13185972
0002f0 a8 39 8f bd 1c 96 80 3c ca df d4 3d 89 ff 39 3e
       -0.06993419 0.015696578 0.10394247 0.18163885
000300 a6 67 75 bd c5 38 f0 3b eb 1d 40 3c 9e 1f ae bd
       -0.0599133 0.007330986 0.011725883 -0.08502124
000310 8c d3 c9 bd b1 d9 76 bd 35 82 5c be b7 01 be bc
       -0.098548025 -0.0602662 -0.21534045 -0.023194177
000320 ce 98 45 3e ba 29 e4 3c a5 af 50 3e 1d f0 ce 3d
       0.19296572 0.027851928 0.20379503 0.10104392
000330 41 39 29 3c 33 a7 1f 3c e7 88 9f 3c 7f 8e 6e bd
       0.010328592 0.009744453 0.01947446 -0.058241364
000340 af 3b 84 bd 6e e2 ce 3c 08 e8 19 be 42 b5 20 be
       -0.06456696 0.025254454 -0.15029919 -0.15694144
000350 0c 7c 3b 3c 58 c4 f5 3d ea 8f 96 bd 4a d7 0d be
       0.011443149 0.1200034 -0.07351668 -0.13851658
000360 7d f4 ad bd 46 51 83 3e 4a e0 47 be b7 17 ff 3d
       -0.08493898 0.25647944 -0.19519153 0.12455695
000370 93 ee 2e 3e 0d 83 07 3e ba c2 12 3e 0a 49 09 be
       0.17083196 0.13233586 0.14332095 -0.13406768
000380 18 5f d2 3d 5e 3e 8d bd d1 74 1c bd d1 e0 27 bd
       0.10272044 -0.06896661 -0.038197342 -0.040985886
000390 88 b5 69 3e 0f 8c b2 3d c0 2d ce be 17 7e 89 3e
       0.22823155 0.0871812 -0.4026928 0.2685401
0003a0 93 a1 9d 3d 35 b1 80 bd b7 94 8f be 18 7a 91 3e
       0.076968335 -0.062837996 -0.28043148 0.28413463
0003b0 85 22 91 3d 8d c1 46 3e 8b 8f 20 be f0 9e 38 be
       0.07086662 0.19409771 -0.15679757 -0.1802938
0003c0 f4 28 f4 bd ba 51 4d 3d c9 b7 17 3e c7 68 97 3c
       -0.11921874 0.05012677 0.14816202 0.018482579
0003d0 8a 7a 0e 3d e7 bd 54 3d ac 39 2c be 1a 35 27 be
       0.03478483 0.051938917 -0.16818875 -0.1632885
0003e0 82 49 26 3e 7a 7a 95 3c 7a 15 0a 3e 3a ba 99 bd
       0.16238979 0.018246878 0.13484755 -0.07506223
0003f0 c1 2f 3b be 7f 25 35 bb fe 3b 05 3e 7e c3 b8 3e
       -0.18279935 -0.0027640758 0.13011166 0.3608665

network.2.bias f4 [128]
000000 e3 2c a1 3d 26 e0 aa 3c ac 21 c9 3d 73 02 78 3d
       0.078698896 0.020858835 0.098208755 0.06054921
000010 ff 05 76 3d cd f5 33 3d 0c 38 46 3d 5a 34 d0 bb
       0.060064312 0.043935586 0.048393294 -0.006353897
000020 5f cb ba 3c df de a5 bc d1 ed ac 3c 45 a1 a3 3d
       0.022802053 -0.020247875 0.021109493 0.07989744
000030 30 cd 89 3d 00 00 00 00 6a e5 10 3d 41 b4 01 3e
       0.067285895 0.0 0.035375036 0.12666418
000040 6c 1c 84 3d 64 d7 8a 3d d4 a7 c0 3d ab 1b 8c 3d
       0.064507335 0.06779364 0.09407011 0.06841215
000050 bc 34 8d 3d 3f 6f 88 3d ba 99 9b 3d 5b e1 a3 3c
       0.06894824 0.066618435 0.075976804 0.020004919
000060 5a 5e c2 3d 68 93 a9 bb 4e c1 98 bc c1 df 2b 3d
       0.094906524 -0.005175043 -0.018646862 0.041961435
000070 3f 37 88 3d ac 4f 33 3d 47 53 b6 3d 58 7b 93 3c
       0.06651162 0.043777153 0.08902603 0.01800315
000080 11 c8 05 bc 00 00 00 00 b5 3c c5 bc 60 4c a8 3d
       -0.008165375 0.0 -0.024076799 0.082176924
000090 15 b7 a0 3d d5 63 c8 3a 80 5e 8e 3d a9 51 aa 3d
       0.0784742 0.0015288541 0.06951618 0.08316357
0000a0 69 dd a7 bc d3 cd bf 3d 25 aa f3 3d a5 bc 83 3d
       -0.020491319 0.0936543 0.11897687 0.064324655
0000b0 63 1a 3a 3d 52 81 bc 3d 0c 90 13 3c be 82 2a bc
       0.04543532 0.092043534 0.009006511 -0.010407148
0000c0 ab 51 00 3d df 1b 8a bc e8 e0 33 3d 00 00 00 00
       0.031327885 -0.016858993 0.04391566 0.0
0000d0 92 0d 75 bc c8 be c4 3d 56 7b a7 bc 93 f3 04 3d
       -0.014956849 0.09606701 -0.020444553 0.032458853
0000e0 c1 a2 6d 3d 0c 4c b5 3d 66 21 50 3d 37 99 70 3c
       0.058016542 0.088523954 0.0508131 0.014684967
0000f0 07 bc dd 3d 93 03 88 bb c8 d2 88 3d 3a e6 7b 3d
       0.10826879 -0.0041508167 0.06680828 0.061498858
000100 7a 9e 67 bc 00 00 00 00 ca 06 92 3d 79 13 d1 3d
       -0.014136905 0.0 0.07130201 0.10208792
000110 15 bc cc bc a4 f5 06 bd ed 60 94 3d 2e 87 22 3d
       -0.024992028 -0.032949105 0.072450496 0.0396797
000120 43 6e 32 3d 74 3f d5 3d f6 14 6e 3d 98 ad 74 bb
       0.043562185 0.10412493 0.05812546 -0.0037334915
000130 8d 5e 85 3d 0f 30 e8 3d 28 e5 80 3d cb d3 94 3d
       0.06512175 0.113372914 0.06293708 0.07266959
000140 6b 35 93 bc fe 47 3f 3c 3b aa 51 3c f2 cb ae 3d
       -0.017969808 0.011674879 0.012796934 0.08534993
000150 54 11 1f 3d 1d 60 e7 3d 50 21 a4 3d a8 05 92 3d
       0.038834885 0.11297629 0.08014166 0.07129985
000160 53 b5 a5 3d 8d 0e 99 3d bd 35 e0 3d 63 44 3b bb
       0.080912255 0.074734785 0.1094775 -0.0028574697
000170 e3 89 92 3d af 22 6a 3d 27 34 7f 3d c4 98 42 3d
       0.07155206 0.057161983 0.062305596 0.04750897
000180 06 a1 27 bb f7 0f 37 3c ee a8 96 3d 66 cb ab 3d
       -0.0025578155 0.01117324 0.073564395 0.083884045
000190 64 3f c4 bc 7b 9f 8e 3d b4 9b 76 3d 68 78 91 3d
       -0.023956008 0.06964012 0.060207084 0.07103044
0001a0 4d 4b 6b bc a3 e1 fd 3c f6 8b b8 3d a4 a2 94 3d
       -0.014361215 0.030991381 0.090110704 0.07257584
0001b0 9b 1f fb 3c a8 35 2c 3d 55 e9 3f 3d f8 36 62 3d
       0.03065472 0.042043358 0.046853382 0.055228204
0001c0 e2 ed 7b bc ab f1 18 3b f7 1f 08 bc ac 66 fc bb
       -0.01537654 0.0023337405 -0.008308402 -0.007702669
0001d0 ae 04 8a 3d 29 c0 8a bb e0 15 d3 bc 75 86 82 3d
       0.06739174 -0.004234333 -0.025767267 0.06373302
0001e0 ab 94 84 3d 0e 97 d7 bb 25 5f 7c 3d fa d9 7c 3d
       0.06473669 -0.0065792864 0.061614174 0.061731316
0001f0 91 ba f5 bc aa 63 64 3d e7 a9 5e bc 3b 2a ca bc
       -0.029996188 0.05575911 -0.013590313 -0.02467834

network.4.weight f4 [6, 128]
000000 4c 43 7f 3e 6c 02 bb be f5 16 48 3e e2 84 d2 be
       0.24928015 -0.36525285 0.19540007 -0.41117007
000010 fd a9 4c 3d b3 64 7a be 29 9b 1e 3e 23 7f f2 bd
       0.0499668 -0.24452476 0.15488876 -0.11840656
000020 14 c4 de 3d 1e 7c 84 3e 33 eb 2a 3e c3 cb 2f be
       0.10877243 0.25875944 0.16691284 -0.17167573
000030 9f b6 9e bc 4b 5b bd 3d 4a b2 4a be 08 36 f0 bd
       -0.01937419 0.092459284 -0.19794574 -0.11729056
000040 a9 70 32 3e c5 50 e2 3d 9e 7f b0 3d a3 ca 3d be
       0.17425789 0.11050562 0.08618091 -0.18534331
000050 7a 98 ae 3d 15 97 1f bd 4d 26 7b be 8a b3 05 bd
       0.08525176 -0.038962442 -0.2452633 -0.032641925
000060 0d d3 8f 3d 41 68 a4 bd 4f ff 1c be d1 dd a1 3d
       0.070226766 -0.08027697 -0.15331767 0.07903636
000070 89 bd 91 3e ec 07 bc b9 19 22 e8 3d 0d 7d 63 3d
       0.28464916 -0.00035864057 0.113346286 0.05553918
000080 67 14 dd 3d ac 66 2e 3b 5a 88 03 3e 24 65 59 be
       0.10794907 0.002661149 0.12844983 -0.21229988
000090 db 9a 2e 3d 32 9d 88 be c4 04 bb be 26 a0 e0 bd
       0.04262815 -0.2668243 -0.36527073 -0.10968046
0000a0 dc 46 84 be 3a 0d 26 be 1e 8d 04 be 1c 9e ae 3e
       -0.2583531 -0.16215983 -0.12944457 0.34105003
0000b0 ce 93 91 3d 73 79 42 3d 01 3e b5 3e a4 ce 7b bd
       0.0710827 0.047479104 0.35398868 -0.061476365
0000c0 e8 5b 59 be 7d 14 fb bd 8c 18 df bd f0 13 9a bd
       -0.21226466 -0.12259767 -0.10893354 -0.07523334
0000d0 40 c7 6b bc 2a 04 f1 3d 63 b6 87 bd b4 c3 0f 3e
       -0.014390767 0.11768372 -0.066265844 0.14039499
0000e0 81 4a 77 bd 7d d5 72 be 6c 8a 2b 3d 5e 78 c3 bd
       -0.060373787 -0.23714252 0.041880056 -0.095444426
0000f0 76 6a 39 be 77 16 26 be 53 a1 af 3e 68 8a b9 3c
       -0.18107018 -0.16219507 0.34302768 0.022649005
000100 d7 0e 32 3e 4e b7 53 bd c8 a2 e9 3d fb a2 76 bd
       0.17388473 -0.051688485 0.11408001 -0.060214024
000110 df 6b fc 3b e3 1e 0f be 77 66 4d 3e cb eb e2 bd
       0.007703289 -0.13976626 0.20058618 -0.1108013
000120 87 8d 70 be fe 77 f5 3d 38 53 2e be 1a 34 78 3e
       -0.23491488 0.11985777 -0.17023933 0.24238625
000130 1b e0 2e 3d 12 38 fb bd 58 fb 8c be 04 b7 9f be
       0.042694192 -0.12266554 -0.2753551 -0.31194317
000140 06 9b 8d bc d1 80 9d 3d 65 7b 1e be e3 dd 1d 3e
       -0.017285835 0.076905854 -0.15476759 0.15416674
000150 90 03 91 bc af 8d 80 3e 0f 29 68 be 3c 12 8d 3c
       -0.017701894 0.25108096 -0.22671913 0.017220609
000160 e1 db 20 3e 19 d9 33 3e f7 ea 6f 3e 2b 95 c8 be
       0.15708877 0.17563285 0.23429476 -0.39176306
000170 f7 f8 c2 bd 6d 4d 10 bd 3f 37 2d be e1 ae 29 3e
       -0.095201425 -0.03523009 -0.16915606 0.16570617
000180 7d c6 ad 3d 34 85 8a bd fb dd 08 3e 1c 9a 90 be
       0.08485124 -0.06763688 0.13365929 -0.28242576
000190 49 92 5f 3d f4 33 a7 3e 57 ea 9f be 08 b8 58 3e
       0.054582868 0.32656825 -0.31233475 0.21163952
0001a0 71 fa 9c be 99 44 b6 3d 78 15 f4 3d 16 1f cf bd
       -0.30659822 0.08899803 0.11918157 -0.10113351
0001b0 1e d1 80 3d 7b 18 dc bd 6b 05 67 be 28 2c 3e be
       0.06289886 -0.10746857 -0.2256066 -0.18571532
0001c0 b6 f4 80 be dc b9 ae bc 2b 3b 03 bd 95 fe 12 3e
       -0.251867 -0.021328859 -0.03203885 0.14354928
0001d0 0d 7d 52 3d 60 12 29 be 97 d8 a3 3a 5e a8 9b 3d
       0.05138879 -0.16510916 0.0012500462 0.07600473
0001e0 8b 69 56 3e 2a ae 1d be e7 cc 06 bc 54 89 2a bd
       0.20938699 -0.1539847 -0.008227563 -0.041634873
0001f0 37 25 e8 3d ef d6 cb bd c1 7e b1 bd 28 ea 18 3e
       0.11335223 -0.09953105 -0.086667545 0.14933074
000200 68 54 2f be 35 c0 53 bd b5 da 42 3e ef 0b d3 3d
       -0.17122042 -0.051696975 0.19028743 0.103050105
000210 b7 b5 d0 bd 61 1d 26 3d f8 7a 58 be 3c db 43 3e
       -0.10190909 0.04055536 -0.21140659 0.191266
000220 f4 06 9d 3d 02 cb 83 3e 75 ba 88 3d 6d a8 62 bc
       0.07667342 0.2574082 0.06676189 -0.013834101
000230 0f 4d a3 3d cf bf 57 3e 5c 46 31 3c 82 86 3b 3e
       0.07973682 0.21069263 0.010819998 0.1831303
000240 cf d3 20 be 07 79 08 bd e9 9b d8 3e dc 4c 9d 3d
       -0.15705799 -0.033318546 0.4230645 0.076806754
000250 4d 8f 5d 3c 51 09 94 bd 32 13 62 bd 6c 70 0a 3e
       0.013522935 -0.072283395 -0.055194087 0.13519448
000260 2d e5 41 be 55 a7 88 bd f1 0c ed bd 53 49 c5 be
       -0.1893508 -0.06672541 -0.11574734 -0.38532504
000270 78 09 e0 ba 6a b7 eb be 00 f2 0a be 6d 61 0b 3e
       -0.0017092666 -0.4603837 -0.13568878 0.13611384
000280 06 e3 42 3c 3b 7a b3 bd 4a 2d 95 be fd 74 25 be
       0.011894947 -0.08763548 -0.29136115 -0.16157909
000290 18 9d 85 3e f5 ed 76 3d d6 30 ba 3e 91 3d a0 be
       0.26096416 0.060285527 0.36365384 -0.3129697
0002a0 d8 2a 79 bd 1d 76 90 3e fd 5c 81 bc 60 a5 60 be
       -0.060831875 0.28215113 -0.01579141 -0.21938086
0002b0 60 9f 94 be f1 e7 1c be 67 00 ac 3e 82 e8 b1 be
       -0.29027843 -0.15322854 0.33594057 -0.34747702
0002c0 f6 b9 46 be 83 6a 84 3d 6d 1f 15 be 41 3c c9 3d
       -0.19406876 0.06465628 -0.14562769 0.09825946
0002d0 6d ec 12 3e 72 1e a4 bd cd 1d 11 3d d6 73 1c 3e
       0.14348002 -0.080136195 0.03542881 0.15278563
0002e0 97 9a 8c be 82 75 64 3e ad 45 df bd 52 94 4b bd
       -0.27461693 0.2231045 -0.109019615 -0.049701996
0002f0 1d 85 7a be 0f d1 86 3e 77 e8 6b 3e 7e 21 6b 3c
       -0.24464841 0.26331374 0.23037897 0.014351247
000300 9c d2 ef 3d b7 72 8c bb 90 d9 4a be d9 d4 b8 3e
       0.117100924 -0.004286136 -0.19809556 0.3609989
000310 23 5d d8 3c d1 39 59 3e db f3 89 be ac d5 18 3c
       0.026411599 0.21213461 -0.2694386 0.009328287
000320 00 5c 3d bd ef c5 29 be e6 e2 bb bd 85 27 e7 bd
       -0.046230316 -0.16579412 -0.09174137 -0.112868346
000330 bb 89 bd 3d 2b d8 08 be 8c 0d 3e bc 3f 29 9b bd
       0.092547856 -0.13363712 -0.0115999095 -0.075762264
000340 cb 42 e6 3d 9d 41 75 be a1 29 37 3c 85 70 db 3e
       0.112432085 -0.2395081 0.011179359 0.42859283
000350 eb 51 cd bd 16 38 7a 3e 32 ff bf 3c dd b0 6a 3e
       -0.1002539 0.24435458 0.023437116 0.2291903
000360 9e b5 ed 3d e1 61 38 3c 43 84 3b 3e 31 5c 86 bd
       0.11606906 0.011253805 0.18312173 -0.06560553
000370 4d 21 b9 be cb 29 19 bd 36 f5 8d be 5d 10 c1 bd
       -0.3615822 -0.037393373 -0.27726144 -0.09426949
000380 fa 9e 76 3d c0 eb 06 3e 9f c8 29 be 50 30 68 be
       0.060210206 0.13175869 -0.16580437 -0.2267468
000390 70 97 62 3e 99 17 91 be 98 88 ab 3d 9f 5e 9e 3d
       0.22128081 -0.28338316 0.083756626 0.07732891
0003a0 75 df 89 3b 34 69 01 3f bc 54 c5 3e 02 e7 dc 3c
       0.0042075464 0.5055115 0.3854121 0.026965622
0003b0 d0 32 ab bd 00 9e 51 3e 3c 68 20 3e ed 36 1b 3e
       -0.08359301 0.20470428 0.15664762 0.15157671
0003c0 13 a0 60 be 2e 1c 47 3e 7a 79 04 be 07 ba e0 bd
       -0.21936063 0.19444343 -0.12936965 -0.10972982
0003d0 93 d7 40 3e 46 c3 38 be dd 46 1e be 5e 2c 8b 3e
       0.18832235 -0.18043241 -0.1545672 0.27182287
0003e0 8b e7 91 be fe 59 9b 3c 80 99 8d be 2f 98 df bd
       -0.28496966 0.01896381 -0.27656174 -0.109176986
0003f0 73 f8 5e 3e b7 6f 1d 3d ff 86 4d 3e b0 f5 86 3d
       0.21774463 0.038436618 0.20071028 0.0658983

network.4.bias f4 [6]
000000 e1 51 e1 3c b6 1b e4 bc 12 4a 1f bd c4 39 cb 3c
       0.027504863 -0.027845245 -0.038889 0.024807818
000010 9a d8 95 bd 4b 69 4e bd
       -0.07316704 -0.050393384
