dqn.pt (torch, 78112 bytes, 6 tensors)

network.0.weight f4 [128, 12]
00000000: 4b88 01bf 109d 933c f949 56be 30f8 71be
00000010: 0a5e 8f3e 15ea a63f efcf 063f 9f93 57be
00000020: 1eb1 eebe 50c5 acbc f308 1fbf d31d a73e
00000030: 3b5f c73e d8cd 1f3f 82bc 843e e7c9 dc3d
00000040: 88bb 15be 7efa 243f c490 20bf 3247 7abb
00000050: 1d7a 143c 56af ecbc 8011 0fbf a8df bf3e
00000060: 5d9a 69be 333f 6cbe 65e1 de3d feed ed3d
00000070: 0dde b43e d4b7 6bbe 0b35 20be bc72 e6bd
00000080: 0326 68bf eaac 293d 75a4 e8be a8f9 76be
00000090: 8a0b 293f 47b9 f03e 039b d4bd 1fa6 933e
000000a0: fd56 663d 10cf a83e 23b4 713e dc4f 293f
000000b0: 4035 d93e f484 773e 6b0e 1a3f 1e32 64be
000000c0: bea4 ce3d 5e1c 8d3d 5404 ee3e eb30 01bf
000000d0: e026 b4bc 465a 0abc a430 8fbd ac25 033f
000000e0: 16c4 01be c0b3 343f ecf5 033d 8b94 023f
000000f0: 902a 45bd cb64 9b3e bd29 1a3f 3f06 17be
00000100: dc65 debe 090f d1be 84bb 6c3e f6e4 603e
00000110: fb25 6dbe dc8e 483f 99cd 88bd 604c c43e
00000120: 2023 f3be 39bf 62bf d19d f83e 34c3 913d
00000130: 2424 3abf f826 8b3e ee1a 1dbd e2d1 aa3e
00000140: 8a3c 01bf 0746 7cbe 29d9 213f 2d98 56be
00000150: ecf3 383f d077 473f 6228 073f 38cc 4bbf
00000160: fbd1 0fbe 3c64 e23e 2feb 93bd 3ff3 443e
00000170: 9b5d 223e 376f a7be d679 1dbf ac25 3a3f
00000180: 344b b5bd e0d4 763f dd0c e13e 1b1a 5c3f
00000190: 1eab df3e dae4 a73d e81c 09bf c24f 803e
000001a0: 2b04 a63e a81e 2c3e 2f53 15bf da17 adbe
000001b0: 3fbe e43c 12c1 093f 40a7 05bf a30c 9e3e
000001c0: c2c7 653e dbe3 39be a587 fa3d 5949 fc3d
000001d0: f5f6 923e 4b1c c4be 0858 073f 4838 e23d
000001e0: 8681 523f 0146 5bbd fe02 06bf f1e2 833e
000001f0: 0c5c 96be 0ce4 253e cf19 183e 0987 e3be
00000200: a1f3 16bb a755 8cbe 701a 2239 6e03 8d3e
00000210: ce02 63be cbde 0ebe 1feb 1cbf 83b4 323f
00000220: 839f c4bd 741e 5bbe 5d56 b63e 7840 6d3b
00000230: 618a 1e3d 7890 833f 663f cbbc 8687 8cbe
00000240: 9951 093d 6c6a 803e 6321 b5be 35e3 1ebf
00000250: 45a1 313e 514a e03e 62bf ba3e ad71 1a3f
00000260: bc1f 71be 15cc 83bc d47c c63d 17f2 b43e
00000270: cdd0 88be 89c8 2a3f 8370 4e3e 8579 d23e
00000280: 2fc3 e93e 87a1 46be a799 0fbd 80d3 05bf
00000290: cb20 1bbe cc0a 0bbe ad2e 6bbe 67f7 b13e
000002a0: 2c36 223b 475c 473e 93ac 5cbe a8f5 febe
000002b0: e527 b13f c3a2 c43e dfd5 5ebd a866 a23d
000002c0: 5007 aa3e 32c5 013e 7b78 b43d 4974 62be
000002d0: 928c 3e3d 1730 c23c 8688 9abe d5dd 94be
000002e0: e79a c93c 59a6 66be 11d1 e53d 6892 fb3d
000002f0: c893 30bf cd26 723d 590f 38bf 891b cabc
00000300: fd02 ecbd 1926 0d3f 13dd 863e 8211 d2be
00000310: 2fa6 593b 1c41 4c3d 56ff b23e 4c44 9a3e
00000320: 0fd9 9e3c 8d93 8a3f 943f 43bd 5829 dabe
00000330: eef3 2c3f cbae d13e 1035 6bbe b2d1 43be
00000340: 45e0 cdbd 0c1b 453f fb6a 6a3e b417 943d
00000350: 4ca3 74be 93d6 163f e714 033f b99a b8be
00000360: 4fb8 623f 7b8c f2be 7f28 20bf 41a2 1abe
00000370: b400 313f 1239 b33d 79a1 a03c f494 b63b
00000380: b015 18bf 1272 e83e 47fa e03d b270 dbbd
00000390: 6407 9fbe c699 4ebf 9d08 10bf 12d1 223f
000003a0: 19f0 a73e e926 0dbf 83ad 743f 0759 0cbf
000003b0: 6242 f93e 89c8 c2bd f7d4 49be 134f 353e
000003c0: d7ca 09bf efa3 e53d a44f 333f f04f 3f3f
000003d0: ec75 1bbe 9601 b4be 0a89 53bc 1fbe eabb
000003e0: 97b1 073f 6b71 673d 5a2c 903d 9c4b 2cbe
000003f0: 0e19 073f 930b 45bf a678 e63e 7869 2c3f
-0.5059859 0.01801923 -0.20926656 -0.23629832 0.28001434 1.3040186 0.5266103 -0.21052407
-0.46619505 -0.02109018 -0.6212303 0.32639942 0.38939843 0.6242347 0.2592507 0.10780697
-0.14622319 0.6444472 -0.62720895 -0.0038189408 0.009062317 -0.0288922 -0.5588608 0.37475324
-0.22812791 -0.23070984 0.10882834 0.11617659 0.3532566 -0.23019344 -0.15645234 -0.112523526
-0.90683 0.04142467 -0.4543797 -0.24118674 0.6603323 0.47016355 -0.10381129 0.28837678
0.056235302 0.32970476 0.23603873 0.6613748 0.4242344 0.24171811 0.6017825 -0.22284743
0.10090016 0.06890176 0.46487677 -0.5046527 -0.021991193 -0.008444374 -0.06991699 0.5122936
-0.12672457 0.70586777 0.03221695 0.5100791 -0.048136294 0.30350336 0.6021994 -0.14748476
-0.43437088 -0.40831783 0.23118407 0.21962342 -0.2315902 0.78342986 -0.0667984 0.3833952
-0.47487736 -0.8857303 0.48557904 0.0711731 -0.72711396 0.27178168 -0.03835576 0.33363253
-0.50483 -0.24636088 0.63221985 -0.20956488 0.72247195 0.77917194 0.52795994 -0.7960849
-0.14044945 0.44217098 -0.07222592 0.19233416 0.1585602 -0.32702038 -0.6151403 0.7271373
-0.088522345 0.9641857 0.43955126 0.85977334 0.4368524 0.08197947 -0.5355973 0.2506085
0.32425055 0.1680857 -0.58330053 -0.3380726 0.027922748 0.53810227 -0.5220833 0.30869016
0.22439483 -0.18153326 0.122329034 0.123186775 0.28704038 -0.38302836 0.528687 0.11045891
0.8222889 -0.053533558 -0.52348316 0.2575908 -0.293671 0.16200274 0.14853595 -0.4443896
-0.0023033398 -0.27409098 0.00015459373 0.2754168 -0.22169039 -0.13952176 -0.61296266 0.6980669
-0.09600737 -0.21398336 0.35612765 0.0036201756 0.038706187 1.0278463 -0.024810504 -0.27447146
0.033525083 0.25081193 -0.35377035 -0.6206544 0.17346676 0.438067 0.36474138 0.60329705
-0.23547262 -0.016088525 0.09691778 0.3534095 -0.26721802 0.6671224 0.20160107 0.41108337
0.45656726 -0.19397555 -0.035058644 -0.5227585 -0.15149228 -0.13578337 -0.22967024 0.34759066
0.0024751527 0.19468795 -0.21550207 -0.49796796 1.38403 0.38405427 -0.054403182 0.079297364
0.33208704 0.1267288 0.08812042 -0.22114672 0.046520777 0.023704572 -0.30182284 -0.29075494
0.024609996 -0.22524394 0.11221517 0.12283784 -0.68975496 0.059119035 -0.7189842 -0.024671333
-0.115240075 0.5513626 0.2634054 -0.41028982 0.0033210625 0.04986678 0.3496043 0.3013023
0.019390611 1.0826279 -0.047668055 -0.42609668 0.6755971 0.4095367 -0.2296946 -0.19122961
-0.10052542 0.76994395 0.22892372 0.072310835 -0.23890418 0.58921164 0.5120377 -0.36055544
0.8856248 -0.47372803 -0.6256179 -0.15100957 0.691417 0.0875112 0.019608246 0.005571956
-0.5940809 0.4539953 0.109852366 -0.10714854 -0.31060326 -0.8070339 -0.5626314 0.63600266
0.32800367 -0.551375 0.9557726 -0.54823345 0.4868346 -0.09510905 -0.19710146 0.17705946
-0.53825134 0.112129085 0.70043397 0.7473135 -0.15181702 -0.3515746 -0.012911091 -0.0071637775
0.53005356 0.05650465 0.070397094 -0.16825718 0.52772605 -0.76970786 0.45013922 0.6734843

network.0.bias f4 [128]
00000000: 5939 c53c 9e3c dc3d 4119 213c 1c56 9e3d
00000010: e7ce a83d 1bb8 ce3d 4648 5f3e 78ca 9a3d
00000020: cd0d b33d e676 313e 57d2 a53d 2a6e f63d
00000030: 5281 173e 2eca 083e 62d0 ea3d 7c6c 7abd
00000040: a4e6 c33d 74bd ef3d 5428 e23d 6a4d f33d
00000050: 1152 053e fe9b 013e 4e7a 953d 64a7 2b3e
00000060: c4dc d23d 7266 0e3e 4d4d e53d c71b 0f3e
00000070: f214 293d 7931 1b3d b052 2a3e bf2a ab3d
00000080: 867b e03d 56e8 a03d 9ae1 4d3d 17ce cd3d
00000090: e449 fd3d 35f3 ab3d ed96 6f3d ce0a af3d
000000a0: c965 da3d 970b fc3d 5de3 b03d 3873 063e
000000b0: e731 f33d 6837 e33d ed02 013e 583e 923d
000000c0: 331d a73d ea0e 193e a078 e33d 9429 983d
000000d0: dbfc f83d f19b ee3d ee50 a03d cf66 543e
000000e0: 84ab 9b3d 2c8b f03d c3aa 0d3e e926 073e
000000f0: ef1b 043e 5353 523d b1ed 993a 7ae9 dd3d
00000100: 0000 0000 c1ab bb3d 193e eb3d db48 cb3d
00000110: 0000 0000 b81e af3d 6f2e c23d 73ac fd3d
00000120: 786d c93d 9856 e83d 7cb2 d63d a9b3 d83d
00000130: 573b ca3b 3904 d03d 83fd e63d e2e7 243e
00000140: e57b f93d cdca e03d 720f 443c f265 1e3e
00000150: 7669 ba3d 00bb 943d 8769 ea3d fb13 193e
00000160: 9145 dc3d 5cd4 d63d 1d6f ac3d 47f0 1f3e
00000170: 7c13 493e f839 0b3e e750 0a3e 3dc5 003e
00000180: a180 ff3d d317 353d b484 c83d 5d16 b93d
00000190: 5f0c 543e f52f 043e 0000 0000 2d9b f53d
000001a0: cebc 2e3e 4761 c23d e163 a43d d893 da3d
000001b0: 6053 6f3d 08ed 513e 7e6e 9a3d ad47 e33d
000001c0: d31a 643d 7902 b83d c73c 043e 4a6b f63d
000001d0: 35ec 2a3e ef72 413e 892b de3d f27b 173e
000001e0: 7049 293e 2d12 2a3e aef8 cb3d b1b2 913d
000001f0: 98fd 163e 1b83 d33d a2e0 c93d f480 8e3d
0.024075197 0.10753749 0.009832681 0.07731268 0.082425885 0.10093709 0.21804914 0.07558149
0.08742867 0.17330512 0.0809676 0.12032731 0.14795426 0.13358375 0.11465527 -0.061138615
0.095654756 0.11706057 0.11042848 0.1188 0.13019587 0.12657163 0.072987184 0.16763073
0.10296014 0.13906267 0.111963846 0.1397544 0.04127974 0.037888978 0.16633105 0.083577625
0.1096106 0.078568146 0.05026398 0.10049074 0.12367609 0.083959974 0.058493543 0.08546983
0.10663945 0.12306898 0.08637116 0.1312989 0.118747525 0.11094552 0.12598772 0.071407974
0.08159866 0.14947096 0.11106992 0.074298054 0.12157603 0.11650837 0.07827936 0.20742343
0.076010734 0.11745295 0.13834672 0.13198437 0.12901281 0.051348995 0.0011743811 0.10835548
0.0 0.09163619 0.114864536 0.099260055 0.0 0.08550781 0.09481513 0.12386408
0.09835333 0.113446414 0.10483262 0.105811425 0.0061716246 0.101570554 0.11278822 0.16104081
0.12181834 0.10976181 0.011966573 0.15468577 0.09102146 0.0726223 0.11445909 0.14949028
0.10755456 0.10489723 0.08419631 0.15619002 0.19636339 0.13596332 0.13507424 0.1257524
0.12475706 0.044212174 0.09790936 0.090374686 0.20707844 0.12908919 0.0 0.11992488
0.17064211 0.094912104 0.08026863 0.1067273 0.058429122 0.20500576 0.07540606 0.110976554
0.055689644 0.089848466 0.1291381 0.120321825 0.16691668 0.188915 0.108481474 0.14793375
0.1653192 0.16608496 0.09959541 0.07114161 0.14745176 0.10327741 0.098572984 0.069581896

network.2.weight f4 [128, 128]
00000000: c97d 69bd 9e2d 3c3d a46f 8b3e 7276 bd3c
00000010: 5e4f 5e3e 8b8f 2c3e b83d 7c3e fc9e de3d
00000020: d296 3038 106f 90be 126f f63d 8708 80be
00000030: 0cdc 99be f11f bbbc 20ac 85be 92bf b5bd
00000040: e836 5d3d 6df1 88bd d33b f8bb bf7d 94bc
00000050: 4f55 3a3c c91a 333e 6c43 10bc 2808 8cbd
00000060: 956e 993e 6619 3a3d 1617 dc3d e266 36bc
00000070: 7d7f 513e 9762 a33d afea ee3d 47b1 34bd
00000080: 7257 113d 460a 433e 8247 8e3e d45d 163e
00000090: 10be 2c3d 214c 863d b33b b3bd f46b b7bc
000000a0: 7520 acbd 1036 c5bd a307 753e fb85 80be
000000b0: 2153 1a3d 20f4 41bd 9e52 98bd e3f0 c8bb
000000c0: 2c89 193e 8637 5e3c 0834 e2bd 58a3 3d3e
000000d0: a63c 80be fa6a e8bc 5aad e53d 842c 693e
000000e0: 6a19 463d 5306 1f3e 01b3 9fbe e8ad a53d
000000f0: b53e e0bd 9e6a 953e 4835 663d b85a c1bd
00000100: df18 ee3d 1c8d 36be 6bb7 453e 9e7b 553e
00000110: 963b 5fbd abf0 9cbc 4dc2 373e 8a0c 0a3e
00000120: 36cf 253e 33aa 03bb 78b1 cf3d 6c04 223e
00000130: 7d1b 72bd f4da 563e b53f 4bbb dfc1 173e
00000140: 494e ad3b 5f32 773e 676b 433e d515 8dbd
00000150: 1fa7 f3bd a650 5b3e f5c2 2d3e 318c 903e
00000160: 8f79 82bc 0c06 273e ab86 7dbe 797a 963d
00000170: 5c73 03be 8c24 01be 49f0 95bd 976e d03e
00000180: 972b 30be 0e12 06bd c261 e03e 4114 18be
00000190: ea66 bcbd d287 62be 1e6b 23be 9384 aabd
000001a0: 12ec 453e edf5 0a3e 1653 3b3e f53e 5f3d
000001b0: 811c dbbc 6566 803e 0ddf ee3c 6d20 59be
000001c0: bd13 eb3e 7f42 cc3d c74d 3cbc 2799 823e
000001d0: 94da 22bd 0935 bc3d 3e1d 173d c9b2 f3bd
000001e0: 9743 22be e72f 9fbe f380 02be afac 8e3c
000001f0: 137d 533d 5251 843e 7ae9 4dbe 5059 883e
00000200: 53f6 1cbe 775e 1bba f1d7 a1bd 71ae 03be
00000210: ebe0 a73c d4b3 f8bc 7227 333c 6888 56be
00000220: d309 f63c c41a 99bd f673 c8bd 2caa eabd
00000230: 3ee3 ea3b 03cf 003e b612 193d 9fef 413d
00000240: a727 dcbd ec76 663c d870 833d aa70 31bd
00000250: a48d 87bd 5545 80bd c8cc 213e 1177 ae3a
00000260: 61df 8ebd 5e82 b83d 4eb3 1fbe 7ffa 3cbd
00000270: a97e 66bb 6063 823c 7d1a 9a3e 7449 9a3d
00000280: af9a 1fbd 2123 edbd dab9 c93c 94de f7bd
00000290: 5ef4 89be 1055 e53d b276 8dbc 4c4c 223d
000002a0: f4e2 8dbd 5aaa 4a3e f088 d2bd 33cf 233e
000002b0: a246 f83b af88 103e 37e3 92be 675e fbbb
000002c0: c369 27be f806 b93d e61a 8abe 6ae3 2bbd
000002d0: 5406 26be da40 4b3d f5a7 193d 69f1 0c3e
000002e0: 7e98 373e 1b93 3dbe ea2d b83c ce52 e1bd
000002f0: 6646 133e 88d3 4a3b 6cee afbd eb1c 113c
00000300: 5c7b 893e 0954 3e3e 9d0c 57be bd45 0dbd
00000310: 9245 3fbd 4613 ae3d acd1 4bbd 847d 423e
00000320: dcb6 ffbc 21ce 343e 7204 7cbd f973 56bd
00000330: 5354 47bc 89e5 96bd cbf0 07be 30de 27bd
00000340: 38e5 3abe 9173 9dbe 2b2a ec3d d045 773d
00000350: f0e5 c33d 00ce 48bc 9d1c 503e 9be2 943d
00000360: b0e5 853c 3460 1d3d 145a 17be 26a4 87bd
00000370: d1c2 d73c 2c3a 99bd eba6 2d3e ad77 d0bd
00000380: 47a3 063e c8e6 273d de8e 5ebe aa98 e73d
00000390: 89c1 03bd 447d 94bd a51c 21bd e55c 1ebe
000003a0: 3009 943d 98fe f6bd 3de6 8cbe 668d b2bb
000003b0: 7224 323e 0df8 bf3d 8672 d1bd a962 7c3d
000003c0: a16e 89bd 7633 e0bd ec96 b53c 8b20 71be
000003d0: 6d3d a13d 2f5d c73c 0aa2 783c 5370 c63c
000003e0: e336 a33d 72f3 dfbd 976b 9bbb 2658 d43d
000003f0: 9162 783e 1cce 3dbd 93f3 04be 70ac 4f3e
-0.057004724 0.04594194 0.27233613 0.023127768 0.21709964 0.16851632 0.24632919 0.108701676
4.2102132e-05 -0.28209734 0.12032904 -0.25006506 -0.30050695 -0.02284238 -0.26107883 -0.0887443
0.05400744 -0.06686673 -0.007575491 -0.018126367 0.011372878 0.17490686 -0.008805137 -0.06837493
0.2996718 0.045434378 0.10746591 -0.011132928 0.20458789 0.07977789 0.11665856 -0.044114377
0.035483785 0.19046888 0.2778893 0.1468423 0.042173445 0.06557489 -0.08751621 -0.022390343
-0.08404628 -0.09629452 0.23928694 -0.2510222 0.037676934 -0.047351956 -0.07437633 -0.0061322316
0.14993733 0.0135630425 -0.110450804 0.18519342 -0.2504627 -0.028371323 0.11214705 0.22770888
0.04836408 0.15529756 -0.31191257 0.080898106 -0.109494604 0.29182905 0.056203157 -0.09441131
0.116258375 -0.17827266 0.1930825 0.20847937 -0.054500185 -0.019157728 0.17945214 0.13481346
0.16192326 -0.002009046 0.10141271 0.15822 -0.059108246 0.20981961 -0.0031013314 0.1482005
0.0052888733 0.24140309 0.1908394 -0.0688893 -0.1189711 0.21417484 0.16968901 0.28231958
-0.015927104 0.163109 -0.24758403 0.073475786 -0.12836975 -0.12611598 -0.073212214 0.40709373
-0.17204128 -0.032732062 0.43824583 -0.14851476 -0.09199317 -0.22122124 -0.1595883 -0.08326068
0.19328335 0.13570376 0.18293414 0.0545034 -0.02674699 0.2507812 0.029159093 -0.21203776
0.45913497 0.099736206 -0.011493153 0.2550747 -0.039759234 0.09189803 0.036893122 -0.11899335
-0.15846096 -0.31091234 -0.12744503 0.017416326 0.051632952 0.25843292 -0.20108595 0.2663064
-0.1532834 -0.0005926857 -0.07902516 -0.12859513 0.020492991 -0.030359186 0.010934697 -0.20950472
0.030033981 -0.07475808 -0.09787743 -0.11458239 0.0071682027 0.12578969 0.03737136 0.04734766
-0.107497506 0.014066439 0.064180076 -0.043320335 -0.06618813 -0.06263224 0.15800774 0.0013310631
-0.069762 0.090092406 -0.15595743 -0.04613733 -0.003517071 0.015916526 0.30098334 0.07533541
-0.038965877 -0.11578966 0.024624754 -0.12103 -0.2694425 0.11197865 -0.017268512 0.039623544
-0.069280535 0.19791546 -0.10280025 0.15997009 0.0075767795 0.1411464 -0.28688976 -0.0076711657
-0.16348939 0.09034532 -0.26973647 -0.041964926 -0.16213351 0.049622394 0.037513692 0.13763966
0.17929265 -0.18513148 0.022482831 -0.11002122 0.14382324 0.0030948836 -0.08590397 0.008856992
0.26851928 0.18586744 -0.21000905 -0.034490336 -0.046697207 0.0849977 -0.049760506 0.18993193
-0.031215124 0.17656757 -0.061527677 -0.052356694 -0.012166101 -0.07367999 -0.13275449 -0.04098338
-0.18251503 -0.30752233 0.115314804 0.060369313 0.095653415 -0.0122561455 0.20323415 0.07269784
0.016344875 0.038421825 -0.14780456 -0.06623106 0.026338013 -0.074817985 0.16958205 -0.10179076
0.13148223 0.040991575 -0.21734187 0.11308415 -0.03216699 -0.07250455 -0.03933396 -0.15465124
0.07228315 -0.12060279 -0.27519408 -0.005448985 0.17396715 0.09373484 -0.10226922 0.061617527
-0.06710554 -0.109473154 0.022166692 -0.2354757 0.07873044 0.024336426 0.015175352 0.024223482
0.07969453 -0.109351054 -0.0047430503 0.103683755 0.2425635 -0.04633914 -0.12983541 0.20280623

network.2.bias f4 [128]
00000000: f67b 18bc 0000 0000 de91 a83d 53bf c8bc
00000010: 8f26 ad3d 7368 803d 69f5 18bc 1f71 833d
00000020: 0000 0000 af90 5c3d 1762 e2bc 4ae9 443c
00000030: 01b3 be3d e36d 203d 1f14 ba3d 8780 b63d
00000040: 0000 0000 33a8 97bc 397e 9e3a 62a5 9d3d
00000050: ef55 87bc 38c9 c23c 9d79 9a3d e6a5 e8bc
00000060: 8c1c 863d 6fb1 873d 1ac4 11bc d616 1cbd
00000070: 551b ef3d 5625 c73d d11d e33b 8db6 9bbc
00000080: 2317 e939 9ef1 ffbb 4f34 23bc ca1b 973d
00000090: 2438 3d3c e7e4 423d 8cb4 7b3d 2d1a 9abc
000000a0: 6518 983d 359e b6bc b542 2dbc 90ba 703d
000000b0: dc60 913d 9fe1 043d 72ee 0dbd 7da5 6d3d
000000c0: 7fa9 b33d 1bb0 af3d 5566 9ebc e443 c13d
000000d0: 2d4a 18bc 0000 0000 dc8c 79bc 0000 0000
000000e0: ba4d 833d 305d 4f3d d378 893d 0000 0000
000000f0: 6075 8d3d 6bda c53d e40c 64bc 110c 11bc
00000100: 1d0c 693d e233 673d 2671 91bb 3da0 5a3d
00000110: 36cc 983d d8cb 173d d78a 8f3b 8a5a ca3d
00000120: e205 b03d e960 1fbc 9cc6 09bc 4476 3f3d
00000130: 1bf0 9ebc 31e1 ba3d 34d4 ae3d a8dc eabc
00000140: fb0b 50bc 4936 0e3d dea5 943d 22a0 ad3c
00000150: 8475 cfbb 8cd9 d23d 103c 78bc 5a04 b73d
00000160: 0000 0000 55ef dbbc 18ea 793d 6899 5a3d
00000170: b4d6 bb3d 4b54 ba3d c6bb d83d 29c9 94bc
00000180: 0000 0000 68e2 803d 50b2 c13d 0398 8e3d
00000190: 3157 973d 8bae 623d 0000 0000 568e 203d
000001a0: 0000 0000 f959 ae3d 0000 0000 49d2 2f3b
000001b0: 1769 c43d 0000 0000 f34d 7b3d 6b86 cabc
000001c0: a611 893d 7f7d ac3d 3985 973d cf5a 543d
000001d0: 16b4 dd3d e077 9b3d e1dd 893d 1e06 b5bc
000001e0: 0000 0000 a3d4 813d 0b55 9c3d 8d58 803d
000001f0: 9a7c 933d 9859 2d3b 87f4 7f3a 0648 9c3c
-0.009306898 0.0 0.08230947 -0.024505293 0.0845462 0.06269922 -0.009335854 0.064180605
0.0 0.05384892 -0.027634664 0.012018511 0.09311486 0.039167296 0.09085869 0.089112334
0.0 -0.01851282 0.0012092061 0.0769756 -0.016520469 0.02377759 0.07542727 -0.028399419
0.06548414 0.0662564 -0.008896852 -0.038107716 0.11675135 0.09723918 0.0069310446 -0.019007945
0.0004445846 -0.0078107854 -0.009961202 0.07378347 0.0115490295 0.04758158 0.06145148 -0.01881131
0.07426528 -0.022292236 -0.010574986 0.05877167 0.070985526 0.03244173 -0.034651227 0.05801915
0.08772563 0.08578511 -0.019335905 0.09436777 -0.009295029 0.0 -0.015231337 0.0
0.064113095 0.05062598 0.067124985 0.0 0.06907153 0.096608005 -0.013919089 -0.0088529745
0.056896318 0.056445964 -0.004438537 0.05337547 0.07460825 0.037059635 0.0043805647 0.0988055
0.08594872 -0.009727695 -0.008409169 0.046743646 -0.0194016 0.09124983 0.08536568 -0.02866967
-0.012698169 0.03471974 0.07258199 0.021194521 -0.0063311476 0.102954 -0.015151039 0.08936377
0.0 -0.02684752 0.061014265 0.053368956 0.09171811 0.09098109 0.1058269 -0.018162327
0.0 0.062931836 0.094578385 0.06962588 0.07389677 0.05534224 0.0 0.039198242
0.0 0.08513255 0.0 0.002682822 0.09590357 0.0 0.061353635 -0.024722299
0.06692819 0.08422374 0.07398457 0.051844414 0.10825364 0.07591224 0.06731773 -0.022097643
0.0 0.06339385 0.07633408 0.0626689 0.072015 0.0026451107 0.00097639154 0.019077312

network.4.weight f4 [6, 128]
00000000: 52b7 903d e195 00be 2ed2 98be 44d4 d93d
00000010: f1f6 3b3e 3c4b 12be 3422 94bd 4c59 92bd
00000020: f958 5cb9 b8f8 ce3b ed8a bd3c 5b50 4bbe
00000030: 88b6 9a3d d2c4 85be 3da2 113e cc06 f03d
00000040: 4a5f 30bd 068b 04be d8ce 60be 2839 303e
00000050: e9fd cfbd 324e 84be 04bc 8c3e a4dc e3be
00000060: 0769 8bbd 5f9f acba ad5c 7d3d 8b9a b1be
00000070: cdd5 463e 119c a7be 2e7f 25be cd10 25bd
00000080: 8e2f 733c e7f7 a9be cae9 e0bd 97f7 c1bc
00000090: f2fe 833e a973 aa3d 95cc 843e 24a3 a93d
000000a0: fa12 153c 5173 323d d745 e6bb b3c7 c1be
000000b0: 7cde 183d a9d0 e7bd 4280 a6bc b390 d5bd
000000c0: dcd8 bd3e 5ff4 0e3d 8786 d03d f966 ad3e
000000d0: 0e04 363e e7fd b3bd 17d9 523e d68a a2bc
000000e0: 8788 26bc f8ae 893d 716e 973c df9e 86bd
000000f0: e921 c4bd d494 903e 2ad7 01be fbd0 523d
00000100: 0fe3 863d a7af 2dbd 267d a33d 5e96 79be
00000110: 2e64 b6bd 8b6b 663e 355f 90bd 5de2 98be
00000120: 6f1e a53e 3c08 0e3e 63b6 41bc 1d0d 343d
00000130: 77da cc3e 8efc 40bd e077 a23e 8619 023e
00000140: 57ad 9b3c 9547 acbe 891e a13e ec27 86bc
00000150: 4b7b da3d 78ba 6f3e dc93 143e b018 913e
00000160: 4282 073e 1d53 03be 7cd9 1fbe 7145 6ebe
00000170: 53b3 773d e10b febc aaf3 9d3e 2e4b 4a3e
00000180: 38b7 efbd c9ca 003e 9149 9b3e c7e2 31be
00000190: 4535 39be 00cc 37bd 9165 353d 746e ccbb
000001a0: c871 61bd 5476 3dbe 25b0 ae3c cf36 86be
000001b0: 520c 2bbe 8916 78bd 24e4 9cbd daa8 b2bc
000001c0: cbaa ba3d 4780 653e 0174 80be 01f4 8e3d
000001d0: 4c43 02be 125e 4cbe da26 2cbe 93d4 073c
000001e0: 411c efbd 207d 643c 0faf bcbd d650 62bd
000001f0: 5505 30be 003c ddbe 0dc9 73be 8483 97bd
00000200: 5ead 68be 2156 a1bc bbf1 72bd 48e4 153d
00000210: ba28 bb3d bb7b f13c 127d 253e 8e33 c0bd
00000220: 7080 d63d aa3c e2be 26bc b0bd fe8b 0a3e
00000230: 09e8 723e 2639 efbb ef35 4ebe 732c 683c
00000240: 2cdb 8ebd dfc0 7a3e 1504 293c 5955 d3bd
00000250: 35f3 3bbc 807c 9fbd 0239 b4bd 1d35 0ebd
00000260: e595 81bd f7bf 7a3d 32aa aabd 890f a6be
00000270: b5ef 953e 417f ab3e 1935 91bd 3d23 8e3e
00000280: 2a06 f9bc 33a2 47bd 5937 74be 5b56 66be
00000290: 53bf 1e3d 3518 4dbe c2bb 803d af90 0f3e
000002a0: 969d 9a3a 2783 0d3e 2e99 e83d e096 813e
000002b0: fc99 4cbe 069a 803e 7c71 673b 0c36 943d
000002c0: effa cdbb af32 973e b7b4 6e3d 0d3b 9b3e
000002d0: 249a 04be 6fe4 20bc 0a9c 43bc 81f5 47bd
000002e0: be57 2bbe 9236 aa3e d985 8ebd fcbf 903e
000002f0: 6c04 e63c d6a8 7bbd 1d2a 87bd c32c 0bbe
00000300: b39e 08be 45e9 33be 6606 dc3d 54eb 5bbe
00000310: 8071 8e3d e139 65be 97b2 2c3e d70f ed3e
00000320: 332f 26be c1e8 8e3e e1ab 1d3d 1c6c b93e
00000330: 6aaa d6bd 215a abbc e9af e13d 4e61 2a3d
00000340: cf54 c03d b623 8e3d d76f 233e 9fb7 0ebe
00000350: fa25 cc3c 8a85 d6bd b9df ea3d 1f13 50be
00000360: 31bb 1ebd 420b 05bd e671 32bc 8976 e0bd
00000370: 777d 11be 1a44 cdbc f550 39bb cead c4be
00000380: 4920 7dbd 87a8 13be 1235 0bbe b400 153d
00000390: 85e5 21be 0f4c d93e 2489 a0bd 7e55 203c
000003a0: 4f8f 113e afaa 1abf 160e a83c f522 ff3b
000003b0: 062a b73e d6b3 16bd 0374 2cbe 60cd 653e
000003c0: b131 8d3e 84f5 11be fd7a 083e 1206 a5be
000003d0: 8946 4e3e c774 8abd 6def dcbd c761 1b3e
000003e0: d6ce b2bc 5066 0e3d 30b8 afbd bb58 3b3e
000003f0: bed4 2cbd 854b 48bd 2818 5ebe c115 9ebe
0.070662156 -0.12557174 -0.29847854 0.106361896 0.1835592 -0.14286512 -0.07233086 -0.07145938
-0.0002101398 0.0063162707 0.023137534 -0.19854872 0.07554346 -0.26126724 0.14222045 0.117200464
-0.043059625 -0.12943658 -0.21953905 0.17209303 -0.101558514 -0.25840908 0.27487195 -0.44504273
-0.06807142 -0.0013170055 0.06185596 -0.3468822 0.19417496 -0.32736257 -0.16161796 -0.040299226
0.014842881 -0.33196947 -0.10982092 -0.02367763 0.25780445 0.08322842 0.25937334 0.0828307
0.009098763 0.043567006 -0.0070273685 -0.3784767 0.037321553 -0.11319096 -0.02032483 -0.1042799
0.37079513 0.03490102 0.10181909 0.33867624 0.17774984 -0.087886624 0.20590626 -0.019841593
-0.010164387 0.06722826 0.01848528 -0.06573271 -0.0957678 0.28238547 -0.12679735 0.05146883
0.06586277 -0.042403843 0.079828545 -0.24373767 -0.089058265 0.22501962 -0.07049409 -0.298602
0.3224978 0.13870329 -0.01182327 0.04395782 0.40010425 -0.047115855 0.31732082 0.12705049
0.019003553 -0.33648363 0.3146861 -0.016376458 0.106680475 0.23410976 0.14509529 0.28339148
0.13233283 -0.12824674 -0.15610307 -0.23268677 0.06047375 -0.031011524 0.30849963 0.19755241
-0.11704868 0.12577356 0.30329564 -0.17371665 -0.18086727 -0.044872284 0.044286314 -0.006238753
-0.05504015 -0.1850217 0.021324227 -0.2621369 -0.16703919 -0.060568366 -0.07660702 -0.02180903
0.091146074 0.22412215 -0.25088504 0.06980134 -0.12720984 -0.1995776 -0.16811696 0.008290428
-0.11675311 0.013945848 -0.09213077 -0.055252872 -0.17189534 -0.4320984 -0.23807164 -0.073981315
-0.22722384 -0.01969439 -0.059312563 0.03659466 0.09138627 0.029477945 0.16160992 -0.09384833
0.10473716 -0.44186908 -0.086296365 0.13529965 0.23721327 -0.007300514 -0.20137762 0.014170754
-0.069753975 0.24487637 0.010315915 -0.10319013 -0.011471559 -0.07787418 -0.08799936 -0.03471862
-0.06327418 0.06121823 -0.083332434 -0.32433727 0.29284444 0.33495525 -0.07090206 0.2776126
-0.030398447 -0.04873867 -0.23849238 -0.2249388 0.03875668 -0.20028765 0.06285812 0.14020036
0.0011796232 0.13819562 0.11357342 0.2531042 -0.19980615 0.2511751 0.0035315445 0.07236871
-0.006286017 0.29530856 0.05827781 0.3031849 -0.12949425 -0.009820088 -0.011939058 -0.048818115
-0.1673269 0.3324476 -0.06959123 0.28271472 0.02807828 -0.06144031 -0.06599829 -0.13591294
-0.13341789 -0.17569454 0.10743408 -0.2147649 0.06955242 -0.2238536 0.16865002 0.46301147
-0.16228943 0.27911952 0.038493995 0.36215293 -0.10481723 -0.020917 0.1101988 0.041596703
0.09391176 0.06940405 0.15960632 -0.13937233 0.024920452 -0.10474689 0.11468453 -0.20319794
-0.03875274 -0.03248144 -0.010891413 -0.10960109 -0.14208017 -0.025056887 -0.0028277014 -0.38413852
-0.061798368 -0.14419757 -0.13594463 0.036377624 -0.15810211 0.4244084 -0.078386575 0.009786008
0.14214824 -0.6041669 0.02051453 0.0077861496 0.3577425 -0.0367926 -0.1684113 0.22441626
0.27576974 -0.14253813 0.13328166 -0.32231194 0.20144095 -0.06760555 -0.10787854 0.15174018
-0.021827143 0.03476554 -0.08580053 0.18295567 -0.042195074 -0.048900146 -0.21688902 -0.30875972

network.4.bias f4 [6]
00000000: 2317 143d 1ad6 713c 9750 dabc ba89 5c3d
00000010: d85b 4fbd bd56 86bd
0.036154877 0.014760518 -0.026649756 0.053842284 -0.0506247 -0.06559513
