dqn.pt (torch, 78112 bytes, 6 tensors)

network.0.weight f4 [128, 12]
000000 77 b1 41 3f b7 7e d8 bd b9 4a 40 3f 03 6c 21 3d
       0.75661415 -0.10571044 0.7511402 0.03940965
000010 3a 80 21 be 33 50 63 3b a8 e3 42 bd 49 90 2e 3f
       -0.15771571 0.0034685254 -0.04758039 0.6818891
000020 0e 3c 9f 3e 7d d8 40 3f 83 47 81 3e b9 be e2 be
       0.31100506 0.75330335 0.25249872 -0.44286135
000030 ef 4f 15 3f d2 a8 90 3f 80 4d 00 bf 4e 3f 21 be
       0.58325094 1.130152 -0.50118256 -0.15746805
000040 e8 c1 e5 3e a1 f2 b7 be a5 f3 54 3e 34 64 0d bc
       0.448745 -0.359273 0.20796068 -0.008629847
000050 a6 50 42 3f f1 d5 01 3e 68 c8 fb be a7 cf 51 bc
       0.7590431 0.12679268 -0.49176335 -0.012805856
000060 92 17 5e 3e 96 7e 28 3e de a0 9d 3c 02 a0 f6 be
       0.21688679 0.16454539 0.019241747 -0.4816895
000070 12 17 49 be 7f 53 02 3e 34 05 31 3e ff f0 b1 be
       -0.19637707 0.12727164 0.17287141 -0.34754178
000080 65 62 27 3f dd 37 1d 3f 7c 90 39 be 70 23 b7 3d
       0.65384513 0.61413366 -0.18121523 0.08942306
000090 74 86 01 bf 68 8f 7a 3f ff bd 96 3e 59 80 6f be
       -0.50595784 0.9787507 0.2944183 -0.23388804
0000a0 f9 64 e1 bd 04 c1 85 be f6 f2 be be e3 37 8f bb
       -0.11005587 -0.26123822 -0.3729474 -0.004370676
0000b0 49 0e e1 3e 3f 39 b5 3d 48 68 cd 3d bd 1b bf be
       0.4395621 0.088488095 0.10029656 -0.3732585
0000c0 1a 74 e9 be 1c f8 45 3f 7a 25 93 3b 0b ff 13 bf
       -0.4559639 0.7733171 0.0044905515 -0.5781104
0000d0 66 1f bd be e9 42 49 bf d8 61 5b 3e 4d 84 d7 3c
       -0.36938018 -0.7861772 0.21424043 0.026308203
0000e0 5c 19 3c 3f c2 51 d5 3d b2 1f 65 bd 54 2d df be
       0.73476195 0.10415985 -0.05593843 -0.4358927
0000f0 01 ea 96 3d 07 f2 ca be 2b 61 29 3d 21 ba 0d 3f
       0.073688515 -0.39637777 0.041352432 0.55362135
000100 28 f1 6a 3b 6f 65 97 3e b4 53 96 be c0 7e 97 3e
       0.0035849307 0.29569575 -0.29360735 0.2958889
000110 78 83 53 be 10 b8 10 bf ed e0 24 3f b4 8f c7 3a
       -0.2065562 -0.5653086 0.6440571 0.0015225322
000120 fe eb ba 3c 90 63 24 be 12 99 10 bf 92 6d dd 3d
       0.022817608 -0.16053605 -0.56483567 0.108119145
000130 be e2 cd 3e 7e f6 18 3f 7e d5 3c 3e 72 cb b4 be
       0.40212053 0.5975112 0.18440816 -0.35311466
000140 a4 61 04 3d 8d 18 77 3c 80 c7 f4 3e 8e d0 79 3e
       0.03231968 0.015081537 0.47808456 0.24395964
000150 1c 7b b3 3e 7d 82 cf 3c 89 71 23 3f b2 67 37 3f
       0.35054862 0.025330776 0.63845116 0.716426
000160 00 df 3b be ee 89 38 3e 7c 50 84 3e 95 c2 c7 be
       -0.18346786 0.18021366 0.25842655 -0.39015642
000170 90 22 8b 3e 8a a0 09 bd 12 f2 5f bd 0c b5 6d 3e
       0.27174807 -0.033600368 -0.054674216 0.23213595
000180 70 0b 07 bf 36 86 06 bf a7 5a e5 be e0 ba c2 3d
       -0.5275183 -0.5254854 -0.44795725 0.095083
000190 e4 b1 66 be d9 f6 cc 3e f6 92 e5 3e d6 55 20 3f
       -0.22528797 0.4003208 0.44838685 0.62630975
0001a0 6e af 47 3e 80 5b 45 bc 99 e8 34 3d 38 0a a2 3e
       0.19500515 -0.012045741 0.044167135 0.3164842
0001b0 35 00 13 3f b2 5f f8 be 72 f1 f1 bb 65 e5 8c be
       0.5742219 -0.4851051 -0.007383519 -0.27518764
0001c0 8a 16 9f 3e e1 fd ad be 7f 8b ac 3e 13 d4 07 3f
       0.31071883 -0.33982757 0.33700177 0.53057975
0001d0 f4 e5 a2 be 63 78 47 3e b2 5c ec bd 76 6a 09 be
       -0.31816065 0.19479518 -0.11541118 -0.13419518
0001e0 64 ae 33 be 2c 94 94 be d5 bb 6e 3f 48 03 76 be
       -0.17546993 -0.29019296 0.9325536 -0.24024689
0001f0 5a 81 aa 3e c6 8a 25 3f 54 11 ba be ee 20 7c be
       0.33301812 0.64664876 -0.36341345 -0.24621937
000200 4a 0f 2a 3f ba 82 1e 3e 41 e5 48 3e 93 80 56 3e
       0.6642958 0.15479556 0.19618703 0.20947485
000210 8b b9 fc bd 3e f1 37 3f 05 f2 df bd 0d c4 b7 be
       -0.12340077 0.7185248 -0.109348334 -0.35891762
000220 bc c0 06 3f da 4e 6f 3e bd a4 06 3e 13 47 94 3e
       0.5263784 0.23369923 0.1314878 0.28960475
000230 ea e8 d2 3e af 0b 14 3e f1 0f 9b be 50 11 49 bf
       0.41193324 0.14457582 -0.302856 -0.7854204
000240 e2 1e c8 be 81 a6 91 3e b5 ab d7 be 3c 0f df bd
       -0.39086062 0.28447345 -0.4212319 -0.108915776
000250 63 2e 68 3f f8 c0 65 bd b0 1c 65 bd 04 ba c8 bd
       0.9069578 -0.056092232 -0.05593556 -0.09801105
000260 12 ec 89 be c2 c7 5e 3e ad 40 3f 3e f4 35 10 bf
       -0.2693792 0.21755889 0.18677016 -0.56332326
000270 6e ef 0f bf 9c 16 71 3f 2c 32 10 bf cb 96 03 be
       -0.56224716 0.94175124 -0.56326556 -0.12850492
000280 5b 57 55 3e d2 37 e8 be f3 4b 06 3f ff bd 21 3f
       0.20834105 -0.45355088 0.5245964 0.63180536
000290 f5 ce b8 3e e8 56 a8 3e 8f ed 0e 3f 2e 69 3b 3e
       0.36095396 0.32878804 0.55831236 0.18301842
0002a0 f8 99 0f be 18 24 ad 3e d3 3d 5a be a0 91 b0 be
       -0.14023578 0.338166 -0.21312647 -0.34486103
0002b0 e5 ec 6e 3e 23 69 e0 bd 34 5b d0 bd cf 1f 73 3e
       0.23332556 -0.10957553 -0.101736456 0.23742603
0002c0 06 d0 3b 3d 27 7c 5e 3d c2 d8 08 3f fe 14 c3 be
       0.045852683 0.05431762 0.53455746 -0.38101953
0002d0 2c 0e d1 be 61 b1 68 bf df f8 0a 3d 6e 98 62 3e
       -0.40831125 -0.9089566 0.03392875 0.2212846
0002e0 b8 a1 9c 3e 72 d3 25 3e 9b a7 fd bd df f6 4d 3f
       0.30592132 0.16193941 -0.12385484 0.8045482
0002f0 de ec c8 3d 62 38 84 be 5b 55 b6 3d 67 cd ed 3e
       0.09810804 -0.25824267 0.08902999 0.46445772
000300 bb a9 0f be 04 11 32 bf 87 75 91 bc e5 cf ce 3e
       -0.14029591 -0.69557214 -0.017756237 0.40392986
000310 76 87 1c 3f 60 74 c8 3d 34 8c 0c 3f 4d 9d 04 3f
       0.61144197 0.09787822 0.54901433 0.5180252
000320 02 21 f2 be 40 ea 81 be 66 93 36 3e 5a 8d 13 3e
       -0.47290808 -0.2537403 0.17829666 0.1440939
000330 9e 0f b6 3e a5 83 3a be d3 fe 2f 3f 6a 2c a5 3e
       0.3555879 -0.18214281 0.68748206 0.32260448
000340 2f 5c 0a 3f b2 7a 11 3f 34 7a 85 be 29 f6 05 3f
       0.5404691 0.56827843 -0.26069796 0.52328736
000350 a7 2b 23 3e e7 84 fc 3e 49 68 2f 3f 28 23 81 3e
       0.15934621 0.49320146 0.685185 0.25222135
000360 5d a6 1e 3f 1d 9f 54 3c 7e 1b 41 3f 09 25 62 3e
       0.619726 0.012977389 0.75432575 0.2208444
000370 57 48 17 bf d8 f1 ae be 44 fd b9 be e6 e0 99 3d
       -0.59094757 -0.34168887 -0.3632604 0.07513599
000380 0f 97 9b 3e 6f 1e ab 3d 6b f4 27 3f d9 6b e9 bd
       0.30388686 0.08355414 0.6560733 -0.113975234
000390 c8 26 9b bd b3 bf f5 3e ee b5 b9 be e6 8a f0 3e
       -0.07575756 0.47997817 -0.36271614 0.4698097
0003a0 56 d3 1c be 4b eb d1 be 8c 8e 1d bf 21 ba cd 3d
       -0.15314993 -0.40999827 -0.61545634 0.10045267
0003b0 28 aa 16 be c2 9c de bc da c2 95 3e 45 fb 32 3f
       -0.14713347 -0.027174357 0.29250222 0.69914657
0003c0 dd 69 eb 3d 67 07 14 be 3e 4e 0c bf dd bf 3b 3f
       0.11494801 -0.14455949 -0.5480689 0.73339635
0003d0 85 47 6e bd 1c dd c6 bb aa f1 29 bd 54 70 c1 3e
       -0.058173675 -0.0060688388 -0.041490234 0.37781012
0003e0 0e 08 7c 3e 40 5e f6 be f5 71 a6 be 85 80 0c bf
       0.24612448 -0.48118782 -0.32508817 -0.54883605
0003f0 19 5c b4 3e 96 28 95 bd 60 09 d1 be f1 fa dd 3e
       0.35226515 -0.07283132 -0.40827465 0.43355516

network.0.bias f4 [128]
000000 5d 20 af 3d 7f c4 b2 3d b7 1c b0 3d e6 e1 bc 3d
       0.08551095 0.08728885 0.08599227 0.09222774
000010 de 44 db 3d a6 76 27 3d 52 29 f8 3d 6b bf b7 3c
       0.10706495 0.040884636 0.12117256 0.022430142
000020 5e da a1 3d ac 99 0b 3e 68 bd 58 3d ac 86 05 3d
       0.07902978 0.1363284 0.052915007 0.032599136
000030 4c 75 42 3d 9a c9 09 3e 75 74 f9 3d f1 3a 00 3e
       0.047475144 0.13455811 0.121804155 0.12522484
000040 1e ea fc 3d ca 98 a5 3d 66 51 ad 3d 21 08 14 bb
       0.12349342 0.08085783 0.08462791 -0.0022587853
000050 7a 8f ce 3d 47 69 a6 3d a2 82 98 3d e6 2b b0 3d
       0.1008596 0.08125549 0.07446791 0.08602123
000060 f4 4e 07 3d 20 81 1a 3e b5 5b da 3d 3a 10 82 3d
       0.03303428 0.1508832 0.10662023 0.06350751
000070 b0 dd 12 3e 19 23 00 3e 0c 4d e6 3d 64 94 dd 3d
       0.1434238 0.12513389 0.11245164 0.10819319
000080 9d 0a 12 3e bc ce 8c 3d 94 25 2f 3d 5b 9b 7f 3d
       0.14261861 0.06875369 0.042760447 0.062404018
000090 cf 16 1c 3e 0d 3d 05 3e 29 e3 d3 3d 06 d3 89 3d
       0.15243076 0.1301157 0.10346062 0.06729703
0000a0 5a b2 1f 3e 48 89 e9 3d 94 5e ae 3d ea f0 2b 3e
       0.1559538 0.114031374 0.08514133 0.1679112
0000b0 ec 4d ad 3d 9c 39 a2 3d 4a a6 06 3e fa 49 bc 3b
       0.08462128 0.07921144 0.13149372 0.0057461234
0000c0 11 83 ca 3d 9d 18 2b bd 70 62 d9 3d f9 19 80 3d
       0.0988828 -0.04177152 0.106144786 0.06254954
0000d0 8f c1 4d 3b 61 c5 b0 3d 5f 60 cd 3d e7 51 82 3d
       0.0031395887 0.08631397 0.10028147 0.06363278
0000e0 55 4d 7d 3d e0 f8 01 3e 9c 34 96 3c d0 b6 d2 3d
       0.061841328 0.12692595 0.018335633 0.10288775
0000f0 e4 98 0c 3e d0 98 96 3d 9c 0a e3 3d 7a 57 a0 3d
       0.13730198 0.073533654 0.11086008 0.07829185
000100 8b e5 42 3d c1 28 d1 3d 7b f5 58 3d 41 eb 0d bb
       0.04758219 0.10212851 0.052968483 -0.0021655115
000110 dc e6 ce 3d 3b f0 d9 3d 27 e0 7e 3d a2 85 af 3d
       0.10102627 0.106415235 0.062225487 0.0857041
000120 43 39 77 3d 35 3f be 3d 50 a2 79 3c 56 85 96 3d
       0.060357343 0.092893995 0.015236452 0.073496506
000130 de 37 be 3d 62 99 07 3e 14 51 c3 3d 47 c4 3d 3e
       0.092879996 0.13242105 0.09536949 0.18531905
000140 da 35 e6 3d 6b fa 09 3e f6 21 21 3d 07 3e ba 3d
       0.1124074 0.13474433 0.03933903 0.09093862
000150 2f 60 bc 3d 6a 1b b6 3d 6a 7f de 3d 3f 0e 0d 3d
       0.09198033 0.088919476 0.10864146 0.034437414
000160 40 49 45 3d 1f 9e fe 3d 42 79 94 3d 54 c4 eb 3d
       0.04816556 0.12432503 0.072496906 0.11512056
000170 22 99 03 3e 55 91 cc 3d f3 12 fe 3d f8 41 fe 3d
       0.12851384 0.099886574 0.12405958 0.12414926
000180 f1 b3 f8 3d cf 13 04 3e 3a 06 b8 3d 28 f3 8b 3d
       0.12143696 0.12898181 0.089855626 0.06833488
000190 fc e2 ab 3d b4 70 c6 3d 8b cb d9 3d bb a8 cf 3d
       0.08392903 0.09689465 0.10634526 0.10139605
0001a0 dc 11 23 3e c2 6f ac 3d a5 c5 f1 3d ba 32 91 3d
       0.15924782 0.084197536 0.11805276 0.070897534
0001b0 fd c2 c8 3d bf 08 e4 3d fd 72 d9 3d 9e c0 04 3e
       0.09802816 0.11134481 0.106176354 0.12964103
0001c0 98 0c cb 3d 88 2f c0 3d 00 00 00 00 48 34 76 3b
       0.099145114 0.09384066 0.0 0.0037567783
0001d0 a2 b0 19 3e 49 6b 4d 3d e3 e4 20 3e 00 e8 9b 3d
       0.15008786 0.050151143 0.15712313 0.0761261
0001e0 d4 84 b7 3d 9f ab 04 3e b2 b4 cd 3d 54 2a b3 3d
       0.08960882 0.12956093 0.100442305 0.08748308
0001f0 68 ff da 3d c5 0a 05 3e bc 2b b5 3d e3 2e 50 3d
       0.10693246 0.1299239 0.08846232 0.050825965

network.2.weight f4 [128, 128]
000000 42 46 86 be 48 9a ff 3d ff 37 9c 3c 4d 67 65 bc
       -0.26225477 0.12480599 0.01906967 -0.01400168
000010 f2 62 40 3e b8 8d 82 bb b1 34 d0 3d 60 b2 c5 bd
       0.18787745 -0.0039841793 0.101663 -0.09653163
000020 14 3d 71 3c 35 03 16 bd 6f d2 48 3e b5 65 5f 3e
       0.014724035 -0.036624152 0.19611524 0.21816142
000030 8c cd ef bd 3f d6 fd bd a5 1d 54 3e 3f b4 41 be
       -0.11709127 -0.1239438 0.20714433 -0.18916415
000040 2d 31 13 be c7 1b 92 bc 6e 51 0c be aa 01 6e 3c
       -0.14374228 -0.01783551 -0.13702938 0.014526764
000050 41 6f 55 3c 68 c7 3a bd a9 74 22 3e 11 38 dc 3c
       0.013027013 -0.045600325 0.15864815 0.026882203
000060 aa 57 26 3d 77 2d c9 3d 0c 85 02 3e 53 2b 24 bd
       0.040610947 0.09823125 0.12746066 -0.04008038
000070 c3 f5 39 3e d4 95 73 3e b8 ec 1d be 64 ef 0c 3e
       0.18160157 0.23787624 -0.15422332 0.13763195
000080 44 1d b4 be bb b6 05 be 5f d2 39 bd 27 19 84 ba
       -0.35178578 -0.13057987 -0.04536664 -0.0010078297
000090 cb fb 8f 3e ef 03 1e 3d c4 dc ce bc 00 85 ea 3d
       0.2812179 0.03857797 -0.025251754 0.11451149
0000a0 cb 4c 8b 3e c0 68 87 bd 94 31 99 3d 0c 2d f8 bc
       0.27207026 -0.06611776 0.074801594 -0.030294918
0000b0 9f 7e 5c be 04 f9 87 3d 41 cd 04 3e 65 47 a4 3d
       -0.21532677 0.06639293 0.12968923 0.0802143
0000c0 e1 05 08 be 9d 2e 84 3d ce 1e da 3d 8d 06 30 be
       -0.13283493 0.06454203 0.10650407 -0.17189999
0000d0 09 1e 46 3d 0f 61 c5 bc d9 5f 26 be d1 da 96 bc
       0.048368488 -0.024094133 -0.162475 -0.018414887
0000e0 83 72 d2 3c be 41 b3 bd 52 b5 fa 3b f8 fc ce bc
       0.025689369 -0.08752774 0.0076510096 -0.02526711
0000f0 f9 ce d3 3c cb 9b a9 bc 5b 21 70 bd f9 64 3c bd
       0.025855528 -0.02070417 -0.05862556 -0.045994733
000100 46 8c 24 3d 8f f6 1d bd e6 47 ee bd d5 aa ea bd
       0.040172838 -0.038565215 -0.11634807 -0.11458365
000110 3c 50 82 3e a0 64 58 bd ff 5e 87 be 7c c2 77 be
       0.2545184 -0.05283034 -0.26439664 -0.24195284
000120 23 ff 7d bd 34 1e 01 3e 41 1d fd 3d 8c 1d 0d 3e
       -0.062010895 0.12609178 0.12359095 0.13780802
000130 77 97 48 be cc 2a f9 bd 56 b7 cd 3d b0 96 1f 3e
       -0.19589029 -0.12166366 0.10044734 0.15584826
000140 f0 2e 45 be a7 6a 11 be 15 b5 c3 3d 10 c7 07 3e
       -0.19256186 -0.14200841 0.09556023 0.1325953
000150 5d 7f c5 bd 36 73 71 3e b0 11 69 3e d1 5c 8a 3d
       -0.09643433 0.23579106 0.22760653 0.067559846
000160 2e 58 9b be 72 0c 3c bc 92 dc 2f be d6 b0 bc 3e
       -0.30340713 -0.011477577 -0.17173985 0.36853665
000170 b6 9b af bd de 73 8f bc 8e 55 23 3e 53 5c d1 3d
       -0.085746214 -0.017511304 0.15950605 0.102226876
000180 31 1d 17 3d 83 24 24 3e 34 2a 56 bb dd 94 01 3c
       0.036893073 0.16029553 -0.0032678964 0.007909027
000190 5f 59 60 3d 00 62 ef ba c6 9f 4e 3d 18 0d 93 3e
       0.05477273 -0.0018263459 0.05044534 0.28720927
0001a0 86 b0 32 3c 87 78 bf 3d 0d 87 3c 3e 92 3b 65 3c
       0.010906344 0.09349161 0.18410893 0.013991253
0001b0 e5 49 c8 bd 0a ba a3 3c a6 72 86 3c 29 da 3e 3e
       -0.09779719 0.019986171 0.01641209 0.18637909
0001c0 ff 77 8c 3a 31 72 1d 3e ce 33 e1 bd 5a 70 aa bc
       0.0010716914 0.15375592 -0.10996209 -0.020805527
0001d0 54 05 b4 3d c5 f8 83 bc 5e ea 35 bd b3 37 1f be
       0.08790079 -0.016109833 -0.044412963 -0.15548591
0001e0 13 10 84 3e 6e 49 cb 3d c9 d7 36 3c db 3a 57 3e
       0.25793514 0.09926115 0.011159846 0.21018545
0001f0 3c 45 74 be 3a 73 05 be e8 4a c8 be c6 df 10 be
       -0.23854536 -0.13032237 -0.3911965 -0.14147863
000200 d5 c5 49 bd 82 59 10 be 59 50 a5 bc 0d d7 4c bd
       -0.049260933 -0.14096645 -0.020179914 -0.050009776
000210 6c a7 96 bd 1e e3 af 3d 71 47 89 be 97 6a 07 bd
       -0.07356152 0.08588241 -0.26812318 -0.033060636
000220 65 25 02 bd 6b 7c a7 bd 28 5c a9 3d 8d 62 10 be
       -0.031773943 -0.08178028 0.082695305 -0.14100094
000230 cf 61 f6 bd 88 fd 88 be 60 d7 39 be f4 2a a4 3e
       -0.12030374 -0.2675593 -0.18148565 0.3206402
000240 f2 d3 32 3e c1 58 8a be a2 45 a9 bc f3 81 d3 bd
       0.17463663 -0.2702084 -0.020663086 -0.1032752
000250 37 23 2d be 0d ae 06 3e 61 4c 16 be 21 0a 8f 3e
       -0.16907965 0.13152333 -0.14677574 0.27937415
000260 94 47 da 3c 25 95 26 3e 73 ee 44 3e f3 96 c9 3d
       0.02664546 0.16267832 0.19231586 0.098432444
000270 9c dc 16 be c3 47 a0 bd 12 f8 20 3e 74 14 38 3d
       -0.14732593 -0.078261875 0.15719631 0.04494138
000280 d3 8e 51 3e f4 ce 77 3e 9e 01 d0 be 22 ca 1a bd
       0.2046464 0.2420004 -0.40626234 -0.037790425
000290 81 74 cc 3d 99 7d 50 3d ea 20 50 3e 42 d8 25 bd
       0.09983159 0.05090103 0.20325056 -0.040489443
0002a0 69 e4 02 be a8 4b ed 3d db ff 75 3e 4e a7 d6 3d
       -0.12782444 0.11586696 0.24023382 0.104811296
0002b0 74 c8 7f 3e 1c 8b 4b 3d 2f 00 1d 3b dd ee 6b 3d
       0.2497881 0.049693212 0.0023956408 0.057600845
0002c0 a1 54 cd 3d 0e 86 e8 3c 96 2c 1b 3e c0 4b 79 bd
       0.10025907 0.028384235 0.15153727 -0.060863256
0002d0 80 65 1d bd cf ee 82 be 60 a5 ce bc 8a 4e 7f be
       -0.038426876 -0.25572821 -0.025225341 -0.24932304
0002e0 da 0a cb bc 83 2b a0 3d 1d 75 d9 bc e1 5c 4d 3d
       -0.024785448 0.07820799 -0.026545102 0.050137404
0002f0 db 70 c0 bc cf cb cc 3d 5b a6 a2 3d 61 3b a1 bd
       -0.023491314 0.09999811 0.07941886 -0.07872654
000300 80 fb d4 3d b0 cf 54 3b 33 57 a3 bd b3 be 00 3e
       0.10399532 0.0032472424 -0.07975616 0.12572746
000310 9c ea 40 bd 99 eb 6c 3e 0d 60 30 be 99 d9 35 3e
       -0.04709874 0.23136748 -0.1722414 0.17758788
000320 96 d3 3a 3e f9 66 db bb 72 e1 69 ba af fc 46 3e
       0.18244776 -0.006695625 -0.00089218386 0.19432329
000330 7d 6b e1 3d 48 61 0a bd f9 12 88 bb 68 fc 4b 3e
       0.1100683 -0.03378418 -0.0041526523 0.19920504
000340 1f 91 a4 3d 36 71 ca 3d 78 7d 25 3e 38 a2 bf bd
       0.08035492 0.098848745 0.16161144 -0.09357113
000350 0c 5b 8e bd 19 0c 48 3e 4c 6a 1a bd bd 32 35 3e
       -0.069509596 0.19535865 -0.03769903 0.17695136
000360 13 83 1b 3e 8e 27 50 bd 3f 51 34 be ba 9c 26 bb
       0.1518672 -0.050818972 -0.17609118 -0.0025423006
000370 36 e7 9a 3d c5 fa 16 3e a5 90 13 3e dc 5f 8b bd
       0.07563631 0.14744098 0.14410646 -0.06805393
000380 39 c0 cd 3d 9e 73 64 3c ef db 21 3e 17 29 6d 3d
       0.10046429 0.013943581 0.15806554 0.057900514
000390 00 16 f1 3d 83 ef 59 3d 44 56 97 3e 82 fa 7f bc
       0.11771774 0.05320693 0.29558003 -0.015623691
0003a0 da f9 3d bd 0c 70 3e 3e 8e a6 b4 3e a1 f8 50 3d
       -0.046380855 0.1859743 0.3528332 0.05101836
0003b0 3b b5 54 3e f4 9c b9 3d 0d f3 6d 3d 69 8b b7 3c
       0.20772259 0.090631396 0.05809312 0.022405343
0003c0 04 18 d8 3d a1 c3 11 bd a7 81 02 bc e9 f8 0d bc
       0.105514556 -0.035586957 -0.007965482 -0.008665302
0003d0 33 99 8c 3e 7b 05 89 3c 87 19 88 be 7d 4a 86 3d
       0.27460632 0.016726246 -0.26581976 0.06557176
0003e0 ee c3 26 3d 9b aa 54 be d4 57 2f 3e 3e ef 48 3d
       0.040714197 -0.20768206 0.17123348 0.049056284
0003f0 c2 06 92 3e ac be 91 bc 0e 27 6a 3e ea 2f d0 3c
       0.2852078 -0.017791115 0.2286646 0.025413472

network.2.bias f4 [128]
000000 8b 74 00 3d f1 15 6d 3d 63 c3 d9 3d 69 fb 99 3d
       0.031361144 0.057882253 0.1063297 0.07518656
000010 c4 54 8e 3d 31 7c d5 bb 46 10 0f 3e 6d d7 86 bc
       0.069497615 -0.006515049 0.13971052 -0.016460145
000020 49 69 a9 bc a6 3a 82 3d d2 b5 6b 3d d0 98 94 3d
       -0.020680087 0.063588426 0.057546444 0.07255709
000030 2b 65 28 bc 9c 37 50 3d 46 65 d9 bc 07 17 70 3b
       -0.010278027 0.050834283 -0.026537549 0.003663482
000040 06 34 81 3d 01 86 6e 3d 92 cb 48 3d 22 0f 73 3d
       0.06308751 0.058233265 0.049022265 0.059340604
000050 b4 6a 82 3d 43 94 8c 3d c2 d5 5d bc 8a f4 81 3d
       0.06368008 0.06864216 -0.013539733 0.0634547
000060 bd 19 a1 bc e2 85 61 3d 97 09 3d 3d ef 34 be 3d
       -0.019665593 0.05505932 0.046151724 0.0928744
000070 40 9e 86 3d 79 59 a7 bb 62 37 24 3d b7 de 57 3d
       0.065731525 -0.0051071015 0.04009188 0.05270263
000080 ee 74 00 bc d4 c5 86 3d 00 00 00 00 fb 79 66 3d
       -0.007840378 0.065807015 0.0 0.056268673
000090 33 0e c2 bb 88 82 91 3d 4c a3 9c bc 47 f6 02 bc
       -0.005922103 0.07104975 -0.019120835 -0.007993287
0000a0 62 84 5f bc 2a cf 66 3d 00 26 d6 3d b9 69 cf bb
       -0.013642402 0.05634991 0.10456467 -0.006329742
0000b0 ab f0 91 bc 5d 24 12 bc 04 fb e8 bc d0 02 a5 3d
       -0.017814955 -0.0089198025 -0.028440006 0.08057177
0000c0 98 1d a1 3d cc 7a 0a 3d d1 60 e0 3b c3 47 76 3d
       0.07866973 0.033808514 0.006847479 0.06012703
0000d0 e5 8e 0a bd 40 3d 33 3d 2e 35 d0 3d 00 00 00 00
       -0.03382768 0.043759584 0.10166393 0.0
0000e0 5d a6 31 3d 08 ea d9 3c 35 b1 8b 3d 76 c9 66 3d
       0.043371547 0.026600853 0.06820909 0.056344472
0000f0 fa 58 81 3d 8c 3f 83 bc 8a c0 95 3d 10 65 78 3d
       0.06315799 -0.016021512 0.073121145 0.060643256
000100 c5 f1 85 3d af 83 4c 3b 4e c5 f4 bc 00 00 00 00
       0.065402545 0.003120642 -0.029879238 0.0
000110 3d 32 5b 3d 84 d1 3e 3d 74 e3 54 3d 2e d3 ca 3d
       0.053514708 0.04658653 0.05197473 0.099035606
000120 28 12 af 3d b5 37 a2 3d a7 be 67 3d 45 4d 65 3d
       0.08548385 0.079207815 0.056578305 0.055981893
000130 66 03 af bc c9 b3 c1 3d 6b 31 65 3d 2d c6 86 3d
       -0.021363925 0.094581194 0.05595533 0.06580768
000140 9e 62 ec 3c c7 83 b0 3d ba 4a 87 3d 62 7c 04 3e
       0.028855618 0.086188845 0.0660605 0.12938073
000150 ba 34 92 bc 46 ab a6 3c 68 6a c5 3d 2c d4 ba bc
       -0.017847408 0.020345341 0.09639436 -0.02280625
000160 7c 26 71 3d 6f 14 79 3d 59 f9 8b 3d d3 8d cf 3d
       0.058874592 0.060810503 0.06834669 0.10134473
000170 c1 d5 6a bc a2 d3 5c 3d 9b 1e 13 bd 3d 67 91 3d
       -0.014333189 0.053912766 -0.03591786 0.07099769
000180 29 35 1e 3d fc d5 4f 3c f0 04 ac 3d 9c 0c 83 bc
       0.038624916 0.012685295 0.08399379 -0.015997224
000190 6e ab 6e 3d 6f 6b 71 3d 61 73 a4 bc df 23 a3 3d
       0.058268957 0.058940347 -0.020074548 0.07965826
0001a0 73 4a 4d 3d 53 b1 e3 3c 99 f9 c6 3d dc 01 80 3d
       0.05011983 0.027794516 0.09715576 0.06250355
0001b0 e4 7b 5f bc 6a 08 9e 3d ac 5e 64 3d c4 25 83 3d
       -0.013640378 0.077164486 0.05575435 0.064036876
0001c0 90 74 a7 3c 00 00 00 00 5d 3e 84 3d 41 fc 4b 3d
       0.020441324 0.0 0.06457207 0.049801115
0001d0 00 00 00 00 98 60 9d 3d 7d 96 02 bc 5d 90 62 3d
       0.0 0.076844394 -0.0079704495 0.055313457
0001e0 97 76 80 bc 4c 36 64 3d 76 6e 55 3d c9 4f c3 bc
       -0.015681548 0.055715844 0.052107297 -0.023841755
0001f0 47 1d 0a 3d f4 f8 ca bc ea e0 50 3d 4d cf 7a 3d
       0.033719327 -0.024776913 0.050995745 0.061232854

network.4.weight f4 [6, 128]
000000 60 01 69 bd d4 59 51 3e be a8 77 3e 47 cb 1b 3e
       -0.056886077 0.20444423 0.24185464 0.15214263
000010 b5 00 4e bd a8 2d dc bd ea 0d 46 3d df 3f d9 bd
       -0.050293643 -0.10750896 0.048353113 -0.106078856
000020 0f 2e 7f 3d 3b 89 9b 3d 46 16 22 3e bf e9 e6 3c
       0.062299784 0.07594534 0.15828809 0.02818763
000030 cf 5b a3 be 86 ba b6 3e b5 57 e2 bd f8 b4 55 3e
       -0.31905982 0.3568918 -0.11051885 0.20869815
000040 a6 c6 85 3e 9f 43 08 3e eb 1d 97 be bc 28 9b be
       0.2612812 0.13307045 -0.29515013 -0.30304515
000050 f3 b4 74 3e eb c7 58 3d f9 f0 39 be 1b 47 57 3e
       0.23897152 0.05292503 -0.1815833 0.21023218
000060 b2 e3 08 3e 08 08 25 be f0 24 20 be b3 54 6f be
       0.13368109 -0.16116345 -0.1563909 -0.23372154
000070 3d e8 97 3d a5 04 e2 3c 59 da f5 bd 9f d9 a8 bd
       0.07417343 0.027590105 -0.12004537 -0.08244633
000080 92 d7 52 3d f5 fe 26 3c 78 7d 7c 3e 92 ef 2e be
       0.051475115 0.010192622 0.24657238 -0.17083576
000090 36 26 2f 3e c3 bf fe bc b4 b8 1d 3d 03 7e cf bd
       0.1710442 -0.031097298 0.038506225 -0.10131457
0000a0 7a 13 23 3d 9b 39 bf bd 14 95 0d 3e dd 3c b7 bd
       0.039813496 -0.09337159 0.138264 -0.089471556
0000b0 80 1f bb be 16 14 da bd 15 9a 41 bc 5d 18 1c be
       -0.3654747 -0.10648362 -0.011816521 -0.15243669
0000c0 12 c7 a1 be 48 f0 a2 be ab 03 1b 3e a3 71 5c 3e
       -0.3159719 -0.31823945 0.15138118 0.21527724
0000d0 84 c7 87 be 98 a8 15 3e 5e f5 b0 bd 2c d2 4a 3d
       -0.26519406 0.14615095 -0.0864055 0.04951684
0000e0 63 3a fa bc 83 10 e3 bd db 9a a4 3d c5 4c 6f be
       -0.03054542 -0.11087134 0.08037349 -0.23369129
0000f0 dc 3a 47 be d4 db f7 bd 06 f2 86 3e e8 7c 5e bd
       -0.19456047 -0.12102476 0.26356524 -0.05431834
000100 ae 0b 61 be 75 fd e4 3d ec d9 78 3d 4c d8 a5 3d
       -0.21977112 0.111811556 0.0607547 0.08097896
000110 e2 7f bc 3d b3 c1 56 bd fd 98 42 bd d9 dc 7a 3e
       0.09204079 -0.05243082 -0.047509182 0.24498309
000120 b9 aa 4b 3e ba a6 30 be f9 45 be bd 07 21 9d 3e
       0.19889344 -0.17251101 -0.0929069 0.3068926
000130 bb bb 0a 3e c8 9d e9 3b 9b 82 8f be 27 8c be bd
       0.13548176 0.0071294047 -0.28029332 -0.09304076
000140 7d 8c 02 be b2 9f 47 bd 14 10 93 3d cd 99 82 3e
       -0.12748905 -0.04873628 0.07180801 0.25507966
000150 b3 bc 20 3e 72 a1 7f be d1 ae 2b 3d b8 b4 36 be
       0.15696983 -0.2496393 0.041914765 -0.17842376
000160 06 58 de 3d ca 94 5b be 21 cf c6 3c e5 35 7c bd
       0.10856633 -0.21443477 0.024268689 -0.061574835
000170 c2 89 8e 3c be fd d6 3d 6f 7b b2 bc 3a b6 6f 3d
       0.017399672 0.10497616 -0.021787373 0.058523394
000180 a7 9e a7 be 8f 11 bb 3c 15 ca c3 be d4 98 09 bd
       -0.3273823 0.022835521 -0.38240114 -0.033593014
000190 c7 eb 97 bc 2d cd d2 3d 12 86 bb 3d 52 a0 a2 3d
       -0.018545045 0.102930404 0.09156431 0.07940735
0001a0 22 51 85 be 4b 40 dd be 2f 6a 96 3e 5d 32 86 be
       -0.26038462 -0.43213114 0.29377887 -0.262103
0001b0 dd bb 10 3e 2c 53 23 3e 12 0e ef bd 75 a5 76 be
       0.14134164 0.15949696 -0.116726056 -0.24086554
0001c0 3a ec 93 be d1 cd 39 bd 8d 6c 23 bd 8d f2 3d 3e
       -0.28891164 -0.045362297 -0.039898444 0.18549557
0001d0 c3 b0 20 be 3a c9 f5 3d cf b5 52 3d 0b f7 8b be
       -0.15692429 0.120012715 0.051442917 -0.27336916
0001e0 b5 54 3e bd de 5c 5e bd f9 45 79 3c e9 e6 60 3d
       -0.0464675 -0.054287784 0.015214437 0.054907713
0001f0 1e fd bf be 42 1d 20 3d 28 32 4b 3e 27 f9 77 bc
       -0.374978 0.039090402 0.19843352 -0.015135086
000200 a1 09 01 be 0c 5c 88 ba cc 7f c1 3e f0 2f b7 3d
       -0.1260133 -0.0010403409 0.37792814 0.0894469
000210 42 de bc bc d4 70 b8 3d 0b aa 54 3e 11 1c d1 bc
       -0.0230552 0.09005895 0.20767991 -0.025526078
000220 00 81 83 3d fd 13 3d 3c d9 4f 9c bc 61 a3 63 3e
       0.06421089 0.01154041 -0.019081043 0.22230293
000230 62 05 7e 3d 74 c8 0d 3e 5c 3c 4f 3d 3a a6 81 bd
       0.062016852 0.13845998 0.050594673 -0.06330533
000240 4f 7b ae 3e ea 4d c0 be f9 ad 0c 3e 75 06 2d be
       0.34078452 -0.37559444 0.1373824 -0.16896994
000250 ac e5 bc bd 52 b0 85 be db a8 85 be cf 8d 19 bd
       -0.09223494 -0.26111084 -0.2610539 -0.037488755
000260 e2 7f dd 3d b1 b6 3f 3e f1 c6 7a 3d ab cf c6 3d
       0.10815407 0.18722035 0.06122488 0.09707578
000270 de 6c d5 be 3e 4b c2 bb 5f 34 51 3d 5b e2 30 be
       -0.41684622 -0.0059293797 0.051075336 -0.17273848
000280 26 6a 5f 3c 6a ca 90 3d c9 6e 4b be f2 ad 39 3e
       0.013636148 0.070698574 -0.1986648 0.18132761
000290 3e 7b b7 3a 98 ed 2b be 3f 91 d2 3c a4 f9 71 be
       0.0013998521 -0.16789854 0.025704024 -0.23630387
0002a0 7f f3 fd 3b 42 cd 26 3e 7c 49 fe bc 5b 4d 41 bd
       0.0077499743 0.16289237 -0.0310409 -0.047192913
0002b0 54 a8 5b 3d 0a a3 52 bc 2a 1c 86 bd 03 2c 85 be
       0.053627327 -0.012856254 -0.065483406 -0.2601014
0002c0 ff df c8 bd 31 b2 2e 3d 46 fc c6 bb 6a 48 d4 be
       -0.09808349 0.042650405 -0.006072554 -0.41461498
0002d0 4d f9 2a be a3 7e ea 3d 67 21 4e 3e e0 ab bf 3d
       -0.16696663 0.11449935 0.2012993 0.093589544
0002e0 3e 89 3c 3e de c8 ac be 2a 75 42 be 0d 69 ee 3d
       0.18411729 -0.33747 -0.18990007 0.116411306
0002f0 5c 49 af bc 4c 90 37 3e 63 0a 8c bd 3a 42 11 be
       -0.021397285 0.17926139 -0.068379186 -0.1418542
000300 36 a9 43 3e 22 fe 5c 3e 6a 90 0f bd 30 50 23 bd
       0.19107518 0.21581319 -0.035049833 -0.039871395
000310 91 69 e7 be f1 da ac be 48 9e c2 bd f1 19 bc 3e
       -0.45197728 -0.3376079 -0.09502846 0.36738542
000320 b3 48 a5 bd de a1 90 be 1c 8a 6f be 10 03 d7 bd
       -0.08070507 -0.28248495 -0.23392528 -0.10498631
000330 ff 8c 46 be 27 b0 83 be 2c 83 fb bd 45 76 22 bd
       -0.19389723 -0.2572033 -0.122808784 -0.039663572
000340 69 06 90 3d 02 38 3e 3e 20 3a fe 3c d5 d5 05 be
       0.07032473 0.18576053 0.031033576 -0.13069852
000350 50 75 95 bd 0a 8f a0 be 64 ec 01 3e 95 19 2c 3c
       -0.07297766 -0.3135913 0.12687832 0.010504146
000360 35 05 a3 3e 4f b0 6a 3e c4 c0 61 be 87 65 a6 3e
       0.3183991 0.22918819 -0.2204619 0.32499334
000370 28 44 0c be 5c d1 53 3e 09 c3 f7 3d bf b9 91 3e
       -0.13697875 0.20685333 0.12097747 0.28462026
000380 eb 86 66 3e 87 f3 31 3c 61 79 80 3e 27 de 55 bd
       0.22512405 0.010861284 0.25092605 -0.052213814
000390 84 8a 13 3e 8d 84 db 3c e8 4c 65 bd 0d 2a 11 be
       0.14408308 0.026796604 -0.055981547 -0.14176197
0003a0 99 29 22 be 20 19 3b be 0d 9c af bd 69 fd 2a be
       -0.15836181 -0.18271303 -0.08574686 -0.16698231
0003b0 80 e8 7b bd 78 e6 fd 3d c5 db 5c be 3f 3f 94 bb
       -0.061501026 0.12397474 -0.2156821 -0.004524141
0003c0 d6 1d dc bb 2d 63 f7 3d c0 80 8b be bd 08 ca bd
       -0.006717424 0.12079463 -0.27246666 -0.09864948
0003d0 3d 38 19 be 46 fc b5 bc 18 db a2 3d 82 d7 42 bd
       -0.1496286 -0.02221502 0.07951945 -0.047568806
0003e0 98 bd 72 be d9 1a 36 3e 84 b5 1a be a9 b8 75 bd
       -0.23705137 0.17783679 -0.15108305 -0.05999056
0003f0 27 18 92 3e b2 02 ef bd 9f 62 18 bd c3 45 98 bc
       0.28534052 -0.11670436 -0.037203427 -0.018587952

network.4.bias f4 [6]
000000 56 26 33 3d 1e d7 ed 3c bd 84 b1 3c f2 2e cb 3c
       0.043737732 0.02903324 0.02166974 0.024802659
000010 82 a2 62 bd 46 39 44 bd
       -0.05533076 -0.047906183
