dqn.pt (torch, 78112 bytes, 6 tensors)

network.0.weight f4 [128, 12]
00000000: 4136 553f 1326 af3d 091c 443f 9375 2cbf
00000010: 9796 65bf d61c d73e 94b8 da3e 3b6b 173f
00000020: 5a7c 023f f673 df3d 442c 693f 8e0e 6ebd
00000030: 1804 1c3f 851a 1bbd 8a3f 46be 19a9 613f
00000040: b31c a83d 09ec f6bd 87c6 063f 1e62 533e
00000050: e689 823e 3a5b 193e b20a f63e c285 12bf
00000060: b434 e93d 373f 27be 38fb 5d3f c458 f63c
00000070: 1809 be3e a701 a8bd 6343 8abe 35dd 16be
00000080: 8587 81bc a82d f13e 6e3d 743e 29f0 c1be
00000090: 7fdb 893e af59 4e3e 21a6 913d f0a8 e93b
000000a0: ed8d 993d cf40 a83e 92ee 6c3f 9be7 683f
000000b0: c9ca 273f e6f6 383f 35fc 62be 69e7 493e
000000c0: 50b0 39bf 06bb 873e 12ed e73d 613c 25be
000000d0: a375 0d3f a20f 493e 0d5e 243e 8ea7 e83d
000000e0: 7feb 853e 6a1f 0fbe 7256 743d 64e6 cf3d
000000f0: 082d 19bd c360 033d 290f 493f ebd4 d7be
00000100: 5d84 50be c37c 943e 4481 9c3e cdf3 9ebe
00000110: c52c 173f 21d8 03be 4bbc f3be 56a5 35bf
00000120: 5f5c 903e 181a 943e 664d 143e 3349 3d3f
00000130: 29b6 e9be 0d2a 673d 7f9e 19bd 4f88 3bbe
00000140: b46e f33d db79 5abe 4619 1f3f 06a7 0dbf
00000150: e4dc 103f 8b58 513d a567 de3d d515 1ebf
00000160: 8e2c 783e d942 40be 7cdb 8abc cd92 523f
00000170: 05c4 3c3d cf8b 0dbe 5f08 793e 7c03 edbe
00000180: 3fe0 d7bd e28c a5be 235b ed3e 10db 513e
00000190: 41eb a2be e366 5cbf 469c c2be 06e6 973e
000001a0: 77c1 983e 8b97 0c3f 6fa7 45be 1e5a 9e3d
000001b0: e013 a0bd 5029 c03e f7f0 8dbe a405 88be
000001c0: ab19 a7be 342e 0dbe 4dd5 383e a797 0fbc
000001d0: c8a6 df3e 1108 763f 3b1c 69bf 72f7 4abe
000001e0: 808b 87be 65c0 243e ff5e 803e 2f42 a3be
000001f0: 2263 453d 8c2d c6be a58b 8abe 41bb 903d
00000200: 77f7 233f f49e 1f3f 4289 0b3e aee2 343f
00000210: c4cb 793f 10b5 aebb 6555 8abe d09e 313f
00000220: 3160 2c3e a74b fa3e 073e e8be 77e4 233e
00000230: 3a1c 853f f40b bc3e 70b2 c9be 0d51 db3e
00000240: edf6 353d 0e59 0dbf b55c 95bf a93d 9b3d
00000250: cf1a f93e 88be 853e 1f1e a73e 0519 153e
00000260: 3a7e babe 247f f73e 8a00 bf3d 848f 9d3a
00000270: f7f0 9e3e 3b2f 51bf fefa d33e 5a14 2fbf
00000280: c0d7 7cbe ffd1 183e 94cf b6be 5397 cdbe
00000290: d57e 8b3e cb24 0e3f 0b47 51be ef80 6e3f
000002a0: f04d 1b3f ef30 063f 267e 23be 86b1 2cbe
000002b0: ee13 d53e 5fe6 82be ee83 8fbe cb10 393e
000002c0: 6929 b5bc 79ee 01bf 5552 73bd 552f 073f
000002d0: f60c cbbd f3d8 043b 6750 f73d 0672 c03d
000002e0: 5b44 553f 6257 e1ba d7a5 833e fc08 c5be
000002f0: b82c 6bbf b363 9dbd 050b babc ffda 573d
00000300: f716 6b3f a1d3 503c aada 4f3f 3d51 8bbe
00000310: f6b7 fc3c 6799 83be aecf f1bd 9d8f 1d3f
00000320: f3e8 80be ff6c bbbe 27c0 463f 60e5 c7be
00000330: be93 c9be cd10 c93e 89a1 e33e bd8a febe
00000340: 814f d43e 8d6c 42bd 113a ca3e a1ab 40bd
00000350: de38 083f e5b0 a23e 7675 fcbc 7e12 45be
00000360: e3b1 93bf 3754 4a3d 43aa d63e 3207 d73d
00000370: 0f26 5abe 3460 89be b50b 89be fe42 debd
00000380: 1124 583f 77ce 893e 3969 a13e e54c 823e
00000390: 1848 23be c222 00bf 4e75 38be 37e9 27bf
000003a0: f5d6 48be 855d debe 1605 bf3b 47fb 603d
000003b0: ecf9 443e 2cc6 50bf 1564 d0be 3ea2 8ebd
000003c0: 8163 75bd 26c4 623e 9a9e 96bf 4efc ca3d
000003d0: 98c6 113f bffa 503f fb85 083f f7dc 8c3e
000003e0: fa6f 183c f7fb 8f3e c36c af3d de22 c53c
000003f0: 5f13 243f 9034 dabe a2ca 873e b722 24bd
0.8328591 0.08552184 0.7660528 -0.67366904 -0.89682907 0.42014188 0.42718947 0.59147996
0.50970995 0.1091079 0.9108317 -0.05811935 0.60943747 -0.037867088 -0.19360176 0.8814865
0.08208599 -0.12056739 0.5264668 0.20642897 0.25495833 0.14976206 0.48055035 -0.5723535
0.113870054 -0.16332708 0.86711454 0.030071624 0.37116313 -0.0820344 -0.27004537 -0.14732821
-0.015811691 0.47105145 0.23851559 -0.3787854 0.26925275 0.20151399 0.07111765 0.0071307346
0.07497773 0.32861945 0.9255153 0.909784 0.655438 0.7225174 -0.22166522 0.19717182
-0.72534657 0.26509875 0.113245144 -0.16136314 0.55257624 0.1963487 0.16051503 0.113600835
0.26156232 -0.13976827 0.059652753 0.101513654 -0.03739646 0.0320747 0.7853876 -0.4215463
-0.20362993 0.29001436 0.30567372 -0.3104538 0.5905269 -0.12875415 -0.47604594 -0.7095541
0.28195474 0.28926158 0.1448265 0.7393982 -0.4564679 0.056436587 -0.03750467 -0.18313716
0.11886349 -0.21335547 0.6214794 -0.5533298 0.5658705 0.05110983 0.108596124 -0.61752063
0.24235746 -0.187755 -0.016950361 0.8225525 0.046085376 -0.13822864 0.243196 -0.4629172
-0.105408184 -0.32334048 0.46358594 0.20493722 -0.3182011 -0.8609449 -0.38009852 0.2966768
0.29835102 0.54918736 -0.19302152 0.07732032 -0.07816291 0.3753152 -0.27722904 -0.26566803
-0.3263677 -0.13787156 0.18050118 -0.008764184 0.43681931 0.9610606 -0.910587 -0.19820955
-0.26473618 0.16089018 0.25072476 -0.31886432 0.048190244 -0.38706625 -0.27059665 0.07066966
0.64049476 0.6235192 0.13626578 0.70658386 0.97576547 -0.005331643 -0.27018276 0.69382954
0.16833569 0.48885843 -0.45359823 0.16005121 1.0399239 0.3672787 -0.3939395 0.42835274
0.04442494 -0.5521401 -1.1668917 0.0758012 0.48653266 0.26121926 0.32640168 0.14560325
-0.36424428 0.48339188 0.09326275 0.001202092 0.31043217 -0.8171269 0.4140243 -0.6839043
-0.24691677 0.14923857 -0.35705245 -0.40154514 0.27245203 0.5552489 -0.20437257 0.9316549
0.606658 0.52418417 -0.1596609 -0.16864595 0.41616768 -0.25566384 -0.28030342 0.18072812
-0.022114472 -0.50754505 -0.05940469 0.528066 -0.099145815 0.0020270913 0.120758824 0.09396748
0.8330743 -0.001719218 0.25712463 -0.38483417 -0.9186511 -0.07685032 -0.022710333 0.052699085
0.91831917 0.012745769 0.8119303 -0.27210417 0.030849438 -0.25702974 -0.1180719 0.6154726
-0.25177726 -0.36606595 0.7763695 -0.39042187 -0.3937053 0.3927063 0.4445918 -0.49715224
0.41466907 -0.047466803 0.39497426 -0.047038678 0.5321177 0.31775585 -0.030817728 -0.19245335
-1.1538662 0.04939672 0.41926774 0.10499419 -0.2130358 -0.2683121 -0.26766744 -0.108526215
0.8443003 0.26915333 0.3152559 0.2544929 -0.1594547 -0.50053036 -0.18013498 -0.6559023
-0.1961325 -0.43430725 0.0058294637 0.054927137 0.19235963 -0.81552386 -0.40701357 -0.06964539
-0.059909347 0.22145137 -1.1767151 0.099114046 0.56943655 0.8163261 0.5332944 0.27512333
0.009304041 0.2812192 0.085656665 0.024064478 0.6409206 -0.42618227 0.26521784 -0.04007217

network.0.bias f4 [128]
00000000: 6bdd ae3d 41e0 823d f9e0 a93d e700 b93d
00000010: 687e 243e 9a59 ac3d 3b5a cb3d 1078 bf3d
00000020: 0c0f fc3d 82e9 283e 23b2 063e 4c31 8d3d
00000030: dde6 ff3d 2cdb ed3c 8c3f d03d b4aa a73c
00000040: 3008 a53d c57e ed3d b96e ee3d 0000 0000
00000050: ebd2 cc3d 5d2e f83d 2a1d 653d 20b2 d83d
00000060: 8846 8f3d 1335 003e 61a3 893d dcfe 083e
00000070: 9759 ab3d 070d c43d 0b57 023e 883a d13d
00000080: 01fe 0f3e 54df 3d3e 5466 043e 9ca7 e33d
00000090: 8898 6a3d 4941 343e 25c9 213e cf86 ea3d
000000a0: 5d30 dd3d 5c42 b13d 890b 8d3d 8c34 b03d
000000b0: 3d86 223c 73fc be3c 9517 fd3d 3aa7 e73d
000000c0: d2e8 fa3d e82b 9f3d 275f dc3d 7f02 263d
000000d0: 5774 ad3d 94fa 2a3c 9b60 dd3d 30ff d53d
000000e0: fb7e 6e3d e2f4 973d 9925 493d eb2c e73d
000000f0: dd64 263e 606b 013e d31b a93d cca0 9a3d
00000100: 6e86 563e 56b0 1b3e 8eaf 86bc 121f 8e3d
00000110: 8c45 593d 421a e53d 9774 ee3d 6927 0a3e
00000120: 7bbc f33d af85 dc3d ee72 ce3d 81b1 ca3d
00000130: 86f7 2e3e 0000 0000 d08b 803d d4b2 f63d
00000140: c61e a63d bc4c 193d 3659 193e 1c47 ef3d
00000150: 4ea4 173e 16a7 b83d 57cc e83d 0ddc 193e
00000160: 8a76 58bd f63e f83d c7e6 ad3d 0a48 cf3d
00000170: 6ab7 143e b651 f23d 9937 bf3d eb01 353d
00000180: dead 083e 3a91 e53d de6f 533d 47b6 053e
00000190: 1151 a73d 4767 d93d 42b1 bc3d f839 e43d
000001a0: dd91 973d 2526 e63d 9d60 ca3d 7689 293e
000001b0: ff75 823d df78 1e3d ab87 1f3e db12 c03d
000001c0: 5ae3 f63d 76e2 d33d 2b31 503e aa64 2b3e
000001d0: e9a5 ad3d b62a a83d 92a6 103e 3f36 1e3e
000001e0: 73ea 243e 09b8 9d3d 899c 033e 172d d13d
000001f0: c608 d43d b595 e5bc fcb9 4b3d 9691 dd3d
0.08538326 0.06390429 0.08294863 0.09033375 0.16063845 0.08415528 0.099293195 0.09349072
0.123075575 0.16495326 0.13153891 0.06894168 0.124952056 0.029035173 0.101683706 0.02046714
0.08058202 0.11596445 0.116422124 0.0 0.10001167 0.12118218 0.055936016 0.1058085
0.06995875 0.12520246 0.06720615 0.13378471 0.08366697 0.09572797 0.12728517 0.10216242
0.14061739 0.18542224 0.1292966 0.11115953 0.05727437 0.1760303 0.15799387 0.11451494
0.1080024 0.08655235 0.06886966 0.086037725 0.0099197 0.023313737 0.123580135 0.11311193
0.12251438 0.07772046 0.10760336 0.040529724 0.08469456 0.010435719 0.10809442 0.10449064
0.058226567 0.074197546 0.04910812 0.11287864 0.16249414 0.12638617 0.0825726 0.07550201
0.20949718 0.15203986 -0.016441133 0.0693952 0.05304484 0.11186649 0.116433315 0.13491596
0.11901184 0.107676856 0.10080515 0.098971374 0.1708661 0.0 0.06276667 0.120458275
0.08111338 0.037426695 0.14975438 0.11683485 0.14808771 0.09016244 0.113671 0.15025349
-0.052847423 0.12121384 0.08491283 0.10121162 0.14523092 0.118319914 0.09336776 0.044191282
0.13347575 0.112093404 0.051620357 0.13057815 0.08169759 0.10615402 0.09213497 0.11143869
0.07400868 0.11237744 0.09881709 0.16556343 0.06370162 0.03868949 0.15579097 0.093785964
0.120550826 0.10345928 0.20331256 0.16737619 0.084789105 0.082112715 0.14126042 0.1545038
0.1610506 0.077011175 0.12852682 0.10213678 0.10353236 -0.028025487 0.049737915 0.10818784

network.2.weight f4 [128, 128]
00000000: 59f6 1e3d 3622 db3d 9d5d e23d a63b 1d3e
00000010: 15da 62be 7402 133e 7142 41be cfb7 373d
00000020: 8c0f 2b3e adff 853e 134d 5a3d 0bce 40be
00000030: 97db 2bb8 417d 0c3c d19c 783c 8989 86be
00000040: e3b1 283e d9dd 853e ba29 5a3e 719f 343e
00000050: d16e c3bd c697 023d ad2e e7be 7768 0abc
00000060: 70f0 e6bd 4d99 453e a3ac e6bc ecc0 a8bd
00000070: 0386 413e 2ca9 063e d3a5 4bbe 19fc d23d
00000080: 21fa 063e ea02 973d 8c3e f13d a7d9 61be
00000090: a074 de3b 35f4 893e e46b 1b3d 599f 84be
000000a0: 1c7c 1dbc 2421 643e 7db2 d6bc fa8a 0c3e
000000b0: c575 1fbe 6987 193e f91b 853e fe99 c53d
000000c0: 34eb d93d 1934 6fba 44f5 d83d 3777 243d
000000d0: 3f6b 8d3d 8317 f9bb 94b9 093e b4a1 033d
000000e0: 6cf2 abbd 6a5c d53d b97f 463e c0d2 d53d
000000f0: 5f2d 463e f5ae ef3d d7f1 853d 00ad 063d
00000100: 81c1 42be 0201 673d 14aa 26be 96d6 cebc
00000110: 530f e53d 6645 53be 894e cbbd 9956 febd
00000120: 2323 79bd 4ac0 00be a4bb 8bbd 0f66 143d
00000130: f809 1c3e 5b9f 14be 31d6 cc3c 568a 8e3d
00000140: 5d24 4d3e 2a73 17be cc6e 073e ae6d 6d3c
00000150: 4f24 74bd bffc 513d 3005 313e 0815 5bbe
00000160: 9e37 e4bd 134f c63d 91af aabd aa36 8f3d
00000170: 56b2 76be dccc 8e3e e39e a7bd 0c76 d9bd
00000180: 5716 e43d 0060 2bbe 0d70 5f3d d2fd f63d
00000190: 949f 093e cc8c 053e ac7f 473d 10af d7bd
000001a0: 92db 993e 571f 823d 592d 613e a491 023f
000001b0: d181 b4bd f365 10bb 2e53 dc3c 35a2 3a3e
000001c0: d56e bc3d e52b eb3d de3f 14bc 8e04 703e
000001d0: 2692 c7bd d63a a43e fd16 d7bd 1709 ac3c
000001e0: 2706 43bd e92a 61be dd63 37be e639 96bd
000001f0: 3b5b 993d 7eb1 1d3e 556f 0b3e 1d6b 2ebd
00000200: d439 88bc 6ddf 67bc 99d0 7b3d 3fc5 a13d
00000210: f362 7b3e 7209 2a3b 4d2b 67be a676 8e3d
00000220: d100 40be 933b 9abe dcd1 b7bd 0267 133d
00000230: c002 ce3c b0fa eb3d 9dc4 20bd 2efc 853e
00000240: fb8b 0dbc f058 cf3c 84d4 f13c 555c cfbd
00000250: fcfc 10be 6ccd 27be 737e 88bd 9ced f5bd
00000260: d34d 933e 0143 233e 8d5b 723d db87 613d
00000270: c3ec 96bc 3652 96be a2c4 853c 7874 39be
00000280: 6d9d a3bd ded2 f73d 48ba a2bd c00b fabc
00000290: 9b3c ab3d a2c6 69be 3831 0fbe 3db2 633d
000002a0: e026 14be 782e dc3d 0365 62be 784a 54be
000002b0: b10c b3be 50fe e83d e36a 3a3c 9ccf f9bd
000002c0: 4d7c 823e 4e4d 82bd 9520 0e3e 59e1 ad3d
000002d0: fb63 dcbb 39c0 a93d b54e 6fbd b873 423e
000002e0: 39e9 15be aefa 353e 1610 9ebe efd9 09bc
000002f0: d03c 19be 1eb3 07be 22ed 0c3e 8e3a 9ebd
00000300: e020 643e fd62 083d 833b d13d 48ba 7fbc
00000310: e4bf 6e3b 1172 aabd ea52 1fbe 189d 363e
00000320: 77e5 e33b 55ba 3f3d 974d 10bd 9552 5ebd
00000330: 9a47 123b bfcd 6a3d c32f c9bd ec7a bb3d
00000340: 03b3 ce3a c84a 213e 6cf2 853d a595 843d
00000350: fcbc 3f3e 9bb3 c0bc a090 dcbe fa5b 7f3d
00000360: 1e9f 3c3d 75fd edbc eed7 ae3e 8fb8 893e
00000370: dcd1 7e3e 11c8 09bd e952 07bc 20e4 cc3d
00000380: fde1 cabd 8fc3 003d ae9d 9c3d a208 c53d
00000390: 2221 f83d cb93 2dbe 8d8e 21be da94 f0bd
000003a0: aa42 71bc 0af5 70be 6fa6 d63d b1c1 b53d
000003b0: 1f98 8b3e 76d5 0fbe cce5 e43d 307f dcbd
000003c0: 89a1 98bd 9172 17be a598 7f3d ae84 adbc
000003d0: ca8b f3bd 1d9e a2be b585 d73d efe8 53bd
000003e0: d876 69bb 6c54 a63d eb8a 1ebe f61d 08bd
000003f0: 93cf a3bd 0a16 06be 9b68 293d 1aea 763e
0.038809154 0.106998846 0.110530116 0.15354785 -0.22153504 0.14356405 -0.18873002 0.044853028
0.1670515 0.26171628 0.05329616 -0.18828599 -4.0974086e-05 0.008574785 0.015174107 -0.26276806
0.16474108 0.2614582 0.2130498 0.17638947 -0.09542621 0.031883024 -0.45152798 -0.008447758
-0.112763286 0.19296761 -0.028158491 -0.08239922 0.18898778 0.13150471 -0.19887476 0.1030199
0.13181354 0.07373603 0.11779508 -0.22055684 0.006788805 0.26944128 0.03794469 -0.25902823
-0.0096121095 0.22278267 -0.026208157 0.1372489 -0.1557227 0.14993061 0.25997904 0.09648512
0.106405646 -0.00091248896 0.10593656 0.040152755 0.06905221 -0.00760168 0.13449699 0.032136634
-0.08395848 0.10418017 0.1938466 0.10440588 0.19353245 0.11703292 0.06540268 0.03287983
-0.19019128 0.056397445 -0.16275817 -0.025248807 0.111845635 -0.20631942 -0.09927089 -0.12418861
-0.060824525 -0.12573352 -0.06822899 0.036230143 0.15238178 -0.14513914 0.025004478 0.06959979
0.20033403 -0.14790025 0.1322586 0.014491482 -0.05960494 0.051266428 0.17287135 -0.21394742
-0.11143421 0.09683051 -0.08334268 0.06992848 -0.24091467 0.2789067 -0.08184602 -0.10618219
0.111370735 -0.1673584 0.05455022 0.12060131 0.1343978 0.13041991 0.04870574 -0.105314374
0.3005033 0.06353634 0.21989955 0.5100348 -0.08813823 -0.0022033423 0.026895132 0.1822594
0.09200827 0.114829816 -0.00904843 0.23439237 -0.097446725 0.32076138 -0.105024315 0.021000428
-0.04761329 -0.21989025 -0.17909189 -0.07335262 0.07488104 0.15399739 0.13616689 -0.04258262
-0.016629137 -0.01415239 0.06147823 0.0789895 0.24549465 0.0025945571 -0.22575112 0.06956224
-0.18750311 -0.30123577 -0.089755744 0.035986908 0.025147796 0.11522424 -0.039250005 0.2616896
-0.008639331 0.025310963 0.02952028 -0.10125033 -0.14159006 -0.16386956 -0.06664743 -0.12008211
0.28770313 0.15943529 0.05916934 0.055061202 -0.018423444 -0.29359597 0.016329113 -0.18110836
-0.07989011 0.121007666 -0.079456866 -0.030523181 0.08361169 -0.22829679 -0.13983619 0.055589903
-0.14467955 0.10751051 -0.22108845 -0.20731533 -0.3497062 0.11376631 0.011378023 -0.121978015
0.2548546 -0.06362401 0.13879617 0.08490247 -0.006725786 0.08288617 -0.05842467 0.18989456
-0.14639749 0.17771408 -0.30871648 -0.008413776 -0.14964604 -0.13251922 0.13762334 -0.07726012
0.22278166 0.033297528 0.10216429 -0.015608378 0.0036430294 -0.08322538 -0.15558973 0.17833364
0.0069548446 0.04680856 -0.035230245 -0.054277975 0.002232051 0.05732512 -0.09823563 0.09154305
0.0015769902 0.15751183 0.06540379 0.06473855 0.18724436 -0.023523143 -0.4307909 0.062343575
0.046050183 -0.029051522 0.34149116 0.2689862 0.24884742 -0.033638064 -0.008259513 0.10004449
-0.09906385 0.0314365 0.076472625 0.09620787 0.121156946 -0.1695091 -0.15777035 -0.11747141
-0.014725367 -0.23530975 0.104809634 0.08874834 0.27264497 -0.14046273 0.11176643 -0.107664466
-0.074526854 -0.14789797 0.062401433 -0.02118143 -0.11891897 -0.31761256 0.105235495 -0.051735815
-0.0035623815 0.08121571 -0.1548268 -0.033231698 -0.07998576 -0.13094345 0.041359525 0.2411274

network.2.bias f4 [128]
00000000: a109 933d 3940 23bd 3a6a 7e3d 2714 c33d
00000010: edb3 ee3d eb7b 863d 0017 dabb 510c ae3d
00000020: 9424 743d 870b 603d 1a1c 4bbc 4437 a03d
00000030: c27a 933d 0190 683d fde8 c53d d6d4 a9bb
00000040: 2fc9 44bb a5bc 253c 61c3 5dbc 36eb 85bc
00000050: b526 913d dd24 1a3d 8d96 a63d b7b8 503d
00000060: 6cb6 be3d 7287 c43d 0000 0000 5e0b be3d
00000070: b525 8d3d c7f4 973d e81f 803d 196e 7e3d
00000080: 0000 0000 3fbe 3ebc fd13 40bc 4396 923d
00000090: b732 183e 9152 593d 0000 0000 5e18 733d
000000a0: 5662 a6bc fdd2 9c3d 116e 8ebc d6d1 413c
000000b0: e955 5c3d 9a11 af3d 5db2 723d a403 8c3d
000000c0: d315 3c3d 2075 903d d5a2 cc3d 024f 26bc
000000d0: 84ce 88bc 4e09 7ebb 0000 0000 ef1a 1fbc
000000e0: 8da5 d7bc 9de3 ecbc 3b26 94bc db4e 9f3d
000000f0: 8452 943d 0f68 6dbc 4be5 273d a31e 7a3d
00000100: 10c5 bb3d b543 9e3d 6ae3 c83d 3d02 713c
00000110: 735a a33d 25c2 b53d 0000 0000 776c 593d
00000120: 2ff1 533d acfd c53d 9506 813d 9fd8 ba3d
00000130: ce03 8e3c 5dbd c43d 60d6 b03d c0f4 debc
00000140: b812 9dbc fffd 8a3d 56a0 803d c06f 86bb
00000150: 844e 95bc ea94 5c3d b3df d93d 1af1 893c
00000160: 0000 0000 0000 0000 5baf 6c3d c4f3 7e3d
00000170: 3a20 873d d872 a53d b6b2 f1bb 1afa b0bc
00000180: 1dc8 d2bc a3a3 0ebd 40a5 2ebc 826e 893d
00000190: b524 723d aae7 873d 4991 753d 3fcb 923d
000001a0: 2d58 7e3d 18c8 8a3d 66c8 c1bc bf85 3a3d
000001b0: 9c53 e63d edf1 d43c f5bc 023e ff8c 9d3d
000001c0: 1a95 b83d d0b8 edbb eaf4 fb3c 58b6 953d
000001d0: b5f7 733d affc ab3d ada7 b53c 1cd6 9d3c
000001e0: cf43 553d 0000 0000 da3d 863d bbe6 7b3d
000001f0: 2141 5f3d da08 be3d d148 9e3d cc06 133d
0.07179571 -0.03985617 0.062113024 0.09525328 0.11655412 0.06566604 -0.006655574 0.08498443
0.059605196 0.054698493 -0.012396837 0.07823041 0.072011486 0.056777958 0.096635796 -0.0051828427
-0.0030027141 0.010115777 -0.0135353515 -0.016347509 0.07087461 0.03763281 0.08134184 0.050957408
0.09312138 0.09596147 0.0 0.09279512 0.06891958 0.074197344 0.06256086 0.062116716
0.0 -0.011642038 -0.011723516 0.071575664 0.14863096 0.053057257 0.0 0.05934941
-0.020310562 0.0765743 -0.017386468 0.011829814 0.053792868 0.08548279 0.05925213 0.06836632
0.04591925 0.0705359 0.09991995 -0.010150673 -0.016700037 -0.003876287 0.0 -0.009711011
-0.026324058 -0.028917128 -0.018084636 0.07778712 0.07242301 -0.0144901415 0.040990155 0.061064374
0.09168446 0.07727758 0.09809001 0.014710006 0.07976236 0.08874921 0.0 0.053081956
0.051743682 0.09667525 0.063000835 0.091233484 0.017335799 0.09606431 0.08634639 -0.027216315
-0.019173965 0.06786727 0.06280582 -0.004102677 -0.018225916 0.053852953 0.1063837 0.016838599
0.0 0.0 0.05778442 0.06224419 0.065979436 0.08078545 -0.0073760403 -0.021603633
-0.025730187 -0.034824025 -0.010659516 0.06710531 0.059117038 0.06635983 0.059953008 0.07167672
0.06209581 0.06776446 -0.023655128 0.045537706 0.11246416 0.025994265 0.12767394 0.076929085
0.09012814 -0.0072546974 0.030756433 0.0731017 0.059562404 0.08397805 0.02217468 0.019267134
0.05206662 0.0 0.06554766 0.06149934 0.05450547 0.09279032 0.077287324 0.035895154

network.4.weight f4 [6, 128]
00000000: 1551 29bd 5d80 ff3d 483a d23c a2cf e0bd
00000010: 2ea7 5c3e fb77 863e b494 1a3f 04fe cd3d
00000020: fc74 70be 5be6 1bbe 7eef 90be 6b0f 82be
00000030: 0ba3 8a3d 20ce e6bd 110e babb 416b b73d
00000040: a70e b63d bf85 56be 9204 023c febe 043e
00000050: 60c2 f9bc eeb3 d8bc d754 2cbd 45f0 afbd
00000060: 0a69 29be 8ff9 6d3e 2074 15bd 3062 e83e
00000070: 6dca 45be cb62 753b 1664 a33c 2295 34bd
00000080: db71 ed3a 9b62 c23d ac20 003c ab13 1bbe
00000090: 7fac fc3e 253a c63d 08fc 19be 0af6 81bd
000000a0: c46b d9bd a8ce 50be 3838 28bd 320b 24bf
000000b0: 4cd6 623e 5bc3 37be d868 efbd fd06 b1be
000000c0: 9fd7 8a3e b17f b43e ebc5 19bd ce58 8cbe
000000d0: 44d8 013d e6b5 94bd 00bb 0a3e 4dc0 e23e
000000e0: 4223 583e 793b e8bd 6b62 2a3e a18e e93d
000000f0: 7b58 d7bb 86bf 233e a419 8dbe b4ec 463d
00000100: 4c87 e7bd e9e5 2cbe 89f9 92be 72c1 fcbd
00000110: d9ee 313e 9fbe a1be 0e14 0d3e b016 203e
00000120: 7482 463e 251e 4dbe 8958 a4bd 48e1 ce3e
00000130: 77c7 a9be 7755 fabd 350d 13bd 0f1c 783d
00000140: c0c3 153c 2c64 233e 6fa5 c9bd 06a3 64be
00000150: bb6c a0bd 3c73 9bbc 1aa6 433e c290 0e3e
00000160: a6ad 70bc d1da b53c 11e6 3abe 41d7 8e3e
00000170: e801 85be 7a1b 553e 2053 773c f2d9 ae3d
00000180: cd5c d7bd 7290 6cbc 7647 5abe 80c2 713e
00000190: 234a e5bd 7d65 73be 3a6c b03e b1e0 c8bd
000001a0: cc2b c43d 7cc8 163e 4e25 c8bd 3230 2fbe
000001b0: 4b33 23be 4463 c5be d6b2 523e 4de2 f63d
000001c0: 46b7 ebbc 07ea 683e ebb2 71be 6ad7 063e
000001d0: 0a4b 393e 5d15 fbbd 0a19 6dbd aeab d23c
000001e0: af14 b9be 056f ac3d 0cb2 8f3e 451c dc3c
000001f0: 896b 8abe 6130 a8bd 4128 b6be 822f 823e
00000200: 120f f5bc e919 c33b cfbb a3bb 3ddd 8fbe
00000210: 6663 90be ebd6 47bd 424f 683e a384 cf3d
00000220: cb0b c93d 4967 f1be 60e0 d7bd dff9 73bd
00000230: a164 44bc 3d24 853e 398d bd3d 29c1 6e3d
00000240: 382a a03d 03d7 90be 92c8 4d3e 39f7 56ba
00000250: f49f 5ebe b824 883c e0d3 3cbe 9a84 a3bd
00000260: 27b6 50be a9df a1bd 826a 453e 36fd 033e
00000270: 9aff 313e 782e e0bd 2bbe a5be 07c1 c4be
00000280: 31aa e33c ba55 9cbd 9e25 853e caca 553e
00000290: b455 d93d 3064 4a3d fe6b d63d 9398 94bc
000002a0: adc7 41be 962c ecbe 69c6 8ebd e496 243e
000002b0: 932b 70be 2b02 5e3e 7cf1 19be 9ea7 83be
000002c0: 8661 63bd f55c 133e 0a5a 47bd 73ce 95bd
000002d0: f477 093e 0313 1dbe a304 933b eece a7bc
000002e0: c2d1 11be f738 de3c 0f2a 24be 4909 8ebe
000002f0: f35d 7a3d 55bb e83d 9ab2 cfbd f6fc 913d
00000300: 9860 0cbe b863 673e c1d5 51be dc37 10bf
00000310: 2943 253e 50e7 8d3d e183 953c 0439 9ebe
00000320: c569 893e 3ba8 403e 799a bcbe ca24 733e
00000330: 7fbc 4b3e db48 8c3e e409 7b3e e5f0 a43d
00000340: 1c1f c53d a122 903c 7d91 58bd ca08 3e3e
00000350: f93e b7bd 1572 5bbd 82c6 30be 9e9e 5c3e
00000360: fba9 1ebd 8b93 82bd 4d58 28be 39ea a13d
00000370: ae21 fb3d 2aec 323e 6b7c b4bc 59fd e6bb
00000380: a5ac ad3d da31 39be 6231 b13d 4a34 d8bd
00000390: 8149 243e 0401 d7bd 5ab2 44be 1c6e c4bd
000003a0: 9c4c aabe cb01 46be a5df 9cbb e024 e2bc
000003b0: d9f5 bd3e 17ad 743e 33ef e73d 762e 713e
000003c0: 2297 a63e 84d6 00bd 346e 7cbe 7518 50be
000003d0: a6cb 12be 966b b63e 56e1 d6bd 5549 89be
000003e0: d44c 893c c9cb dcbc fdf9 81be 974d b33c
000003f0: 2b86 7ebd e22b 263e fbac 853e 13ff dabc
-0.04133709 0.12475655 0.025662556 -0.10977103 0.21548149 0.26263413 0.6038315 0.10058215
-0.23482126 -0.15224592 -0.28307718 -0.25402388 0.06769379 -0.11269784 -0.0056779464 0.08956004
0.088895135 -0.20949458 0.00793566 0.12963483 -0.030488193 -0.026452985 -0.042073097 -0.0859075
-0.16543975 0.2323973 -0.0364877 0.4538741 -0.193155 0.0037442918 0.019945186 -0.044087537
0.0018115597 0.09491464 0.00782029 -0.15144221 0.49350354 0.09679059 -0.15037549 -0.06345756
-0.10616258 -0.20391333 -0.04106924 -0.6407958 0.2215206 -0.17945616 -0.11689919 -0.34575644
0.2711763 0.3525367 -0.037542265 -0.27411503 0.031700388 -0.07261257 0.13547897 0.4428734
0.211072 -0.113394685 0.16639106 0.114041574 -0.006571827 0.15991029 -0.27558625 0.04856558
-0.11305103 -0.16884579 -0.28706005 -0.12341584 0.1737627 -0.31590745 0.13777182 0.15633655
0.19385701 -0.2003103 -0.08024699 0.4040625 -0.33159992 -0.122233324 -0.035901267 0.060573634
0.009140909 0.15956181 -0.09846007 -0.22327814 -0.07833239 -0.018975846 0.19106331 0.13922408
-0.0146898385 0.022199066 -0.18251826 0.278986 -0.25978017 0.20811263 0.015095502 0.085376635
-0.10515747 -0.014438735 -0.21316323 0.23609352 -0.11195781 -0.23769183 0.3445757 -0.098084815
0.09578666 0.14724916 -0.0977274 -0.17108229 -0.15937535 -0.38552296 0.20576033 0.12054882
-0.028773915 0.22745524 -0.23603408 0.13168111 0.18095031 -0.12259934 -0.057885207 0.025716629
-0.36148593 0.08419613 0.28065526 0.026868949 -0.27035168 -0.082123525 -0.35577586 0.2542687
-0.029914413 0.0059540165 -0.0049967538 -0.2809848 -0.28200835 -0.048788946 0.22686484 0.1013272
0.098167025 -0.47149113 -0.10540843 -0.059564468 -0.011986882 0.2600421 0.09255452 0.05828968
0.078205526 -0.2828904 0.20096043 -0.0008200291 -0.21740705 0.016619071 -0.18440199 -0.07984276
-0.20381986 -0.07903988 0.19278911 0.12889561 0.1738266 -0.10946363 -0.3237165 -0.38428518
0.027791115 -0.076335385 0.26005262 0.20878139 0.1061205 0.049411952 0.104698166 -0.01813916
-0.18923827 -0.46127766 -0.069714375 0.16073185 -0.23454122 0.21680515 -0.15033525 -0.2571382
-0.055512927 0.14390929 -0.048669852 -0.07314768 0.13424665 -0.15339284 0.0044866367 -0.020484414
-0.14240173 0.027126772 -0.16031669 -0.2774146 0.061124753 0.11363856 -0.101414874 0.071283266
-0.13708723 0.22596633 -0.20491697 -0.56335235 0.16138901 0.06928885 0.018251361 -0.30902874
0.26838508 0.18814175 -0.36836603 0.23744503 0.19896124 0.27399334 0.24515492 0.080537595
0.09625074 0.017594637 -0.052873123 0.1855804 -0.08947558 -0.053575594 -0.17263225 0.21544883
-0.038736325 -0.06375798 -0.16439934 0.079060026 0.12262283 0.17472902 -0.022031983 -0.0070492444
0.08480195 -0.18085423 0.08651997 -0.10556848 0.16043665 -0.104982406 -0.1920866 -0.09591314
-0.33261573 -0.19336621 -0.0047874027 -0.027605474 0.3710163 0.23894154 0.113249205 0.2355288
0.3253718 -0.031454578 -0.24651414 -0.2032183 -0.14335498 0.35628957 -0.10492198 -0.2681376
0.016760267 -0.026952641 -0.25386038 0.021887584 -0.06213967 0.16227677 0.26108536 -0.026732957

network.4.bias f4 [6]
00000000: b37a c13c f086 94bc 0e46 3a3c 1b77 d73b
00000010: f4b6 59bd 24a8 3cbd
0.023618078 -0.01813075 0.011369241 0.006575478 -0.053152993 -0.04605879
