dqn.pt (torch, 77600 bytes, 6 tensors)

network.0.weight f4 [128, 11]
000000 e1 54 08 3f 8b 1c ed 3d b7 10 8d 3e ae 45 ab be
       0.53254515 0.1157771 0.27551815 -0.334516
000010 cf 2d cc be c5 b4 99 be 8d 7e 15 3f c9 c6 74 be
       -0.398787 -0.3002073 0.58396226 -0.23903956
000020 29 e0 39 3e 46 ad 64 bd bb 34 97 bd 33 c9 ae 3e
       0.18151917 -0.05582931 -0.073831044 0.34137878
000030 a9 bb 53 be 1a 58 61 bf f5 fd 6a bf d9 c5 e8 3e
       -0.20677055 -0.8802506 -0.9179376 0.45463446
000040 3c 18 b7 3e 38 34 f7 3e d4 bb 2a 3e 3b 49 8a 3e
       0.35760677 0.48282027 0.16673213 0.27008995
000050 be c8 d0 be 9e 96 7f 3f 7c 2d 0c bf b0 a0 47 3e
       -0.40778154 0.998392 -0.54756904 0.19494891
000060 3f 80 bd 3e be 6d ae 3e fb a6 37 bd dd 58 95 bd
       0.37011907 0.34068102 -0.04483698 -0.0729234
000070 f5 9c 09 3f 80 d1 ea 3e 5d a4 8b be b1 4f e2 3d
       0.5375512 0.4586296 -0.27273837 0.11050356
000080 b4 7a 14 3f 8e ef 8a be 47 1f 26 3f 9c 72 68 bd
       0.5799973 -0.2713589 0.64891475 -0.056749925
000090 98 b2 53 3f 44 a1 c7 bd a0 59 12 3f 4a 3e 47 3d
       0.8269439 -0.09747556 0.57168007 0.048643388
0000a0 0f 20 a6 3e 91 30 b8 be 6a 85 9e be 0e 3a 5b be
       0.32446334 -0.35974553 -0.30961162 -0.21408865
0000b0 54 ff 9e 3e 44 e0 29 bf 25 b1 c5 be 0b ea 8a 3e
       0.31054175 -0.6635783 -0.38611713 0.27131686
0000c0 16 9a 7e 3e f5 23 76 3f ca 6c 07 3e e3 e6 d5 3e
       0.24863467 0.96148616 0.13225093 0.41777715
0000d0 10 14 22 3d fd 02 e2 3e 64 15 b8 be 0d 5c 1e 3f
       0.039569914 0.44142905 -0.3595382 0.6185921
0000e0 43 68 05 bf c0 73 4c 3d 1b ae 53 3d dc d4 c0 3e
       -0.52112216 0.049915075 0.05167971 0.376624
0000f0 82 08 d7 3e f2 f9 cf be 19 56 f6 be df 86 61 3e
       0.41998678 -0.4062038 -0.48112562 0.22024105
000100 f5 da 35 bf 28 62 d4 3c 34 5b 2e be f8 4a 98 3d
       -0.71037227 0.02592571 -0.17026979 0.07436174
000110 e4 e6 29 bf f9 64 e0 bc 52 38 10 3f 63 d4 43 be
       -0.66367936 -0.027391898 0.5633594 -0.19123988
000120 60 17 66 be 27 64 2c 3f 9d 37 8f bd 53 b7 27 3e
       -0.22469854 0.6734032 -0.06993029 0.16378526
000130 a8 22 ee 3e 4a a3 c3 be 83 ca 7e 3e 97 36 6b be
       0.46510816 -0.38210517 0.2488194 -0.22970043
000140 25 7b a8 3e 26 62 ee bd 4e e0 d4 3d a8 11 f6 3e
       0.32906452 -0.11639814 0.10394345 0.48060346
000150 8c 7c c2 3e af 3f b4 3e 55 11 da be c8 11 04 be
       0.37985647 0.35204837 -0.42591348 -0.12897408
000160 5e 59 6e bf 8b 62 10 be de 5f 42 3f 78 e0 05 3f
       -0.93105114 -0.14100091 0.7592753 0.5229564
000170 f6 fa 9b bd 17 7d 1f 3e e5 9d b7 be 1c 4b 83 3e
       -0.076162264 0.15575062 -0.3586265 0.2564324
000180 f3 59 dc 3e b6 ed b3 be 1a 1d 2f be e6 7a a9 3e
       0.43037376 -0.35142297 -0.17100945 0.33101577
000190 7b d9 00 bf fa 04 02 be 6f 19 12 bf 66 2e aa be
       -0.5033185 -0.12697211 -0.5707006 -0.33238524
0001a0 62 03 59 be d3 94 89 3e 79 c0 07 3f f8 ae 74 3e
       -0.21192697 0.26871356 0.53028065 0.2389487
0001b0 27 7e 94 3e a7 3c 76 be e2 bd 8b be ca c8 94 be
       0.29002497 -0.24046575 -0.27293307 -0.2905944
0001c0 1a 8d 15 be d7 37 e7 3e 15 4a 71 3e 28 bd c3 bc
       -0.14604607 0.4515979 0.23563416 -0.023893908
0001d0 0c 51 07 3e 14 62 49 bf 20 8c 44 bf e7 f7 08 bf
       0.1321451 -0.7866528 -0.76776314 -0.5350327
0001e0 49 89 a6 be 01 51 4b bd 1e 36 fe 3e df fb 1e bf
       -0.32526615 -0.0496378 0.49650663 -0.62103075
0001f0 98 f6 85 be bc 95 d4 3e e5 35 1e bf 9d ea de be
       -0.261647 0.41520488 -0.61800987 -0.4353837
000200 5c 62 d2 3c 44 73 2f be 58 7e 14 be ce 1e a3 be
       0.025681667 -0.17133814 -0.14501321 -0.3185944
000210 ba 4b b7 3e e1 b4 4b 3f 13 e1 12 3e 9f 64 73 be
       0.35799962 0.79572874 0.14343672 -0.23768853
000220 19 f8 3f 3e c2 ad b5 3e d5 50 a8 bb 4d 69 84 3e
       0.18746985 0.3548413 -0.005136589 0.25861588
000230 9b fc 59 bf ef 29 2f 3d e0 7e d7 be 0d 79 fd 3d
       -0.8515107 0.0427646 -0.42088985 0.12376604
000240 8a e9 da bd 8f 41 88 be d4 b0 82 bf 75 5e ac 3e
       -0.10689075 -0.26612517 -1.0210214 0.33665815
000250 cd e4 52 3f a1 4d 74 be 19 d4 f9 3d 88 71 53 3f
       0.8238037 -0.23857738 0.121986575 0.8259511
000260 c2 3d f0 bd f4 92 23 bf e6 ba 05 3f c3 ca 9d 3e
       -0.11730529 -0.6389611 0.5223831 0.30818757
000270 d2 21 e0 3d c2 ad 2f bd d9 4d 76 3f 75 e2 8a be
       0.10943951 -0.042890318 0.96212536 -0.27125898
000280 56 97 5c 3c d4 0a 48 be 96 fa b9 3e 06 0e 70 be
       0.013463816 -0.1953538 0.36323994 -0.2344285
000290 35 6f 0e 3f 5e 05 1c be cb f0 29 bf 1d 6f 27 bf
       0.5563844 -0.15236422 -0.66383046 -0.6540392
0002a0 5e f6 1c bf 5a 8b 01 bf 53 5d 5c bd d7 85 28 3f
       -0.61313426 -0.5060326 -0.05379994 0.65829223
0002b0 ee e5 36 bf cf ef 47 bf 4c b5 2b 3e 84 52 18 3f
       -0.71444595 -0.78100294 0.16768378 0.5950091
0002c0 9f 4d 2a 3e 2b 06 52 bf 40 c2 b4 3e 29 85 75 be
       0.16631173 -0.8204066 0.3530445 -0.23976578
0002d0 5a 1c 24 3c 4a 98 74 bd d8 9a 4b be 89 ff 9b bd
       0.010016525 -0.059715547 -0.19883287 -0.07617099
0002e0 7c eb ab 3e 9d 86 0a 3f d6 35 71 bc 4c 99 0c 3e
       0.33578098 0.54111654 -0.014722308 0.13730353
0002f0 0b e1 ce be 74 43 e5 be a0 04 46 be 3c 73 23 bf
       -0.4040607 -0.44778025 -0.19337702 -0.6384771
000300 92 a6 0f bf 05 7b 9d 3d 0c 7e 61 3f 0b f3 85 3e
       -0.5611354 0.0768948 0.8808296 0.2616199
000310 64 6c 5f be a7 50 49 be 56 b9 e5 be bb f6 43 3f
       -0.21818691 -0.19659673 -0.44867963 0.76548356
000320 03 f0 02 bf 0f d7 55 3f 02 b1 22 bf cb cc 25 bf
       -0.5114748 0.8353128 -0.6355134 -0.64765614
000330 d8 c9 0d bd 3b e5 5a 3e 8d 93 09 3e 33 06 42 3f
       -0.03461632 0.21376507 0.13435192 0.7579071
000340 d6 b0 bb 3d cf fe 1c bf 57 60 cb bd b6 c8 bb 3e
       0.09164588 -0.6132631 -0.09930485 0.36676568
000350 20 e1 45 bf 90 31 95 be a0 fb 86 3e 1a 48 bd be
       -0.7729664 -0.29139376 0.2636385 -0.36969072
000360 d6 a9 0c 3e 88 dc eb bd 26 fd 68 bf 78 0b bf 3e
       0.13736662 -0.115166724 -0.91011274 0.37313437
000370 53 a5 21 3e 56 d3 3f bf 03 1a 24 3f f6 34 43 3f
       0.15785722 -0.7493185 0.6410219 0.76252687
000380 a7 6e e8 be 99 e8 2e be 2b 3e 7c 3e 6d 49 aa 3e
       -0.4539692 -0.17080916 0.2463309 0.33259144
000390 93 f2 fe 3d d7 94 bd be ba 08 44 bf 18 4b d6 3e
       0.12448611 -0.37027618 -0.76575816 0.41854167
0003a0 80 9a 4b 3f 51 7e 05 bf f7 d5 51 bf 7d 41 fe 3d
       0.79532623 -0.5214587 -0.8196711 0.12414835
0003b0 1a 42 98 3e e8 70 20 3e c1 47 02 be 7c e9 bd be
       0.2973793 0.1566807 -0.12722684 -0.37092197
0003c0 ff 42 de bd ad 31 55 3f ed 71 ce be 7f 00 ce 3d
       -0.10852622 0.83278924 -0.40321293 0.10058688
0003d0 b6 e7 01 3d 95 0d 1f bf 63 60 24 3f 89 97 c2 be
       0.031715117 -0.621301 0.64209574 -0.38006237
0003e0 d3 50 91 3f eb 9d a9 be b8 1f 98 3e 00 57 38 3e
       1.135279 -0.33128294 0.297117 0.18001938
0003f0 87 5e 6b be 15 5b d2 bd 77 3f 60 3f 6d 39 55 3f
       -0.22985278 -0.10271279 0.8759684 0.8329075

network.0.bias f4 [128]
000000 99 80 cc 3d 1c 7e ad 3d f1 98 fe 3d bc a3 d7 3d
       0.099854656 0.08471319 0.12431515 0.10529277
000010 e3 1b ab 3d db fc 48 3d ac 00 e2 3d 2a d6 b7 3d
       0.08354928 0.049069267 0.110352844 0.089763954
000020 1c 41 27 3e ca 0d ee 3d 12 0f 1c 3d 91 8d 05 3e
       0.16333431 0.11623724 0.03810031 0.13042285
000030 c8 7c c3 3d 1f 74 ed 3c d4 6d a3 3d 00 00 00 00
       0.095452845 0.028986035 0.079799324 0.0
000040 14 b4 c5 3d d0 b2 e4 3d bb 71 dc 3d 54 52 28 3e
       0.09653488 0.11166918 0.1076388 0.16437656
000050 11 b5 e6 3d c6 89 10 3e fd 81 c9 3d 39 ad e4 3d
       0.112650044 0.14115056 0.098392464 0.11165852
000060 60 a0 0e 3e 1a 39 b5 3d 0f 86 c4 3d b6 23 ed 3d
       0.13928366 0.08848782 0.09595882 0.11579077
000070 3e dc 1f 3e 92 dc 38 bc db 19 82 3d ba ad a4 3d
       0.1561136 -0.011283057 0.06352588 0.08040948
000080 be 23 d7 3d 8d ec c7 3d 7b dd a6 3d 4b 67 f4 3d
       0.10504864 0.09761915 0.08147713 0.11933764
000090 e4 ef c5 3d 19 ea f9 3d a0 83 94 3d ce 8b d0 bb
       0.09664896 0.12202854 0.07251668 -0.0063643223
0000a0 80 84 ee 3d f7 7f e9 3d 0f c8 d3 3d d5 fc 1c 3e
       0.11646366 0.114013605 0.103408925 0.15330823
0000b0 52 8c 8f 3d be 1f 9f 3d 7b 11 bc 3d f8 63 25 3e
       0.07009186 0.07769726 0.09183022 0.16151416
0000c0 92 eb e8 3d ba f1 b4 3d cd df bb 3d b2 1b cd 3d
       0.113730565 0.08835168 0.09173546 0.10015048
0000d0 a7 3a c3 bb 08 1a 33 3d 7b 40 cb 3d 46 41 b0 3d
       -0.0059579196 0.043725997 0.09924408 0.086062
0000e0 5f 55 f4 3d 88 5e 02 3e 6a ad fe 3d 78 06 f0 3d
       0.11930346 0.12731373 0.1243542 0.11719984
0000f0 ac de de 3d 90 d1 e1 3d 62 44 a1 3d 4d 3c e0 3d
       0.10882315 0.11026299 0.07874371 0.109490015
000100 f5 02 9b 3c 6a 68 0c 3e 64 9a 3f 3d f6 23 72 3d
       0.018922308 0.13711706 0.046778098 0.059116326
000110 da c9 ce 3c 12 26 f7 3d ae bd cc 3d 10 8f 2a 3d
       0.025242735 0.12067808 0.09997116 0.04164034
000120 99 c0 4b 3d 41 d5 a7 3d 08 b1 0c 3e d8 22 eb 3d
       0.049744222 0.08194972 0.13739407 0.11481255
000130 92 60 4e 3d c2 b2 00 3e a1 1a fd 3d 12 ab e4 3d
       0.050385065 0.1256819 0.12358595 0.111654416
000140 21 54 b4 3d 83 a3 b6 3d e1 1d 06 3e 13 7c b0 3d
       0.08805109 0.08917906 0.13097335 0.08617415
000150 75 37 13 3e 60 23 c0 3d ab 60 b7 3b a9 a9 a8 3c
       0.14376624 0.09381747 0.0055962405 0.020588713
000160 84 b2 9e 3b 00 00 00 00 72 81 95 3d 37 ac a6 3d
       0.004843058 0.0 0.0730008 0.08138316
000170 1e 33 aa 3d d0 4a e2 3d 3b 8b 9e 3d 8f 32 c5 3d
       0.08310531 0.110494256 0.077414 0.09628784
000180 a4 5f e6 3d c3 6e 30 3e 06 25 c4 3d 34 30 bc 3d
       0.11248711 0.17229752 0.09577374 0.091888815
000190 4f b7 82 3d b9 a0 54 3e de 85 cf 3d b6 d9 ff 3d
       0.063826196 0.20764436 0.10132955 0.12492697
0001a0 a7 e4 d4 3d 00 22 f6 3d 85 61 8d 3d 94 7b 13 3e
       0.103951745 0.12018204 0.06903366 0.1440261
0001b0 06 90 e4 3d f6 9e df 3d e4 6a ce 3d 57 26 09 3e
       0.11160283 0.10918991 0.100789815 0.13393532
0001c0 18 a4 f8 3d 31 0d 9e 3d cf f2 fc 3c 91 a5 f9 3d
       0.121406734 0.0771736 0.030877499 0.121897824
0001d0 a3 b8 4a 3d 76 7b cf 3d 78 53 cd 3d 3a d8 dc 3d
       0.04949249 0.1013097 0.10025686 0.107834294
0001e0 10 8b 0c 3e a2 ce c6 3d 39 38 0e 3e bc c3 b6 3d
       0.13724923 0.09707381 0.13888635 0.08924052
0001f0 d4 06 67 3d 08 7d ec 3d b9 de e5 3d 0e 77 c8 3d
       0.056402996 0.11547285 0.112241216 0.09788333

network.2.weight f4 [128, 128]
000000 0d 4e 19 3e 9c ea 6c 3d 06 5f 00 bd 29 3e 1b 3e
       0.1497118 0.05784093 -0.03134062 0.15160431
000010 ef de 27 3e 65 2d 49 bd 0e 0b 94 3d 3b 97 a5 bd
       0.16393636 -0.049115557 0.07228671 -0.080854855
000020 2a de 79 3d 5c 8c 4a be 25 c5 36 be 3d f0 92 3d
       0.061002888 -0.19780105 -0.17848642 0.07174728
000030 6f c1 e4 3d 52 a0 44 be 5f ad bf 3d ac 90 1a 3e
       0.11169707 -0.19201782 0.0935924 0.1509425
000040 f2 8d 20 3e 92 3a ec bd 3d 79 19 be 91 8a 93 bd
       0.15679148 -0.11534609 -0.14987655 -0.07204164
000050 89 37 ca 3d 57 b1 34 be 9c 59 99 3d 99 6f 9b 3c
       0.09873874 -0.17645775 0.07487795 0.018974112
000060 97 11 6d 3e 09 b3 af 3d 3e 49 8a 3d e1 a0 81 3e
       0.23151241 0.0857907 0.06752251 0.25318053
000070 91 54 a8 be be e8 5a 3e 49 6f 32 3e ee 65 dc bd
       -0.3287702 0.21377847 0.17425264 -0.10761629
000080 29 e8 88 be 30 f1 85 3d 41 06 e3 3d bb 45 1d 3e
       -0.26739624 0.065401435 0.11085177 0.15358631
000090 ba 2d 44 bd 58 11 24 bd b2 96 58 3e 04 10 6e be
       -0.04789517 -0.040055603 0.21151236 -0.23248297
0000a0 5e 12 3a 3e 78 11 e0 3d da 17 91 3e dd 49 d3 bd
       0.18171069 0.10940832 0.2833851 -0.10316823
0000b0 86 27 20 3e b2 33 1d be bb 33 32 3e 9b b9 6e bd
       0.15640077 -0.15351751 0.17402546 -0.058282476
0000c0 23 c5 84 3c f7 63 4f bc 20 ae 6f 3d 9f 6e 93 3d
       0.016207283 -0.012658111 0.058515668 0.07198834
0000d0 91 38 60 3e bc e1 95 3e 4c c0 02 be 68 ee 91 3c
       0.21896578 0.29273784 -0.12768668 0.017813876
0000e0 29 7b 7e be 1f 2d 1c bd 7f fd b8 3d 7a 07 a5 3d
       -0.2485167 -0.03812897 0.090327255 0.08058067
0000f0 bd 5f d5 bd f9 f3 cf bd fc 4a 21 3d c4 a5 35 3d
       -0.10418651 -0.10153956 0.03937815 0.04434754
000100 ee 82 ab 3e 6f 87 c5 bd 6f cd 38 bd a0 1b 8f 3e
       0.3349833 -0.096449725 -0.04511779 0.27950764
000110 c7 f3 c9 bd 57 58 b1 bd 64 b4 d7 bc 08 48 83 bd
       -0.0986095 -0.086594276 -0.026331134 -0.06410223
000120 c9 ca 2c 3e 08 bd 75 bd 12 0c a7 3d 27 fb 35 3e
       0.16874231 -0.059994727 0.08156599 0.17771588
000130 e5 a9 80 3e b1 3c e5 3d 6c 0e 0d be 7d 1d 20 bd
       0.2512962 0.111932166 -0.13775033 -0.039090622
000140 95 4f ee 3d 4e 43 fd 3d 19 3c 27 bd dc f9 15 3d
       0.11636273 0.12366353 -0.040828798 0.036615238
000150 39 ae 2a 3e 64 73 33 bd 18 07 32 be e6 a0 43 be
       0.16668023 -0.043811217 -0.17385519 -0.19104347
000160 a3 19 11 be 93 78 13 be b4 53 25 be a8 d2 1e bd
       -0.14169936 -0.14401464 -0.16145211 -0.038775116
000170 a5 df f3 bb dd e0 83 be f1 b5 8f 3e 36 d6 b6 3d
       -0.007442432 -0.25757495 0.28068498 0.08927576
000180 48 ee 5c 3d 79 b9 82 be 04 b5 30 be 5e c4 32 b6
       0.05393818 -0.2553213 -0.17256552 -2.6638368e-06
000190 84 19 33 3e f4 cf db bd b7 be 60 3d 61 2a c0 bd
       0.17490202 -0.10733023 0.05486938 -0.09383083
0001a0 d4 c1 91 3d 9f de 29 3d 30 30 00 3e 41 13 81 be
       0.07117048 0.041472074 0.12518382 -0.25210002
0001b0 9f 43 b9 bd 27 1b 54 bc 7a b2 fb 3d 26 29 8e 3d
       -0.09046101 -0.012945927 0.12289901 0.06941442
0001c0 d4 e9 01 3b bb 2d 13 be 79 a3 ab 3d 06 01 4e 3e
       0.001982321 -0.14372914 0.08380789 0.20117578
0001d0 e5 46 72 3e 4d ff 12 bd 48 8f 43 3d 68 6b c3 3d
       0.23659857 -0.035888005 0.047744066 0.095419705
0001e0 59 8f 4e bd 5b ba 50 3e 01 a5 ca 3c 1b 2d c3 bd
       -0.050429676 0.20383589 0.024736883 -0.095300876
0001f0 42 97 1f bd 9e f2 ef bd f9 3a 17 be 93 0e 73 3e
       -0.03896261 -0.117161974 -0.1476859 0.23736028
000200 79 dc a9 3d d9 8a 98 3d 3a 0c b3 3d 68 7f e5 bd
       0.08294005 0.07448358 0.087425664 -0.112059414
000210 48 ff 6c 3e 3c 7e 38 bc 1a c6 81 3e 87 03 a7 3c
       0.23144257 -0.011260565 0.25346452 0.020387424
000220 c8 3c 55 bd b5 4b 20 bb 09 c2 67 3b 93 df 88 3e
       -0.05205992 -0.0024459187 0.0035363457 0.26733074
000230 0e 61 3a 3e 67 b0 aa 3e e2 31 2e bd ad 57 bf 3d
       0.18201086 0.3333771 -0.04252804 0.09342895
000240 4c 61 42 3e ae 7a 41 3e 31 da ce 39 d2 d3 15 3b
       0.18982428 0.18894455 0.00039453947 0.002286185
000250 f7 41 a3 be d7 f4 b2 3e 8b 0e 4b be 05 f3 74 3d
       -0.31886265 0.34952423 -0.19829766 0.059802074
000260 ae 2c 34 3d 55 b5 5d bd aa bb c5 bd 3c 84 28 3e
       0.043987922 -0.05412801 -0.09654935 0.16456693
000270 d1 34 79 3d d8 ea 64 bc e5 5c c0 3d 2f fc 2d bd
       0.060841385 -0.013972007 0.09392718 -0.04247683
000280 1b 82 f6 3d 45 9a 1d 3e 2d 32 3e bd 2e 53 9e 3d
       0.120365344 0.1539088 -0.04643457 0.07730709
000290 0b 6f 8e 3d 55 a7 dc bc 54 d2 26 bd 25 ff 3c 3e
       0.069547735 -0.026935259 -0.04072793 0.18456705
0002a0 4b 8e 7d be 97 28 aa 3e ac 0e fb 3d 56 fc 88 3d
       -0.24761312 0.33234093 0.12258658 0.06688754
0002b0 4d 88 73 3d 41 20 b4 3d af 03 80 3e 9d 64 98 3d
       0.05945616 0.087952144 0.2500281 0.074410655
0002c0 94 4d 41 3d 52 57 c9 bd 40 f7 05 be fa e3 c9 bd
       0.047193125 -0.09831108 -0.130826 -0.09857936
0002d0 3e ae c2 3c c5 37 09 3d a9 6e 3c 3e b6 91 2d be
       0.023764726 0.03350045 0.18401588 -0.16950116
0002e0 66 06 0a bd 21 fe 03 3e 08 05 16 3e e1 98 23 bd
       -0.03369751 0.12889911 0.14650357 -0.03994072
0002f0 04 3e 70 3e a1 74 2a 3e 0e 7c 5e 3e ff 74 3e be
       0.23461157 0.16646053 0.2172701 -0.18599318
000300 23 20 94 3e 3a 30 24 be 8a 7b 3b be 8a 18 8b bd
       0.28930768 -0.16034022 -0.18308845 -0.0679179
000310 98 92 50 bd 54 0a 0c 3e 9c 12 57 3d b1 07 34 be
       -0.050921053 0.13675815 0.05250798 -0.17581059
000320 44 0d 1d be ff 46 01 3e d0 ad 08 3d 99 8c 8c bd
       -0.15337092 0.12624739 0.033368886 -0.068627544
000330 a3 62 b8 bd 92 c3 3c be 4d e8 8a 3d e1 b2 2d 3d
       -0.090031885 -0.18433979 0.06782589 0.04240692
000340 3f 97 fa bb 05 4d 58 be 5f 01 ca 3d 2d 44 29 be
       -0.0076474245 -0.2112313 0.09863543 -0.16529913
000350 70 79 de 3d 8a 6f 82 3e 57 ab 12 3e 72 45 1c bd
       0.10863006 0.25475723 0.14323173 -0.038152166
000360 8f bc b7 bd 7d a4 d5 bd 3b c7 70 3e 98 64 e1 3d
       -0.089715116 -0.10431764 0.235135 0.11005515
000370 64 ba b8 3c c1 d5 cd 3d 55 78 07 be fe 7f ec bd
       0.022549815 0.10050536 -0.13229497 -0.1154785
000380 1b 0b c9 3e 4d 3c ba bd 7c 77 bb bd d7 1e 01 bc
       0.39266285 -0.09093533 -0.09153649 -0.007880888
000390 48 e8 8c bc d9 dc d7 3d d0 8e f7 bd 49 cc 2c 3e
       -0.017200604 0.1054017 -0.12087786 0.16874804
0003a0 a5 5d 51 bd 98 72 0d 3e 06 4b 4c 3e 10 ef 9a 3d
       -0.051114697 0.13813245 0.19950494 0.07565129
0003b0 32 e2 68 3e 38 80 81 3d b1 42 fc bd e6 52 40 3e
       0.22742537 0.06323284 -0.12317408 0.18781623
0003c0 25 21 d1 bd 6c ad 07 3d 60 cd c7 3d 73 f6 d5 bd
       -0.102114 0.033124372 0.09755969 -0.10447397
0003d0 9b cf bc bd d3 d4 a0 3e 02 f9 7d 3c c9 05 f6 3d
       -0.09219285 0.31412372 0.015501263 0.12012822
0003e0 03 60 89 3e 3e c1 11 3d bc 8d 47 3e e7 05 2a 3e
       0.26831064 0.03558468 0.19487661 0.16603814
0003f0 12 52 58 3c 6d 72 fe 3d 24 16 2d be b0 40 5e 3e
       0.013203161 0.12424169 -0.16902977 0.21704364

network.2.bias f4 [128]
000000 df 13 2d bc 7f 22 c3 3d 86 59 85 3d 1f 95 38 bc
       -0.01056382 0.09528064 0.06511216 -0.011266022
000010 2a 91 58 3d 87 65 b3 3c 79 89 b7 3d 3d 36 8a 3d
       0.052872814 0.021898998 0.08961768 0.067486264
000020 94 c0 bf 3c 1b fb 96 3c c9 ea 7d 3d 13 a8 a0 3d
       0.023407258 0.018430283 0.061991487 0.078445576
000030 52 6a 54 3d 00 00 00 00 b4 d6 80 3d 2a 20 ca 3d
       0.051859207 0.0 0.06290951 0.09869416
000040 db d8 07 3e 1a eb 41 bd 24 98 d4 ba 56 58 b3 3d
       0.13266318 -0.04734335 -0.0016219658 0.08757083
000050 6f 4e 68 3d 8f f2 94 3d 9d 14 9f 3d 46 8f 8a bb
       0.056715425 0.07272827 0.077676035 -0.0042285053
000060 4a e6 86 3d f4 83 4c 3d 51 a2 9e 3d 87 57 a5 3d
       0.06586893 0.049930528 0.07745803 0.08073335
000070 ad 48 b1 3d 71 9e 05 bc 69 5c ae bc b3 28 be 3b
       0.0865644 -0.008155451 -0.021284299 0.0058031916
000080 6e e9 aa 3b 00 00 00 00 00 00 00 00 21 b5 6e 3d
       0.0052158153 0.0 0.0 0.058278207
000090 a6 70 da 3a e2 c2 a1 3d 98 39 87 3d f4 79 09 bc
       0.0016665652 0.07898499 0.06602782 -0.008390892
0000a0 7d ea da 3d f5 06 a1 3d d7 08 93 3d 3c d3 63 3d
       0.10689256 0.07862655 0.071794204 0.05562137
0000b0 87 08 c2 3d c7 18 e8 bc a2 a7 1c bc e6 b5 83 3d
       0.09474283 -0.028332127 -0.009561451 0.06431179
0000c0 9e 2b a8 bb 85 58 d2 bb 42 2f 19 3d f2 54 72 3d
       -0.0051321527 -0.0064192438 0.037398584 0.05916304
0000d0 e7 38 65 3d 0e 1e a3 3d df fb 3e bd c7 95 3f bc
       0.05596247 0.07964717 -0.04662692 -0.011693425
0000e0 38 ba 3f 3d aa c7 94 3d 22 d8 a1 3d 83 26 8d 3d
       0.04680845 0.072646454 0.07902552 0.06892111
0000f0 a8 64 c5 3d a5 06 dd bb f3 fc 71 3d c1 26 5d 3d
       0.09638339 -0.006745177 0.05907912 0.053992037
000100 ca e2 9c bc 58 72 ba 3d c1 24 6e 3d a9 ee 42 3c
       -0.01915111 0.091038406 0.05814052 0.011897721
000110 00 00 00 00 f6 7a 46 3d ba c7 7a 3d cb eb f9 3d
       0.0 0.04845711 0.06122563 0.12203177
000120 3f 21 90 3c 00 00 00 00 95 0e 5e 3d 46 0e a2 3c
       0.017593978 0.0 0.054213125 0.019782197
000130 01 f7 da 3d 43 e5 be 3c 91 df 8f 3d 51 1f 80 3c
       0.106916435 0.02330268 0.07025064 0.015639933
000140 0b 1a e3 bb ce 4f a8 3d d2 13 a9 3d 32 64 9f 3d
       -0.006930595 0.082183465 0.082557335 0.077827826
000150 5e 52 68 bb d9 ab 8d 3d 1e a7 9e bb 08 7a 85 3d
       -0.0035449485 0.06917543 -0.0048416993 0.06517416
000160 9f 5e a7 3d 55 c3 d8 bc 6e 42 be 3d 84 84 85 3d
       0.081723444 -0.02646033 0.09290014 0.06519416
000170 fe be bb 3d 59 91 a2 3d f4 35 e2 bc 00 00 00 00
       0.09167288 0.07937879 -0.027613617 0.0
000180 3d 41 dc 3d c2 c1 45 3c e5 fb b8 3c 11 e6 b4 3d
       0.10754631 0.012070121 0.02258105 0.08832944
000190 ac 26 a5 3d d3 8a 3e bc 5c 70 a9 3d 13 e8 83 3b
       0.08064017 -0.011629778 0.08273384 0.004025468
0001a0 c6 db 8a bb 49 de b3 3d 07 8f 5f 3c 4a 98 ab 3c
       -0.004237625 0.08782632 0.01364494 0.02094664
0001b0 44 6d 86 3d f3 de de 3d f7 e3 75 bc 64 0b 61 3d
       0.065638095 0.10882368 -0.015007964 0.054942504
0001c0 3f e6 54 3d 86 ae 73 3d 00 00 00 00 40 7a 95 3d
       0.051977392 0.05949261 0.0 0.07298708
0001d0 82 25 ac 3d 3c 80 81 3d 13 87 d0 bc 49 45 c6 bc
       0.084055915 0.06323287 -0.025455033 -0.02420296
0001e0 b4 af 2c 3d 0a 6f 90 3d 24 a5 b4 3d 68 37 9a 3b
       0.04215975 0.07052429 0.088205606 0.004706312
0001f0 9d cf 85 3d fd 7e 20 3d 9a d3 88 3d 24 3f 66 3d
       0.0653374 0.039183605 0.06680985 0.05621256

network.4.weight f4 [6, 128]
000000 b7 71 36 be a0 d5 e5 bd fd 8b 0e bb 00 1d 97 3d
       -0.17816816 -0.11222386 -0.002175092 0.07378578
000010 fd b5 b5 3d 61 f8 84 3d d4 eb e9 3b f0 05 33 3e
       0.08872602 0.06492687 0.0071387086 0.17482734
000020 b4 f6 90 3e 5c 71 6a be 4f ab 3c be 39 c5 39 be
       0.2831322 -0.22894806 -0.18424724 -0.1814164
000030 02 49 ae bd 61 38 6d bd 74 0b 49 3e a8 b7 3b 3e
       -0.08510019 -0.057915095 0.19633275 0.18331778
000040 cc 82 0b 3f c8 78 08 3d b9 3a e1 bd 3f fd 68 bd
       0.54496455 0.03331831 -0.109975286 -0.05688214
000050 8b c7 75 be 64 5c 96 3c 09 a7 e9 39 d2 b6 65 be
       -0.24001901 0.018354602 0.00044565674 -0.22433022
000060 2f af 24 bd 1c fe 36 3e f1 a3 24 3e fa 9b 6d be
       -0.04020613 0.17870373 0.16078164 -0.23204032
000070 64 e0 cf bc fd a1 2a be e6 a1 8c be fc 6f 32 3e
       -0.025375552 -0.16663356 -0.2746727 0.17425531
000080 3d 1d 4c bd 1a b6 37 3d 69 db 06 bd e7 b2 60 be
       -0.04983257 0.0448514 -0.03292409 -0.21943246
000090 f2 a4 2c be 2c a6 8d be 54 03 4c bd 07 16 4b bd
       -0.16859797 -0.27665842 -0.04980786 -0.049581554
0000a0 87 88 1e 3e 24 f8 37 bd 10 ab 49 be 41 a2 23 be
       0.15481769 -0.04491438 -0.19694161 -0.15979864
0000b0 f5 5d 62 bd 9b 92 18 3e 4f 58 73 be 70 03 fb bc
       -0.055265386 0.14899676 -0.23764156 -0.030641288
0000c0 f5 52 b5 3d f2 6c 68 3d f0 35 81 be e8 44 b8 bd
       0.088537134 0.056744523 -0.25236464 -0.08997518
0000d0 c6 a2 97 bd f8 50 f0 bc be 53 ad 3d ad 79 c2 bd
       -0.074040934 -0.029335484 0.08463238 -0.09495864
0000e0 9f 54 3a 3e c3 bb 13 bd 8d aa 44 be 5e 68 a0 3c
       0.18196343 -0.036067735 -0.19205685 0.019581016
0000f0 f3 32 81 be 8f ff 84 3c df 6b 44 be 43 ea 7a be
       -0.25234184 0.016235141 -0.19181775 -0.24503426
000100 e4 9b 0c 3e 80 8c f4 bc 85 83 5f 3e 5f 2d 38 3e
       0.13731343 -0.029852152 0.21827514 0.17986058
000110 51 39 a6 bd 29 40 f0 3c 16 dd 71 be 2a 9e 95 3e
       -0.08116401 0.029327469 -0.23619494 0.29222232
000120 aa 1e 4a be 64 ca f8 3d d1 ed a6 bc 1d b1 da 3d
       -0.1973826 0.12147978 -0.020377072 0.10678313
000130 f5 72 ac 3e d1 c2 ce bd ad 6a 0e 3d 50 be 83 be
       0.33681455 -0.10095752 0.034769703 -0.25731134
000140 53 e8 87 3c 3d a0 8c 3e 5e d7 ab 3e 36 4b 10 3e
       0.016590273 0.27466002 0.3356275 0.1409119
000150 2b a4 15 bd 35 64 83 bd 55 41 07 be fe 7b 33 be
       -0.036533516 -0.06415597 -0.13208516 -0.17527768
000160 ff 21 2e 3e 14 28 69 3d a5 5f 3c 3e 8c 73 f6 bc
       0.17005156 0.056922987 0.1839586 -0.030084394
000170 29 6c 75 be ba 72 d4 be 18 12 17 3e 74 38 22 bd
       -0.23967041 -0.4149378 0.14752996 -0.03960462
000180 7b 06 96 3e 61 dc 97 be e3 66 ee bb 47 dc 22 be
       0.2930182 -0.29660323 -0.0072754486 -0.15904342
000190 21 20 9d 3e 35 02 1e be 06 99 93 be 10 16 91 be
       0.30688575 -0.1543053 -0.28827685 -0.28337145
0001a0 83 39 dc 3d 5f 72 21 be 41 72 cd be b7 83 8c be
       0.10753157 -0.15766285 -0.4012623 -0.2744424
0001b0 f8 63 8f be d7 39 4e be 6e 9a 49 bd 12 08 0d 3d
       -0.28005958 -0.20139252 -0.04921954 0.034431525
0001c0 57 84 0b bd 6a 2d 03 3e 48 1f 81 3e 86 af 6d bc
       -0.034061756 0.12810293 0.25219178 -0.01450718
0001d0 ee 74 0c 3e c7 ae d7 3c 60 70 84 3e ae 5b 1b bd
       0.1371648 0.026328458 0.25866985 -0.03792923
0001e0 9c a0 d4 be f7 5b 6d 3e d3 31 41 be 10 a9 1b be
       -0.41528785 0.23179613 -0.18866663 -0.15201211
0001f0 40 06 54 3d 3b e2 87 bd bf f3 fd 3d 48 70 56 3d
       0.051763773 -0.06634947 0.124000065 0.052353173
000200 7a 4e 37 be 78 e0 bd bd 61 7b 9b be 11 f5 96 3d
       -0.1790103 -0.0927133 -0.30367568 0.073709615
000210 f8 ef d2 3d 4f cc 8c be e8 f0 1b 3e 01 c7 28 3d
       0.10299677 -0.27499625 0.15228617 0.04120541
000220 db 22 e6 be c6 45 ab be 74 8c 9b 3e f0 91 c9 bc
       -0.44948468 -0.3345167 0.30380595 -0.024605721
000230 2d bc 4e be eb 74 2e bd 9e 46 d1 bc 0d 68 19 be
       -0.20188971 -0.04259197 -0.025546368 -0.14981098
000240 a4 a8 49 3d d8 99 2f bd 27 20 d5 bc 5c 17 64 be
       0.049233094 -0.042871326 -0.026016308 -0.22274536
000250 6e 6c 98 3c 8b 3d f2 3d 99 65 f1 3c 34 a5 b3 3d
       0.01860639 0.11828145 0.02946739 0.08771744
000260 aa 05 3d be 07 d5 59 3d 12 e9 b9 3e be 34 59 3e
       -0.18459192 0.053181674 0.3631063 0.21211526
000270 62 a6 62 3e 16 f9 3d be 02 a3 b3 bd 96 a2 08 bf
       0.22133783 -0.1855205 -0.08771326 -0.53373086
000280 41 7e 30 3e b9 95 3c be 3c b1 0d 3e 69 b0 e6 bc
       0.17235662 -0.1841649 0.13837141 -0.02816029
000290 bd 05 60 3e 2c 73 bf 3e c8 e9 38 be b5 92 a7 3d
       0.21877189 0.37392557 -0.1805793 0.08182279
0002a0 06 82 48 3e 76 72 09 be 97 b1 22 bd aa 3f 22 be
       0.1958085 -0.1342257 -0.039720144 -0.15844598
0002b0 b5 5b a5 3e de a8 be be 48 d0 61 be 89 73 a9 be
       0.3229653 -0.3723821 -0.22052109 -0.3309596
0002c0 6b cd ad 3d 68 3a 82 3e 42 a3 46 ba 34 02 47 be
       0.08486446 0.25435185 -0.0007577428 -0.19434434
0002d0 34 11 ee bd 7c 92 93 bd 69 7a bf be ff 9d a9 3d
       -0.11624375 -0.07205674 -0.3739808 0.082820885
0002e0 69 35 2a bd 5c b9 64 3b de 5f 22 be 84 65 81 3d
       -0.041554842 0.0034900522 -0.15856883 0.06318191
0002f0 77 ab 23 3e 78 a6 52 3e 8f 8d ea bd f1 ab 64 3e
       0.15983377 0.20571315 -0.114527814 0.22331215
000300 93 f6 ab bd b8 3e 02 3e 86 fe 8e be a4 a3 a9 3d
       -0.0839664 0.12719238 -0.2792856 0.08283165
000310 7f 79 60 bd 8a 35 8e 3e 0f 7f 4c be 7a 3d 89 bb
       -0.054803368 0.27775222 -0.19970344 -0.004188237
000320 22 8e c7 bd bb e0 b5 3d f7 7d 3e be 10 10 0d be
       -0.097439066 0.088807546 -0.1860274 -0.13775659
000330 56 32 df bb 02 3c bb bd 1b 32 1b 3e 8d 75 8d be
       -0.0068114204 -0.09142305 0.15155832 -0.27628747
000340 67 3f 89 3d 93 94 ae 3d 36 f3 2b be d2 83 54 bd
       0.06701546 0.08524432 -0.16791996 -0.051883526
000350 23 de 41 3e 1b 5f 3a be 9a 6e 93 bd 52 b2 14 3e
       0.18932395 -0.18200342 -0.0719883 0.14521149
000360 e6 e1 5d bc 89 ff 81 3d 5c 6b 1d be 4d 26 9d bd
       -0.013542628 0.063475676 -0.15372986 -0.07673321
000370 d8 64 a2 bd 12 d9 55 3e 92 26 e0 3d 59 12 57 be
       -0.07929391 0.20883587 0.10944857 -0.21003093
000380 99 e2 39 3e ee a8 3a 3c 1f e2 97 3e 47 0d 4f 3e
       0.18152846 0.011392815 0.29664704 0.20219909
000390 55 9c 23 3b fb 10 40 3c b7 fb 95 be c2 04 96 bd
       0.0024965007 0.011722798 -0.29293606 -0.07325126
0003a0 59 a4 b3 3d 4c ed 9e 3e 4f c3 34 be e6 e7 83 bd
       0.08771581 0.31040418 -0.1765263 -0.064407155
0003b0 37 b3 28 be 90 fd af 3e 73 71 17 3e d1 3a 76 be
       -0.16474615 0.3437314 0.14789371 -0.24045874
0003c0 77 20 ce be e2 47 ba be e4 f0 d8 3d 09 59 6f 3d
       -0.40259144 -0.36382967 0.10592821 0.05843452
0003d0 71 0b 32 3e 5b a7 7d be 84 bb c3 bd 9d c5 74 be
       0.17387177 -0.24770872 -0.0955725 -0.23903508
0003e0 6e f3 51 3d 11 1d c4 3d 26 2f 5f 3e 6f 91 95 bd
       0.051257543 0.095758565 0.2179533 -0.0730313
0003f0 09 a1 ba 3d 56 c5 8b be ad 15 d4 bd 1d 73 8a be
       0.09112746 -0.27298993 -0.10355697 -0.2704095

network.4.bias f4 [6]
000000 3a a6 1a 3d 1a 40 35 3b 34 64 1d bd bc 2e 58 3d
       0.037756182 0.0027656616 -0.03842564 0.052778944
000010 3b 35 90 bd 22 cc 5d bd
       -0.07041403 -0.054149754
