dqn.pt (torch, 78112 bytes, 6 tensors)

network.0.weight f4 [128, 12]
00000000: b076 5d3e 4368 dbbe 0a9c 05bf 9ee7 00bf
00000010: bec9 813e 9444 e83e f7e0 59bd 3785 313e
00000020: 092a 88bd cd52 0c3d 378b 0a3f 8272 7d3e
00000030: 78e1 0c3f e45b 043f 2216 0c3f 6e57 55bf
00000040: 6498 91be 7815 b43d 5ff2 833e 7ea2 3bbe
00000050: c30c 48be bd3a e93e 4e32 943e a922 07bf
00000060: 4fc8 743e d19e 0e3e 9ba5 68bd 6ce2 bdbe
00000070: b7cf 4abe 324a 28bf 7c27 12be 8dc3 dd3e
00000080: 4811 f6bc 6c68 243e a0f5 8abe efda ee3e
00000090: 57e6 b93d 05e7 30bd 4b47 8ebc 456a 093f
000000a0: 417b 01bf 8647 63bf 1611 69bf cd74 543e
000000b0: 7af3 5abe 0117 10be 2c1d 67be bf82 933e
000000c0: c7e3 153e 761c a5bd 6aac 2cbe 8c35 6d3e
000000d0: 61d5 343e 4d34 9cbf 576a 08bf 17f8 c4be
000000e0: b971 d33e 4998 bd3e cf2e 0cbf acbf dbbe
000000f0: f98a 87bf 15de 083e dd6d 8d3d a1b2 e0be
00000100: 98cf 1dbe 8135 a6be a576 633f 7ea1 993e
00000110: e233 6e3e 8ab7 2fbe 894a 483c 1276 a5be
00000120: f829 2f3e 0f20 b3be 2948 a53e 7a35 923e
00000130: 06b0 73bd 5d2b 813c 5d75 8b3e 2895 1bbf
00000140: c592 9d3e a20e 8e3e 8144 5a3e 8ee3 8e3c
00000150: 1c29 e63e de03 09bf 285e 04bf 88f2 c1be
00000160: 2acf d6bc 0b73 183e d620 c03e 092f ebbe
00000170: dfe6 083f 4050 e93e 1208 53be d025 2f3e
00000180: c1ff 3ebe d22e 91be 7b1f 663d 1d53 773e
00000190: d309 49bf 1f25 ee3c e4c7 2dbf 1fd1 dfbe
000001a0: 3402 93be 2740 b6be 185a a6be 6121 52be
000001b0: 74c8 4abf 78fd e1bd c473 2fbf ac63 cbbb
000001c0: 60be 1fbe 119f a73e eb3c 26bd 4296 2d3e
000001d0: b407 0d3f c84c 793e 6210 fdbe 564d 653e
000001e0: 257e bcbe b950 cabe 2c4f d8bb 3193 c83e
000001f0: 0b5e 84be 49ce 3b3e f6f9 87be fa8e 123c
00000200: 4a18 48bf 61d0 a5bd b544 b93d dec8 dfbe
00000210: 630d 483d 1dc5 ffbe b426 a33f c6aa c3bd
00000220: 5437 8d3d 6acd c9bd 557a 42bf 3a16 a73e
00000230: bf2b 52bf b680 4fbd 6548 a63e f437 10bf
00000240: 4a9c 2dbf be5d 893f eebb 7d3e 6cec 093e
00000250: 6846 a93e 6b6e eebe 9f29 6d3e 3cb4 cfbe
00000260: 8284 84bf c3bf 87be 1668 6dbe d08f ebbd
00000270: 251b 473e 0bae dabe 2f57 21be bf92 41bf
00000280: 37a3 fb3d 3831 16be 0bcf 86bd 00b1 b03e
00000290: 6cbf efbd 3103 c93e dacd 8d3e caa3 e03b
000002a0: f651 cb3f 4890 063f ee6a 993e b17b 4a3f
000002b0: 693c 41be 2854 8fbe faa6 51bf 9cd3 9c3e
000002c0: 1765 543e 88cf ea3e db34 eebe 5e87 f1bd
000002d0: 9669 abbd 0a3e 343e 8f12 023f db5d ba3e
000002e0: b54a 53bf 7157 8dbe 1267 263f a5b8 993e
000002f0: c9e8 d8be a686 e23e e22c 2e3f 7ae6 a9be
00000300: 133d aa3e dc8d 713e 246b c23d 1d1d 363f
00000310: 4649 79be 1c20 6e3f 1856 343f d6e9 e53c
00000320: f761 0a3e 4bfa e33e e9d5 173e 3810 9f3e
00000330: 2bd2 303f 3e34 f73e d9d1 123e f111 5f3f
00000340: f6a4 fcbc a86f 603c af47 acbc 6b5d 48be
00000350: f6ca afbe 1272 be3e 6344 39bc 2b18 3f3e
00000360: 4885 313e 477d 173e f8a7 72bd 6316 7b3e
00000370: f8c4 39be 80aa 703b ee87 d3be 55cb 1e3e
00000380: a90b 0e3e 1a35 e03e 570c 9d3e 85e8 133b
00000390: b6df c7be 37a5 073f a479 b53e 3829 b4be
000003a0: 7a38 72bf fbd8 51bf 00a7 e5be 4c84 563e
000003b0: 58ec 5d3f 8620 d43e cf51 92be 24b7 473d
000003c0: c4a7 e13e 4e13 8ebe fedb 1bbf 86ed c63e
000003d0: dbb9 30be a5fa 263f a70c 3b3f 4d76 2e3f
000003e0: fc9f 1fbd a165 7d3e 1bf2 993e b1c8 803c
000003f0: 5e59 9e3e 41b8 04bf 7e4b 04bf 41f7 ec3e
0.21627307 -0.42852983 -0.5219122 -0.5035342 0.2534923 0.4536482 -0.05319306 0.17335974
-0.066486426 0.034258652 0.54118675 0.24750713 0.5503154 0.51702714 0.5472127 -0.8333653
-0.28436577 0.08793157 0.25770852 -0.18323705 -0.19536118 0.45552626 0.2894463 -0.5278726
0.23904537 0.13927771 -0.05679856 -0.3708681 -0.198058 -0.65738213 -0.14272875 0.43313256
-0.030037537 0.16055459 -0.27140522 0.46651408 0.09077137 -0.043189067 -0.01736798 0.5367778
-0.50578696 -0.8878101 -0.91041696 0.20747681 -0.21381941 -0.14071275 -0.22569722 0.2881069
0.14637671 -0.08062069 -0.16862646 0.23164958 0.17659523 -1.2203461 -0.5328726 -0.38470528
0.412977 0.37030247 -0.54758924 -0.42919672 -1.0589286 0.13365968 0.069057204 -0.43886283
-0.15411222 -0.32462695 0.8885291 0.3000602 0.23261979 -0.17159858 0.012224802 -0.32316643
0.17105854 -0.34985396 0.32281616 0.28556424 -0.05949404 0.015767748 0.2723798 -0.6077447
0.3077604 0.2774554 0.21315195 0.01744249 0.4495324 -0.53521526 -0.5170617 -0.3788035
-0.02622183 0.14887635 0.37525052 -0.45934322 0.5347728 0.45569038 -0.20608547 0.17104268
-0.1865225 -0.28356034 0.056182366 0.24152799 -0.78530616 0.029070435 -0.67883134 -0.43714234
-0.28712618 -0.3559582 -0.3249061 -0.20520546 -0.7921212 -0.110346735 -0.6853602 -0.00620695
-0.15599966 0.32738546 -0.04058544 0.1695185 0.5508988 0.24345696 -0.49426562 0.22392783
-0.3681499 -0.39514711 -0.006601235 0.39174798 -0.25853 0.1834041 -0.26557893 0.008945221
-0.7816206 -0.08096386 0.09046308 -0.43707937 0.04884089 -0.49955073 1.2746186 -0.09554057
0.068953186 -0.09853633 -0.75967914 0.32634145 -0.82098 -0.050659858 0.32477108 -0.5633538
-0.67816603 1.0731733 0.2477872 0.13469094 0.33061528 -0.46568617 0.23160408 -0.40567195
-1.0352938 -0.2651349 -0.23184237 -0.115020394 0.19443949 -0.4271091 -0.15755914 -0.7561454
0.1228699 -0.14667213 -0.06582459 0.3451004 -0.11706433 0.39260247 0.27696115 0.0068554627
1.5884387 0.52563906 0.29964393 0.7909499 -0.18870701 -0.27993894 -0.8189541 0.30630195
0.20741688 0.4586146 -0.465247 -0.11793397 -0.08369748 0.17601791 0.5080957 0.3639973
-0.8253587 -0.27605775 0.6500102 0.30023685 -0.423651 0.44243354 0.68037236 -0.33183652
0.3324972 0.23589271 0.09493092 0.71138173 -0.24344358 0.93017745 0.7044387 0.028065603
0.13513933 0.44526896 0.14827694 0.3106706 0.6907069 0.48282045 0.14337863 0.8713675
-0.030840378 0.013698496 -0.021030275 -0.19566886 -0.34334534 0.37196404 -0.011307809 0.18661563
0.17335999 0.14793883 -0.05924222 0.24520259 -0.18141544 0.003672272 -0.41314644 0.15507253
0.13871635 0.43790513 0.30673477 0.0022569012 -0.39037865 0.5298647 0.35444367 -0.35187697
-0.94617426 -0.8197171 -0.44853973 0.20948905 0.86688757 0.41431063 -0.2857804 0.04875864
0.44073308 -0.27749103 -0.60882556 0.3885309 -0.17258398 0.65226203 0.7306618 0.6814926
-0.038970932 0.247458 0.30067524 0.015720697 0.30927557 -0.5184365 -0.5167769 0.4628239

network.0.bias f4 [128]
00000000: 16d4 dd3d 1aa9 f93d ade8 3c3e a7dc fb3d
00000010: 3096 babb 1f79 123e 95ee 183e 69bc 2e3e
00000020: 0000 0000 5a75 163e 7677 e83d 5af6 6e3e
00000030: 6df0 d63d bc29 123e 6f5b 83bd 613e b53d
00000040: 6e42 bf3d 817a 763d e311 d33d 45f0 e43d
00000050: a6eb fc3d 10b4 033e a71f e83d 7fc5 ea3d
00000060: ac41 043e caf8 c93d daf4 ca3d 452c e53d
00000070: 186d cf3d e6d8 193e 736b 063e ae16 f63d
00000080: ef9b 153e 2bf3 a63d 586a 193e dbba 0b3e
00000090: ecb2 133e 8f54 ff3d a044 7a3b aaeb 1c3e
000000a0: 3dd1 7a3d 88e9 073b 2134 e13d 7ad4 f53d
000000b0: 4166 d93d 18a2 fe3d 6f2d 2a3e c9ae ff3d
000000c0: 6416 863d 49d1 c53d c558 2d3e 6a10 a93d
000000d0: 623b c73d 6421 0c3e ac89 ce3d 53a7 a33d
000000e0: ac75 0d3e 8d6d b33d e57b df3d 97bb d53d
000000f0: 80d2 d03d 88a7 de3d c701 083e 0759 a03d
00000100: d1ff 023d 0b63 f13d ed92 173e 8687 173e
00000110: 645b 013e b34a 013e 9f73 b43d 9166 c03d
00000120: a50a dd3d 7c3c 153e cab0 e53d cee6 ddbc
00000130: 80c1 013e aae4 d73d 4a58 fd3d 986d 283e
00000140: af59 273e 1e73 ee3d 8bea b73d 7261 563c
00000150: c852 e53d 81f5 df3d 2b6f a53c 0000 0000
00000160: b880 cb3d a82f 043e e110 7a3d 4028 233d
00000170: 3b01 e23d 86dc cf3d e97a b93d f5a1 f43b
00000180: a7a6 873d 1f50 093e 890a b73d ec2d 4e3d
00000190: e4c5 2f3d dbb1 053e 205f ff3d 9b37 d83d
000001a0: a524 a53d d92a 6638 4c58 bc3d 249a 053e
000001b0: 1598 653d 3317 bb3d 3c87 c53d 7fcb 21bd
000001c0: 72b6 283e fc5e cc3d 23c6 123e d3a5 163e
000001d0: 3261 c93c b3f7 ec3d 6e23 d23d 843e 203e
000001e0: c5b1 083e af13 d03d 071e 97bc 90cf 973d
000001f0: 35af 6e3d 4e11 b23d 9520 ff3d 05b9 023e
0.10831468 0.12190457 0.18448134 0.122979455 -0.0056941733 0.14304017 0.14934762 0.1706406
0.0 0.14693204 0.1135091 0.23336163 0.10495076 0.14273733 -0.06413924 0.088497885
0.09338842 0.060175423 0.10306146 0.1117864 0.12349634 0.12861657 0.11334162 0.11463451
0.12915677 0.09861906 0.09909983 0.11190084 0.1012823 0.15024146 0.13126926 0.120160446
0.14610265 0.08151849 0.14981973 0.13645498 0.14423722 0.124673 0.0038187876 0.15324274
0.0612347 0.002073856 0.10996271 0.12003417 0.106152065 0.12433261 0.16618894 0.124845095
0.065472394 0.096590586 0.16928394 0.08255084 0.09728123 0.13684613 0.100848526 0.07990899
0.1381442 0.087611295 0.10912303 0.104361705 0.101964 0.10871798 0.13281928 0.078294806
0.031982247 0.11786469 0.14802141 0.14797792 0.12632519 0.12626152 0.088111155 0.09394563
0.10793046 0.14573854 0.112153605 -0.027087595 0.1267147 0.10541661 0.123703554 0.16448057
0.16342805 0.116430506 0.089802824 0.013084756 0.1119743 0.10935498 0.02019461 0.0
0.099366605 0.12908804 0.061051253 0.039833307 0.11035391 0.101494834 0.090566464 0.007465596
0.06623583 0.1340947 0.08937556 0.050336763 0.042913333 0.13056128 0.124693155 0.10557481
0.0806363 5.487618e-05 0.09196529 0.13047081 0.05605324 0.09135284 0.096449345 -0.03950071
0.16475847 0.09979054 0.14333396 0.14711694 0.02458248 0.115706824 0.10260664 0.15648848
0.13349064 0.10160004 -0.018446935 0.07412636 0.05827256 0.08694707 0.124573864 0.12765892

network.2.weight f4 [128, 128]
00000000: bb5f 55bd 55cb aa3b e838 d8bc 8e47 8f3e
00000010: f90e 323e cd5f 25be 2f1d 4e3e 04f4 7a3e
00000020: 5852 fcbd b745 aa3d bb90 cb3e 9538 f1bd
00000030: 8dbf 73bd 9c66 e3bd be32 1a3e 8356 4d3e
00000040: 657f c23d c90e 08bd 462b 9c3e 5790 2c3d
00000050: 60b1 2dbd a214 303e 456e 293e 996a 973e
00000060: d9cb af3e a1b2 b43d b992 b6bd 3d9c 083e
00000070: 5ecf f23d 816c 2f3e f278 7cbe 7797 5cbd
00000080: cf1a 553d 977a 13be b24d 843e 596d a73e
00000090: 2b61 563d 7e52 6d3e 4fbe 68be 33f4 32be
000000a0: a958 2d3e 9193 34bd 0420 20bd 826e 6b3e
000000b0: 0df5 673e d90e 153d 7f25 1d3e b105 4c3e
000000c0: 5b0b f93d 32c7 643d 64fc bc3e 3fa5 70bc
000000d0: 816e 113e 640a 543e 4c37 db3d 042e ed3d
000000e0: 3b5b 12be 6c6e ee3c f9bc 2f3d 46c4 343d
000000f0: ba78 d8bb 6f61 0e3e dc7a 92bd 658a 9a3b
00000100: 6172 c2bd 4788 953e 75a4 d8bd c2ac 0cbd
00000110: 046f 883e bb97 60be 4292 763e 3b40 6c3e
00000120: 1322 bdbd 1529 96be 9e78 60be 4bf9 7cbe
00000130: 4100 58be 3259 dd3d 05d6 21bd e84c b33d
00000140: 63ea 4bbd 81cf fabc 6579 a03c 1b17 e0bc
00000150: b2ec 0e3d 8133 f23d b2ae 4bbe 1546 27be
00000160: e42b c03e 14fa 0abe 1dd9 f6bd bc1c 3fbe
00000170: f4b5 a33e 1b5e a7bd 4665 96bd e105 453e
00000180: 2f1c 0cbe 6664 c83d 331a 8abc 7779 9fbc
00000190: 4d4c 81bd 99c1 c4bd a8b2 29be 195a 8dbe
000001a0: e0b6 c83e 6206 b33c efe9 4ebe 389a 0cbe
000001b0: ef02 3f3e 4b6f 733d 3bd7 7a3d 107a 2cbe
000001c0: 6608 d3bd c1ab 433e 3d03 513e 44eb 7c3d
000001d0: 5f92 263e 089a f43d 7d2f ab3e 917b d93d
000001e0: 10a2 bb3d 03ca b0bd c209 6e3e ad1e 52be
000001f0: cf8c 97bd ef99 5abd e68e a43d 0867 0ebe
00000200: 926d c93d 8505 2f3d 9195 093e d874 3bbd
00000210: 3c26 5d3d 4afd 773d a625 863e aaf9 423e
00000220: 468f aa3d 5ec3 dbba e611 1cbd 9ed5 0b3e
00000230: 15f3 a7be 34b0 98bd c653 7d3e 987c 5e3e
00000240: 7d99 723d 2d77 fc3d ae01 773e 9e23 3a3d
00000250: 636e ce3d 86cd e73d daf7 093e d2ef 383c
00000260: 702a f63d 4126 9e3c 0a5a 0f3c b55d a63d
00000270: 2f98 503d b277 423d 039a b63c 541e 603e
00000280: 2f1a 573e 6d0c 643e 18a2 443d 13a9 f03d
00000290: beaf a13d 0f3b d6bd 94a3 cbbd 0943 0a3d
000002a0: c85a f33d 7de6 f63c 28ba 36be 1731 bb3e
000002b0: e5e3 21be 92f8 3dbd acc3 863e 3cad 043d
000002c0: a5b3 5fbe 8e4b 56bc fb14 523e 09a7 76be
000002d0: a699 a9bd 219d 52bd 65c5 95bd 1d17 c6bb
000002e0: 04ed 9b3e 4e70 f63d dff3 b2bd 082b 24bd
000002f0: 8044 5f3d a464 01be 54b5 c73c 4108 9b3e
00000300: 1d27 96bd db35 a53d 9b49 05bd 60cb b03d
00000310: 8f6b 293e 9edc 8f3e a2f1 e2bd 3dcb 173e
00000320: 5187 2ebe baec 14be 8e04 513c cff5 15be
00000330: 7788 5e3e d90f 953d 20cb 8d3e c71f 2f3e
00000340: d322 9b3e 490a 06bd f1bb 68bc 9fa4 a23c
00000350: 541e 563e c103 fe3c 63a1 873d f84a 293e
00000360: eea2 8a3e 262d 1f3d 935b 323e d269 a73d
00000370: dd77 b03c d029 863e 3060 3fbe 570d bc3d
00000380: 094b 4ebe 781a 31bd 5438 a23c a9f0 2e3e
00000390: b4eb d73d 5211 fa3c 7dfb 4abd 6b3a 053e
000003a0: 7c07 c13d 0447 2cbe 1d9e 033c 2783 1c3d
000003b0: 3424 d23d cff2 453d fe8b 93be 485a 5f3c
000003c0: 15dc 2e3e 9660 c9bc 22a7 c63d aa31 e93d
000003d0: 3596 923e fe25 a03e 442d 423e 0648 363e
000003e0: 3985 0ebe a12e 3a3c 7eba 8cbc 0006 713e
000003f0: 1b25 ea3d 5028 d6bb 388b aa3e 333f 383d
-0.05209325 0.0052122273 -0.026394323 0.2798428 0.17388524 -0.16149826 0.2012832 0.24507147
-0.12320393 0.08314078 0.39758858 -0.1177837 -0.05950885 -0.111035556 0.15058419 0.20052533
0.09496955 -0.033217225 0.30501765 0.04212984 -0.042405486 0.17195371 0.1654597 0.29573515
0.3433521 0.08823133 -0.08914704 0.1334085 0.118559584 0.17131235 -0.24655512 -0.053855386
0.05202752 -0.14402233 0.25840527 0.32700613 0.05233876 0.23176 -0.22728847 -0.17475967
0.16928352 -0.044086043 -0.039093032 0.22991374 0.22652073 0.036391113 0.15346335 0.19924046
0.12160369 0.05585403 0.3691131 -0.014687835 0.1420231 0.20707089 0.107039064 0.115810424
-0.14292614 0.029105388 0.042904828 0.044132493 -0.0066061886 0.13904355 -0.0715234 0.004716205
-0.09494472 0.29205534 -0.10578243 -0.034344442 0.26647198 -0.2193288 0.2407923 0.23071377
-0.09235015 -0.29328218 -0.21921012 -0.24704473 -0.21093847 0.10808028 -0.039510746 0.08754903
-0.049784075 -0.030616524 0.019589135 -0.027354768 0.0348937 0.1182623 -0.1989086 -0.16335328
0.37533486 -0.1357196 -0.1205313 -0.18663305 0.31974757 -0.08172246 -0.07343535 0.19240524
-0.13682626 0.097847745 -0.016858196 -0.019467099 -0.06313381 -0.09607238 -0.16572058 -0.27607802
0.39202023 0.02185363 -0.20206426 -0.13730705 0.18653463 0.05943231 0.061240416 -0.16843438
-0.10304336 0.19108488 0.20411392 0.061747804 0.16266774 0.11943442 0.33434668 0.106192715
0.0916177 -0.08632281 0.2324591 -0.20519514 -0.07399904 -0.05336946 0.08035068 -0.13906491
0.09835352 0.042729873 0.13435961 -0.045765728 0.05399154 0.06054429 0.26200598 0.19040552
0.083281085 -0.0016766598 -0.038103007 0.13655707 -0.32802644 -0.07455483 0.24738988 0.21727216
0.05922841 0.123274185 0.24121734 0.045444123 0.10079648 0.11318497 0.13473454 0.011287646
0.12019813 0.01930535 0.008749494 0.08123342 0.050926384 0.04747743 0.022290235 0.2188657
0.21006082 0.22270365 0.048006147 0.11750998 0.07894848 -0.10460483 -0.099433094 0.033755336
0.118825495 0.030139202 -0.1784445 0.3656089 -0.15809591 -0.046379633 0.2632116 0.03239177
-0.21845873 -0.013079537 0.20515816 -0.24087156 -0.08281259 -0.05141938 -0.07313041 -0.006045236
0.30454266 0.12033139 -0.08737921 -0.0400801 0.054508686 -0.12636048 0.024378456 0.30279735
-0.07331679 0.08066913 -0.0325409 0.08632541 0.16544937 0.28098005 -0.11081244 0.14823623
-0.17043807 -0.14543429 0.012757434 -0.1464455 0.21731745 0.07278413 0.27694035 0.17101966
0.30300006 -0.032724652 -0.014204965 0.019853888 0.20910007 0.03100765 0.06622579 0.16532505
0.2707743 0.038861416 0.17417745 0.081744805 0.02154153 0.26203775 -0.18689036 0.09182232
-0.20145811 -0.043238133 0.01980225 0.17083992 0.10543004 0.030525837 -0.049556244 0.13010566
0.09425256 -0.16823965 0.008033303 0.038211014 0.102608114 0.048327263 -0.28817743 0.013632365
0.17076142 -0.024582189 0.09699847 0.11386426 0.28630224 0.31278986 0.1896258 0.17800912
-0.13918008 0.011363656 -0.01717877 0.23537445 0.114328586 -0.0065355673 0.3330934 0.044982146

network.2.bias f4 [128]
00000000: e0ac 983d 9fcf 563d 31bd 2bbc 2486 983d
00000010: ca19 a63d ce53 f43d 6ec0 4fbd c88c da3d
00000020: f0ba 683d 6526 5a3d 0000 0000 6d6b 733d
00000030: 7a14 813d e345 d03c 460a 693d 68f9 683d
00000040: c674 23bd 8e9e 1a3b 6f52 ef3d 80a1 8c3d
00000050: 7db1 823d 82c5 46bc ef12 9abc bfbe ab3d
00000060: 095c 833d bbb6 8b3d eb10 c4bc 1c44 2dbc
00000070: 8a56 5dbc 3f47 94bc ca90 b23d 067a 30bc
00000080: d8b5 08bc 2865 17bc d0c8 9f3d 1f9a 883d
00000090: 2c22 95bc 0000 0000 6298 68bc 0000 0000
000000a0: 226e 4d3d cc22 f43d 1811 5bbc 32cb af3d
000000b0: 2511 38bd 04d7 7d3d 2e17 413a d04e 7f3d
000000c0: 6afb 993d b5ab 723d 7738 60bc c25c 3ebc
000000d0: f8d0 c73d 9c08 973d 93c6 cf3b 2b03 ba3d
000000e0: 0bb1 633d 64f9 983d d1da 8f3c 4fdb ea3d
000000f0: 1196 a9bb 33fa 8cbc 0000 0000 52df 39bc
00000100: 72ff a7bc 3c84 9c3d 3507 88bc e3eb c03d
00000110: 2a49 9f3d fd21 ccbc 868f b63d 7f9f 813d
00000120: 855b 86bc f1db 653d 303b e63c 0000 0000
00000130: a42e a43d 50ba b73d 8acd 96bc d2bd 8b3c
00000140: 1489 9cbb 634e 3bbc ac2d 953d 6f65 8f3d
00000150: d838 983d d751 3a3d 2171 2e3d 6988 8a3d
00000160: c047 c43d ac2e 3a3d 9578 813d 1698 c43d
00000170: 5180 823d 0000 0000 8b47 dfbc c1a5 883d
00000180: 39ea a23d 66f7 9f3c 0000 0000 5833 a03d
00000190: 0000 0000 40fc aabc 0133 8fbc 662e a6bc
000001a0: 8c75 fcba 0000 0000 1e17 833d ead2 77bc
000001b0: 0000 0000 39a3 093e 0f87 88bc fd8f 913d
000001c0: 01c1 183d cb0b 733d 58c8 b63d aa59 50bc
000001d0: 6a19 6bbc 2550 04bd 2594 893d 552d f73c
000001e0: a9ef ee3b af51 c83c a05b 823c db60 68bc
000001f0: d51b 023e af92 613d 9167 553d 1488 ab3d
0.07454848 0.052444097 -0.010482118 0.0744746 0.081103876 0.11930047 -0.050720625 0.10671383
0.056818902 0.053259272 0.0 0.05942862 0.06302734 0.02542395 0.056894563 0.056878477
-0.039906286 0.002359304 0.11685645 0.06866741 0.063815095 -0.0121320505 -0.018807856 0.08385991
0.06414039 0.068219624 -0.023933848 -0.010575321 -0.013509402 -0.018100379 0.087190226 -0.01077128
-0.008344136 -0.009240426 0.07801974 0.06670021 -0.018204771 0.0 -0.014196487 0.0
0.05015386 0.119206995 -0.013370775 0.08583678 -0.044938225 0.061972633 0.000736582 0.06233102
0.075186566 0.059245784 -0.013685337 -0.011618795 0.097566545 0.07374689 0.0063408106 0.090826355
0.055588763 0.074694425 0.017560394 0.11467611 -0.00517536 -0.017209148 0.0 -0.011344748
-0.020507548 0.07642409 -0.016605 0.09419992 0.07777627 -0.02491855 0.08914094 0.063292496
-0.016401062 0.056117956 0.028104395 0.0 0.080167085 0.08971083 -0.018408556 0.017058287
-0.004777083 -0.011432263 0.07284102 0.07001769 0.07432717 0.045488205 0.042588357 0.067642994
0.09583998 0.045454666 0.06321827 0.095993206 0.06372131 0.0 -0.027255794 0.0667224
0.07954831 0.019527148 0.0 0.07822293 0.0 -0.020872235 -0.017480375 -0.020285796
-0.0019261106 0.0 0.06400894 -0.015125969 0.0 0.13441171 -0.016665963 0.07107542
0.037293438 0.05933742 0.08924931 -0.01271669 -0.014349321 -0.032302994 0.067177095 0.030172983
0.0072917533 0.024453012 0.01591283 -0.014183248 0.1270593 0.05507153 0.05210072 0.08375564

network.4.weight f4 [6, 128]
00000000: 608e 0a3e 3952 203e f99e c23d 7e00 4dbe
00000010: 45f8 a1be d294 1dbe 5824 cebe 5ad3 cdbd
00000020: 7936 06be 3c48 9dbd 54bf 1b3e 25aa 29be
00000030: fe6b d43d 8025 7bbe 90b4 07bd a1be 833d
00000040: d47c ab3d 39d3 0dbd 72a8 88be 9e07 8fbc
00000050: d184 b33e e00e a23d 4712 ad3d 0853 acbd
00000060: 1021 7abe c8e8 b33d 8de3 dd3b d56e 9abe
00000070: 4720 313e 2daf f0bd 36c8 98be 90e1 c03d
00000080: 2911 1a3e 11c9 9f3e 7cd6 4abe 6c2c 1f3d
00000090: 435e 9bbd adb5 443e ae9f bf3d 2a31 33bd
000000a0: 187f 473e 294f b63e 00ef 5cbd d7b7 593e
000000b0: c921 8ebe 3956 4fbe 56d0 87be 91f2 4c3e
000000c0: 9d5f acbd 6dc7 24bd 1130 97bc a8f0 703d
000000d0: e0c9 52be 7f4c 49be d467 1abe 704c a33e
000000e0: 6f2d 46be 16bd adbe b66e 11be ad2d 453e
000000f0: ff7f 2cbe 3139 313c 74e5 153d 2794 4b3d
00000100: 74e7 273d 774f f43d 4610 45bd c45d b63d
00000110: c78c d6bb 4d2a 773d a388 953e b791 473e
00000120: 09b8 463e 99ec a7be 60b9 373d 0124 39bc
00000130: 3c8c dbbc f4d8 82ba 460c 833d 3879 4a3e
00000140: 07b1 15be 8459 24bd 10de 853e 6fee d2bd
00000150: 1177 b4bd 31f8 e03d 7ee3 20be 775b 01be
00000160: dcff 543e 2786 b5be 515c 9a3d e2fa a6be
00000170: 8df6 52be 3315 a63b 13ea 37be 14b8 d6be
00000180: b8e5 d83c e5b3 a6be 256f 573d d4e2 b33e
00000190: a940 e4bd e75e 833e 65c8 043d 00a7 543d
000001a0: 5851 54be 9605 c93b 9ac2 003d 6291 ed3d
000001b0: ab4b 853d be52 973e 457d 053e d5ec 433d
000001c0: d741 e73d 2889 0fbe dcf1 043e 6b3d e4bc
000001d0: cb05 95bc 56d7 773d 8bee 633e c74d 303e
000001e0: d4b8 79be 22d4 babc 6bbe c0bd 83a8 81bc
000001f0: 1136 6f3e 9556 40be 83d9 cc3c cc75 a8be
00000200: bc04 3c3e 83f7 94be 0a75 3f3c ab81 6f3e
00000210: 5117 033d 164d 2d3e aac7 e6bd 019f d63d
00000220: befd 81bd ede5 ca3e ab81 fb3c 3919 b1bd
00000230: 2218 4b3e bfa7 46be 014c 483c 6f92 bdbd
00000240: 8e56 12bf 4359 ddbe a2b5 44be 537b b43d
00000250: 1d2a 12be a5bf 7a3e 427c 0bbe 10b5 de3c
00000260: 1fcb 53bd 6179 0fbd 640b 00be 1240 15bc
00000270: 8e29 23be 6b37 a2be 47d9 cb3e c348 443e
00000280: ab79 3dbe b914 0c3e 4223 883e 82d7 813e
00000290: de0e cabd b5d3 2e3d e2e2 35bc 2edf c9bd
000002a0: 701e 0fbe b586 813e 3fba 84bc 736c 24be
000002b0: 6aa9 82be a804 cb3c f8ff 8a3c 85e8 0bbe
000002c0: 558e 3d3e 2659 af3d ad05 713d 3d43 19bc
000002d0: d36e c6bd 67c6 03bc b2f1 813e cced 5abe
000002e0: 0344 743c b726 8ebd 66f6 063e 835f 6ebe
000002f0: 51b0 b8bd c4b3 be3d 5d5e 93bd ec86 273e
00000300: 0c38 273e 3c8c e83d 99a2 0d3d e776 5c3e
00000310: dff9 1f3d ee82 f9be aa7e 26bd c269 2dbe
00000320: f905 d4bb b758 c6bd 6e64 acbe 7ca8 8f3d
00000330: 797d 5a3e 7a80 753e 02e3 a13d ecc3 98be
00000340: 4388 71be bfff fbbd 6831 22bd 4df8 5fbd
00000350: 3cab 713e 958c 5bbe 8bb9 523e aa2b 2f3c
00000360: 8da5 8cbe 87d0 a9be 295c 6fbe 5deb d33e
00000370: 5a2c 11be e47e cabd 7ac4 2dbd 40c7 aebe
00000380: 5a1c 253e bb41 0c3e 8bd9 1bbd bb7c 85be
00000390: 91b6 d7bd 5b9f 703e 1df1 cc3d 62cb 4f3d
000003a0: 70b5 16be 4c5b 6f3d c2ff 16bd 881b 97bd
000003b0: c418 733d 9674 de3e bede dcbd 9035 ca3d
000003c0: 7501 91be e5e1 cd3c 9681 81bc 1b6f 47be
000003d0: 2eda 0fbd 199b 963a 151c 6d3d 4530 0fbe
000003e0: 8554 ef3e cde0 c23d cca4 bbbd 002f f8bc
000003f0: 59f1 a53d 665a 86be d59e 09be a7ee 9e3e
0.13530874 0.15656365 0.09502978 -0.20019719 -0.31634727 -0.15388802 -0.40262103 -0.10050078
-0.13106717 -0.07679793 0.15209705 -0.16568811 0.103721604 -0.24526024 -0.033131182 0.06432844
0.083734185 -0.034625266 -0.26691014 -0.017459687 0.35062268 0.079129934 0.08450752 -0.084142745
-0.24426675 0.08784634 0.006771511 -0.30162683 0.17297469 -0.11752162 -0.2984025 0.09418023
0.15045609 0.3120809 -0.19808382 0.038860723 -0.07586338 0.19209929 0.09356628 -0.04374806
0.19482076 0.3560727 -0.053938866 0.21261536 -0.2776015 -0.20247735 -0.26526135 0.20014407
-0.08416674 -0.04022925 -0.018455537 0.058823258 -0.20584822 -0.19658087 -0.1507867 0.31894255
-0.19353269 -0.33933324 -0.14202389 0.19255705 -0.16845702 0.010816858 0.036595777 0.049701836
0.040992215 0.11929219 -0.048111223 0.08904603 -0.0065475437 0.060343076 0.29205808 0.1948918
0.19406141 -0.32797697 0.04485452 -0.011300088 -0.026800267 -0.000998287 0.06398825 0.19772804
-0.14618312 -0.04012443 0.26145983 -0.10299384 -0.088117726 0.10984839 -0.15711781 -0.12632547
0.20800728 -0.35453913 0.07537139 -0.32613283 -0.20601864 0.005068445 -0.17960386 -0.41937315
0.026476726 -0.32559124 0.05259623 0.35133994 -0.111451454 0.25658342 0.032417674 0.051917076
-0.20734155 0.006134699 0.031435587 0.11599995 0.06508573 0.29555315 0.13036068 0.047833283
0.11291855 -0.14017165 0.12982887 -0.027861318 -0.018191239 0.060508095 0.22258966 0.1721717
-0.24386913 -0.022806231 -0.09411319 -0.015827423 0.23360468 -0.18783028 0.025006061 -0.32902372
0.18361181 -0.29095086 0.011685619 0.23389308 0.032004658 0.16923937 -0.11268552 0.10479546
-0.063472256 0.39628544 0.030701479 -0.08647389 0.19833425 -0.19399928 0.012225152 -0.092564456
-0.5716332 -0.43232164 -0.19209912 0.08812585 -0.14273877 0.24487169 -0.1362162 0.027185947
-0.051707383 -0.035027865 -0.12504345 -0.009109514 -0.1593382 -0.31682906 0.39814207 0.19168381
-0.18503444 0.1367978 0.265894 0.25359732 -0.09866117 0.04268237 -0.011101456 -0.09857021
-0.13976455 0.25298086 -0.01620209 -0.16056995 -0.25519878 0.024782494 0.016967759 -0.13662918
0.18511327 0.085619256 0.058843303 -0.00935441 -0.09689107 -0.008042908 0.2537971 -0.21379775
0.014908793 -0.06940978 0.13179931 -0.23278622 -0.09018005 0.09311631 -0.07195733 0.16360062
0.16329974 0.113548726 0.034578893 0.21529733 0.039056655 -0.48732704 -0.04064814 -0.16934875
-0.0064704386 -0.0968489 -0.33670372 0.07014558 0.21336927 0.23974791 0.079046264 -0.29836977
-0.23587136 -0.12304639 -0.0395979 -0.054680157 0.23600477 -0.21440347 0.20578592 0.010691563
-0.27470055 -0.33166906 -0.23375 0.41390505 -0.14177075 -0.09887484 -0.042423703 -0.3413639
0.16124097 0.13696949 -0.038049262 -0.26071724 -0.10532869 0.2349829 0.10006926 0.05073107
-0.1471765 0.058436677 -0.036865003 -0.07378298 0.05934979 0.43448323 -0.10784672 0.098734975
-0.28321424 0.025132129 -0.015808862 -0.19475977 -0.03512018 0.0011490315 0.05788811 -0.13983257
0.4674417 0.095155336 -0.09162292 -0.030295849 0.08102674 -0.26240844 -0.13439496 0.31041452

network.4.bias f4 [6]
00000000: 5f1a 023d b2ac 4c3d 054f 3f3d b20e 93b8
00000010: e462 58bd 28ee 65bd
0.03176343 0.049969383 0.04670622 -7.0122434e-05 -0.052828684 -0.056135327
