dqn.pt (torch, 23584 bytes, 6 tensors)

network.0.weight f4 [64, 11]
0	0x3f142bd4	0.57879376
1	0x3f2e9445	0.6819499
2	0xbf4dc042	-0.8037149
3	0x3eb45b57	0.35225937
4	0xbe96a1ef	-0.2942042
5	0x3ef6b13d	0.48182097
6	0xbecaf307	-0.3963854
7	0x3ebc6a0c	0.36799657
8	0xbe42aa15	-0.19010194
9	0x3f06fe21	0.5273152
10	0x3ee8414c	0.45362318
11	0x3f2eaf20	0.6823597
12	0x3f49fe1c	0.78903365
13	0x3f40478f	0.7510919
14	0x3f294bde	0.6613139
15	0x3eaedb20	0.34151554
16	0x3e9ccb4e	0.3062386
17	0xbf137e5d	-0.5761469
18	0x3eb30ed3	0.34972247
19	0x3ec74875	0.38922468
20	0xbeca433f	-0.3950443
21	0xbd74ad4d	-0.059735585
22	0x3ed3a2aa	0.4133504
23	0x3f33819f	0.7011966
24	0xbe0256d6	-0.12728438
25	0xbf40082b	-0.75012463
26	0xbe385516	-0.18001208
27	0x3eb8952c	0.3605131
28	0xbea40ccc	-0.32041013
29	0x3dd606a0	0.10450482
30	0xbedc0967	-0.42975923
31	0x3f126825	0.5719016
32	0x3f1d1745	0.6136363
33	0xbec0a326	-0.37624472
34	0xbf2a72c3	-0.6658136
35	0x3f37a7f7	0.7174067
36	0xbecaf5b0	-0.3964057
37	0xbe76dec6	-0.24108419
38	0x3d501020	0.050796628
39	0x3eaa89f2	0.3330837
40	0x3f8796b0	1.0592861
41	0x3e910bbb	0.28329262
42	0x3f83698e	1.0266588
43	0x3f3eecaf	0.745799
44	0x3e8848b4	0.26617968
45	0x3f1308f8	0.5743556
46	0x3f3e8220	0.74417305
47	0xbedd877b	-0.43267426
48	0xbe9adf16	-0.30248326
49	0xbe7baaa6	-0.24576816
50	0xbed91b4c	-0.42403638
51	0xbdc37e3b	-0.09545561
52	0xbb8d704d	-0.004316366
53	0x3f3420fa	0.7036282
54	0x3e90a62e	0.28251785
55	0x3f4d8704	0.8028414
56	0xbdf57bc1	-0.11986495
57	0x3f460135	0.7734559
58	0xbed07ca4	-0.40720093
59	0xbf311b3a	-0.6918217
60	0x3eb24029	0.34814575
61	0xbe6121e7	-0.21985589
62	0x3f840b05	1.0315863
63	0xbd605e33	-0.054777335
64	0x3f064320	0.52446175
65	0x3f0fc9c6	0.56167257
66	0x3f593794	0.8485043
67	0xbea55869	-0.32294014
68	0xbf5fdfcd	-0.8745087
69	0x3f0497cf	0.5179414
70	0x3c6aa3fc	0.0143213235
71	0xbe17859b	-0.1479706
72	0x3e93ea4c	0.28889692
73	0xbb31b646	-0.00271167
74	0xbf21db20	-0.63224983
75	0x3ef8c74c	0.4858955
76	0x3f1649db	0.58706445
77	0xbe063af1	-0.13108422
78	0xbf200275	-0.6250375
79	0x3ef84f0b	0.48497805
80	0xbf462f0b	-0.7741553
81	0xbf163faf	-0.58690923
82	0xbe832ba5	-0.25619236
83	0x3ecf5fe1	0.40502837
84	0x3f717496	0.9431852
85	0xbeef38b8	-0.4672296
86	0x3ea1fc31	0.3163772
87	0x3f070b7c	0.527519
88	0x3f0cef01	0.5505219
89	0xbe2c1c4b	-0.16807668
90	0x3f3d21da	0.7387978
91	0xbf602758	-0.87560034
92	0xbf83b6fa	-1.0290215
93	0x3d764c6c	0.060131475
94	0xbea8d3ef	-0.32974193
95	0xbe2640bc	-0.16235632
96	0x3ef86e5e	0.48521703
97	0xbe09da66	-0.13462219
98	0xbeeb468f	-0.4595227
99	0xbeffaec9	-0.49938038
100	0x3f31492d	0.6925228
101	0xbe96009c	-0.2929734
102	0xbdfd6323	-0.123724245
103	0xbedbba78	-0.42915702
104	0xbf04347e	-0.51642597
105	0x3ea0e549	0.3142493
106	0xbecf2fe3	-0.40466222
107	0x3e1f4afe	0.15555951
108	0x3f2f85ea	0.6856371
109	0x3f1d432c	0.6143062
110	0xbf8ccb1a	-1.0999482
111	0x3b552401	0.003252268
112	0x3e91f53f	0.2850742
113	0x3f27f04b	0.6560103
114	0xbf0e9dd3	-0.5570957
115	0xbce32a5e	-0.027730163
116	0x3e631d0a	0.22179046
117	0x3ee8c992	0.45466286
118	0x3ecc9582	0.39957815
119	0x3f524e2e	0.8215054
120	0xbea1e240	-0.31617928
121	0x3e96abc8	0.29427934
122	0xbea0dd02	-0.31418616
123	0xbf33f8e0	-0.7030163
124	0xbf5fdce0	-0.87446404
125	0xbe586e5d	-0.2113585
126	0xbf224a90	-0.63395023
127	0x3eb0bdd5	0.3451983
128	0x3cb4b569	0.02205916
129	0x3f5f7624	0.87289643
130	0x3f7d712e	0.99000823
131	0x3f09f5f9	0.5389095
132	0x3d1c4a66	0.03815689
133	0xbf54ab94	-0.8307431
134	0xbf1ef511	-0.6209269
135	0xbf1b71c9	-0.607205
136	0xbc295681	-0.010335566
137	0x3f3f8aec	0.7482135
138	0x3f4cb73d	0.799671
139	0x3f615c8e	0.8803185
140	0x3f5e47ab	0.86828107
141	0x3e87e947	0.26545164
142	0x3f3f0553	0.746175
143	0x3f1a8324	0.60356355
144	0x3db1ccb9	0.08681626
145	0x3f133788	0.5750661
146	0xbf6b3c31	-0.9188872
147	0x3ea845be	0.3286571
148	0x3e41ab47	0.18912993
149	0xbdaa2f09	-0.083097525
150	0x3f03f307	0.51542705
151	0x3e9a7ea5	0.30174747
152	0x3f0bf003	0.54663104
153	0x3ed72273	0.4201847
154	0xbec86365	-0.39138332
155	0xbe8623e8	-0.2619927
156	0x3eba2347	0.3635504
157	0x3f3ff658	0.74985266
158	0x3ded309b	0.115815364
159	0x3c3f7121	0.011684687
160	0x3f6c209b	0.9223725
161	0x3f4c2df1	0.797576
162	0x3efad455	0.4899012
163	0xbbf3c66b	-0.0074394247
164	0x3f385aba	0.7201344
165	0xbd87e94b	-0.06636294
166	0x3c863a29	0.016385155
167	0xbef1bff7	-0.4721677
168	0x3eaa200b	0.33227572
169	0xbf2a08ae	-0.66419494
170	0x3ee1a70f	0.44072768
171	0xbec5ff6b	-0.3867143
172	0x3e83fbf9	0.25778177
173	0xbe972474	-0.2952
174	0xbe77f9a0	-0.24216318
175	0xbee0eae0	-0.43929195
176	0x3f31add6	0.6940588
177	0xbf500278	-0.81253767
178	0xbe99d00d	-0.30041543
179	0x3e932a03	0.2874299
180	0x3c82b593	0.015955722
181	0x3ebd3f7f	0.36962506
182	0xbea1229d	-0.3147172
183	0xbc805914	-0.015667476
184	0xbf027104	-0.509537
185	0x3cf215aa	0.029551346
186	0x3eec5237	0.46156475
187	0xbf2ff766	-0.68736875
188	0xbe1dd116	-0.15411791
189	0x3ebf46e9	0.37358788
190	0xbd9f4a04	-0.07777789
191	0x3d41714f	0.0472272
192	0x3f0e0b04	0.5548556
193	0xbe654e9d	-0.2239327
194	0xbd11bb09	-0.03557876
195	0x3f051eed	0.52000314
196	0x3f54b059	0.83081585
197	0xbdbdc430	-0.092659354
198	0xbf33acc1	-0.70185477
199	0x3e662cc8	0.2247802
200	0x3f28800e	0.65820396
201	0x3f2fdd51	0.6869708
202	0xbe6584d1	-0.22413947
203	0xbe33d671	-0.17562272
204	0xbea6967f	-0.32536694
205	0xbeefc4e0	-0.4682989
206	0x3f004305	0.50102264
207	0xbea6dc7f	-0.325901
208	0x3f37606e	0.71631515
209	0x3f02b810	0.5106211
210	0x3f40b8e2	0.7528211
211	0xbf7d2089	-0.9887777
212	0x3f190844	0.5977824
213	0x3d380a0a	0.04493145
214	0x3dea6d8b	0.11446675
215	0x3e14e50d	0.14540501
216	0xbf1bdf7c	-0.60887885
217	0x3f130c0b	0.5744025
218	0xbecceb8e	-0.40023464
219	0x3e756d2e	0.2396743
220	0xbf3edd89	-0.74556786
221	0x3dfdd2dd	0.123937346
222	0x3db8d63f	0.09025239
223	0xbd39c1ec	-0.045350954
224	0x3f5a5fa1	0.8530217
225	0xbf472354	-0.7778828
226	0xbec0c4e8	-0.37650228
227	0x3ec37beb	0.3818048
228	0x3ee9710b	0.45594057
229	0xbdccf6d9	-0.1000802
230	0xbddd9bc8	-0.108207285
231	0x3f485bee	0.78265274
232	0xbf1ce49c	-0.6128633
233	0x3f8078e3	1.0036892
234	0xbf64f3e9	-0.8943468
235	0xbddcce91	-0.10781587
236	0xbed6c26f	-0.41945216
237	0xbe79e566	-0.24403915
238	0xbee9507b	-0.45569214
239	0x3eb2ea6f	0.34944484
240	0x3eccf12e	0.40027755
241	0xbf49aed9	-0.7878242
242	0xbf242769	-0.64122635
243	0xbf58e638	-0.84726286
244	0xbf3198c6	-0.6937374
245	0xbf4c4ba9	-0.7980295
246	0x3e455554	0.19270831
247	0xbf38b79f	-0.72155184
248	0x3f295ea4	0.66160035
249	0x3f67f2c5	0.9060481
250	0xbe0c1dec	-0.1368329
251	0x3e0f2a65	0.13981016
252	0xbe402f24	-0.18767983
253	0x3f811cdc	1.0086932
254	0xbd7aa390	-0.06119114
255	0xbf32510f	-0.69654936

network.0.bias f4 [64]
0	0x3deb4aa6	0.114888474
1	0x3d854b2d	0.06508479
2	0x3e011a87	0.12607776
3	0x3eaeb1db	0.34120068
4	0x3e1fe86d	0.15616007
5	0x3e124702	0.142849
6	0x3d8cf441	0.06882525
7	0x3e961c65	0.29318538
8	0xbe58e087	-0.211794
9	0x3e75ccf2	0.24003962
10	0x3eae41f9	0.34034708
11	0x3eb4492e	0.35212082
12	0x3e562cdc	0.2091555
13	0x3e3a1b77	0.1817454
14	0x3e424007	0.18969737
15	0x3dc83c01	0.0977707
16	0x3e4d09fa	0.20023337
17	0x3e9ea073	0.30981788
18	0x3e614c3b	0.22001736
19	0x3e0461e2	0.12927964
20	0xbdfe505d	-0.12417672
21	0xbac779c5	-0.0015218785
22	0x3eac3bca	0.33639365
23	0x3cd0707b	0.02544426
24	0x3e020999	0.12698974
25	0x3df0882c	0.11744723
26	0x3da256f0	0.07926738
27	0xbe1f86c3	-0.15578751
28	0x3e6dc7cd	0.23220749
29	0x3d65ef42	0.056136377
30	0x3eb931c5	0.36170784
31	0x3bee2da9	0.0072686267
32	0x3e8679a2	0.26264673
33	0x3d777b0b	0.060420077
34	0x3cbae827	0.022815777
35	0x3d277ee6	0.040892504
36	0x3dd6abac	0.104819626
37	0x3e76b6af	0.24093126
38	0x3dcc2f40	0.0996995
39	0x3e753668	0.23946536
40	0x3e9b89cc	0.30378568
41	0x3e632d8a	0.2218534
42	0x3e077512	0.13228253
43	0x3db89849	0.09013421
44	0xbd809c83	-0.06279852
45	0x3e058593	0.13039236
46	0x3e081037	0.13287435
47	0x3eaddce0	0.33957577
48	0x3e44b119	0.19208182
49	0x3d954e73	0.072903536
50	0x3e273d63	0.16332011
51	0x3e0966a6	0.13418064
52	0x3e800a82	0.25008017
53	0x3eb413ed	0.35171452
54	0x3cf7c8d7	0.030247135
55	0x3d460a32	0.048349567
56	0x3d0c113b	0.03419612
57	0x3e50b764	0.20382458
58	0x3e8600af	0.26172397
59	0x3c1ee25d	0.009697524
60	0x3d84f9b1	0.06492937
61	0xbc2e9cd5	-0.010657509
62	0x3e57ba33	0.21067123
63	0xbd24bc1b	-0.040218454

network.2.weight f4 [64, 64]
0	0xbd12c9cb	-0.035836976
1	0xbea1efca	-0.31628257
2	0xbe93d7a7	-0.28875467
3	0x3e134311	0.14381053
4	0x3a808922	0.0009806494
5	0x3e8b7449	0.27237156
6	0x3da7ea42	0.08198978
7	0x3ef1fdda	0.47263986
8	0xbe8dbd7d	-0.2768363
9	0x3ee5abba	0.4485758
10	0x3ed1d85a	0.40985376
11	0x3f081040	0.53149796
12	0x3f0d52ad	0.5520428
13	0x3d974326	0.073858544
14	0x3dd2dcf0	0.10296047
15	0x3d60f697	0.054922666
16	0x3deeff4a	0.11669786
17	0x3e93dcb8	0.28879333
18	0xbe4559c7	-0.19272529
19	0xbe50c45c	-0.20387405
20	0x3ec2484a	0.37945777
21	0xbe8d9258	-0.27650714
22	0x3f23c547	0.63972896
23	0xbd5c69f9	-0.053812
24	0xbe4cda39	-0.2000512
25	0xbe5c2698	-0.21499097
26	0xbe8de863	-0.2771636
27	0xbf037f53	-0.51366156
28	0xbe33ec98	-0.17570722
29	0xbe2af933	-0.16696624
30	0x3f2a990a	0.6663977
31	0xbe8bc84d	-0.27301255
32	0x3da0e6bd	0.0785651
33	0xbd8221b7	-0.06354087
34	0xbeb4233c	-0.35183132
35	0xbed75103	-0.42053995
36	0xbdf4c032	-0.11950721
37	0xbd0d90a7	-0.03456178
38	0xbe3844bb	-0.17994969
39	0x3e53d7a2	0.20687726
40	0x3da1f6f1	0.079084285
41	0xbe314c3f	-0.17314242
42	0x3e82c0db	0.25537762
43	0xbea66d73	-0.32505378
44	0x3e0194a0	0.12654352
45	0x3e589911	0.2115214
46	0x3ec0dd2e	0.37668747
47	0x3e721703	0.23641591
48	0x3e99ee16	0.30064458
49	0x39891e4e	0.00026153255
50	0x3e122076	0.14270195
51	0xbe3e3d69	-0.18578114
52	0x3ee1af4c	0.44079053
53	0x3d0620af	0.032746013
54	0xbed91365	-0.4239761
55	0xbe0ece35	-0.13945849
56	0xbf0a5c99	-0.5404754
57	0x3df2665a	0.11835928
58	0x3e1e0f75	0.15435584
59	0xbcae5c6b	-0.021284303
60	0xbe9c9516	-0.30582494
61	0x3e0f9de1	0.1402507
62	0x3e388b8e	0.18021986
63	0x3e113aa5	0.14182527
64	0xbdeaae3c	-0.11459014
65	0x3cccf08d	0.025017047
66	0x3e40d1fc	0.18830103
67	0x3def2781	0.11677457
68	0x3e003ebb	0.1252393
69	0x3db957d3	0.09049954
70	0xbe501640	-0.20320988
71	0xbe2eec5e	-0.17082354
72	0xbe20909a	-0.15680161
73	0xbdad7c50	-0.08470976
74	0xbe77b321	-0.24189426
75	0x3dbe9329	0.09305412
76	0x3b5d9acc	0.003381419
77	0xbe50df8f	-0.20397781
78	0xbe414cd8	-0.1887697
79	0x3d4d3a3a	0.050104357
80	0xbd2b083f	-0.04175591
81	0x3cf29e7d	0.029616589
82	0xbe015bc6	-0.12632665
83	0xbe0c7dcb	-0.13719861
84	0x3dd09222	0.101841226
85	0xbce24970	-0.027622908
86	0xbe46dc70	-0.19420028
87	0xbe958ff7	-0.292114
88	0xbe915e70	-0.28392363
89	0xbe12fa78	-0.14353359
90	0xbe29111e	-0.16510436
91	0xbd5c0dc0	-0.05372405
92	0xbe0c8e16	-0.13726076
93	0xbe9148f5	-0.28375974
94	0x3e46c4c1	0.19410993
95	0xbe0a79e3	-0.13523059
96	0x3e44d68f	0.19222473
97	0xbe714912	-0.2356303
98	0x3cfab7d4	0.030605234
99	0xbe0c7c03	-0.13719182
100	0x3d5d4cb8	0.054028243
101	0xbe818810	-0.2529912
102	0xbe202c05	-0.15641792
103	0xbe94c019	-0.2905281
104	0x3e3d59ac	0.18491238
105	0x3e47a496	0.19496378
106	0xbe872391	-0.26394323
107	0x3d932773	0.07185259
108	0xbdea91be	-0.11453579
109	0x3e7aecf6	0.24504456
110	0xbe1eb026	-0.15496883
111	0xbe1ca612	-0.15297726
112	0x3e63978c	0.2222578
113	0x3da977ee	0.08274828
114	0x3d95436e	0.07288252
115	0xbe0af85d	-0.13571306
116	0x3d9218a1	0.07133604
117	0xbd7276af	-0.059195217
118	0xbe81679c	-0.2527436
119	0xbe060ddf	-0.13091229
120	0xbdd1a281	-0.10236073
121	0x3e0a6cd1	0.13518073
122	0x3e8c7a6f	0.2743716
123	0x3cfce79d	0.03087216
124	0x3d7a9905	0.061181087
125	0xbe08b7ee	-0.13351414
126	0x3e861a9a	0.2619217
127	0xbd689701	-0.056784634
128	0x3c4188f4	0.011812437
129	0x3c0a3801	0.008436204
130	0x3e73e646	0.23818311
131	0xbd613f91	-0.054992262
132	0x3ebc4a80	0.3677559
133	0x3ee69069	0.4503205
134	0x3ec89e43	0.39183244
135	0xbdd376be	-0.10325383
136	0xbdc05cea	-0.09392722
137	0x3d59dd02	0.053189285
138	0xbcb84323	-0.02249295
139	0xbce67a44	-0.028134473
140	0x3e85efaa	0.26159412
141	0x3eefa9d6	0.46809262
142	0xbd4f1e59	-0.05056605
143	0xbec41f7a	-0.38305265
144	0x3f0c0a9e	0.547037
145	0xbd8c56cb	-0.06852492
146	0xbecb6b2c	-0.39730203
147	0x3ea10dfc	0.31455982
148	0xbe8839b5	-0.26606527
149	0x3e4dad44	0.20085627
150	0xbe806fb0	-0.2508521
151	0x3ec255d2	0.379561
152	0xbeeca726	-0.46221274
153	0x3e9e9b07	0.3097765
154	0x3dff1fa4	0.12457207
155	0xbda4a761	-0.080397375
156	0x3daa7ae1	0.083242185
157	0xbea39e0a	-0.31956512
158	0xbca662dd	-0.020310814
159	0x3cbf7ac8	0.023373976
160	0x3e4d8e4f	0.20073818
161	0x3ea36e94	0.31920302
162	0xbe32991a	-0.17441216
163	0x3e63701c	0.22210735
164	0xbdcd504d	-0.10025082
165	0x3e5a017e	0.21289632
166	0xbe40a9e7	-0.18814813
167	0x3d6ede9c	0.058317766
168	0x3cc79b87	0.024366153
169	0x3e94337b	0.28945526
170	0x3e24ccb9	0.1609372
171	0x3e28eb5e	0.16496035
172	0x3d827279	0.0636949
173	0x3d97457f	0.07386302
174	0x3e48a5f0	0.1959455
175	0x3b35256b	0.002764071
176	0xbe1ac65c	-0.1511473
177	0x3e5b81a5	0.21436174
178	0x3e0f9ebb	0.14025395
179	0x3eabedb9	0.33579805
180	0xbec17a57	-0.3778865
181	0xbec557ac	-0.3854345
182	0x3db05df6	0.086116716
183	0x3eafca14	0.3433386
184	0xbde230ef	-0.110444896
185	0xbea1f3c5	-0.31631294
186	0x3e8659b6	0.2624032
187	0x3ea63bfa	0.32467633
188	0x3e7948bc	0.24344152
189	0xbb7d6a3e	-0.0038668062
190	0xbdc5ba71	-0.096547015
191	0x3e20f33e	0.1571779
192	0xbd32ffb6	-0.043700896
193	0xbe57f853	-0.21090822
194	0x3f1e095f	0.6173305
195	0x3ed1f120	0.41004276
196	0x3e8f4fbb	0.27990517
197	0x3e9ea0d6	0.30982083
198	0x3e96474b	0.29351267
199	0xbe4b0d9d	-0.19829412
200	0x3e8e3997	0.27778313
201	0x3e7291eb	0.23688476
202	0x3e55f6b2	0.20894888
203	0xbe5383e1	-0.20655777
204	0xbeae9782	-0.34099966
205	0x3ebb7a36	0.36616677
206	0xbcf8ff12	-0.030395065
207	0xbde78572	-0.113047495
208	0x3ba7bdc1	0.005119056
209	0x3f155aef	0.5834188
210	0x3f18bfbb	0.5966756
211	0x3d508f50	0.050917923
212	0x3ea6abc1	0.32552913
213	0xbb88bdc7	-0.004173014
214	0xbe3ba0cc	-0.18323058
215	0x3efe3690	0.49651003
216	0x3efc3d51	0.4926553
217	0xbe988765	-0.29790798
218	0xbdbb2996	-0.09138791
219	0xbe100d6b	-0.14067619
220	0x3ef0b6ec	0.47014558
221	0x3cf2d4a4	0.02964241
222	0x3e7be035	0.24597247
223	0xbdb49689	-0.08817775
224	0x3e7a3f08	0.24438107
225	0x3e95e041	0.29272655
226	0xbd1e2509	-0.03860954
227	0x3ead8757	0.3389232
228	0x3c76c8da	0.015062535
229	0x3d16b762	0.03679598
230	0x3eafc58f	0.34330413
231	0x3ea269ba	0.31721288
232	0xbe6e6b84	-0.23283201
233	0x3eb1950f	0.34684035
234	0x3ecf8537	0.40531322
235	0x3df267ab	0.11836179
236	0xbdab994a	-0.08378847
237	0x3b63809c	0.0034714108
238	0x3e74131e	0.23835418
239	0xbcf3c25f	-0.02975577
240	0xbdff03a4	-0.12451866
241	0xbe8463a0	-0.25857258
242	0xbe07118b	-0.13190286
243	0x3e173575	0.14766486
244	0x3ed10fdf	0.4083242
245	0x3e9f5113	0.31116542
246	0x3e31b8fe	0.17355725
247	0xbe8c7800	-0.27435303
248	0x3eef2eb3	0.46715316
249	0xbd2b2831	-0.041786376
250	0x3ef058e9	0.46942833
251	0x3ed4b4be	0.41544145
252	0xbdc2b55a	-0.09507246
253	0xbd66e9fb	-0.056375485
254	0x3ebcda66	0.36885375
255	0x3eaa93bc	0.33315837

network.2.bias f4 [64]
0	0x3e862bbd	0.26205245
1	0x3ce7db30	0.028302759
2	0x3ddb90f5	0.10721008
3	0x3e2fbca0	0.17161798
4	0x3c31fc1c	0.01086333
5	0xbd793bfe	-0.06084823
6	0xbd0ce6d8	-0.034399837
7	0x3e58e81c	0.21182293
8	0x3dbda63d	0.09260223
9	0xbd25d1c8	-0.040483266
10	0xbd624609	-0.055242572
11	0x3dd15462	0.10221173
12	0x3dd1ca6b	0.10243686
13	0x3e47941a	0.1949009
14	0x3e3ec8f4	0.18631345
15	0x3d6487a5	0.055793423
16	0x3bbae212	0.005703219
17	0xbb7f1c29	-0.0038926697
18	0xbbfbb4c6	-0.007681462
19	0xbcacca12	-0.021092448
20	0x3e97c8db	0.29645428
21	0x3e129646	0.14315137
22	0x3cd1386d	0.025539601
23	0x3e720798	0.2363571
24	0x3ca262e2	0.019822542
25	0xbd263eed	-0.040587354
26	0x3d9cd348	0.07657486
27	0x3dbcf702	0.092268005
28	0x3d051be0	0.032497287
29	0x3d315768	0.043296248
30	0xbd411513	-0.04713924
31	0x3dea07ab	0.11427244
32	0x3e264302	0.16236499
33	0x3d697348	0.056994706
34	0x3e2e8c82	0.17045787
35	0xbbbfe801	-0.0058565144
36	0x3df6c988	0.12050158
37	0xbd76ac4d	-0.060222913
38	0x3d7b3867	0.061333086
39	0xbb95e8e1	-0.0045748805
40	0x3e4f8d3f	0.20268725
41	0x3ca14772	0.019687388
42	0x3d63cb78	0.055613965
43	0x3b99154e	0.004671729
44	0x3d027bfe	0.03185653
45	0xbcf64551	-0.03006235
46	0xbad9dc18	-0.0016621379
47	0x3e5de714	0.2167018
48	0xbcb92353	-0.022599852
49	0x3e0732e9	0.13203014
50	0x3d80f8c1	0.06297446
51	0x3d0fb27a	0.035082318
52	0x3e5d730d	0.2162592
53	0x3d390b91	0.045177046
54	0x3cae7e93	0.02130059
55	0xbc92fd2c	-0.017942987
56	0x3e1ed2cb	0.15510099
57	0x3d8534a0	0.06504178
58	0x3e071a8e	0.13193724
59	0x3d3ed9a8	0.046594292
60	0x3dc0ae58	0.094082534
61	0x3d9f7121	0.077852495
62	0xbcc0c3a2	-0.023530785
63	0x3de828ef	0.113359325

network.4.weight f4 [6, 64]
0	0x3e8b9d25	0.2726833
1	0x3e8551f4	0.26039088
2	0xbe01a50b	-0.12660615
3	0xbe6c7c1f	-0.23094223
4	0x3c079ddc	0.008277383
5	0xbc699003	-0.0142555265
6	0x3d020a8f	0.03174835
7	0x3eb4e4ee	0.3533091
8	0xbeb6a995	-0.35676256
9	0x3e7a584d	0.24447747
10	0xbd7f0f0a	-0.0622702
11	0x3e6f4b71	0.23368622
12	0xbec977ba	-0.39349157
13	0x3e83ba65	0.25728145
14	0x3f0d4f39	0.5519901
15	0x3eb3adb8	0.35093474
16	0xbe801071	-0.25012544
17	0xbd8434db	-0.06455394
18	0x3d3738c0	0.044731855
19	0x3e78e255	0.24305089
20	0x3f0237c5	0.5086635
21	0xbef516dd	-0.47869006
22	0x3e0d3936	0.13791355
23	0x3ee8267c	0.4534186
24	0xbe94f9f9	-0.29096964
25	0xbddcaf9e	-0.10775684
26	0x3dc56e77	0.0964021
27	0x3decdf00	0.115659714
28	0x3ec4bc71	0.3842502
29	0x3d312447	0.043247487
30	0x3e086c32	0.13322523
31	0xbea06b8e	-0.31332058
32	0xbf08773b	-0.5330693
33	0xbe9d40e0	-0.30713558
34	0x3eba914e	0.36438984
35	0x3d94c491	0.072640546
36	0x3e8f7419	0.28018263
37	0x3eb78677	0.35844776
38	0xbed0c7c8	-0.4077742
39	0x3ec1717c	0.37781894
40	0x3ed54dee	0.41661018
41	0x3ec5304e	0.38513416
42	0x3d91e3df	0.07123541
43	0xbe919070	-0.2843051
44	0xbe217c7d	-0.15770145
45	0x3dd7b0c0	0.10531759
46	0xbe9bbccb	-0.30417475
47	0x3e826427	0.25467035
48	0xbe7ba310	-0.24573922
49	0xbed57102	-0.4168778
50	0xbee62309	-0.44948605
51	0x3ecdeb26	0.40218467
52	0x3e9204b8	0.28519225
53	0xbef76790	-0.483212
54	0x3e77f2a8	0.2421366
55	0x3dfd3946	0.1236444
56	0x3e59a9ff	0.21256255
57	0xbe8855b2	-0.2662788
58	0xbf013858	-0.504766
59	0x3dca33f5	0.09873191
60	0x3e5034da	0.20332661
61	0x3ea51b7c	0.3224753
62	0xbe4c4dad	-0.19951506
63	0xbe65d5b0	-0.22444797
64	0x3e4a6ff8	0.19769275
65	0xbd6131d1	-0.05497915
66	0xbf108456	-0.5645193
67	0x3ec59459	0.38589743
68	0xbdb82c14	-0.08992782
69	0x3dc7bd3b	0.0975289
70	0x3e85f5dd	0.2616414
71	0x3ebf754d	0.3739418
72	0xbe831a6d	-0.256061
73	0x3da23fc5	0.07922319
74	0x3e5107a4	0.20413071
75	0x3ea622b9	0.32448366
76	0x3d4ef16f	0.050523218
77	0x3ec07dd8	0.3759601
78	0x3e9cb345	0.30605522
79	0xbeee9d55	-0.4660441
80	0xbea8d463	-0.32974538
81	0x3df840f2	0.12121762
82	0x3e93ebc3	0.2889081
83	0xbea59466	-0.32339782
84	0x3f0e7842	0.5565225
85	0x3ef21655	0.47282663
86	0xbf2446c8	-0.64170504
87	0x3f0235ad	0.5086315
88	0xbe64652f	-0.22304223
89	0x3d289b6b	0.041163843
90	0xbdc63211	-0.09677518
91	0xbcd67ea0	-0.026183426
92	0xbe35d2f5	-0.17756255
93	0xbe178e49	-0.14800371
94	0xbe3f5725	-0.18685587
95	0x3e20fe6f	0.15722059
96	0xbdde3490	-0.10849869
97	0x3d4e789b	0.050407987
98	0xbe0b8926	-0.13626537
99	0x3e4a51dc	0.1975779
100	0x3dbda52c	0.0926002
101	0xbec79c4d	-0.38986436
102	0x3ebde640	0.3708973
103	0xbf2301c7	-0.63674587
104	0x3f064ed5	0.5246404
105	0x3e22dadb	0.15903799
106	0xbea54e4b	-0.32286295
107	0xbf3600a3	-0.7109472
108	0xbebd0eae	-0.36925262
109	0xbead8a47	-0.3389456
110	0x3d1eca7a	0.038767315
111	0x3f08cb8e	0.534356
112	0xbe7c2bb4	-0.24626046
113	0xbf0cf4a8	-0.55060816
114	0xbed2baa9	-0.41158035
115	0xbede295a	-0.43390924
116	0x3e714be2	0.23564103
117	0x3e8f0fd5	0.27941766
118	0x3e3e1e78	0.1856631
119	0x3e81ac0b	0.2532657
120	0x3f10731e	0.56425655
121	0xbe937c84	-0.28805935
122	0x3db767fc	0.0895538
123	0x3e32b9d3	0.17453699
124	0x3eced5c1	0.40397456
125	0x3c4a7326	0.012356555
126	0x3cdac001	0.026702883
127	0x3e801cf8	0.250221
128	0x3e5542bf	0.20826243
129	0x3e0246de	0.12722346
130	0xbdfc517d	-0.1232023
131	0xbe8a18f0	-0.2697215
132	0x3e12e793	0.14346151
133	0x3e800369	0.25002602
134	0xbe35d3cc	-0.17756575
135	0x3f190998	0.59780264
136	0x3c68c759	0.014207684
137	0x3d917798	0.07102889
138	0xbec88ff3	-0.39172325
139	0x3e8232d8	0.25429416
140	0x3d4a5003	0.04939271
141	0x3eeddc96	0.46457356
142	0x3d9a5203	0.07535174
143	0x3eb3e338	0.35134292
144	0xbf027001	-0.50952154
145	0x3e07f628	0.13277495
146	0x3d9ef4b8	0.0776152
147	0x3c996131	0.018723102
148	0x3efc9070	0.49328947
149	0x3e8e8769	0.27837685
150	0xbbab9a2b	-0.005236884
151	0x3ed85659	0.42253378
152	0xbd25dd87	-0.040494468
153	0x3de782a2	0.11304213
154	0x3ee303a1	0.44338706
155	0xbf0d7f97	-0.5527281
156	0xbed51a5d	-0.41621676
157	0x3d2caf7d	0.042159546
158	0x3cc19a09	0.02363302
159	0xbee3beea	-0.44481593
160	0x3f115c97	0.56781906
161	0xbe80924e	-0.25111622
162	0x3effb08f	0.4993939
163	0xbeda3ea0	-0.42625904
164	0x3d675901	0.056481365
165	0xbf104464	-0.56354356
166	0xbee32d57	-0.4437053
167	0x3dc5b785	0.09654144
168	0x3ed78651	0.42094663
169	0xbe8e4ae0	-0.277915
170	0xbd902b02	-0.07039453
171	0xbe0ea017	-0.13928257
172	0xbe989dc2	-0.2980786
173	0xbede583b	-0.4342669
174	0xbd0efd7e	-0.034909718
175	0x3e301f2f	0.17199396
176	0xbe9213fb	-0.2853087
177	0xbcfb605f	-0.030685602
178	0x3dcbe565	0.09955863
179	0x3eef310c	0.46717107
180	0x3ed08c5d	0.4073209
181	0xbc44affa	-0.012004847
182	0xbe8b16dc	-0.27165878
183	0xbed19779	-0.40935877
184	0x3dff2f89	0.124602385
185	0xbc1c5f53	-0.009544211
186	0xbe0c183b	-0.13681118
187	0x3eeb805e	0.45996374
188	0xbee0a833	-0.43878326
189	0x3e83093b	0.2559298
190	0xbe50a236	-0.20374379
191	0xbb99f25d	-0.0046980814
192	0x3f24e5e1	0.6441327
193	0xbd6f127e	-0.058367245
194	0x3e7e3364	0.24824291
195	0x3dec137d	0.115271546
196	0xbe97c62e	-0.29643387
197	0xbf3af2d6	-0.7302679
198	0xbe1f1335	-0.1553467
199	0x3e9b33b9	0.303129
200	0x3e6e349f	0.23262261
201	0xbe3fc54a	-0.18727604
202	0x3da089c8	0.0783878
203	0xbe969210	-0.29408312
204	0x3e0c6b5e	0.13712832
205	0x3ed6b3d2	0.41934067
206	0x3f0a36b8	0.53989744
207	0xbdf3d2c0	-0.11905432
208	0xbed32473	-0.41238746
209	0x3e75fc98	0.24022138
210	0x3e0a2b29	0.13493027
211	0xbe006304	-0.12537771
212	0x3f05bfe6	0.5224594
213	0xbdb68bcf	-0.08913385
214	0x3eac57da	0.33660775
215	0x3d665f80	0.05624342
216	0xbd255e81	-0.04037333
217	0xbdd19e86	-0.10235314
218	0xbea91910	-0.33026934
219	0xbe33e231	-0.17566754
220	0x3e45990d	0.19296665
221	0x3edd8c93	0.43271312
222	0xbe20f043	-0.15716653
223	0xbf08dcae	-0.5346173
224	0x3e93cbf7	0.2886655
225	0x3db6c090	0.08923447
226	0x3ee862f6	0.45388
227	0xbe77569c	-0.24154133
228	0xbe1366c5	-0.14394672
229	0xbde01321	-0.109411485
230	0xbd9a4e80	-0.07534504
231	0x3da3f66d	0.08005986
232	0x3edaf344	0.42763722
233	0x3cab0e67	0.020880891
234	0xbe8fff6c	-0.2812456
235	0x3db920e9	0.0903948
236	0xbed0fd35	-0.40818182
237	0x3e99d7f2	0.30047566
238	0x3e3691fc	0.17829126
239	0x3ebc6b9f	0.36800858
240	0x3e040c1a	0.12895241
241	0x3dd9267b	0.10603043
242	0xbea0998c	-0.31367147
243	0xbea0de52	-0.31419617
244	0x3e965a28	0.2936566
245	0x3da4c138	0.08044666
246	0x3e58b2cc	0.21161956
247	0x3dd679bb	0.10472437
248	0x3e477539	0.1947831
249	0xbe3b1252	-0.18268707
250	0x3e682644	0.22670847
251	0xbf44bf5a	-0.7685448
252	0x3eac90e4	0.33704293
253	0x3d89ca9e	0.06728099
254	0x3d950df7	0.07278054
255	0xbec26980	-0.37971115

network.4.bias f4 [6]
0	0x3be636fe	0.0070255985
1	0x3e594cc4	0.2122069
2	0x3de4ffa9	0.11181576
3	0x3dab2634	0.08356896
4	0xbd5a4f30	-0.053298175
5	0xbd6384fc	-0.055546746
