dqn.pt (torch, 77600 bytes, 6 tensors)

network.0.weight f4 [128, 11]
00000000: 8eb0 0e3f cb53 483d b7d2 5a3d d1dd 823e
00000010: 50cf 62be e31b cd3d 14ca fc3c dbc1 3c3e
00000020: 6845 833f 350f 12bf d06b 183d 1184 e63d
00000030: e649 873e 5592 58be 8a9f 56be ab8f 993e
00000040: a4a0 173e a02d cabd 80c3 313e 1001 253f
00000050: ffa2 b83e 9e5f c33e a31b a6bd efed 17be
00000060: 2bb7 6e3e 5e21 f63e cb93 82bf 975c 323f
00000070: e7b3 bcbd a9f0 05bd 4378 873e 2df2 cbbe
00000080: cf5e 77bf 645b 963e 6ca4 ba3e b6a1 de3c
00000090: 0820 b9bc cfd0 e13e 595d 25bf 6478 103f
000000a0: 657b 6d3e 8210 c53e 1e0d 29be 3d5f 1dbf
000000b0: 1116 13bf a218 a5be 990d 48be d646 0b3f
000000c0: 672f d2bb f204 5c3f a36e 56be 9c43 eabe
000000d0: 52f2 29be 1ecd f63e ba76 3a3e 2b52 4b3e
000000e0: 2d19 573e 97c2 68be 45fb 32be 63f3 85be
000000f0: e0d3 f6be 40c2 0bbf 5d78 603d 2211 933f
00000100: 4ca0 c73e b7d6 4e3e 3ed5 5ebf 8e4b 04bf
00000110: 64f6 8ebe c23c 5fbf 90b8 e7be 0b61 12bf
00000120: 7361 0dbf eec8 193f 962d b63d 7be0 ab3d
00000130: 3800 2abf 4419 bfbd fc5d 33be 0383 2dbf
00000140: 2b55 823e 7e5d bf3e 48ce fa3e e8ee 973e
00000150: 6c78 fa3e 2b22 6c3e 3b5b ef3d 57d1 513d
00000160: 08c3 8e3d 0963 dd3e 52af 1d3e 45c1 6d3e
00000170: 48cc 473d 8679 0b3f 19a6 a63e 2359 c6be
00000180: e35b e63c 9e32 8fbc e1c7 adbe 1e64 b0bd
00000190: 608b 6e3d b97d 993e 0b0b b1be a74a e4bd
000001a0: a9b0 ea3a a11b 14be 1a21 543e 0a0f d43e
000001b0: 6eaf 0ebd 5b00 07bf 02c2 5c3e 1544 5c3f
000001c0: 4bad f8bc 326b 61be 99ed 01bf d4cb 38bf
000001d0: 9e53 60bf 0da3 db3d d97b 98be a019 713c
000001e0: be0b 563f 9385 9f3e f231 afbe 129d 3cbc
000001f0: 1746 893c dafb f7bc 6d30 ac3d 942b bb3d
00000200: e096 08be 2ae7 edbe 896b 32bf bf7f f33d
00000210: af85 09bf 7c3b 0c3f 28c6 c2be af54 a03e
00000220: 6bc6 3fbe 60e9 f9bd c2d4 afbe 312f 94be
00000230: 9522 e43e 7e82 eebe 3596 14bf a55a f9be
00000240: 9624 43bf 8508 e5bd e95e be3e 70ec b63e
00000250: 7515 693f c585 483f 287c e8be 629a 54be
00000260: 2030 64bc 598a 27be 677c 00bf 0403 99be
00000270: dcbb 523f ce64 ca3e ea13 b73e a6b1 64be
00000280: e3f7 73bd 5b5e 56bc 512f b3be c481 493e
00000290: 6036 b13e 2fa8 84be e022 d53e 876b 1d3e
000002a0: 4f95 28bd 5e1f c13d 1816 a13d b24a f9be
000002b0: f642 58bf 15d5 ab3e 78f4 da3e 2ab2 9fbe
000002c0: 609c 8b3c 85b0 a23e c394 8f3e a4b6 10be
000002d0: 0638 22bf d014 3a3d efe5 a43e 5e7c e6be
000002e0: c41f 08bf df39 c4be f870 233e 96a3 163f
000002f0: a837 55bf 8247 d6be 6a24 453d 3f4d 0bbe
00000300: 2a8f be3e 1a7c dabe 11c3 87be f147 063f
00000310: 1df6 e53e b5ae 3bbe cd5c fd3c 4b76 ab3d
00000320: f2b9 0d3f 81a0 4c3f 3952 01bf 40e0 803e
00000330: a0c2 54bf d864 943d 5a6c a03e 8b92 c53d
00000340: da04 55bd dc52 92be 1503 d63d ee50 103e
00000350: 8e03 533f c881 8a3e 22c7 653e d45e 1f3d
00000360: 764a 7abf c7e6 ce3e 7589 c83e a17b d9be
00000370: f5f0 4f3f b0f5 a3be f4a9 853e e673 ac3e
00000380: 93b3 18be d325 2cbe ca75 8e3e 7de2 be3e
00000390: 598d 303f 59b3 c43d b26a 8abe 2e3b 4e3e
000003a0: 75c2 5d3f ee62 aebe a52b 153e 50b8 6c3f
000003b0: 21ce 113f cd44 43be 778b 34bf fde4 a7be
000003c0: eb7b 04bf be73 6dbe a19f c6bd 1e2b f8bd
000003d0: 676b a33d 4b09 25be 9089 af3a 101c 3a3f
000003e0: 71cc 833e b9e6 6a3e 6c62 fcbc 2c07 603e
000003f0: 08be 303e 95a7 123d 9b63 3fbf 6512 74be
0.5573815 0.048908036 0.05342361 0.25559857 -0.22149396 0.100150846 0.030858077 0.18433325
1.0255556 -0.57054454 0.037212193 0.112556584 0.26423568 -0.21149571 -0.20959297 0.29992422
0.14807373 -0.098719835 0.17359734 0.64454746 0.36061856 0.38158888 -0.0811074 -0.14836858
0.2331206 0.48072332 -1.0201353 0.6967253 -0.09214001 -0.032700215 0.2645894 -0.39833203
-0.9662904 0.293666 0.3645357 0.02717672 -0.022598282 0.4410462 -0.6459556 0.564337
0.23191603 0.38489157 -0.1650891 -0.6147345 -0.57455546 -0.32245356 -0.19536437 0.5440496
-0.006414342 0.85945046 -0.20940642 -0.45754707 -0.16596344 0.48203367 0.18209353 0.19855563
0.21005698 -0.2273048 -0.17478664 -0.26162252 -0.48208523 -0.54593277 0.054802287 1.1489604
0.38989484 0.20199095 -0.8704413 -0.5167779 -0.27922356 -0.87202084 -0.45257998 -0.57179326
-0.5522682 0.6007222 0.088954136 0.083924256 -0.66406584 -0.09330991 -0.17516321 -0.67778033
0.25455603 0.37376016 0.48985505 0.29674459 0.4892 0.23059909 0.11687323 0.051225033
0.06970793 0.4323962 0.1539891 0.23218258 0.048778802 0.54482305 0.32548597 -0.3873988
0.028119987 -0.01748019 -0.33941558 -0.08612846 0.058238387 0.2997873 -0.34578738 -0.11147051
0.0017905432 -0.14463665 0.20715752 0.41417724 -0.03483527 -0.5273492 0.21558383 0.86041385
-0.03035607 -0.22013548 -0.5075317 -0.7218602 -0.8762759 0.10724459 -0.29781988 0.014715582
0.8361167 0.31156597 -0.34217793 -0.011512058 0.016757054 -0.03027146 0.08407674 0.09139171
-0.13338804 -0.46465427 -0.69695336 0.118896 -0.5371961 0.54778266 -0.38041806 0.31314608
-0.18728034 -0.12202716 -0.3434201 -0.28942254 0.44557634 -0.46583933 -0.580417 -0.4870197
-0.762277 -0.111832656 0.37181786 0.35727262 0.91048366 0.78329116 -0.45407224 -0.20762017
-0.0139274895 -0.16361369 -0.5018982 -0.29885113 0.823179 0.39530033 0.3575738 -0.22333393
-0.059562575 -0.0130840195 -0.34997037 0.19678408 0.34611797 -0.25909564 0.4162817 0.1537305
-0.041158017 0.09429811 0.07865542 -0.486898 -0.84477174 0.33561006 0.4276464 -0.31190616
0.017042339 0.317753 0.28043184 -0.14132172 -0.63366735 0.045430005 0.32206675 -0.4501676
-0.5317347 -0.38325402 0.15961063 0.5884336 -0.8328805 -0.4185143 0.04813043 -0.13603686
0.372186 -0.42672807 -0.2651601 0.52453524 0.44914332 -0.18328364 0.03092804 0.08372172
0.55361855 0.7993241 -0.50516087 0.2517109 -0.83109474 0.07245797 0.31332666 0.096470915
-0.05200658 -0.28578842 0.104498066 0.14093372 0.824273 0.2705214 0.22439244 0.038908795
-0.9776987 0.40410444 0.3916737 -0.42477134 0.81227046 -0.32023382 0.26106226 0.33682173
-0.14912252 -0.16811304 0.2782424 0.37282172 0.6896568 0.0960452 -0.27034527 0.20139763
0.8662484 -0.34059852 0.1456743 0.9246874 0.5695515 -0.19069214 -0.70525306 -0.32791892
-0.51751584 -0.23188683 -0.096984155 -0.12117599 0.0797947 -0.16116826 0.0013392437 0.7269907
0.25741914 0.22939576 -0.03080865 0.21877736 0.17259991 0.03580435 -0.7476136 -0.23835142

network.0.bias f4 [128]
00000000: e24f 0b3d 1166 91bc e92e 2bbc 7b71 383c
00000010: 9348 b3bc 6a8d ea3a 31a2 99bb d028 e83c
00000020: c13c c3bc 1a5a 033d 5658 133c a8e0 f23a
00000030: 7b75 9cbc 3410 82bc 1cfe fd3c f93f 603c
00000040: c538 c7bc e3ef a5bc 6aa7 903b f94b 1fbb
00000050: e7b0 183d 1185 ee3c 04b5 773c 0000 0000
00000060: 5cfb 213d 6473 54bc 66a9 46bc 4158 783c
00000070: 0c30 e53b b4cb 333d cea3 893c 2cf0 e13c
00000080: f7f0 963c fa6e 3cbc e7bb 663c 521c 4abc
00000090: 4a42 d8bb 2cd0 153d 5c4a 213d 43d0 ee3c
000000a0: 0000 0000 de2b 1b3d daa9 71b9 3994 003d
000000b0: 1982 833a 204a 74bb c7a2 0abb 907c 72bc
000000c0: e4fa a03b f0ad cf3c 12b5 c6bb 59a1 073d
000000d0: 848a 3abc 594e fa3c 3f93 a9bc 4476 893c
000000e0: 839e 2739 0f91 4e3d 4998 dcba e499 7f3c
000000f0: bd9a 253d 9d2a 073d 7f2d 9c3b ac92 1c3d
00000100: f726 c53c ede3 fe3c 2a44 c83b 2e39 8dbc
00000110: d645 6abb 0109 0dbb 6dab 143c 4307 463d
00000120: f278 b63c 88b9 2bbc e9f5 9d3c 9743 12bc
00000130: eeeb 1e3d a38e 393c 732e 0ebd 5f7e d6bb
00000140: 7783 90bc 60d2 603c cde3 3bbc 6114 363c
00000150: 8719 d43b c24b ea3c 7457 b3ba f63f 2f3c
00000160: a6df a0bc f9d4 7dba 9bd7 bf3c 6a61 943c
00000170: c769 93bc 3601 bfba 5fb6 3a3d 4fe0 9ebb
00000180: f339 cfbb eb7e 68bb 91b2 49bc 2ba2 b53c
00000190: 4e20 4d3d 1e2c 7abc df4a 2cbc 219e e7ba
000001a0: b598 86ba f6f6 4abc aa14 31bc 2415 dc3c
000001b0: e14f 3f3c e5c6 573b 5eef 863c fbb1 55bc
000001c0: 76d7 19bc 0000 0000 542e 1bbc 6c7c ed3c
000001d0: 2c94 38bb 8a99 10bc 71a3 d13b 0e5b d9b8
000001e0: 9f47 0b3d bede e13c 76cb 073c 5fe5 953c
000001f0: a520 ac3c 038a f4bb 1974 febb b5b4 263c
0.03401173 -0.017748864 -0.010448196 0.011257525 -0.021885192 0.0017894928 -0.004688524 0.028339773
-0.02383268 0.03206835 0.008993229 0.0018530088 -0.019098988 -0.015876867 0.031004958 0.013687127
-0.024319062 -0.020255988 0.0044144886 -0.0024306758 0.037278082 0.029116185 0.015118841 0.0
0.039546356 -0.012966964 -0.012125349 0.01515776 0.006994253 0.04389544 0.016801741 0.027580343
0.018425448 -0.011501068 0.014082885 -0.012335854 -0.006599699 0.03657548 0.039377555 0.029152041
0.0 0.037883632 -0.00023046826 0.031391356 0.0010033279 -0.0037275627 -0.0021154152 -0.014800206
0.004912721 0.025351495 -0.0060640657 0.033112857 -0.011385564 0.030554937 -0.020700095 0.016780026
0.00015985411 0.050431307 -0.0016830052 0.015600655 0.040430773 0.032999624 0.0047661657 0.038225815
0.024066431 0.031114543 0.0061116414 -0.01723918 -0.0035747192 -0.002152026 0.009074074 0.04834677
0.022274468 -0.010481246 0.019282298 -0.0089272475 0.03879922 0.011325511 -0.034712266 -0.0065458263
-0.017640812 0.013722032 -0.011467886 0.011113257 0.0064727697 0.028600577 -0.0013682679 0.010696402
-0.019637894 -0.00096829195 0.023418238 0.018112857 -0.017994775 -0.0014572504 0.04558408 -0.004848517
-0.0063240468 -0.003547604 -0.01231064 0.022172054 0.050079636 -0.015269307 -0.010515898 -0.0017671027
-0.0010268899 -0.012387982 -0.010808149 0.02686555 0.011676759 0.0032924947 0.016471561 -0.013042922
-0.009389749 0.0 -0.009471495 0.028989993 -0.002816449 -0.008825669 0.0063976576 -0.000103643266
0.03400385 0.027572032 0.008288255 0.01829785 0.02101166 -0.0074627413 -0.0077653048 0.01017492

network.2.weight f4 [128, 128]
00000000: b2b6 1a3e 0d78 5c3e ee8a c93c adb8 2cbe
00000010: 9303 5abd ca6d cabc 5811 92bd b693 1b3c
00000020: 17f5 793c 2cf8 083d f17f 8d3e 490f b63c
00000030: 2145 56bd e532 f03d 0138 33be 1567 12be
00000040: 6b7d 4fbe d547 de3d a1c4 f23d d312 80bd
00000050: ed17 2cbe 648e 75bc 74d1 1bbd 51a1 bc3d
00000060: 55e6 cdbc 2dfc 013e e43f 80bd ae40 423e
00000070: 2e8a 233e 4f10 2cbd a5f6 413e 5e08 83bd
00000080: e94a 393e a4f4 cbbd 6b32 99b9 0812 22be
00000090: 9c4c 97be b58d 09be f42f 59be 1614 abbd
000000a0: 7dc9 323d 0b61 553e 2d4a 9abc f55d cb3d
000000b0: 72a7 bf3c 4790 5b3e 6400 4f3d 5dc3 5f3e
000000c0: 03b4 8b3d f3b7 863d 91cb 013e 26cc dfbd
000000d0: e8b9 55be 2f14 7a3e e65e 85be 462b 093e
000000e0: 9373 97bd 3f35 54bb 2c0b 2fbe 8750 b4bd
000000f0: a39a 25be 6409 203e 493b cabd dea4 2abd
00000100: 6265 ae3e 673c 973e 7aa4 0a3d 4497 c53d
00000110: 25c6 79be c28d 2f3e 8d58 223e dd03 33bc
00000120: 9a81 d8bd e9d1 863c 9b5d 1bbe 6606 eebd
00000130: abd9 b1bd 908c 1abb 162c 32bb d254 f7bd
00000140: 2574 dcbd ae24 86bd b4c6 9b3d fbf2 9fbd
00000150: b64f 06be 6076 d0bd 0159 113e e48a e2bc
00000160: d6b8 c2bc 0e06 77be 00fc 04be b3b7 1f3d
00000170: 3ae8 7c3d 905e 9e3e c697 863e 77bb 8d3d
00000180: f0b8 493e 12b3 72bd 5738 84bd f407 19be
00000190: 7cd1 0dbe 0205 1a3d 6bda 2c3e a16c 2abd
000001a0: 857a 4c3c 4a2a 50bd 7d7c 02be fed5 763e
000001b0: 2cf5 673b 572a 353d d663 3c3d a9c7 bf3b
000001c0: 89d3 2ebe 6746 1fbe c2a1 ad3d ee2f e33d
000001d0: 0e40 0cbe f193 8e3d 02d5 4fbe f99c 6e3d
000001e0: 6f2d 18be 8ac1 a73d 27ee 023e e0d0 b5be
000001f0: 5514 243e eb8c 65be 2055 fbbb 0c85 ba3d
00000200: 9a46 b63d 6549 6cbd 558e bb3d 9dd1 c4bd
00000210: cfd1 003e 2365 19be 8cb5 b53d d172 e03d
00000220: 52e3 b23d 768d 65be 1fa1 fdbd 1b5b 2b3d
00000230: f98b 16bd 35f4 803e a8f9 993d dfd8 dabc
00000240: adf5 063d 3d25 673e f9c3 0bbe 1e93 b8bd
00000250: a1da 3c3e f672 ee3d 120c 5fbd 4597 26bd
00000260: a077 043e 5d4e 55be 08c1 5abe 841a 5bbd
00000270: 7b45 953d 35fe 2f3d 0e22 2dbe 861c 453e
00000280: cb2c ca3d b7d4 2abc 54f8 b63d 1014 833d
00000290: 073c 153d 9136 e2bd b5da 4ebd 88ec adbd
000002a0: dae9 53bd 1d63 13be 393f 9c3d db21 81be
000002b0: f0f1 253e bbec 85bb d2a6 c2bd 307f 813d
000002c0: 56ee 563c 6eb7 403d 4dc8 b3be afc2 f93d
000002d0: 4c5a 9a3d 0cb5 edbc 6e91 d3bd 1512 a03d
000002e0: 4bad ee3d 6557 c3bc b819 b5bc 0cb8 043e
000002f0: 0b6a 0e3d e302 f73d 3b68 4bbe eee7 a03c
00000300: 7f9d d23d 642a 8bbc 8a95 953d 5704 7abe
00000310: e5a2 9abd 622d bbbd c079 8e3e 23e5 0d3d
00000320: 0ab1 87be cf58 8cbe 1242 1fbd 49ba 1e3e
00000330: 393d 79be 2b4f adbd 5d70 04be f2df 1a3e
00000340: ae92 4bbe 5716 29bc 99aa 063e 4580 e0bd
00000350: 7808 583e 62ac 223e f0a3 9dbe e9be 2bbe
00000360: af06 8a3d cd45 5abe 8c7f 68bd afab 20be
00000370: a0f2 f93d d4c3 893b d74a 253e b85b 4b3d
00000380: ea1f 983d 5f4c 1ebd b81a 753e af8b ab3d
00000390: b05a bc3d fc18 59ba 4736 1bbd 547b ae3d
000003a0: bb6f ad3b ddab 003e c291 12bc 3d2b 913e
000003b0: 6e8a 2bbe e39e d03b 5879 3bbe f17f 7dbd
000003c0: 0718 cf3c 4902 59be fb00 9a3d d75b 643e
000003d0: 121a 033c 22f2 f83b c8d0 3cbe 23e7 dcbc
000003e0: 48f7 8c3e fdb0 6c3e b0a1 0d3e c731 aebc
000003f0: b69f e83d 9ac7 1ebe 3b30 903d e6d1 233d
0.15108755 0.2153017 0.02460238 -0.16867323 -0.053226065 -0.024710555 -0.07132214 0.009495666
0.015256188 0.0334398 0.27636674 0.022224085 -0.05231202 0.11728457 -0.17501833 -0.14297135
-0.20262687 0.108535446 0.1185391 -0.062535904 -0.16806002 -0.014987562 -0.038041547 0.09210456
-0.025134245 0.12693854 -0.06262186 0.18969986 0.1597068 -0.04200774 0.18941744 -0.0639808
0.18094982 -0.09958771 -0.00029219998 -0.15827191 -0.29550636 -0.13432963 -0.21209699 -0.083534405
0.043649185 0.208378 -0.018834198 0.0993003 0.023395274 0.21441756 0.050537482 0.21851869
0.06821444 0.06578054 0.1267531 -0.1092761 -0.20871699 0.24421762 -0.26048964 0.13395414
-0.07395091 -0.003238037 -0.17094105 -0.08804422 -0.1617227 0.15628582 -0.09874589 -0.041661136
0.34061724 0.2953827 0.033848263 0.09647992 -0.24391992 0.1714392 0.15854092 -0.010926214
-0.105715945 0.016457515 -0.15172426 -0.11622314 -0.08684095 -0.0023582317 -0.0027186922 -0.12076725
-0.1076434 -0.06549965 0.07606259 -0.07810017 -0.13116345 -0.10178828 0.14194109 -0.027654119
-0.023769777 -0.24123403 -0.12986755 0.03899355 0.061744906 0.3093152 0.2628767 0.06920522
0.19699454 -0.059252806 -0.064560585 -0.1494444 -0.13849443 0.037602432 0.16880195 -0.041607503
0.012480383 -0.05082158 -0.12742801 0.24105069 0.0035393937 0.04422983 0.04599365 0.005852659
-0.17072882 -0.155542 0.084781185 0.11093126 -0.1369631 0.06961811 -0.202961 0.05825517
-0.14861082 0.081912115 0.1278616 -0.3551092 0.16023381 -0.22417037 -0.00767006 0.09107408
0.08900185 -0.057687182 0.09158007 -0.09610293 0.12580036 -0.14979987 0.08872518 0.109593995
0.08734764 -0.22417244 -0.12384247 0.04183493 -0.036754582 0.25186315 0.07518321 -0.02671474
0.03294914 0.22572799 -0.13648976 -0.090124354 0.18442775 0.11643021 -0.05445487 -0.040671606
0.12936258 -0.20830674 -0.21362698 -0.053492084 0.07288643 0.04296704 -0.16907522 0.19249162
0.09871825 -0.010426692 0.089340836 0.06400311 0.0364342 -0.11045564 -0.050501544 -0.084923804
-0.05173669 -0.14393277 0.07629246 -0.25221142 0.16205573 -0.0040870584 -0.09504475 0.06323087
0.013118347 0.047049932 -0.35113755 0.12195336 0.07536754 -0.029016994 -0.10330473 0.07815949
0.11654147 -0.023845384 -0.02210699 0.12960833 0.0347691 0.120610975 -0.1986398 0.019641843
0.10283946 -0.016987987 0.07303913 -0.24415718 -0.07550601 -0.091395155 0.27827263 0.03464235
-0.26502258 -0.27411506 -0.03888137 0.1550075 -0.24339761 -0.08462366 -0.12933488 0.15124491
-0.19880173 -0.010320268 0.13151015 -0.109619655 0.2109698 0.15886071 -0.30789137 -0.16772045
0.06739556 -0.2131569 -0.056762263 -0.15690492 0.1220448 0.0042042527 0.1614183 0.049648017
0.07427962 -0.038647052 0.23935974 0.08376252 0.09196985 -0.0008281616 -0.03789356 0.08519617
0.0052928603 0.1256556 -0.008945884 0.283533 -0.16752025 0.006366597 -0.18308008 -0.061889593
0.025280012 -0.21192278 0.07519718 0.22300659 0.008001821 0.007597224 -0.18439019 -0.026965683
0.2753241 0.2311439 0.1383121 -0.02126397 0.113585874 -0.1550583 0.07040449 0.039995097

network.2.bias f4 [128]
00000000: 3536 a63a 9518 603c 3137 a1ba f314 febc
00000010: 1ffa 213d 2923 8539 af49 4ebb ab14 863b
00000020: 973d 8bbc 72f6 07ba bdf0 11bc a800 e43a
00000030: 398a 7f3c 293f 603b 72a8 693c 3822 72bb
00000040: 1bd9 dbbc d42c 92bb 6734 de3c c0e3 55ba
00000050: bbe4 18bb 26d2 dc3a 0000 0000 ff5a 5dbc
00000060: d60e 043b a7e1 853c 7eb3 13bb 8477 10bc
00000070: 8e0b 0b3d 54d9 16bc 569f 28bb a29a 89ba
00000080: e7f3 26bc 7cb8 29bc 3850 adbb ad5e 273c
00000090: 2475 40bb ef86 323c 5a37 36bc ffb2 8e3c
000000a0: b547 703c 9c0d 553c a4e8 193d 70a5 533d
000000b0: 7d50 a6bb 2ff6 07bc 0000 0000 0000 0000
000000c0: 4754 abbc 2542 ad3b 8ccb 343d a930 dd3c
000000d0: e3ca b0ba d9ea d83c 2c0d 153d 6caf 693c
000000e0: c575 f8bc 882a 783c bcd4 1e3a 699c 0b3d
000000f0: a3e0 bbbc a5fa 6938 d7a6 033c 767b 80bb
00000100: b326 36ba 9b64 be3c 1ae2 2f3d db12 063d
00000110: 06c4 2d3c bbce c0bc 150d 1b3b 8a05 bb3a
00000120: 9d87 faba b54a babc 5f1c ae38 a913 0e3d
00000130: 0430 1e3d a171 973c 2b05 c03b 6b07 a1ba
00000140: e3c6 633c 9434 afbc 35bf c1bc 0000 0000
00000150: e498 c03b 0a77 c0bb 0000 0000 fd1f 30bc
00000160: 015e b8bb 0000 0000 8668 18bc be78 5f3b
00000170: 9988 c6bb 9963 323c 8a4b 513d 6e15 a93c
00000180: 62cb b8bc 91df 193d c7df 6abc a880 d8bc
00000190: 26b5 b93b 5c5c 2b3b 7519 c03c ec91 7e3c
000001a0: 2228 82bc 72b8 1ebb 8004 aebc 7104 f13c
000001b0: 278b 443b eb35 90bc 5237 64bb 6c97 0ebc
000001c0: 44ee 283b ef46 273c 581c e1bc 40ae abbb
000001d0: c3dd 63bc cd30 483d 2b92 44bb d332 433d
000001e0: 438a 60bc be49 e73c 614a 39bc 0000 0000
000001f0: 3b73 043d 4d98 a33a 4d34 b93c ce9f 89bc
0.001268095 0.013677736 -0.0012299774 -0.031015849 0.039545175 0.00025393933 -0.0031477024 0.0040918193
-0.016997142 -0.00051865645 -0.008907494 0.0017395215 0.01559692 0.0034217334 0.014261352 -0.0036946665
-0.026836922 -0.0044609103 0.027124597 -0.00081592426 -0.0023329693 0.0016847297 0.0 -0.013510465
0.0020150444 0.016342951 -0.0022537406 -0.008817557 0.033946566 -0.0092070885 -0.0025729737 -0.0010498355
-0.010189987 -0.010358926 -0.005289104 0.010215444 -0.0029366696 0.0108964285 -0.011121595 0.017419336
0.014665534 0.013003733 0.03757538 0.051671445 -0.005075513 -0.008298441 0.0 0.0
-0.02091421 0.005287426 0.04413943 0.027000742 -0.0013488199 0.026479172 0.036389515 0.014263015
-0.030329594 0.015146859 0.00060589216 0.03408471 -0.022934264 5.578496e-05 0.008035383 -0.0039209677
-0.00069485157 0.023241332 0.042940237 0.032732826 0.010605818 -0.023536077 0.002365892 0.0014268619
-0.0019113902 -0.022740701 8.302251e-05 0.034686718 0.03862001 0.0184868 0.005859991 -0.0012285536
0.013902399 -0.021387376 -0.023650745 0.0 0.005877601 -0.0058735656 0.0 -0.010749814
-0.0056264405 0.0 -0.009302264 0.0034099068 -0.006058764 0.010888004 0.05109743 0.020640101
-0.022557918 0.037566725 -0.014335579 -0.026428536 0.0056673465 0.002614758 0.023449639 0.01553772
-0.015888277 -0.0024218825 -0.02124238 0.029421063 0.0029990168 -0.017603835 -0.0034823013 -0.008703094
0.0025776783 0.010209783 -0.027479336 -0.005239278 -0.013907853 0.048874665 -0.002999435 0.04765589
-0.013704839 0.028233405 -0.011309237 0.0 0.032336455 0.0012481302 0.022607947 -0.016799834

network.4.weight f4 [6, 128]
00000000: 6827 453d 20f4 9b3e 377a 89be 4644 2b3e
00000010: 697f 8bbb 5776 933d 8383 6dbd cb88 83bd
00000020: 779d 85bd 8eba b83d 465b cbbc c035 54be
00000030: 928b 61be 5083 a6bd c09c bbbd 797e e53c
00000040: b5c1 68bd cf7b 31be e420 34bd e8dd eb3c
00000050: dd6c d2bd c2c1 233e 9fbd a4bc 35c8 39bd
00000060: a834 8b3e 512e 4bbe e643 eb3d 0928 fbbc
00000070: ee6a 13bd cea1 d83d 3c21 a73e 437e 663d
00000080: c6e2 933d f0ce 583e 3787 d13d e1ad c6bd
00000090: 89eb 1abe 7624 0c3d 18b8 85bd 80ae 01bc
000000a0: 7450 153c dd43 4cbe 4af7 0abe 7c3d 7f3c
000000b0: 9be5 8ebd 7498 0bbe 7010 6039 01bd d43d
000000c0: b08d f5bd 14f9 5dbe 8573 55bd 3d53 99bd
000000d0: c4f8 533d 68dc aebd b1af 0ebd ed6b 383d
000000e0: 5944 7cbe c61a 6a3e d397 733e dd6e 03bd
000000f0: f2a8 c53b 97d2 ea3c 086b 11be 9edc ccbd
00000100: 8f56 8f3d b320 0b3e 3e1d 66bd f3e1 50be
00000110: bf98 03be fa76 56bd 365e 0c3e e7a2 afbd
00000120: 7d25 d53d c73c 4cbd 94ac 64bd 6315 a0bc
00000130: 882c df3c 5b62 2fbd 70e2 1abe 360f 353e
00000140: c7e7 9a3d 9c39 a63c 538d 633c 8b70 3b3e
00000150: 5b80 2bbc a694 993e d061 003e 7b49 d8bd
00000160: 1b5f 3b3d b0ef 15bd 9a74 9ebe 51d8 543e
00000170: 1bd3 de3c a37b 733d 5319 23bc 8dff 3c3e
00000180: 1bbc f83d ea88 99bc 76c2 3abe 75b7 5b3e
00000190: 9c50 913e 07c7 ef3d c85c 503c a8bf cebd
000001a0: 8ff3 0f3d f6bc 543e 53bb c6bc 33a8 86bb
000001b0: cb69 31be bf30 2a3e b0dc 89be 2962 213c
000001c0: 7984 1a3e 0f48 bdbd d2d0 8c3d 9c13 443c
000001d0: 4e6a 053d 722c 6cbe 0c00 8a3e e86e d93d
000001e0: 6756 033e 8285 d2bd c63a bdbd 2fb9 a33d
000001f0: ba9f 22be 8c48 9f3d d781 313e d64c 15be
00000200: f857 c53d 0768 a03e 3e2e 183d ff1a a43d
00000210: 4458 f53d cdc0 29be 06df 40be e764 0ebe
00000220: e83f ea3d b2c8 48be ad90 34be 318e 4f3e
00000230: e42a 3dbd 7651 443d d731 0a3e 6622 543d
00000240: 59c4 ccbc 7b60 dd3c a0c2 7aba ec3a cd3d
00000250: 08b5 86be 2a82 703e 9cae c43d cfd2 a3be
00000260: cbee 3f3e b60f ecbd f2e2 5bbe f4ea efbd
00000270: 2a25 9f3d a9bd ebbc 2a01 5e3c f38b cfbd
00000280: 2cf1 a1bc a19a febd e3b3 523e 925e 8ebe
00000290: 9c97 56bd 5644 423e 68dd aebd 4ab1 033d
000002a0: 8624 f5bd 97ec cc3b 95a0 103d 4b40 8abd
000002b0: 4cdd d6bd 091a ff3d c46d 89bb d2b6 a43c
000002c0: 115d 183e d25a 8dbd 4503 ebbd 0a2b cdbd
000002d0: 1019 aa3d f3eb 9dbd b915 8c3d 15b5 2cbe
000002e0: 2a95 103e 35a1 2bbe eca1 c4bc 5b2a 5ebd
000002f0: ec98 b539 4c71 5e3c 6360 05bd ade1 cfbc
00000300: cc66 883d b553 d0bd 90dc e8bb e955 a53c
00000310: 47e3 9f3d 861c 2e3e 79b2 0dbe 3d4f 4fbe
00000320: cb4e 1c3c c34b 8e3d 10af 9fbc 2c33 643e
00000330: 5e5a f3bc b4f3 503e b0d4 d53d b15d babd
00000340: 6f25 16be d100 47bd 12ba f4bd 7109 b73d
00000350: a536 a83d ccea 3abe 3644 423c 82a4 173e
00000360: 4b3f 0ebe 3f69 2b3e e0a5 033c 32c6 7dbb
00000370: a8a6 babd ded4 27bc 9795 91bd 0a3e 12be
00000380: 657c 43bc e986 053e a573 9abe 8cb9 b33d
00000390: b682 f1bd 8dd3 8bbd eea5 94bd 3c24 2b3e
000003a0: 9a36 c43d 67e1 62bd 3d83 03be b2ea b43d
000003b0: bc98 10be f434 30be 98f6 ba3b 11d1 d6bd
000003c0: 1bcb 1ebd f396 393e 4748 813c 3b56 49be
000003d0: 3ee2 d7bd 139a 103e 6793 21be be4a d7bc
000003e0: 8682 903d fe65 3e3d 493e 06bd 081a a83b
000003f0: 2532 413d b21b 05bd 6c6b 2f3e e478 1bbe
0.048133284 0.3045969 -0.26851055 0.16725263 -0.004257132 0.07200306 -0.057986747 -0.064225756
-0.06524175 0.090199575 -0.024823796 -0.20723629 -0.22025898 -0.081305146 -0.09160757 0.028014408
-0.05682536 -0.17332385 -0.04397668 0.028792337 -0.1027467 0.15991881 -0.02010995 -0.045356948
0.2718861 -0.19841887 0.1148756 -0.030658739 -0.035990648 0.10577737 0.32642543 0.056272756
0.07220988 0.2117269 0.10230868 -0.097011335 -0.15128912 0.03421446 -0.06529254 -0.007915139
0.00911342 -0.19947763 -0.13570896 0.015578624 -0.069773875 -0.13632375 0.00021368428 0.10387612
-0.11989915 -0.21677047 -0.05211212 -0.074865796 0.051750913 -0.08538133 -0.03483552 0.0450248
-0.24635448 0.22861776 0.23788385 -0.03208815 0.0060321027 0.02866487 -0.14200985 -0.10003017
0.069989316 0.13586693 -0.05618023 -0.20398693 -0.12851237 -0.05235956 0.13707814 -0.08575993
0.10407541 -0.04986265 -0.055828646 -0.019541448 0.027242914 -0.04281841 -0.15125442 0.17681584
0.07563739 0.020291142 0.013888675 0.1830465 -0.010467614 0.29996222 0.12537313 -0.1056089
0.045744997 -0.036605537 -0.30948335 0.20785643 0.027200272 0.05944408 -0.009954768 0.1845686
0.12145253 -0.018742044 -0.18238243 0.21456702 0.28381813 0.11707883 0.012717433 -0.10095149
0.035144385 0.20775208 -0.024259245 -0.0041094064 -0.17325513 0.16620158 -0.26926184 0.009850063
0.15089597 -0.0924226 0.06875767 0.011967566 0.032572083 -0.2306383 0.2695316 0.10616857
0.12825929 -0.10279371 -0.09239726 0.07994305 -0.15881243 0.07777509 0.17334686 -0.14580092
0.09635919 0.31329367 0.037153475 0.080129616 0.11979726 -0.16577454 -0.18835077 -0.13905679
0.114379704 -0.19607809 -0.17633314 0.20269085 -0.04618348 0.04792925 0.13495575 0.051790617
-0.02499597 0.027023545 -0.00095657445 0.10021004 -0.2630999 0.23487154 0.096036166 -0.31996772
0.18743436 -0.11526434 -0.21473292 -0.117147356 0.0777076 -0.02877696 0.013550082 -0.10134115
-0.01976832 -0.12431837 0.20576434 -0.27806526 -0.05239068 0.1897138 -0.08538324 0.032151498
-0.11969857 0.0062537896 0.035309393 -0.06750544 -0.10491428 0.12456138 -0.0041939933 0.020106707
0.14879252 -0.06902088 -0.11475233 -0.10017975 0.083055615 -0.07711019 0.06840081 -0.16865952
0.14119402 -0.16760714 -0.024002992 -0.054239612 0.00034636946 0.013576817 -0.032562625 -0.025376165
0.06660232 -0.10172216 -0.007106371 0.020182567 0.078070216 0.17003068 -0.13837613 -0.20245071
0.00954027 0.06948044 -0.019492656 0.22285146 -0.029706176 0.20405465 0.104409575 -0.090999015
-0.14662717 -0.048584763 -0.119495526 0.08937348 0.082135476 -0.1825363 0.011857083 0.14808849
-0.13891332 0.16739367 0.008035153 -0.003872287 -0.091138184 -0.010243623 -0.0710861 -0.14281479
-0.011931513 0.13039745 -0.30166355 0.08775625 -0.11792509 -0.068274595 -0.07258211 0.16713041
0.09580727 -0.05539074 -0.12843032 0.08833827 -0.14120764 -0.172077 0.005705666 -0.10489095
-0.038767915 0.18123989 0.015781535 -0.196618 -0.10541199 0.14121275 -0.15778886 -0.026280757
0.07056145 0.046483986 -0.032774244 0.0051300563 0.047166962 -0.032497115 0.17130822 -0.15182835

network.4.bias f4 [6]
00000000: 2e4f 9fbb 79b1 be3b c3b1 c8ba d4c0 033c
00000010: e146 cbbc 8329 37bd
-0.004861734 0.0058194962 -0.0015311766 0.008041579 -0.024814071 -0.044717323
