dqn.pt (torch, 23584 bytes, 6 tensors)

network.0.weight f4 [64, 11]
0	0x3f3a960c	0.72885203
1	0x3f2e7ea8	0.6816201
2	0x3f1195a6	0.5686897
3	0xbee853e0	-0.45376492
4	0xbea09b10	-0.31368303
5	0x3eea4241	0.45753673
6	0xbdf3bd66	-0.11901359
7	0xbeba5b98	-0.36398005
8	0xbefccb07	-0.49373648
9	0x3d6b190b	0.05739693
10	0x3e269230	0.16266704
11	0x3eea8cbc	0.45810497
12	0xbf2adfee	-0.6674794
13	0xbf38ee32	-0.7223846
14	0x3d14cb3b	0.03632663
15	0x3f16802e	0.58789337
16	0x3eed06b3	0.46294174
17	0x3ed995a5	0.42496982
18	0x3d690e72	0.05689854
19	0x3dc1ae43	0.09457066
20	0x3eac2204	0.33619702
21	0xbd0c0211	-0.03418166
22	0x3f0d77e7	0.5526108
23	0x3edc8d85	0.4307672
24	0xbe338318	-0.17530477
25	0xbf20e03e	-0.62842166
26	0xbeb73c6d	-0.3578829
27	0x3ea2cee2	0.31798464
28	0x3f60a2d9	0.87748486
29	0x3eaabde6	0.33348006
30	0x3e9c2f7a	0.30504972
31	0xbe68a552	-0.22719315
32	0x3f21a169	0.6313692
33	0x3e81f246	0.25380152
34	0xbf130acf	-0.5743837
35	0xbc48c0a3	-0.012252959
36	0xbf5a8a16	-0.8536695
37	0x3eba2477	0.36355945
38	0x3ee851e3	0.45374975
39	0x3d86d03c	0.06582686
40	0x3f3af7b4	0.73034215
41	0x3ed4753a	0.41495687
42	0x3f1144fe	0.567459
43	0xbea094f2	-0.31363636
44	0x3f56938c	0.8381889
45	0xbd982d31	-0.074304946
46	0x3e7bc2b8	0.24585998
47	0xbf841d76	-1.0321491
48	0xbdbefb34	-0.09325257
49	0x3e72c55f	0.23708104
50	0x3f27792f	0.65419286
51	0x3ef1d367	0.472316
52	0x3e99fb72	0.3007465
53	0xbeb456fa	-0.35222608
54	0x3ec78c21	0.38974097
55	0xbef4a2f7	-0.47780582
56	0x3eb7aa2e	0.35872024
57	0x3f43ffdb	0.7656228
58	0xbdf942cc	-0.121709436
59	0xbe9a9e01	-0.30198672
60	0xbe7a8757	-0.2446569
61	0xbf0ce8f8	-0.5504298
62	0xbc238272	-0.009979831
63	0xbf02d097	-0.5109953
64	0xbed4b37b	-0.41543183
65	0x3f5a30f5	0.8523095
66	0xbeedc154	-0.4643656
67	0xbf0f8095	-0.56055576
68	0xbf32604d	-0.69678193
69	0xbea9ed66	-0.33188933
70	0xbef09acf	-0.4699311
71	0xbc9c383d	-0.019069785
72	0x3ed11d53	0.40842685
73	0xbe7da52b	-0.24770038
74	0x3f067ee9	0.525374
75	0xbef19a2b	-0.47187933
76	0xbf30539c	-0.6887758
77	0xbf030424	-0.51178193
78	0x3eaab791	0.33343175
79	0xbeaf96ef	-0.3429484
80	0x3f4cf538	0.80061674
81	0xbef6813a	-0.48145467
82	0x3ec25113	0.3795248
83	0xbf182377	-0.59429115
84	0xbea5e522	-0.32401377
85	0xbd04161c	-0.032247648
86	0x3e910690	0.2832532
87	0xbe4e8850	-0.20169187
88	0x3e0db624	0.13839012
89	0x3d8a9111	0.067659505
90	0xbf1ce4b2	-0.6128646
91	0xbf851704	-1.0397649
92	0x3e9b7484	0.30362332
93	0xbf05efaf	-0.52318853
94	0x3f0d1038	0.5510287
95	0x3f54d9a2	0.8314458
96	0xbea797ea	-0.3273309
97	0xbe1863e5	-0.14881857
98	0x3f845d42	1.034096
99	0x3deafd32	0.114740744
100	0xbf3df514	-0.74202085
101	0x3da401fe	0.080081925
102	0x3f52a282	0.8227922
103	0x3f36e39e	0.71441066
104	0x3ee7c059	0.45263937
105	0x3f4b2aa7	0.7936196
106	0x3e0d5bc1	0.13804533
107	0xbf0a682a	-0.5406519
108	0xbf02e23a	-0.51126444
109	0xbe5a89a1	-0.21341564
110	0xbd81bab2	-0.063344374
111	0x3f17ef3b	0.5934941
112	0x3f4e4524	0.8057425
113	0x3f31bb1f	0.6942615
114	0x3ee233f7	0.4418027
115	0x3ddcc354	0.107794434
116	0xbe40d279	-0.18830289
117	0x3e96a8b1	0.29425576
118	0xbe26c6ad	-0.16286726
119	0x3f162026	0.58642805
120	0xbf3177cd	-0.69323426
121	0xbef6f668	-0.48234868
122	0xbdc43955	-0.09581248
123	0xbe34e709	-0.17666258
124	0x3ef58271	0.4795108
125	0xbe0f02cd	-0.13965912
126	0xbe504125	-0.2033735
127	0xbf55438c	-0.83306193
128	0xbed37e22	-0.4130717
129	0x3f3651e2	0.71218693
130	0x3f08a282	0.5337297
131	0xbf3d0e6a	-0.7385012
132	0xbecc920b	-0.39955172
133	0xbf27616e	-0.6538304
134	0xbdec4484	-0.11536506
135	0x3b0219cb	0.00198518
136	0x3e8b7ae0	0.27242184
137	0x3f0d19f3	0.5511772
138	0x3e6575fd	0.2240829
139	0xbe2be8d4	-0.16788036
140	0x3f3d5fba	0.7397419
141	0x3f1540c0	0.58301926
142	0x3f606ceb	0.87666196
143	0x3f3198c7	0.69373745
144	0xbece6b07	-0.4031603
145	0x3e20bf20	0.15697908
146	0x3f04358c	0.51644206
147	0xbef70597	-0.48246452
148	0x3e28a03a	0.16467372
149	0x3dcd1592	0.1001388
150	0x3f0ac777	0.5421061
151	0x3e2001ff	0.15625761
152	0x3e23b4fa	0.15987006
153	0xbd9db0cc	-0.07699737
154	0xbf4775c7	-0.7791409
155	0xbe1129b0	-0.14176059
156	0x3e10f3b6	0.14155468
157	0xbf361a08	-0.7113347
158	0x3ebf9995	0.3742186
159	0xbdca9320	-0.09891343
160	0xbea24fec	-0.317016
161	0x3f269fbe	0.650875
162	0x3f321c82	0.6957475
163	0x3f7435b8	0.9539447
164	0x3ea0847b	0.31351075
165	0x3f563494	0.8367398
166	0x3f29b368	0.6628938
167	0xbf03c907	-0.5147862
168	0x3f105781	0.5638352
169	0x3f1b9d4d	0.60786897
170	0xbca8fc76	-0.020628195
171	0xbd1f54b0	-0.038899124
172	0x3ea6c386	0.32571048
173	0xbf2969c8	-0.66177034
174	0xbd595ae4	-0.053065196
175	0xbe5aed87	-0.21379672
176	0x3f484b6a	0.7824007
177	0xbe167cb7	-0.14696012
178	0x3e469c8b	0.19395654
179	0x3f6f0443	0.9336588
180	0x3f0fa627	0.56112903
181	0xbecca729	-0.39971283
182	0xbe60f0d5	-0.2196687
183	0x3dcf3942	0.10118343
184	0x3eee9e27	0.46605036
185	0xbe4b7388	-0.1986829
186	0xbf3244c7	-0.69636196
187	0x3e54bfb2	0.20776251
188	0xbf6e08f8	-0.92982435
189	0x3f365472	0.71222603
190	0x3f3296bd	0.6976126
191	0x3da47978	0.08030981
192	0xbee2be94	-0.44286025
193	0x3f0391d2	0.5139438
194	0x3f80b1a7	1.0054215
195	0xbec77052	-0.3895288
196	0x3f176c10	0.59149265
197	0xbcc1f313	-0.023675477
198	0x3f44ce04	0.76876855
199	0x3f42a307	0.7603001
200	0x3edefb44	0.43551075
201	0x3f39b734	0.7254517
202	0x3eec5d68	0.46165013
203	0x3f400088	0.7500081
204	0xbe941a64	-0.28926384
205	0xbed25bd7	-0.41085693
206	0x3eec2544	0.4612218
207	0xbdfc7ad5	-0.12328116
208	0xbb8e898b	-0.0043498925
209	0xbee835fe	-0.45353693
210	0x3f02ed75	0.5114358
211	0xbf14a314	-0.5806134
212	0x3f148f19	0.5803085
213	0xbf9d7bac	-1.2303367
214	0xbe963ba9	-0.29342392
215	0xbf1c0ffc	-0.6096189
216	0x3f384601	0.7198182
217	0xbe0ca283	-0.13733868
218	0xbe936994	-0.28791487
219	0x3ee0f75d	0.43938723
220	0xbe024ea5	-0.12725313
221	0x3f48b3bf	0.7839927
222	0x3f768a80	0.96305084
223	0xbf5e8fcb	-0.8693816
224	0x3ed9d113	0.42542323
225	0xbf2f06b0	-0.6836958
226	0x3e55f793	0.20895223
227	0xbeb15da9	-0.3464177
228	0x3f0cafa7	0.54955524
229	0xbf4607cf	-0.77355665
230	0xbf271961	-0.652731
231	0x3f2126bb	0.62949723
232	0x3f7c4172	0.9853736
233	0xbf5450e3	-0.82935923
234	0x3f271ff8	0.65283155
235	0xbdf55f16	-0.11981027
236	0xbc4ea764	-0.012613151
237	0x3efb8a3a	0.49128896
238	0xbdaaa295	-0.08331791
239	0xbe8d59a7	-0.27607462
240	0xbf0d08ab	-0.5509135
241	0x3f242a81	0.64127356
242	0x3f360e48	0.7111554
243	0x3f29672e	0.66173065
244	0xbedc24c7	-0.4299681
245	0xbf06e81b	-0.52697915
246	0x3f0cd63f	0.55014414
247	0xbe741dd0	-0.23839498
248	0xbe805b62	-0.2506972
249	0xbf05d892	-0.52283585
250	0xbea548c3	-0.32282075
251	0x3e1c164e	0.15242884
252	0x3f1df467	0.61701053
253	0xbeb5730a	-0.3543933
254	0x3e2275c5	0.15865238
255	0x3e96f507	0.29483816

network.0.bias f4 [64]
0	0x3e6fa14a	0.2340137
1	0x3ebb47d6	0.36578244
2	0x3e9bff82	0.30468374
3	0x3e91127f	0.28334424
4	0x3e84e215	0.25953737
5	0x3e8f574c	0.2799629
6	0xbd8ed26c	-0.069737285
7	0x3e1fa881	0.15591623
8	0x3eacc677	0.33745167
9	0x3e1e8b0b	0.15482728
10	0xbc483074	-0.012218583
11	0xbc5cf7bd	-0.0134868
12	0x3e936812	0.28790337
13	0x3e5374f4	0.20650083
14	0x3e645936	0.22299656
15	0xbba74da9	-0.0051056934
16	0xbcac7022	-0.021049563
17	0x3e83e59d	0.2576112
18	0x3e1604ca	0.14650264
19	0x3d118e91	0.035536353
20	0xbc8c5780	-0.017131567
21	0x3e1ca79e	0.15298316
22	0x3d8d0eaf	0.06887566
23	0x3d8a9445	0.067665614
24	0xbc9ca2a6	-0.019120526
25	0x3ea84b99	0.32870176
26	0x3e70917a	0.23492995
27	0x3e8884ce	0.26663822
28	0x3ea19eb7	0.31566402
29	0x3e958485	0.29202667
30	0x3e2a6a85	0.16642196
31	0x3d48762d	0.048940826
32	0x3d83047b	0.06397339
33	0x3dda202b	0.10650667
34	0x3d63f47d	0.055653084
35	0x3e184f69	0.14874043
36	0x3cecdbd7	0.028913422
37	0x3e90706e	0.28210777
38	0x3dd43f56	0.10363643
39	0x3e67d0b1	0.22638203
40	0xbdf0c5eb	-0.117565
41	0x3cc573dc	0.024103098
42	0x3d97fe8c	0.07421598
43	0x3ea1d52e	0.31607956
44	0x3da27c4c	0.07933864
45	0x3d273323	0.040820252
46	0x3e300510	0.17189431
47	0x3d4bcd12	0.049756117
48	0xbdd5c1d1	-0.10437358
49	0x3e8a6820	0.27032566
50	0x3e4a2e08	0.19744122
51	0xbccb3e1c	-0.02480989
52	0x3e86b177	0.2630727
53	0x3e06540e	0.13118002
54	0x3e61e463	0.22059779
55	0x3e99d76c	0.30047166
56	0x3dc44235	0.095829405
57	0x3e8d4dad	0.27598324
58	0x3e35ab8e	0.17741224
59	0xbdfb3222	-0.122654215
60	0x3e23a906	0.15982446
61	0x3ea78322	0.32717234
62	0x3ab4785f	0.0013768784
63	0x3e70c3a3	0.2351213

network.2.weight f4 [64, 64]
0	0x3d95d634	0.07316247
1	0xbea27189	-0.31727245
2	0x3ee0c4e7	0.43900225
3	0xbe88a2ae	-0.26686615
4	0x3d698c22	0.057018407
5	0x3e743242	0.23847297
6	0xbde3109d	-0.11087153
7	0x3ee99473	0.4562107
8	0x3e4e5560	0.20149755
9	0xbee81e77	-0.45335743
10	0x3e6f6c4a	0.23381153
11	0x3f0c10bd	0.5471304
12	0x3ee49cea	0.44650966
13	0xbe9a1269	-0.3009217
14	0x3db6af1c	0.08920118
15	0x3e8b33f1	0.27188066
16	0xbdefb0bb	-0.117036305
17	0xbe953015	-0.29138246
18	0x3e3add6e	0.18248531
19	0x3db798ed	0.08964715
20	0xbe05f25a	-0.13080731
21	0xbdc8535b	-0.09781524
22	0xbd3f3fd7	-0.04669174
23	0x3d9bf300	0.07614708
24	0x3ebf6b99	0.37386778
25	0xbe8b25eb	-0.27177367
26	0xbdc87e56	-0.09789722
27	0x3d2eb43d	0.042652357
28	0x3e971f57	0.29516098
29	0xbe2731c6	-0.16327581
30	0x3cbf8e25	0.02338321
31	0x3e3b91db	0.18317358
32	0x3e2e7154	0.17035419
33	0x3e80a4f5	0.25125852
34	0xbc900118	-0.017578647
35	0x3de013d9	0.10941286
36	0xbd57f150	-0.052720368
37	0xbd8e7468	-0.069557965
38	0x3df165e1	0.1178701
39	0xbe7015ee	-0.23445866
40	0x3e433454	0.1906293
41	0x3ea37d85	0.319317
42	0x3c232f22	0.009959968
43	0x3d9adf9a	0.0756218
44	0xbde7e4ef	-0.113229625
45	0x3ea5ef73	0.32409248
46	0xbe88a0d9	-0.26685217
47	0x3e40f782	0.18844417
48	0x3ea2e79e	0.31817335
49	0x3e8e9bdb	0.27853283
50	0x3e49d358	0.19709527
51	0x3c4fc907	0.012682206
52	0xbeab923e	-0.3351001
53	0x3cd6c503	0.02621699
54	0x3ed98eaa	0.42491657
55	0xbede58d3	-0.43427143
56	0x3ee3b8b5	0.44476858
57	0x3d49b6d2	0.049246617
58	0x3d92bf44	0.07165387
59	0xbe22be3e	-0.15892884
60	0x3b91ea66	0.0044529913
61	0xbd2935cb	-0.041311067
62	0xbdf6843f	-0.12036943
63	0x3dc3da6d	0.09563146
64	0x3e08049b	0.13283007
65	0x3e611602	0.21981052
66	0x3eb7ac7b	0.3587378
67	0x3e389343	0.18024926
68	0xbd6f8a41	-0.05848146
69	0x3e50c96c	0.20389336
70	0x3e0523de	0.13001963
71	0x3f05cdd3	0.5226719
72	0xbdca9847	-0.09892326
73	0xbe871c78	-0.26388907
74	0xbdc8ae42	-0.09798862
75	0x3e5a5386	0.21320924
76	0xbde646c1	-0.11243964
77	0xbdf7581d	-0.12077353
78	0xbe801f67	-0.25023958
79	0x3e928940	0.28620338
80	0xbe262f1f	-0.16228913
81	0x3e72e5fc	0.23720545
82	0x3da13abc	0.07872531
83	0x3f0f1c4c	0.5590255
84	0x3ec282bf	0.37990376
85	0x3d4deca8	0.05027452
86	0x3ec8c013	0.3920904
87	0xbe61b888	-0.2204305
88	0x3e808218	0.25099254
89	0xbe8a2afe	-0.26985925
90	0x3df13f6e	0.117796764
91	0xbec9b0e6	-0.39392775
92	0x3a949a63	0.0011337515
93	0x3e86a956	0.26301068
94	0x3ed905aa	0.42387134
95	0xbd4b8741	-0.049689535
96	0x3d5312bc	0.05153154
97	0x3e465115	0.19366868
98	0x3e2c2d46	0.16814145
99	0xbd000dd3	-0.031263184
100	0xbe575aa1	-0.21030666
101	0x3bd1353c	0.00638452
102	0x3eac25c0	0.3362255
103	0xbcf286ac	-0.029605232
104	0xbd87c510	-0.066293836
105	0xbd910caf	-0.07082497
106	0x3ead154a	0.33805305
107	0x3e9fc4dc	0.3120488
108	0x3e22fe4d	0.1591732
109	0x3edf9334	0.43666995
110	0xbe0f0fa9	-0.13970818
111	0x3f05ae92	0.522195
112	0x3eaed9cb	0.34150538
113	0xbd9d9eb6	-0.07696287
114	0x3e86c433	0.26321563
115	0xbe358ab2	-0.1772869
116	0xbe8e38ea	-0.27777797
117	0x3ea78c83	0.3272439
118	0x3e5fefdb	0.21868841
119	0x3e5930b9	0.21209992
120	0x3dd5000b	0.10400399
121	0xbe97b4cc	-0.29630125
122	0xbe26c502	-0.1628609
123	0x3e90b266	0.28261107
124	0x3dc14aec	0.09438118
125	0x3e823664	0.25432122
126	0x3d81e6b4	0.06342831
127	0x3f19a6da	0.6002022
128	0x3ea77f88	0.32714486
129	0xbe8b5a41	-0.27217296
130	0x3d5864a0	0.05283034
131	0xbdaaa835	-0.08332864
132	0x3d901851	0.07035888
133	0x3eca5627	0.39518854
134	0xbe18589c	-0.14877552
135	0xbefc75a8	-0.49308515
136	0x3df59243	0.11990788
137	0xbda55f72	-0.080748454
138	0x3e87342b	0.26406989
139	0xbf1e547b	-0.61847657
140	0xbeb29dcb	-0.3488601
141	0xbe76ebc0	-0.24113369
142	0x3d47a1da	0.048738338
143	0xbe041c8d	-0.12901516
144	0x3ea831fb	0.32850632
145	0xbe40104e	-0.1875622
146	0x3dbc5beb	0.091972195
147	0xbdf92f5e	-0.12167238
148	0x3f10f0d9	0.56617504
149	0xbcbeb364	-0.0232789
150	0x3d047187	0.03233483
151	0x3e364452	0.177995
152	0x3ebc9f27	0.36840174
153	0x3e36af31	0.17840268
154	0x3e58a8e2	0.21158174
155	0xbdcd0d77	-0.10012334
156	0xbe79c8b3	-0.24392967
157	0xbc531515	-0.012883444
158	0xbe800061	-0.2500029
159	0xbea924e9	-0.33035973
160	0x3ee9d26c	0.45668352
161	0x3e91a920	0.28449345
162	0x3dfbeb43	0.12300732
163	0xbe408f28	-0.1880461
164	0xbe35981a	-0.17733803
165	0x3e5c1ca5	0.21495302
166	0x3eb10ef1	0.34581712
167	0xbedd8c38	-0.4327104
168	0xbe502872	-0.20327929
169	0x3e8d7935	0.27631536
170	0x3e2461b2	0.16052893
171	0xbe7c2608	-0.24623883
172	0x3ee8c0f7	0.4545972
173	0x3eab40dc	0.3344792
174	0x3e02fe62	0.12792352
175	0xbd912f79	-0.07089133
176	0x3eafa09a	0.34302217
177	0x3f0affb8	0.54296446
178	0x3d9c79fe	0.07640456
179	0x3edf1773	0.43572578
180	0xbe220cce	-0.15825197
181	0xbe428517	-0.18996082
182	0xbeb3f005	-0.35144058
183	0x3f06ea12	0.5270091
184	0xbcde5ab1	-0.027142854
185	0xbf0ebad8	-0.5575385
186	0x3e45988f	0.19296478
187	0x3e7da2ed	0.24769183
188	0x3df7db54	0.121023804
189	0x3d92f407	0.07175451
190	0x3e91db46	0.28487605
191	0x3e89cc50	0.2691369
192	0xbe22865b	-0.15871565
193	0x3e6cbaf0	0.23118186
194	0x3e85d707	0.26140615
195	0xbe9006f5	-0.28130308
196	0xbe141a21	-0.14463092
197	0xbe80f7dc	-0.25189102
198	0x3e03fc64	0.12889248
199	0x3ef8b97a	0.48579007
200	0xbe5689cb	-0.20951001
201	0x3eeea657	0.46611282
202	0xbe233b5d	-0.15940614
203	0x3f18b801	0.5965577
204	0xbdec4759	-0.11537046
205	0x3e055cc3	0.13023667
206	0xbef54ce4	-0.47910225
207	0x3efd4729	0.49468353
208	0x3ea4037b	0.32033905
209	0xbdd6b569	-0.1048382
210	0x3eac8b51	0.3370004
211	0x3e8abc29	0.2709668
212	0xbe8a79c7	-0.27046034
213	0x3f292508	0.6607213
214	0x3e9f1069	0.31067207
215	0x3e7c29d6	0.24625334
216	0xbee11b6c	-0.43966234
217	0xbea28d1e	-0.3174829
218	0x3da6aa17	0.08137911
219	0xbdcc2169	-0.0996731
220	0x3dc01ccb	0.09380492
221	0xbda1e788	-0.07905489
222	0xbc28b32f	-0.010296627
223	0x3e2b2a6c	0.16715401
224	0xbed5e3ab	-0.4177526
225	0xbe7a12f1	-0.24421288
226	0xbdd034a5	-0.10166291
227	0xbdc89493	-0.09793963
228	0x3e2437be	0.16036889
229	0x3d0fce74	0.035109
230	0x3da30b02	0.07961084
231	0x3eb07515	0.34464327
232	0x3ee3e802	0.44512945
233	0x3e5b2aee	0.21403095
234	0x3e907c40	0.28219795
235	0x3f1dff95	0.6171811
236	0x3ce23b94	0.0276163
237	0x3bb59c7b	0.0055423356
238	0xbeb5c787	-0.3550379
239	0x3f248b9e	0.6427554
240	0x3dffe2fe	0.12494467
241	0xbed54687	-0.4165537
242	0x3e89568b	0.2682384
243	0xbd20aaca	-0.039225377
244	0x3d489262	0.048967727
245	0x3edd3baf	0.43209597
246	0x3e28b0ef	0.16473745
247	0xbe7826a6	-0.24233493
248	0x3f0011e5	0.50027305
249	0xbe75b0c8	-0.23993218
250	0x3e0685ea	0.13137022
251	0x3ebaf1c8	0.3651259
252	0xbe22e672	-0.1590822
253	0xbd84f49f	-0.0649197
254	0x3d9c6608	0.076366484
255	0x3d7aa036	0.061187945

network.2.bias f4 [64]
0	0x3dbfb32f	0.093603484
1	0x3d90cbf6	0.070701525
2	0x3da41574	0.08011904
3	0x3dbad0c0	0.09121847
4	0xbd5dffdf	-0.054199096
5	0x3e40d17d	0.18829913
6	0x3d591bdf	0.053005096
7	0xbcd0802b	-0.02545174
8	0xbd48ff72	-0.049071737
9	0x3db2f3ef	0.08737933
10	0x3e132630	0.14370036
11	0x3e5f200e	0.21789572
12	0x3aed3c8f	0.0018099713
13	0x3db88653	0.09009995
14	0x3e178947	0.14798461
15	0x3e0aa8e6	0.13540992
16	0xbcf10847	-0.029422892
17	0x3ceff89b	0.029293349
18	0x3e23d111	0.15997721
19	0xbd8fefc3	-0.07028153
20	0x3e4d46bb	0.20046513
21	0x3d8fdc6a	0.070244625
22	0xbbe3c184	-0.006950559
23	0x3d13be8e	0.0360704
24	0x3db4f27f	0.08835315
25	0xbd8c31a7	-0.06845408
26	0x3d2cf01c	0.042221174
27	0x3addbad7	0.0016916645
28	0x3e69ea75	0.22843345
29	0x3e4ae428	0.19813597
30	0x3aa0b7d7	0.001226182
31	0x3e306280	0.17225075
32	0x3e0687d0	0.13137746
33	0xbdae3f3e	-0.08508156
34	0x3e35944b	0.1773235
35	0x3ccf37bc	0.02529513
36	0xbd941405	-0.07230381
37	0x3d2cdc17	0.04220208
38	0x3dbaf4ea	0.09128745
39	0x3dfd80f7	0.12378114
40	0xbd3a1417	-0.045429315
41	0x3e7db0fa	0.24774542
42	0xbd951e72	-0.072811976
43	0xbd7fa182	-0.062409885
44	0x3d4c909a	0.04994259
45	0x3d836ebd	0.06417606
46	0xbcbda1a8	-0.023148373
47	0xbc5b266e	-0.013375862
48	0x3e451e87	0.19249927
49	0x3d44f87d	0.04808854
50	0x3e847576	0.25870866
51	0x3dc57cac	0.0964292
52	0x3daa4072	0.08313073
53	0x3e0a445f	0.13502644
54	0x3db42ce3	0.08797624
55	0xbd10ea89	-0.03537992
56	0x3d63f1ed	0.05565064
57	0x3e2de432	0.16981581
58	0x3e1ea3b6	0.15492138
59	0x3d57eafb	0.05271433
60	0x3e3ded10	0.18547463
61	0x3c696186	0.014244443
62	0x3cfd328e	0.030907895
63	0x3e4bed3d	0.19914718

network.4.weight f4 [6, 64]
0	0xbed19b04	-0.4093858
1	0xbeaccbe5	-0.3374931
2	0xbebe8e77	-0.37218067
3	0xbe8125cd	-0.25224152
4	0x3da3f2c7	0.080052905
5	0xbf0066b6	-0.50156724
6	0xbe6ad1b7	-0.22931562
7	0x3eb9dda4	0.3630191
8	0xbd080c1e	-0.03321468
9	0x3d740603	0.059576046
10	0x3efe18e9	0.4962838
11	0xbeb420d5	-0.351813
12	0xbd756114	-0.059907034
13	0xbe51e8b5	-0.20498927
14	0x3eca8bd4	0.39559805
15	0x3f0868b7	0.5328478
16	0xbdba67e5	-0.091018476
17	0xbe600c73	-0.21879749
18	0xbd41f6e2	-0.047354586
19	0x3b2e99cc	0.0026641963
20	0x3f0daee5	0.5534499
21	0x3e1cdb1e	0.15317962
22	0x3eb44950	0.35212183
23	0xbe75e304	-0.24012381
24	0xbf00fad5	-0.5038274
25	0xbe3c761a	-0.18404427
26	0x3ecbba6d	0.3979067
27	0xbe9a5f2f	-0.30150744
28	0x3eb32ffb	0.34997544
29	0x3de8fcfb	0.11376377
30	0xbea592e8	-0.32338643
31	0x3e05cbc6	0.13066015
32	0xbe9973b6	-0.29971093
33	0xbea3931c	-0.31948173
34	0x3f1ba9a4	0.60805726
35	0x3dda3706	0.10655026
36	0x3c890251	0.016724737
37	0xbeb9852a	-0.3623441
38	0x3efc2c52	0.49252564
39	0x3e3a9196	0.18219599
40	0x3e4422be	0.19153878
41	0xbe9e2360	-0.30886364
42	0x3e1b4d45	0.15166195
43	0xbd71b611	-0.059011523
44	0xbdc35822	-0.095382944
45	0xbe13165c	-0.14363998
46	0xbe3dd0ac	-0.18536633
47	0x3d8c20f8	0.06842226
48	0xbeee1452	-0.46499878
49	0xbac3a3bd	-0.0014926117
50	0x3ec97758	0.39348865
51	0xbec7a4d0	-0.3899293
52	0xbec2c235	-0.38038793
53	0x3ed8e1cb	0.42359766
54	0xbeb45fe4	-0.3522941
55	0x3dd16048	0.10223442
56	0xbed09281	-0.40736774
57	0x3ee4b1bf	0.4466686
58	0x3ecbf474	0.3983494
59	0xbecda52a	-0.40165073
60	0x3e257439	0.16157617
61	0xbe536766	-0.20644912
62	0x3eb5337a	0.35390836
63	0x3f113e06	0.56735265
64	0x3dbe1dc6	0.092830226
65	0xbe8a3e48	-0.27000642
66	0xbe8a19a4	-0.26972687
67	0xbc4c569f	-0.012471824
68	0x3e0fe7d8	0.14053285
69	0x3efa16d4	0.4884554
70	0x3d0d90c8	0.034561902
71	0xbea140b3	-0.31494674
72	0xbdea11a2	-0.114291444
73	0x3f08cdc4	0.53438973
74	0x3e4d3f0a	0.20043579
75	0xbdcdeeb7	-0.10055297
76	0x3d8ef501	0.069803245
77	0xbf100113	-0.5625164
78	0x3ecb66a8	0.39726758
79	0x3e858598	0.26078486
80	0x3d8647e7	0.06556683
81	0xbeb344b4	-0.35013354
82	0xbe923693	-0.28557262
83	0xbe845ac7	-0.25850508
84	0x3f1853fc	0.5950315
85	0x3da211f8	0.079135835
86	0xbe4dbee9	-0.20092358
87	0x3e833d87	0.2563288
88	0xbd394a56	-0.045236908
89	0x3e73bd55	0.23802693
90	0x3c1f53a4	0.009724531
91	0xbcaa44f9	-0.020784842
92	0x3ef56272	0.4792667
93	0x3f050d10	0.51973057
94	0x3e7dcf9d	0.2478623
95	0x3eaf1157	0.34192917
96	0x3ebba76a	0.36651164
97	0xbe65deb0	-0.2244823
98	0xbdf135a6	-0.11777811
99	0x3e096e6b	0.13421027
100	0x3e83e1e7	0.25758287
101	0x3edcb8bb	0.43109688
102	0xbef677cb	-0.4813827
103	0x3ea6632d	0.3249754
104	0x3e401238	0.1875695
105	0x3f07813c	0.5293157
106	0xbe33c303	-0.1755486
107	0xbd301416	-0.042987905
108	0xbec3a7b1	-0.38213876
109	0xbe06d17a	-0.13165846
110	0x3e6fdf8c	0.2342512
111	0xbe2e4efd	-0.17022319
112	0x3e314dda	0.17314854
113	0xbf17ce8c	-0.5929954
114	0x3ee1a586	0.44071597
115	0xbf033f63	-0.51268595
116	0xbf02118e	-0.50808036
117	0xbccd38a0	-0.025051415
118	0xbee07186	-0.43836612
119	0xbdef3220	-0.116794825
120	0xbeb719e0	-0.3576193
121	0xbefc265d	-0.4924802
122	0x3e58a52b	0.21156757
123	0x3e8e02c5	0.27736488
124	0xbd809c9d	-0.062798716
125	0x3d878a4e	0.066181764
126	0xbe258122	-0.16162542
127	0x3ecbbe0f	0.3979344
128	0x3e1dceb7	0.15410887
129	0xbdbc74df	-0.09201979
130	0xbf138b0c	-0.57634044
131	0x3ee3f04c	0.4451927
132	0xbde22271	-0.110417254
133	0x3e70a5a9	0.23500694
134	0xbeb0200b	-0.34399447
135	0xbf027427	-0.50958484
136	0xbca8dd10	-0.020613223
137	0xbe94f050	-0.29089594
138	0x3edd150b	0.43180117
139	0xbe27614d	-0.16345711
140	0x3d5a967a	0.053366162
141	0xbe4f32d9	-0.2023424
142	0x3bc863c5	0.006115409
143	0xbe10e584	-0.14150053
144	0xbdafdb4f	-0.08586752
145	0xbdf7bae1	-0.12096191
146	0xbf08651c	-0.5327928
147	0xbe4fe1ff	-0.20301054
148	0x3eb530f4	0.3538891
149	0x3f0a0589	0.53914696
150	0xbeeba580	-0.46024704
151	0x3e2e1bfe	0.17002866
152	0x3e2b1940	0.16708851
153	0xbe2ede76	-0.1707705
154	0xbdd4b950	-0.10386908
155	0x3e3ce6b9	0.18447389
156	0x3ef9904f	0.4874291
157	0x3f0d81b3	0.5527603
158	0x3dafc527	0.08582526
159	0xbe5ffbb6	-0.21873364
160	0x3e4c16e4	0.19930607
161	0xbf100d7a	-0.56270564
162	0x3e232d9c	0.15935367
163	0xbe57a89e	-0.21060416
164	0x3e31f8bb	0.1738004
165	0x3d80cfc4	0.06289628
166	0x3e913059	0.283572
167	0x3ee7c1e8	0.45265126
168	0x3e8c9e72	0.27464634
169	0x3f01787b	0.50574464
170	0x3dc04335	0.09387819
171	0x3e749f1b	0.23888819
172	0xbe80ba0f	-0.2514195
173	0xbe001ec9	-0.12511744
174	0xbd6f3a68	-0.05840531
175	0x3e412400	0.18861389
176	0xbed7876f	-0.42095515
177	0x3ea9205d	0.33032504
178	0x3e60978f	0.21932815
179	0xbee5a466	-0.4485199
180	0x3e58c9c9	0.21170725
181	0x3eefa952	0.4680887
182	0x3ea785a1	0.32719138
183	0x3e26b409	0.16279615
184	0xbde1cebc	-0.110257596
185	0x3f015b7c	0.5053022
186	0x3e8b9848	0.2726462
187	0xbe3e8910	-0.18606973
188	0x3efdbf8c	0.495602
189	0xbe559339	-0.20856942
190	0x3eb4237c	0.35183322
191	0xbea5154d	-0.32242814
192	0xbd7d5600	-0.061849594
193	0xbec66979	-0.38752344
194	0x3df8fe4c	0.12157878
195	0xbee28818	-0.44244456
196	0xbe1bfeea	-0.15233961
197	0x3e16e467	0.14735566
198	0xbe8b6be5	-0.27230754
199	0xbdb52908	-0.08845717
200	0x3e8548a7	0.26031992
201	0x3ee68b7f	0.45028302
202	0xbc14f51e	-0.009091644
203	0x3f1f603a	0.62256205
204	0xbf0a99d8	-0.54140997
205	0xbe9b3147	-0.30311033
206	0x3e98ea1e	0.29866117
207	0x3e9c59a7	0.3053715
208	0x3e8df4b0	0.27725744
209	0xbe848c2c	-0.25888193
210	0x3e6ef4a2	0.23335508
211	0xbe116dc0	-0.14202023
212	0xbe0c79e0	-0.13718367
213	0xbea6f8e5	-0.32611766
214	0x3db87460	0.09006572
215	0xbe7a05b0	-0.24416232
216	0x3d88d09a	0.066804126
217	0x3d01dbd3	0.03170378
218	0xbf1d803d	-0.615238
219	0xbe0430bf	-0.1290922
220	0x3eb9f6fa	0.3632124
221	0x3eb910c2	0.36145598
222	0xbe0d1969	-0.13779224
223	0x3e1c0c11	0.15238978
224	0x3f17147e	0.59015644
225	0xbe7584ca	-0.23976436
226	0x3ed586e1	0.41704467
227	0xbe56f613	-0.20992307
228	0x3e0a3cba	0.13499728
229	0x3c5c3bb6	0.013441971
230	0xbccbfb50	-0.024900109
231	0x3e335e06	0.17516336
232	0xbd3082d9	-0.043093536
233	0x3d1fb351	0.03898937
234	0x3e24050f	0.16017555
235	0xbe83ff16	-0.25780553
236	0xbe6517f1	-0.22372414
237	0xbe9aae2f	-0.30211017
238	0xbdba3e78	-0.09093946
239	0x3e777fa3	0.24169783
240	0x3ef9f2a0	0.4881792
241	0x3dcf1a48	0.101124346
242	0x3e74451f	0.23854493
243	0xbe084f3b	-0.13311474
244	0x3eb96d2c	0.36216104
245	0x3f06954b	0.52571553
246	0x3e795713	0.24349622
247	0x3e2b3c1a	0.16722146
248	0xbed502f5	-0.4160382
249	0x3e9a55e2	0.30143648
250	0x3eada968	0.3391831
251	0xbedb7c5a	-0.4286831
252	0x3f06d82a	0.5267359
253	0xbf06adbc	-0.5260885
254	0xbeaeed80	-0.34165573
255	0x3d767a64	0.060175315

network.4.bias f4 [6]
0	0x3c94e49e	0.01817542
1	0x3dfa1f7b	0.12213036
2	0x3d2aa6d8	0.04166302
3	0x3df33aea	0.11876471
4	0xbc5cc827	-0.013475454
5	0xbd17c11b	-0.037049394
