dqn.pt (torch, 23584 bytes, 6 tensors)

network.0.weight f4 [64, 11]
00000000: b4f2 633e af03 8bbe 3769 61be b016 603e
00000010: 1505 6dbf 35d2 d4be 0e49 8b3f 7791 0e3f
00000020: 71a3 573f 077e 13bd af58 2f3f e32f 88be
00000030: 52c6 1ebf 71e6 ebbe 68ec f83e 815c 30bc
00000040: b396 d13d 2756 e4be 94fe 80be 2586 15be
00000050: b93b af3e 9873 383f d693 583e c5b1 42bf
00000060: 2194 e8bd ed1c 623c 9282 5a3e 67b8 6d3d
00000070: 8728 083f 0000 003f 2e4a 473f 4c16 c9be
00000080: c70d 433f 9d48 6ebf 990c c5be c7cb e4bc
00000090: 40c9 1abf 48a5 3c3f 93c8 da3e d7d8 7a3e
000000a0: 558d 16be ac4a 583f 8f77 913e 9015 403f
000000b0: 405c 2abf 9da8 de3e fafb 8dbe ed12 2fbe
000000c0: 33dc 29bf 1679 8fbe 92a1 16be a174 973e
000000d0: ca3d 0ebf 6532 203f 5314 9c3e 541d c6be
000000e0: 0c9e 26bf f4c5 5d3f 68c1 d2bd 743a 7abe
000000f0: 90bf d23e d67f 243f aefc aabd ff92 093f
00000100: cdba 68bf ca53 eabe feaa 02bf 3a32 11bf
00000110: 004e f23e 5be8 493e 1511 f03e a4a0 bcbe
00000120: 8a6d aebd 34a8 903f fd53 5fbd 3d09 e93e
00000130: 0913 c2be 475d 9abf 7fb0 f7be ab66 0d3e
00000140: 8802 3dbf 84d3 073f 97d2 a6be a209 e03d
00000150: b92e e73e 3e95 673f b48e 453f b07c 3f3f
00000160: b4fa 14be 4213 99be e3f1 9bbe 5947 cabe
00000170: f22c 18bf f99b d93e 68fa 3f3f fb1c 84be
00000180: e846 e23d 7589 063f 23bd 00bf 2122 c7be
00000190: 6664 0b3f 6034 253f 0ed1 f83a ba51 c93e
000001a0: fe7d 3e3e f501 94be 24e2 3b3f 2b3d 0c3f
000001b0: fc08 83be 654d ae3d 2949 5dbe b3b5 d83e
000001c0: 8fef bcbe c3a7 98be 95eb 683a 711b 52be
000001d0: 6421 033e f8d3 653f aecd 773d 957f 8a3f
000001e0: ebe4 a73e cd32 31bf 0386 733e 27da 30bf
000001f0: 5b50 fd3e 20d0 1d3c b563 89be cd8d f23e
00000200: 08ba f73e b7aa 6bbe f713 22be ff04 fe3e
00000210: 9336 313e 5d9c 4c3d 9505 283d 9db7 dfbe
00000220: 125a 4f3d 0a6e 8d3e 53cd 193f 7d05 c63e
00000230: a987 c53e a473 b8be bf2b 663e 885c 653d
00000240: 02a9 45bf 30df 34bf 2b79 ebbe 73d1 51bf
00000250: 2fd4 91bd 694b b23e d26d 4c3f e179 43be
00000260: f5dc 5d3f 18f8 8e3e e93a c83e cf59 a1be
00000270: 4df9 afbe 26a9 1cbf 0601 e43d 06e3 243e
00000280: a268 c8be 5085 b3be e3f7 0b3f c612 4a3f
00000290: a46d 363f 8105 62be 2c7d 373e 210e 7dbe
000002a0: 0ec4 09bf f3d6 09bf f010 6a3e b5fe 353f
000002b0: f700 873e 0261 993d 69d7 da3e c38d 63be
000002c0: 8d24 41bf 4496 743f e055 a33e 0d29 b23e
000002d0: 490d 443e 4b2c 343e bea7 283f f236 8a3e
000002e0: adf4 343e f1c3 c63e 80c3 dd3e 71f2 61bf
000002f0: 52ba 0bbf f334 2abf 99f8 193f a315 6c3e
00000300: 690b 2bbf cf5c fabc f51a 2e3f 0679 573f
00000310: d4a4 f0bd 206a 643f 0885 0dbd 1beb f43e
00000320: 5b51 073f 2ccb 203f b993 c0be 0af6 133f
00000330: c8de 7abe 0ea0 b43e 1e94 dc3e 3db6 8bbe
00000340: 3bbf 4e3f a161 8cbf 6018 c23d 608c 213f
00000350: 0e39 a5be 0f0b fb3d ecbf 0f3f 7200 d53e
00000360: ccfe 38bf 6d1c b7be aad6 52bd 21ac 433e
00000370: 0f52 3a3e 5016 433f 9528 363f 3df3 28bf
00000380: 8f56 b43e 6d8b cebe 6e2b 0bbf 54da 583f
00000390: 43b9 033f f729 8a3d 8b15 313f ad98 133f
000003a0: 56c8 1dbf 91b3 02bf 6497 343f 8921 b3bd
000003b0: 9865 573e 9eb1 2d3f 5165 9cbe fec5 04bf
000003c0: 378c 6b3e 7353 843d 547a f83d 8ecb ef3e
000003d0: f3a4 683e 0af6 783f df50 74bf 043f 063f
000003e0: c499 103f face 1ebf e844 f5bd ff79 adbe
000003f0: 52b3 3d3f 487b 3b3b be7e 1dbf 24a6 783f
0.22260553 -0.27151248 -0.22012793 0.21883655 -0.9258588 -0.41566625 1.088167 0.5569071
0.84233767 -0.03600886 0.68494695 -0.26599035 -0.6202136 -0.4607425 0.48617864 -0.010764242
0.10233822 -0.4459698 -0.25194228 -0.14601953 0.34225252 0.7205138 0.21150145 -0.76052505
-0.11356378 0.013800842 0.21338871 0.058037188 0.5318684 0.5 0.77847564 -0.39274824
0.761929 -0.9307955 -0.38486174 -0.0279292 -0.60463333 0.736897 0.4273115 0.2449678
-0.14702351 0.8448894 0.28411528 0.750329 -0.6654701 0.43488017 -0.27731305 -0.17097063
-0.6635162 -0.2802207 -0.14710072 0.29581168 -0.5556303 0.62576896 0.30484256 -0.3869425
-0.6508491 0.8663018 -0.102907956 -0.2443636 0.41161776 0.6425756 -0.08348976 0.53739923
-0.90910035 -0.4576705 -0.51042163 -0.56717265 0.47325134 0.19717543 0.46888033 -0.3684131
-0.08516987 1.1301332 -0.054523457 0.4551486 -0.37905148 -1.2059716 -0.48376843 0.13808696
-0.7383199 0.5305712 -0.32582542 0.10939337 0.45152834 0.904621 0.7717087 0.74799633
-0.1454876 -0.29897505 -0.30457982 -0.3950756 -0.5944358 0.4250181 0.74991465 -0.2580336
0.110486805 0.5255349 -0.502886 -0.38893226 0.5445007 0.6453304 0.0018983202 0.39320165
0.1860275 -0.28907743 0.7339194 0.54780835 -0.25592792 0.085108556 -0.2160994 0.42326126
-0.3690152 -0.29815492 0.0008885202 -0.2051828 0.12805706 0.89776564 0.060498886 1.0820185
0.32791838 -0.6921814 0.2378159 -0.69082874 0.4947537 0.00963214 -0.26833883 0.4737381
0.48384118 -0.23014341 -0.15827928 0.49613187 0.17305975 0.049953807 0.04102095 -0.43694773
0.050623007 0.27623016 0.60078925 0.38676062 0.38580063 -0.36025727 0.22477625 0.055996448
-0.7721101 -0.7065306 -0.4599088 -0.8196022 -0.07120549 0.34823158 0.7985507 -0.19089462
0.8666528 0.27923656 0.39107445 -0.3151383 -0.3436989 -0.611956 0.11133008 0.16102228
-0.39142329 -0.35062647 0.5467512 0.78934896 0.7126105 -0.22072412 0.17918843 -0.24712421
-0.5381478 -0.5384361 0.22858024 0.7109178 0.26367924 0.07489206 0.4274247 -0.22222047
-0.754464 0.9554179 0.31901455 0.34796944 0.19145693 0.17595021 0.65880954 0.26995045
0.17671461 0.38821366 0.43313217 -0.8826056 -0.5458118 -0.66487044 0.60144955 0.23055129
-0.66814286 -0.030561833 0.68009883 0.8416904 -0.117501885 0.89224434 -0.034550697 0.4783562
0.52858514 0.62810016 -0.37612703 0.577973 -0.24499047 0.35278362 0.43081754 -0.27287474
0.80760545 -1.0967294 0.094773054 0.6310482 -0.32270092 0.12257969 0.56152225 0.41601902
-0.7226379 -0.35763875 -0.05147425 0.1910863 0.18195365 0.7620592 0.71155673 -0.6599615
0.3522229 -0.40340748 -0.54363143 0.8470814 0.5145456 0.067462854 0.69173497 0.5765484
-0.61633813 -0.51055247 0.70543504 -0.08746631 0.21034849 0.6784915 -0.30546048 -0.5186461
0.23002706 0.06461229 0.12132707 0.46834987 0.22719173 0.97250426 -0.954359 0.52439904
0.5648463 -0.6203457 -0.119760334 -0.33882138 0.74101746 0.0028607417 -0.6152152 0.9712851

network.0.bias f4 [64]
00000000: 5293 7a3e 112a d03d 12ce 483e 7546 ae3e
00000010: b69d da3c 107c 78bd 5d1f a73e 9f8c 903e
00000020: 069c 603e 6d8e 0d3e b27f a83e f57c 3e3e
00000030: fbf5 593e bfdd 7a3e ed50 a43e ed75 723e
00000040: bb29 fabc bf01 bf3e 9b3b 0f3e e1f3 43bc
00000050: 685b 0b3d 5194 143e b4d2 083e bf46 913e
00000060: 2c19 c33d 06df 0e3e 401d 743c 2b1f c1bd
00000070: 60fa 0dbd 1d67 a13e 4fe2 8a3e 21a5 813e
00000080: b124 3d3e f9ed 2f3c 1952 b83e 6310 803e
00000090: 4a8d 353e 646a 0b3e 6e4b 393e 1d47 693e
000000a0: f777 f63c ade5 5d3e 8d95 92bc 635b c63c
000000b0: 52fc 5c3e 1bde 093e 7f2e 043c 6ffc e63d
000000c0: 82e2 883e b875 5f3e ebe4 853c 6338 6c3e
000000d0: a8d6 76bd 4b6b f4bc 342c 7c3e c667 923e
000000e0: 63bd 7d3d 0283 183d 11de 5e3e d45c 703c
000000f0: 4171 4e3e a955 413e 22c3 813c 31d9 d1bc
0.2447026 0.101642735 0.1960986 0.3403813 0.02668653 -0.06066519 0.32641116 0.28232285
0.21934518 0.13823862 0.32909924 0.18602355 0.2128524 0.24498652 0.3209299 0.23677798
-0.030537477 0.3730602 0.13987581 -0.011960001 0.03402272 0.14509703 0.13361627 0.28374287
0.095262855 0.13952264 0.014899552 -0.09429773 -0.034662604 0.31523982 0.27125785 0.25321296
0.18471028 0.010737889 0.36000136 0.25012502 0.17729679 0.13614804 0.1809518 0.22781034
0.0300865 0.21669646 -0.017893577 0.024213498 0.21580628 0.13463633 0.008067726 0.11278617
0.26735312 0.2182225 0.016344508 0.23068385 -0.060263306 -0.029836318 0.24626237 0.28594798
0.06194819 0.037234314 0.21764399 0.014670569 0.2016039 0.18880333 0.015840117 -0.02561626

network.2.weight f4 [64, 64]
00000000: 6bc6 113d 5a6a 9abc f2d7 bbbe ec7d fe3d
00000010: f438 c73e 68ec 073e 81e4 58be c833 ce3c
00000020: c98e f5be 2d08 c83d 44a5 bc3e 2b6e 293e
00000030: ed4d b2bd 0569 bcbe 6789 1a3e 3a3d 923e
00000040: abd4 1c3e 3b44 1cbe 5cc0 723e 8631 3a3e
00000050: b403 f239 4fa7 383e f015 7abd d0c3 cc3b
00000060: f0e2 913e 331b 37bd 9ba8 c83e ff04 953c
00000070: 5c76 d33e d568 aabe 5851 d13e 5c35 6e3e
00000080: 71db 803e 3c72 47bd a29a 153e 0ab1 703e
00000090: eccc 8b3d 47d0 dabd 897c b5be 5375 5c3e
000000a0: 6c5b 013f 59f7 ed3e 13b3 063e 470b 383e
000000b0: 243a e3bc 0480 22be 7f03 b23c 0c45 fbbd
000000c0: 093f a83e c3da a23e cf84 55be e2aa 413e
000000d0: 1cc2 133c b055 26be 57e6 d4be 1458 0ebd
000000e0: 6ac1 98bc 8d50 b23d 00e9 dd3d 82bd e13d
000000f0: 3a38 42be 0220 d3bd e0ed eb3e 9cf5 913d
00000100: 50b3 943d 926d f33d 4754 79be 56c5 5ebe
00000110: 71c6 ff3d b60a 2b3c 5f23 4bbe d790 383e
00000120: 200e edbe 1b62 b03e e04c 0dbd fbcd 913e
00000130: a2b8 103e 6549 cebe 66fb dcbe b2e5 693e
00000140: 1dd3 1a3e fb26 4fbe 9a45 20be 96c8 053d
00000150: 60aa 673e 7710 e53d 0b09 593e 807a 76be
00000160: 3cf7 89be 2bb3 d33e 15fb a0be 35ee 323e
00000170: f6b4 2b3e c3fe 5bbe 6288 bb3e 72eb 7fbd
00000180: a044 0f3f b79d 323e c3fd 443e 7040 c83e
00000190: 5439 273e 8e0f 86be cddf b3be f8ce 49be
000001a0: 73fc ac3e ba50 80be 20cc 793e 92b6 e93e
000001b0: 9057 193e fc8a 9bbe 6237 a3bd 8b11 83be
000001c0: d7c4 eabc 04b2 2dbe d519 843e d46f d63d
000001d0: c6a3 d73d 7759 06be 89c0 adbd 1d92 903e
000001e0: 5043 2cbe 951d ddbc ecfe 7abd 3ca6 8fbe
000001f0: c1eb 183e f13f a13c 73ec 97bd 60a9 303e
00000200: 630c cebc 0f3e 2bbd 1150 273e 9d22 63be
00000210: 0552 71be eb1f 8a3e ad7b 3d3e d4fa 4abd
00000220: 69a3 fe3d cdc5 d2bd 2ff3 6abe fd92 adbd
00000230: f570 19be 1da5 7e3d 1d7b 393e b8f0 2bbb
00000240: cf23 b7bd 1a83 37be 4d0a 4fbe 8248 283e
00000250: 1df8 6fbe ea3f 693e 39d7 32bd 761d 88be
00000260: 1dec 52be 749d ee3d cf15 7ebe 09ae 53be
00000270: c4a9 333d 3cd0 3f3e ff3f 7bbe 1241 86be
00000280: e99b cabd 30e6 78be 9a96 35be 913e 753e
00000290: a419 6d3e dcc7 053e 433c af3c 4635 bcbd
000002a0: 1b6a 7abe ce40 da3d 2644 65be 2e70 2dbe
000002b0: 1449 65be 412f 923e e9c3 70be de32 4bbe
000002c0: 9d88 6b3e 3606 c1bd cdfa 8dbe 0e7e 13be
000002d0: e0c2 27be fa31 2fbe bed2 743e 9a9b 99be
000002e0: 8cc6 9abe 18e2 e43c 441c 5e3e b52a 48be
000002f0: c880 45be 6c4c c7bd 4ef3 97be 21b8 d1bd
00000300: ff41 fdbd 9771 7c3e 01d2 13be ce82 efbd
00000310: f476 a93d 94b5 f9bd 63bf 2f3d 6c7d 76bd
00000320: 52c1 953e 2fab ed3c 8cac 96be aa80 6c3e
00000330: 97cb 1bbd 36b5 3f3d c9e8 973e 4ed5 0bbd
00000340: 4dbe 39be edbb 7cbe 1c91 4f3e 3b6e 4f3e
00000350: fc6d 94be 597d 98bd f214 41be 2818 26bd
00000360: 1328 033c f090 57be ea15 32be 0269 03be
00000370: 3909 5dbe 4fdc d23d 27d2 b4bb 3f7e 96be
00000380: f7d6 05bd 16a9 023d 2c44 b93c cd8a e7bd
00000390: 5927 043e 3cd6 5e3e e0d4 55be 5da3 e2bd
000003a0: 87f2 6dbb b9c9 f8bd 7d77 57be a914 83be
000003b0: 5272 0abe 7ff5 023e f665 48bd 3843 5cbd
000003c0: b6d6 8fbe 8b6d 35bc b1d9 f93d 70a4 09be
000003d0: e379 69bd 3f0c 8abc bd18 4f3e 90da 483e
000003e0: 589c 8ebe 25cf 8fbc af87 8ebe 0945 433d
000003f0: 825e c53d ee36 58bd ab90 64be 71f3 38be
0.035589617 -0.01884954 -0.3668819 0.124263614 0.3891064 0.13273776 -0.21180917 0.025171176
-0.479605 0.097671844 0.36844838 0.16545932 -0.087062694 -0.36798874 0.15091477 0.28562337
0.15315501 -0.15260403 0.23706192 0.18182954 0.00046160596 0.18032573 -0.061056077 0.0062489286
0.28493452 -0.044703674 0.39191136 0.018190859 0.4130124 -0.33283105 0.40882373 0.23262542
0.2516742 -0.048692927 0.14609769 0.23505035 0.06826195 -0.10684257 -0.35446575 0.2152913
0.50530124 0.46477774 0.13154249 0.17973052 -0.027737685 -0.15869147 0.021730183 -0.12269029
0.32860592 0.31807527 -0.20851444 0.18912843 0.009018447 -0.16243625 -0.41581985 -0.034751967
-0.018646915 0.0870677 0.10835457 0.11022474 -0.18966761 -0.103088394 0.46079922 0.071269244
0.07260764 0.11886133 -0.24348556 -0.21754965 0.124890216 0.010439565 -0.19837712 0.18024002
-0.4629984 0.3444985 -0.03449714 0.28477463 0.14132932 -0.4029037 -0.43160552 0.22841528
0.15119596 -0.20229714 -0.15651551 0.032661997 0.22623587 0.11184781 0.21194856 -0.24070168
-0.26946437 0.41347632 -0.3144156 0.17473681 0.1676825 -0.21483903 0.3662749 -0.062480398
0.5596409 0.17442976 0.19237427 0.39111662 0.16330463 -0.26183742 -0.35131684 -0.19707859
0.33786353 -0.2506159 0.24394274 0.45647103 0.14974809 -0.30379474 -0.07969548 -0.25599322
-0.028658314 -0.16962439 0.25800958 0.10470548 0.10529284 -0.13120066 -0.08483989 0.28236476
-0.16822553 -0.026991645 -0.06127827 -0.28056514 0.14933683 0.01968381 -0.07418146 0.17252111
-0.02515239 -0.04180723 0.16339137 -0.22181173 -0.23566444 0.26977476 0.1850421 -0.049555615
0.12433512 -0.10291634 -0.2294433 -0.084753014 -0.14984496 0.062169183 0.1811337 -0.002623601
-0.08942377 -0.17921105 -0.20218773 0.1643391 -0.23434491 0.22778288 -0.043662284 -0.26584977
-0.20597883 0.116511256 -0.24813007 -0.20671858 0.043863073 0.18731779 -0.24536131 -0.2622152
-0.09893019 -0.2430656 -0.17733231 0.23949648 0.23154312 0.13064522 0.02139104 -0.091898486
-0.24454539 0.10656892 -0.22389278 -0.16937324 -0.22391158 0.28551677 -0.23512234 -0.19843623
0.23001333 -0.09425013 -0.27730408 -0.14403555 -0.16382933 -0.17108908 0.23908517 -0.30001527
-0.30229604 0.027939841 0.2169047 -0.19547541 -0.19287407 -0.09731373 -0.29677814 -0.10240198
-0.123661034 0.24652706 -0.14435579 -0.11694871 0.08274642 -0.121928364 0.04290713 -0.060178205
0.29249054 0.02901229 -0.29428518 0.23095956 -0.038035955 0.046803676 0.29669788 -0.03413897
-0.18139 -0.24681063 0.20270199 0.20256893 -0.2899016 -0.07445783 -0.18855646 -0.04055038
0.00800516 -0.21051383 -0.17391172 -0.12833026 -0.2158555 0.10295927 -0.005518216 -0.29393193
-0.03267571 0.031899534 0.022615515 -0.11305771 0.12905635 0.21761411 -0.20881987 -0.11066315
-0.0036307888 -0.121478505 -0.21041675 -0.256017 -0.13520172 0.12788962 -0.048925363 -0.053775042
-0.280935 -0.01107348 0.121997245 -0.13441634 -0.057001006 -0.016851543 0.2022428 0.19614625
-0.27853656 -0.017554829 -0.27837893 0.04767326 0.096371666 -0.05278676 -0.22320811 -0.18061616

network.2.bias f4 [64]
00000000: efc3 85bc 61fc 13bd cd1c c9b8 2ab5 d7bc
00000010: f353 7f3d b331 6e3e fdda b83c 2778 103e
00000020: 58a9 913d 55c1 4e3e 1856 793d fd56 60bd
00000030: c0c9 a1bd c9d2 693d 7815 4c3c 4c88 153e
00000040: ae89 0b3e 5ff6 993d 7711 423e c06d 993d
00000050: 7774 663e b3c3 243e 7390 2b3e af4d 713d
00000060: 2eb3 473e 75b0 4b3d d9dc bc3c 2090 aebd
00000070: 8053 303e 54ea e03d 7c48 e1bc 4c6a 423e
00000080: e325 743d 60e1 533e 3848 b83d 0fe5 b53d
00000090: 26d9 343e 09bf 3c3e db00 863d c2c0 203e
000000a0: b266 8a3d 8623 4a3d 66c0 31bd 9b31 18bd
000000b0: bbfd 833d 23d6 90bc d695 cf3d 5829 8d3c
000000c0: b97a 8cbd d6ae 513c bc98 f63c 287d 153d
000000d0: 1f4b 143e 2352 b1b9 f20e 703e e724 d2bb
000000e0: e891 013e 2d30 583e 4168 433e 1ce0 a6bd
000000f0: 1b0a 723e 24e2 c2bc a704 263e 69ef 113e
-0.01632878 -0.03612936 -9.5897914e-05 -0.026331503 0.06233592 0.23261146 0.02256536 0.14108334
0.07112378 0.20190938 0.06087312 -0.05477046 -0.07899809 0.057085786 0.01245629 0.14602774
0.1362674 0.07517695 0.18951975 0.07491636 0.22505365 0.16090278 0.16754322 0.058911975
0.19501945 0.04972883 0.023054527 -0.085235834 0.17219353 0.109821945 -0.027500384 0.18985862
0.059606444 0.20691442 0.0899815 0.0888158 0.1766096 0.18432249 0.06543132 0.15698531
0.06757869 0.049350284 -0.043396376 -0.037156682 0.064448796 -0.017680233 0.10136001 0.017231628
-0.06859345 0.012798032 0.030102126 0.03649631 0.14481781 -0.00033821267 0.23443201 -0.0064130905
0.12653315 0.21112128 0.19082738 -0.08148214 0.23636667 -0.023789473 0.16212712 0.14251484

network.4.weight f4 [6, 64]
00000000: 6b7a dbbe ce6e f8be 30fb 5b3d ee87 80be
00000010: b8a9 9d3e 25ca f13e 5095 443e 4605 06bf
00000020: 7058 8fbe 1933 053f 9123 dabe 6ac1 4c3c
00000030: 6dc6 b93e f2f4 fdbd d318 aabe dedc 10bf
00000040: 7416 42be 9a2d 783d 1df0 eebe e687 2a3f
00000050: ac92 fa3e 0821 ba3e cb8d ea3d c2e7 0cbf
00000060: 31d8 d03e 87bf 6fbe 11ff 8b3e 5e02 1d3f
00000070: da53 38be 31cc df3e 4c68 be3d a0ab c1bd
00000080: 16b1 4c3d 66b8 5e3d ca45 e4be 90a9 0cbe
00000090: 5987 9b3e 9f5d 703e 0e9e bfbe 6502 503e
000000a0: 3f49 e03e 1d84 983e 0ed4 d6bd 19f7 dbbd
000000b0: f061 72be 5023 fe3d f862 9b3e b825 453c
000000c0: 1014 5dbe ab30 15bf 7dbb d8bd 34a2 99be
000000d0: 1512 a33e 8f75 b0be ae3b ec3e 4391 1fbe
000000e0: 6826 223f 7615 aa3e 391b af3d c556 97be
000000f0: a40a 733e b9da c33d 9c28 e2be c7a2 83be
00000100: 53a1 91be a38e 03be c8f9 58be 8e3c 0a3e
00000110: 7805 1abe 1b82 ba3d 9d28 963e 4168 243e
00000120: faab db3d b7c5 ba3e cfa7 8e3e 19c2 3f3e
00000130: 3dbe 383e 4bda 7bbd 684f 233f 0f0a 413e
00000140: 7aaf 4abe 648d f53e 0cda ba3d d73b 0a3e
00000150: 6ea7 3e3e 0adc ddbb 153e 043f 1820 adbd
00000160: 36a6 343f aea5 17be 08f3 3c3d d4ee 0a3e
00000170: 85b5 68be 3f25 65bf 7d7f 06be 3d13 ab3e
00000180: 13ff 6bbd ceda cabd f57b cf3e 0090 e3be
00000190: eb25 b9be 8d5e c23e 6650 34bf c0e2 1e3f
000001a0: 4a38 9c3d 4cb5 77be 2b9b 8e3d b692 6abe
000001b0: 00ae d9bd 673d 7b3d ac4a 933e 329f 64be
000001c0: e326 393d ef27 8dbb dacf 63be 1997 6abd
000001d0: f1c0 ef3e 8b59 b73e 181b e13e 9265 8b3e
000001e0: b95d 82bf 6f2a 0e3f 1627 613e 94c1 a4be
000001f0: 4f9f b1be c7fd a2bd 6ea1 17be 1dd2 82be
00000200: 4620 91be e1e0 1dbe c7fb b63d bb8d 673e
00000210: 219b abbb b5c9 213f 0312 05be e7ab a33e
00000220: 461a 94be 74b9 95bd 8e8d 893d 972d 26be
00000230: 7297 b23d b673 8dbe 80b6 bd3d 2153 9fbd
00000240: 3438 b3be 3278 923e bdcb 6d3e 53f1 183d
00000250: e789 e73e 7fc0 c43e a4a2 063f c10f 803e
00000260: 7368 e63d 7064 c3be 4652 7cbe a231 983d
00000270: f15b 2b3e f71d 5c3d c89b 5fbe c5fe f23e
00000280: d4e9 18bf 8277 093f 69b0 153e 5aa9 c2be
00000290: c1db c1bc 0000 003f bf71 5bbe 860d 183f
000002a0: d621 e3bd 53b7 97be 7c77 e1be b9ec 6f3b
000002b0: 63ae 05bd 7839 5d3d ab21 14bf 5848 49be
000002c0: 2352 dcbe a493 a6bd fa88 10bf f1db b5bd
000002d0: a1ad aebe ba3a 663e c0df 7c3e 5b06 fcbd
000002e0: 331a ff3d 0268 bf3e 7cd6 1f3f cd85 06bf
000002f0: 3f26 903e 810b 50bd 29fc 093f 524e 42bd
00000300: 0f12 243e 985e 0dbd 7edc 453e 7953 12be
00000310: 277c 2abf 485c 013f 584a 8fbe 3f0f 6cbe
00000320: c988 04bf 0d60 b23e 12ce 9bbe c503 d93e
00000330: 1c00 763c e3e3 e9be 93fd 1dbd bb12 01be
00000340: b4e2 c43c 923f 923e 4ae9 edbe d364 913e
00000350: b228 b33d 9b69 193f 160b 083f 2243 053e
00000360: 27fc e33d eb5d 36be 8e81 163c 3414 b53e
00000370: 7ab2 37bf 0f69 65be a20b 99be 9d43 8b3e
00000380: fc8d 07bf 26c1 003e ed48 c03e 0fe6 c53e
00000390: 9d94 903d 5b4d 82be f18f 10be d37a a83d
000003a0: 04ce 6e3e 5c55 f3be 1a60 66bd bd41 173d
000003b0: a565 c9be f6b6 693e c443 a93e aa3c 84be
000003c0: 7fa5 bebe 07a4 8b3c b2d1 d93d 9e6e 3c3e
000003d0: 874c 4c3e 67a3 2b3e e88f 0d3f 6bd6 793e
000003e0: 79fd da3d 964d 063f c607 a2be 806c 133e
000003f0: eeb0 19bf 8ba7 473e c238 e13e 97e7 3b3e
-0.42866835 -0.48522037 0.053706348 -0.25103706 0.30793548 0.47224537 0.19197583 -0.52351797
-0.2799716 0.52031094 -0.4260526 0.012497285 0.362842 -0.12400235 -0.33222064 -0.56587017
-0.18953878 0.060590364 -0.46667567 0.66613615 0.48940027 0.36353326 0.11452826 -0.55041134
0.4078994 -0.23412906 0.27343038 0.6133174 -0.18000737 0.43710473 0.09297237 -0.09456563
0.04997357 0.054375075 -0.44584495 -0.13736558 0.303767 0.23473214 -0.37425274 0.20313413
0.43805882 0.29788294 -0.10489665 -0.107404895 -0.23670173 0.12409079 0.30348945 0.012032919
-0.21589684 -0.58277386 -0.105826356 -0.30006564 0.31849733 -0.3446469 0.46139282 -0.15582757
0.63339853 0.33219498 0.08550114 -0.29558387 0.23734528 0.095632024 -0.44171607 -0.25710127
-0.28443393 -0.1284738 -0.21189034 0.13499662 -0.15041149 0.09106847 0.2932786 0.16055395
0.10726161 0.3647897 0.27862403 0.18726386 0.1804132 -0.061487477 0.6379304 0.18851493
-0.19793501 0.47959435 0.091236204 0.1349939 0.18618557 -0.0067706155 0.5165723 -0.08453387
0.7056612 -0.14809296 0.04613021 0.13567668 -0.22725494 -0.8950996 -0.1313457 0.33413115
-0.057616305 -0.09905015 0.4052426 -0.444458 -0.36161742 0.37962762 -0.7043518 0.62064743
0.07627924 -0.24190253 0.0696319 -0.22907528 -0.10628891 0.061337855 0.28767908 -0.22326353
0.0452031 -0.004307739 -0.22247258 -0.057273004 0.4682689 0.35810503 0.43965983 0.2722593
-1.0184852 0.555335 0.21987566 -0.32178938 -0.34691855 -0.079585604 -0.14807674 -0.2555093
-0.28344935 -0.15417816 0.089347415 0.2261266 -0.0052369987 0.63198406 -0.12995152 0.3196709
-0.28926295 -0.07310763 0.067164525 -0.16228329 0.08720292 -0.27627343 0.09263325 -0.077795275
-0.35003817 0.28607327 0.23222251 0.03733952 0.452224 0.38428113 0.5259192 0.2501202
0.11250391 -0.38162565 -0.2464076 0.07431342 0.16734292 0.053739514 -0.2183677 0.4746
-0.59731793 0.5369798 0.14618076 -0.3801983 -0.023664357 0.5 -0.2143011 0.59395635
-0.11090438 -0.29632053 -0.44036472 0.0036609604 -0.03263701 0.054009885 -0.57863873 -0.19656503
-0.43031415 -0.08133629 -0.5645901 -0.08879841 -0.34116843 0.2248334 0.24694729 -0.123059
0.12456169 0.3738404 0.6243665 -0.52547914 0.2815418 -0.05079222 0.5390039 -0.047437973
0.16022514 -0.03451404 0.19322392 -0.14289655 -0.6659569 0.50531435 -0.27986407 -0.23052691
-0.5177122 0.34838906 -0.30430657 0.42385688 0.0150146745 -0.45681676 -0.038571905 -0.12604801
0.024033882 0.28564125 -0.46467048 0.28397235 0.087479964 0.59926766 0.53141916 0.1301389
0.111320786 -0.17809264 0.009186162 0.35366976 -0.7175671 -0.22403358 -0.29891688 0.27200022
-0.52951026 0.1257368 0.37555638 0.38652083 0.07059596 -0.25449643 -0.1411741 0.08226552
0.23320776 -0.47526062 -0.056243993 0.036927927 -0.3933536 0.228237 0.33059514 -0.25827533
-0.37235638 0.017045988 0.10635699 0.18401572 0.19951068 0.16761552 0.5529771 0.243982
0.10692877 0.52462137 -0.31646556 0.14396858 -0.600356 0.19497506 0.43988615 0.18350063

network.4.bias f4 [6]
00000000: 7f92 103e 4543 8e3d 7044 443e 4eaf 1a3e
00000010: e791 3f3b 6485 d8bd
0.14118384 0.069464244 0.19166732 0.15105936 0.0029231252 -0.10572317
