dqn.pt (torch, 77600 bytes, 6 tensors)

network.0.weight f4 [128, 11]
0	0x3e7117ac	0.23544186
1	0x3e62ddda	0.22154942
2	0xbf2597bc	-0.64684653
3	0xbe339ed0	-0.17541051
4	0xbdc1703a	-0.09445234
5	0x3ed6a9da	0.4192646
6	0x3ddf36a5	0.108990945
7	0xbf1767db	-0.59142846
8	0xbe8d48b6	-0.27594537
9	0x3f76bb5c	0.9637964
10	0x3edf652c	0.43631876
11	0x3f51c6f5	0.8194421
12	0x3ea2df10	0.31810808
13	0xbe51a3c2	-0.20472625
14	0xbd36a03f	-0.044586416
15	0xbcd7da06	-0.026349079
16	0xbdc307f1	-0.09522999
17	0xbd399bce	-0.045314603
18	0xbeb6d1bf	-0.357069
19	0x3ee6e3ee	0.45095772
20	0x3dda2fe4	0.10653666
21	0x3f004e7d	0.50119764
22	0xbd86a914	-0.06575218
23	0x3e1191e2	0.14215806
24	0x3eb52ddd	0.35386553
25	0xbf1207d9	-0.57043225
26	0x3f3f163a	0.7464329
27	0x3ed2f05d	0.41199008
28	0x3dadaf0d	0.08480654
29	0xbc21fcce	-0.0098869335
30	0xbe3b9236	-0.18317494
31	0x3e5ac6b4	0.21364862
32	0x3d8d5b48	0.06902176
33	0x3de831a5	0.11337594
34	0xbf2b93dc	-0.6702249
35	0x3f03473d	0.51280576
36	0x3dd55ac7	0.10417705
37	0xbea8ce3c	-0.32969844
38	0xbe812466	-0.25223082
39	0xbefcefe5	-0.49401775
40	0xbe63e4b5	-0.22255214
41	0x3f1665de	0.58749187
42	0xbf02b565	-0.51058036
43	0x3ea3e829	0.32013062
44	0x3e21ed96	0.15813288
45	0xbeaf7691	-0.34270146
46	0x3edbadab	0.42905936
47	0x3dbde9b4	0.09273091
48	0x3f2c5cd7	0.6732916
49	0x3dcb536a	0.09928019
50	0x3f30c53f	0.69050974
51	0x3f46fc1c	0.7772844
52	0x3ee6f484	0.45108426
53	0x3ec52fbd	0.38512984
54	0xbf5ec0b6	-0.87012804
55	0xbd926c04	-0.071495086
56	0x3f3916e3	0.7230055
57	0x3e870f9b	0.26379094
58	0x3d044033	0.032287788
59	0xbe8ebf02	-0.27880102
60	0xbc9f5740	-0.019450784
61	0x3c37a5d4	0.01120897
62	0xbeef8c60	-0.46786785
63	0xbdcf7cfb	-0.1013126
64	0x3e7489fc	0.23880762
65	0xbf217632	-0.63070977
66	0xbefa3d96	-0.4887511
67	0x3e991a38	0.29902816
68	0xbed89288	-0.42299294
69	0x3e8fdb92	0.28097206
70	0x3eb0c3f7	0.3452451
71	0xbcafc1bc	-0.021454684
72	0x3e972411	0.29519704
73	0x3ef6efd1	0.4822984
74	0xbee550d4	-0.4478823
75	0x3f00a149	0.502461
76	0x3e8244a5	0.25442997
77	0x3dfaba9f	0.122426264
78	0xbf1ed354	-0.6204121
79	0x3decd8c0	0.11564779
80	0x3df42646	0.119213626
81	0x3e6d1255	0.23151524
82	0x3ecfb83b	0.40570244
83	0xbd33c1ea	-0.043886103
84	0x3f02b84a	0.5106245
85	0x3e75af9d	0.23992772
86	0xbed5f58a	-0.41788894
87	0xbd6e254c	-0.058141038
88	0x3e722683	0.23647504
89	0xbebb1a5b	-0.36543545
90	0x3f22ba07	0.63565105
91	0x3d7d938b	0.061908286
92	0xbd6af8a0	-0.057366014
93	0xbc7f0d7b	-0.015567179
94	0x3daea40a	0.08527382
95	0x3e104d94	0.14092094
96	0x3edb3826	0.42816275
97	0x3ee71bca	0.4513839
98	0x3f885283	1.065018
99	0x3edecc66	0.4351532
100	0xbe4840ad	-0.19555922
101	0xbe953f0e	-0.2914967
102	0x3f24fcb0	0.6444807
103	0x3fd1b350	1.6382847
104	0xbe1daf8b	-0.15398996
105	0x3ea1d6ad	0.31609097
106	0x3efcc9e9	0.49372795
107	0x3e00b844	0.12570292
108	0x3e1fc768	0.15603411
109	0xbe25c39c	-0.161879
110	0x3e90c9b9	0.28278902
111	0x3e8206f3	0.25395927
112	0xbf47df64	-0.7807524
113	0xbf3227f2	-0.695922
114	0x3f398a35	0.7247651
115	0x3e8712aa	0.26381427
116	0x3e6accbf	0.22929667
117	0x3d44de0e	0.04806333
118	0x3e835150	0.25647974
119	0xbde21964	-0.11039999
120	0x3d794035	0.06085225
121	0x3e9224e1	0.2854376
122	0xbe129286	-0.14313707
123	0x3e290751	0.16506697
124	0xbe941298	-0.28920436
125	0xbdb08bbd	-0.08620403
126	0xbf63c875	-0.8897775
127	0xbe3b10d7	-0.18268143
128	0x3e6dee50	0.2323544
129	0xbe25349c	-0.1613335
130	0x3f7ee5b0	0.99569225
131	0x3ea0d81b	0.31414875
132	0x3b3c06fb	0.0028690684
133	0x3d62eb06	0.055399917
134	0x3f0602e6	0.5234817
135	0xbe9ff626	-0.31242484
136	0x3ecb17a7	0.39666483
137	0x3defc531	0.11707533
138	0x3e3060b9	0.17224397
139	0x3e7c6a33	0.24649887
140	0x3eef4f9e	0.4674043
141	0xbd69c262	-0.057070144
142	0xbe858ae2	-0.26082522
143	0x3f554967	0.8331513
144	0xbeb28c5b	-0.34872708
145	0xbee8c940	-0.45466042
146	0x3f0a5636	0.540378
147	0x3f4aa1f3	0.79153365
148	0xbe99d5d2	-0.30045944
149	0x3ec58791	0.3857999
150	0xbc90efad	-0.017692411
151	0x3e80c0ee	0.25147194
152	0x3ef1055a	0.47074395
153	0xbe83f4bb	-0.25772652
154	0x3e609b3b	0.21934216
155	0x3e47c2af	0.1950786
156	0x3e64795f	0.22311924
157	0xbe90a1e0	-0.282485
158	0xbea46344	-0.32106984
159	0xbdbcda0f	-0.09221279
160	0xbfc5b8c2	-1.5447009
161	0x3e5b119c	0.21393436
162	0x3eefe009	0.46850613
163	0xbea1ea03	-0.3162385
164	0xbd24d1f6	-0.040239297
165	0x3e8a852e	0.27054733
166	0xbc7932be	-0.015209852
167	0xbe8c0b23	-0.27352247
168	0x3f47b9f5	0.7801812
169	0xbc603440	-0.013684332
170	0x3f40b9a4	0.75283265
171	0xbe7327a0	-0.23745584
172	0x3ea137ca	0.31487876
173	0x3e97deac	0.29662073
174	0x3ef42b1a	0.47689134
175	0x3d9ee612	0.07758726
176	0xbbc50961	-0.006013081
177	0x3dfda3df	0.123847716
178	0xbe9afac4	-0.30269444
179	0xbf4f8794	-0.8106625
180	0xbce673d1	-0.028131397
181	0x3e129316	0.14313921
182	0x3f32d60d	0.69857866
183	0x3eb5d249	0.35511997
184	0x3de476c0	0.11155462
185	0xbe89be8f	-0.26903197
186	0xbeb4192c	-0.35175455
187	0x3ed95b3f	0.42452428
188	0xbe2345a8	-0.1594454
189	0xbef61734	-0.48064578
190	0xbda7113d	-0.08157585
191	0x3ddd23f7	0.107978754
192	0xbf894ce7	-1.0726594
193	0x3e6ade8e	0.2293646
194	0xbe3857ae	-0.18002197
195	0xbec88587	-0.39164373
196	0x3ebeae5f	0.3724241
197	0xbea32ce8	-0.31870198
198	0x3dee4424	0.116340905
199	0xbe1c94d6	-0.15291151
200	0xbe899713	-0.26873073
201	0x3e9e4ab3	0.30916366
202	0xbd6fa92e	-0.05851095
203	0x3e751fd1	0.23937918
204	0xbea2e39c	-0.31814277
205	0xbe09b403	-0.13447575
206	0x3de487b3	0.11158695
207	0xbb6f478e	-0.0036511156
208	0xbc9aa27a	-0.018876303
209	0xbf3f3433	-0.74689025
210	0x3d5e3be7	0.054256346
211	0x3e389216	0.18024477
212	0xbeb607e4	-0.35552895
213	0x3eafc551	0.34330228
214	0xbeca5cf7	-0.39524052
215	0xbf03f03f	-0.5153846
216	0x3f466738	0.7750125
217	0xbd1469c8	-0.036233693
218	0xbefeb361	-0.4974623
219	0x3dd009c4	0.10158113
220	0xbf98df5d	-1.1943165
221	0x3e013c8b	0.12620752
222	0xbeef5205	-0.46742263
223	0xbe34c314	-0.17652541
224	0x3f1ea8c7	0.61976284
225	0x3e0c2aa2	0.13688138
226	0x3e53a9c5	0.2067023
227	0x3f32252c	0.6958797
228	0x3e570039	0.20996179
229	0x3dac5dc2	0.084163204
230	0x3ef2de01	0.47435
231	0x3e98c5d0	0.2983842
232	0xbe7c26fd	-0.24624248
233	0xbeaa4826	-0.3325817
234	0x3f71ef2e	0.94505584
235	0x3eae3393	0.34023723
236	0xbebe02a8	-0.37111402
237	0xbf0a4869	-0.5401674
238	0x3d90d9b4	0.070727736
239	0xbcc560dc	-0.024094038
240	0x3f1aeccb	0.6051757
241	0x3e76a54c	0.24086493
242	0x3e78c1ab	0.24292628
243	0x3f061b39	0.5238529
244	0x3f2ca921	0.6744557
245	0xbf6fbe3f	-0.9364967
246	0x3ebcbcfb	0.3686293
247	0x3f083e7d	0.5322035
248	0x3e93ca97	0.288655
249	0xbf5d0d40	-0.8634834
250	0xbf8872a2	-1.0659983
251	0x3e00e732	0.12588194
252	0xbf0c4a00	-0.54800415
253	0xbe532733	-0.20620422
254	0x3df0590a	0.11735733
255	0x3f3321f4	0.69973683

network.0.bias f4 [128]
0	0x3da3b8e7	0.07994252
1	0x3ded5da5	0.11590127
2	0x3dee15f4	0.11625281
3	0x3dc08a01	0.09401322
4	0x3dacd218	0.0843851
5	0x3e02eb42	0.12785056
6	0x3d8a8638	0.067638814
7	0x3e0f6718	0.14004171
8	0x3db5f6f6	0.08884995
9	0x3d9925de	0.07477926
10	0x3df3ce9d	0.11904643
11	0x3df908ee	0.12159906
12	0x3dfb0b33	0.122579955
13	0x3db7702e	0.089569435
14	0xbd24dc48	-0.04024914
15	0x3da5fc6e	0.08104788
16	0x3e0d04e4	0.13771397
17	0x3d93b19c	0.07211611
18	0x3d87f7e6	0.0663908
19	0x3dad4af2	0.0846156
20	0x3d87db62	0.06633641
21	0x3cadc412	0.021211658
22	0x3d3cfc79	0.046139214
23	0x3e351365	0.1768318
24	0x3d503265	0.05082931
25	0x3ddaac7f	0.10677432
26	0x3dd07c5c	0.1017997
27	0x3e22a097	0.15881573
28	0x3dffc971	0.12489594
29	0x3e104dd7	0.14092194
30	0x3e34bcbc	0.17650121
31	0x3e02c28f	0.1276953
32	0x3de166e2	0.110059515
33	0x3dd780b4	0.10522595
34	0x3df69d58	0.1204173
35	0x3de2c07a	0.11071868
36	0x3d7bde9a	0.061491586
37	0x3de0019e	0.109378085
38	0x3db03313	0.08603492
39	0x3ddcaece	0.10775529
40	0x3dcca507	0.09992414
41	0x3dc645f9	0.09681315
42	0x3db653e0	0.08902717
43	0xbd6df39a	-0.058093645
44	0x3de3fddc	0.11132404
45	0x3deba625	0.11506299
46	0xbc241693	-0.010015148
47	0x3cd407d5	0.02588264
48	0x3dbe6d12	0.09298147
49	0x3e0631d1	0.13104941
50	0x3d94918e	0.07254325
51	0x3da0e3ac	0.07855925
52	0x3de2f7cd	0.110824205
53	0x3dc59baa	0.09648831
54	0x3dce97e5	0.10087565
55	0x3dcde25e	0.10052942
56	0x3db5495c	0.08851883
57	0x3da868bf	0.08223104
58	0x3d8d4305	0.068975486
59	0x3d8ac821	0.06776453
60	0x3e048101	0.12939836
61	0x3e0c5bea	0.13706937
62	0x3dde2bf1	0.10848225
63	0x3dc334b0	0.09531534
64	0x3e00fb19	0.12595786
65	0x3dac1078	0.08401579
66	0x3d2119cb	0.03933124
67	0x3d0dbdb7	0.034604754
68	0x3c24b9ae	0.010054035
69	0x3e009559	0.12556972
70	0x3dd68ae3	0.10475709
71	0x3dc54d8a	0.0963393
72	0x3d8b5864	0.068039685
73	0x3db03bfc	0.08605191
74	0x3d9b6038	0.07586712
75	0x3daf56ff	0.08561515
76	0x3dc0e948	0.09419495
77	0x3d8653d6	0.06558959
78	0x3e081e11	0.1329272
79	0x3dfe1c7d	0.124077775
80	0x3de62603	0.11237719
81	0x3dd1eabe	0.10249852
82	0x3daae8d4	0.0834519
83	0x3d806791	0.06269754
84	0x3e0b18bf	0.13583659
85	0x3d7c213a	0.061555125
86	0x3df75bf7	0.12078088
87	0x3c6ef446	0.0145846065
88	0x3dd352e6	0.10318546
89	0x3cdce561	0.026964845
90	0x3deeecc4	0.11666253
91	0x3e14c38e	0.14527723
92	0x3d3c3f5b	0.045958858
93	0x3dc85f00	0.09783745
94	0x3dd3cb97	0.10341566
95	0x3d939057	0.07205265
96	0x3de48f68	0.11160165
97	0x3db6196f	0.0889157
98	0x3df65f69	0.12029917
99	0x3e3ef1e3	0.1864696
100	0x3dac2785	0.08405975
101	0x3db710c7	0.08938747
102	0x3dd9b7ef	0.10630786
103	0xbd3fd2fb	-0.046832066
104	0x3dc36bc8	0.09542042
105	0x3dfcce1d	0.123440005
106	0x3dc3501f	0.09536766
107	0x3d957510	0.072977185
108	0x3e0da128	0.13831007
109	0x3ba60be8	0.0050673373
110	0x3d91b9ef	0.07115542
111	0x3d8b8943	0.0681329
112	0x3dc719c7	0.097217135
113	0x3e0626c7	0.1310073
114	0x3df71f79	0.1206655
115	0x3dd54cc1	0.1041503
116	0x3e5460ac	0.20740002
117	0x3e02b1f1	0.12763192
118	0x3d3e7ebd	0.046507586
119	0x3d1978fd	0.0374689
120	0x3e045c19	0.12925757
121	0x3dcbbf68	0.09948617
122	0x3dd9e212	0.106388226
123	0x3df5e6ef	0.12006938
124	0x3db24b33	0.08705749
125	0x3db3be6b	0.08776554
126	0x3dc4f7b0	0.09617555
127	0x3d44f8e9	0.04808894

network.2.weight f4 [128, 128]
0	0xbe0cbb33	-0.13743286
1	0xbe04a039	-0.12951745
2	0xbde45836	-0.111496374
3	0x3dac7313	0.08420386
4	0x3d12cc7b	0.03583954
5	0xbd13ea4d	-0.03611212
6	0xbd6fa900	-0.05851078
7	0x3ddba7b6	0.10725348
8	0xbd71e234	-0.059053615
9	0x3c387296	0.011257788
10	0x3e52d811	0.20590235
11	0x3ded0cc3	0.115747
12	0x3da37c34	0.07982674
13	0x3acc809f	0.0015602297
14	0xbd17dd35	-0.037076194
15	0x3d8b562f	0.068035476
16	0x3dadfde9	0.08495695
17	0x3e14b406	0.14521798
18	0x3d86685c	0.06562874
19	0xbd98164a	-0.07426126
20	0x3b23039f	0.0024873985
21	0xbcd9e209	-0.02659704
22	0x3cd74175	0.02627633
23	0x3e0ce2bd	0.13758369
24	0x3e0236da	0.12716237
25	0x3affaa3e	0.0019505692
26	0xbd3f1178	-0.04664752
27	0x3dec79b1	0.11546648
28	0x3bdaf591	0.006682106
29	0xbd825a6f	-0.06364905
30	0x3d92e604	0.07172778
31	0x3daca6be	0.08430241
32	0xbdfe2fd5	-0.12411467
33	0x3e7be75f	0.2459998
34	0x3ddd311b	0.10800382
35	0x3e0187c0	0.12649441
36	0x3dd18aa2	0.1023152
37	0x3e61869c	0.22024006
38	0x3e082382	0.13294795
39	0x3e3f26da	0.18667164
40	0x3dff3a49	0.12462289
41	0xbcdc8631	-0.026919456
42	0x3e2e02a2	0.16993192
43	0x3da84067	0.08215409
44	0x3d89e076	0.06732266
45	0x3d44cb45	0.048045415
46	0x3db9de80	0.09075642
47	0xbba5f07f	-0.0050640698
48	0x3de4d0a2	0.11172606
49	0x3e489a23	0.19590048
50	0xbd905ae1	-0.07048584
51	0x3dc8cf4e	0.09805165
52	0xbdac151e	-0.08402465
53	0xbc4a8310	-0.012360349
54	0x3d41458e	0.047185473
55	0xbc896991	-0.01677397
56	0x3e42a8e5	0.1900974
57	0xbe16486a	-0.14676061
58	0xbe8c7966	-0.2743637
59	0xbd8d761c	-0.06907293
60	0x3ce6705c	0.028129749
61	0xbd72bc79	-0.059261773
62	0x3d7eaa8d	0.06217437
63	0x3e2b153d	0.1670732
64	0x3dda6c26	0.10665159
65	0x3e1aa225	0.15100916
66	0x3dffc635	0.12488977
67	0x3de1321d	0.109958865
68	0xbe2d3706	-0.16915521
69	0xbe1e1726	-0.15438518
70	0x3e0b0ed3	0.13579874
71	0x3d5f7036	0.054550372
72	0xbd90833a	-0.070562795
73	0x3e877f10	0.26464128
74	0x3dd64a39	0.104633756
75	0x3e38521e	0.18000075
76	0xbe23c33a	-0.15992442
77	0x3e2ef3b3	0.17085151
78	0x3e6773cf	0.22602771
79	0xbdec048a	-0.11524303
80	0x3c9a44b2	0.018831585
81	0x3e3ae5a9	0.18251671
82	0xbdf3b006	-0.11898808
83	0x3d85a3cf	0.06525385
84	0x3d615ce1	0.055020217
85	0x3e0f6355	0.14002736
86	0x3c8d64d2	0.017259989
87	0xbe002035	-0.12512286
88	0x3dc32737	0.09528964
89	0xbdd426dd	-0.10358975
90	0x3d7b4d83	0.061353218
91	0x3e2102d3	0.15723734
92	0xbdd40fa3	-0.10354545
93	0x3d703731	0.058646385
94	0xbd26b5c6	-0.040700696
95	0xbd5959bf	-0.053064104
96	0x3e3e178d	0.18563671
97	0x3d48218c	0.048860118
98	0x3dd709a9	0.104998894
99	0x3e33ae37	0.17546926
100	0x3e23257c	0.15932268
101	0x3cabbb17	0.020963235
102	0xbe70acf2	-0.23503473
103	0xbd96d3a2	-0.073645845
104	0x3d8f2ef5	0.06991378
105	0xbe029b86	-0.1275464
106	0x3e7da8f9	0.24771489
107	0x3e0489b3	0.12943153
108	0xbdb38891	-0.08766282
109	0xbdb21217	-0.086948566
110	0x3de40eed	0.11135659
111	0xbe71fce9	-0.23631634
112	0x3d927556	0.07151286
113	0xbd26b032	-0.040695377
114	0x3d1bc6dc	0.038031444
115	0x3ea39f59	0.3195751
116	0xbddb162e	-0.1069759
117	0x3e67a414	0.22621185
118	0xbe03e17f	-0.12878989
119	0xbe6623a7	-0.22474538
120	0x3e3df81d	0.18551679
121	0x3df57ff5	0.119872965
122	0xbe16eea2	-0.14739469
123	0xbb7eba6a	-0.0038868436
124	0x3c09719f	0.008388906
125	0x3e1a6b84	0.15080076
126	0x3dfef5a4	0.12449196
127	0xbe101344	-0.14069849
128	0xbe42909a	-0.19000474
129	0x3e56a6b8	0.20962036
130	0xbe11c41b	-0.14234965
131	0xbe617a39	-0.2201928
132	0x3d8497bc	0.064742535
133	0x3d839903	0.06425669
134	0x3d728901	0.05921269
135	0xbe26eac5	-0.16300495
136	0xbd84b6e7	-0.06480198
137	0x3dbaf492	0.09128679
138	0xbc748110	-0.014923349
139	0xbe39d2b1	-0.18146779
140	0x3cfcf38d	0.030877853
141	0x3d1ccc96	0.038281046
142	0xbdb85216	-0.09000032
143	0xbd85a22c	-0.065250725
144	0xbe28fcfa	-0.16502753
145	0xbe49a534	-0.19691926
146	0x3c993f6d	0.018707002
147	0x3e69da10	0.2283709
148	0x3da89a98	0.082326114
149	0x3e16c14e	0.14722177
150	0xbe06a7ef	-0.13149999
151	0xbe10da07	-0.14145671
152	0x3ead5339	0.33852556
153	0xbeb9695e	-0.362132
154	0xbdddf02b	-0.10836824
155	0x3df8c1e7	0.12146359
156	0xbd9a263f	-0.07526826
157	0xbd985293	-0.07437625
158	0xbda1e6a7	-0.079053216
159	0x3e92ace8	0.28647542
160	0x3e5364c4	0.20643908
161	0x3e18553b	0.14876263
162	0x3eabe82e	0.33575577
163	0x3e8b1c72	0.2717014
164	0xbe9e5c4d	-0.30929795
165	0x3d98e63f	0.07465791
166	0x3d8bc580	0.068247795
167	0x3de73125	0.112886705
168	0x3dbbd33d	0.0917115
169	0x3efdee8d	0.49596062
170	0x3df04db7	0.11733573
171	0x3d152f81	0.036422256
172	0x3f00f019	0.5036636
173	0x3ce3c8c4	0.027805693
174	0x3de2736a	0.1105717
175	0x3dcdef83	0.10055449
176	0xbe3c33c9	-0.1837913
177	0x3d2b1b7d	0.04177426
178	0xbdc285d5	-0.09498183
179	0xbd90fa8e	-0.070790395
180	0x3c56e611	0.013116376
181	0x3d0ff5c0	0.035146475
182	0xbd0a5e22	-0.03378118
183	0x3e42d92e	0.1902816
184	0xbcd785c3	-0.0263089
185	0xbdde83bc	-0.1086497
186	0x3e1740d7	0.14770828
187	0x3db192f7	0.086706094
188	0xbe6c94ed	-0.23103686
189	0x3da53126	0.08066015
190	0xbe55fb3c	-0.2089662
191	0xbda3ad8b	-0.07992085
192	0x3e631b48	0.22178376
193	0xbe903b6c	-0.28170335
194	0x3e86f05d	0.26355258
195	0xbdef0655	-0.116711296
196	0xbe576c54	-0.21037418
197	0x3edd7cd9	0.43259314
198	0xbe90acbf	-0.28256795
199	0x3df452f0	0.119298816
200	0x3e830ecc	0.25597227
201	0x3c8a6e6c	0.016898356
202	0x3e043a0d	0.1291277
203	0x3d7001ec	0.058595583
204	0x3da605fc	0.0810661
205	0x3d742509	0.059605632
206	0xbd82c525	-0.063852586
207	0x3e4e79ac	0.20163602
208	0x3e0d1654	0.13778049
209	0xbd864480	-0.06556034
210	0xbd457127	-0.048203614
211	0x3ed61fbc	0.41821086
212	0xbce9a207	-0.028519643
213	0x3e39de29	0.18151154
214	0xbc7ba5d8	-0.015359364
215	0xbcfadcf4	-0.030622937
216	0x3e37eaef	0.17960714
217	0xbbb3add4	-0.0054833684
218	0xbd3ddae8	-0.046351343
219	0x3ca76e97	0.020438476
220	0x3e17e065	0.14831693
221	0x3dff52a4	0.12466934
222	0xbdee0eb6	-0.116239
223	0xbd1f944b	-0.038959783
224	0xbdb2107e	-0.08694552
225	0xbc175ecc	-0.00923891
226	0x3d9b9237	0.07596248
227	0x3dfe129a	0.12405892
228	0xbe1b7f39	-0.1518525
229	0x3d210881	0.03931475
230	0xbda936cd	-0.082624055
231	0x3e9c1955	0.30488077
232	0x3d545d18	0.051846594
233	0xbd07ed5f	-0.03318536
234	0x3b997842	0.0046835253
235	0x3e7bd2ec	0.24592179
236	0xbd5957d9	-0.053062294
237	0x3d8ce892	0.06880297
238	0xbe3ca892	-0.1842368
239	0x3dca061a	0.09864445
240	0x3d68fc12	0.056881018
241	0x3da9bd92	0.08288111
242	0xbe1d4857	-0.15359627
243	0x3e356a5b	0.17716353
244	0xbc123ef6	-0.008926144
245	0x3e4ebb17	0.20188557
246	0xbdde070f	-0.1084119
247	0x3ec93ac9	0.39302662
248	0xbe19638e	-0.14979383
249	0xbca09a4e	-0.019604828
250	0xbe109293	-0.14118414
251	0xbe433204	-0.19062048
252	0x3d8728c6	0.06599574
253	0x3de9207f	0.11383151
254	0x3dd6da5e	0.10490869
255	0x3caa15e4	0.020762391

network.2.bias f4 [128]
0	0x3d997bd6	0.07494323
1	0x3cfba647	0.030718936
2	0x3db5c102	0.08874704
3	0x3dac471c	0.084120005
4	0x3cc299eb	0.023755034
5	0x3df826dc	0.12116787
6	0x00000000	0.0
7	0x3dd3b58e	0.10337363
8	0xbcc719cb	-0.024304291
9	0x3d960160	0.07324481
10	0x3dabe0d7	0.08392494
11	0xbd3c2219	-0.045930956
12	0x3d89068e	0.06690703
13	0x3dd788bf	0.10524129
14	0x3dcaa6ee	0.098951206
15	0x3da9c37b	0.08289238
16	0x3da3c75a	0.07997008
17	0x3da9dd0e	0.08294116
18	0x3d1af9c1	0.03783584
19	0x3da38dda	0.079860404
20	0xbcccae8c	-0.024985574
21	0x3d53b1ed	0.051683355
22	0x3d79e46a	0.06100885
23	0xbc1029c7	-0.008799023
24	0x3da54b0b	0.08070954
25	0x3dd8149d	0.10550807
26	0x3d85d28e	0.06534301
27	0xbcabbe95	-0.0209649
28	0x3cb5abfb	0.022176733
29	0xbc44b473	-0.012005913
30	0x3d824660	0.06361079
31	0xbcae5e68	-0.02128525
32	0xbc30a340	-0.010781109
33	0xbc89cb84	-0.016820677
34	0xbc925cf1	-0.017866584
35	0x3e04714b	0.12933843
36	0x3dab87e8	0.083755314
37	0xbc389c31	-0.011267708
38	0x3d80624e	0.0626875
39	0xbc5198cb	-0.012792776
40	0x3d3cd2e1	0.046099547
41	0xbbb51d1c	-0.0055271517
42	0x3bc23223	0.005926387
43	0x3d9a9ea2	0.07549788
44	0x3d83214f	0.064028375
45	0x3d8d8dfa	0.069118455
46	0xbc362c5b	-0.011118974
47	0x3d86d3b0	0.06583345
48	0xbc203615	-0.009778519
49	0x3daeb86d	0.0853127
50	0x3dfe1ed5	0.124082245
51	0xbc58a37a	-0.01322257
52	0x3dc4480e	0.09584056
53	0xbc5202a6	-0.012818014
54	0x3d88f16f	0.06686675
55	0xbc712c70	-0.014720067
56	0x3b9d1902	0.004794241
57	0x3dd06b3a	0.10176702
58	0x3e09d23a	0.13459101
59	0x3d9347b1	0.071914084
60	0x3d98e642	0.07465793
61	0x3d373a4b	0.044733327
62	0x3d4f10ec	0.050553247
63	0xbb6afb8f	-0.0035855507
64	0xbcfa8839	-0.030582534
65	0x3dc53524	0.096292764
66	0x3d93f4cb	0.07224425
67	0x00000000	0.0
68	0x3c5962f6	0.013268223
69	0x3db9e061	0.09076
70	0xbccae5f9	-0.024767863
71	0x3ccb93de	0.024850782
72	0x3b2abba1	0.0026051777
73	0x3d91d17e	0.071200356
74	0x3db6d1d9	0.08926744
75	0xbc5591fd	-0.013035295
76	0x3d2d9ca1	0.0423857
77	0x3dee0a82	0.11623098
78	0x3ba29ade	0.0049623093
79	0x3d719378	0.058978528
80	0x3d953bf8	0.07286829
81	0x3d86eb5b	0.06587859
82	0x3d2a2a74	0.041544393
83	0xbc39c2d9	-0.011337959
84	0x3d718b03	0.058970463
85	0x3aa1ae88	0.001233534
86	0xbc6849ba	-0.014177734
87	0x3dae5de3	0.08514001
88	0x3d71375c	0.058890685
89	0x3db791d7	0.089633636
90	0x00000000	0.0
91	0x3d8efe82	0.06982137
92	0x3d9154a6	0.070962235
93	0x3ced207e	0.028946158
94	0x3d8accfd	0.0677738
95	0x3d35b00b	0.04435734
96	0x3d7fe48f	0.06247383
97	0xbcbed639	-0.023295509
98	0x3e00fdbc	0.12596792
99	0x3d8309d7	0.06398361
100	0x3db36c2b	0.08760866
101	0x3d988385	0.0744696
102	0x3d8504e7	0.06495076
103	0xbc6da8e2	-0.014505597
104	0xbc4a7502	-0.012356998
105	0x3d5a7afc	0.053339943
106	0xbcb73f6c	-0.02236911
107	0x3d9155bd	0.070964314
108	0x3d0cc879	0.034370873
109	0x3c4fa959	0.012674653
110	0xbbcd3dc8	-0.0062634684
111	0x3d82206d	0.06353841
112	0x3d96cdfe	0.07363509
113	0xbcfafb62	-0.030637447
114	0x3db83239	0.08993954
115	0xbcdd41bd	-0.027008886
116	0x3d1a298e	0.037637286
117	0xbc5cafe6	-0.013469672
118	0x3d976215	0.073917545
119	0x3d98c5e4	0.0745962
120	0x3d92be3b	0.0716519
121	0xbb974233	-0.004616046
122	0x3d7fe4c9	0.062474046
123	0xbb9b1e54	-0.00473384
124	0x3c3bbe25	0.011458908
125	0xbc975aab	-0.018475851
126	0x3d922596	0.07136075
127	0xbcd184e3	-0.02557606

network.4.weight f4 [6, 128]
0	0x3d949eb5	0.072568335
1	0xbe5a751c	-0.21333736
2	0xbcd8bc88	-0.026457086
3	0x3e572b93	0.21012716
4	0x3c1f9b3e	0.009741602
5	0x3e6b8557	0.23000084
6	0x3d4b4ce3	0.04963387
7	0x3e6a2f89	0.22869696
8	0xbe3f0a41	-0.18656255
9	0x3d2dd0fe	0.04243564
10	0xbdbb2550	-0.09137976
11	0x3c8a1357	0.016854925
12	0x3e83bb17	0.25728676
13	0x3ecdffc2	0.4023419
14	0x3ec6e559	0.38846853
15	0x3dbdb7c3	0.092635654
16	0x3dc0ee0a	0.09420402
17	0x3e8d51fe	0.27601618
18	0x3d7c308e	0.061569743
19	0x3cc87e3d	0.024474258
20	0xbdded186	-0.10879807
21	0xbda2ea5d	-0.079548575
22	0xbeb3b25a	-0.3509701
23	0x3dc2732c	0.094946235
24	0x3e61778f	0.22018264
25	0xbdd8842c	-0.10572085
26	0x3e3eea59	0.18644084
27	0xbe067203	-0.1312943
28	0xbe7e31b6	-0.2482365
29	0xbe7a50e0	-0.24444914
30	0xbe845f56	-0.25853986
31	0x3d02830f	0.03186327
32	0xbd732174	-0.059358075
33	0xbeb3cc51	-0.3511682
34	0x3e205e49	0.15660967
35	0x3e4e28dd	0.20132776
36	0xbe81d7e5	-0.25360027
37	0x3e250c03	0.16117863
38	0x3e983866	0.2973053
39	0xbc3729a3	-0.011179361
40	0xbe21f47f	-0.15815924
41	0xbecbb396	-0.3978545
42	0x3d9ffc62	0.0781181
43	0x3c895e65	0.016768644
44	0xbe89b7f0	-0.26898146
45	0x3e55571d	0.20834012
46	0x3e0e097b	0.13870804
47	0x3e550b87	0.20805179
48	0xbc80c88c	-0.015720628
49	0x3e980d0c	0.29697454
50	0x3ec7e161	0.39039138
51	0x3e38e3e8	0.1805569
52	0xba24ac93	-0.0006281819
53	0x3d2043be	0.039127104
54	0xbd9d5aeb	-0.07683357
55	0x3dbbf94a	0.091784075
56	0xbec167ad	-0.3777441
57	0xbe977fd5	-0.29589716
58	0x3e5bd987	0.21469699
59	0xbd3145c0	-0.04327941
60	0xbb920d20	-0.004457131
61	0x3eacff04	0.3378831
62	0xbe538f5e	-0.20660159
63	0x3e9095c2	0.28239256
64	0xb99ad92a	-0.0002953497
65	0xbdcd99d6	-0.100391075
66	0x3ea49b22	0.32149607
67	0xbe231c65	-0.159288
68	0xbe56320f	-0.20917533
69	0x3e474425	0.19459589
70	0x3dfed70f	0.12443363
71	0x3e761a4e	0.24033472
72	0x3b80c670	0.0039299056
73	0x3d78dc85	0.06075718
74	0xbec4fe83	-0.38475427
75	0xbb982bcb	-0.0046438924
76	0x3e08daa4	0.13364655
77	0xbe91c55e	-0.28470892
78	0xbe800f3e	-0.2501163
79	0x3da5e102	0.080995575
80	0xbe6eefcd	-0.23333664
81	0xbdf159e3	-0.11784723
82	0x3daba356	0.08380763
83	0x3e135eac	0.14391583
84	0xbec00a35	-0.37507787
85	0xbde6bd5f	-0.112665884
86	0x3ba19495	0.0049310424
87	0xbdb11e1d	-0.08648322
88	0xbd383b65	-0.044978518
89	0xbe33cdeb	-0.1755902
90	0x3db97ba5	0.090567864
91	0x3d601051	0.05470306
92	0xbe8bd751	-0.2731271
93	0xbe8a13d9	-0.26968268
94	0xbda61444	-0.08109334
95	0x3df1901f	0.11795067
96	0xbe86314f	-0.26209494
97	0xbd1dafc7	-0.038497712
98	0x3e4b72d5	0.19868024
99	0xbe2aace8	-0.16667521
100	0x3d3915b8	0.04518673
101	0xbd78d8ad	-0.060753513
102	0xbdb329f7	-0.087482385
103	0x3da160f1	0.07879818
104	0x3d6260bb	0.05526803
105	0xbe7e97e4	-0.24862629
106	0x3db224e9	0.08698446
107	0xbe141e6e	-0.14464733
108	0xbe13fc42	-0.14451697
109	0xbd865ada	-0.06560297
110	0xbcd78673	-0.026309228
111	0x3d7648aa	0.06012789
112	0xbd157f8a	-0.036498584
113	0xbd3b1655	-0.045675594
114	0x3e740027	0.23828183
115	0xbd59fb34	-0.05321808
116	0xbdd69f36	-0.10479586
117	0x3d2eeda1	0.04270709
118	0xbdedf8bc	-0.11619708
119	0xbeabe0d6	-0.33569974
120	0xbdcf32c2	-0.10117103
121	0xbe3df4d4	-0.18550426
122	0x3dd8b5c3	0.10581543
123	0x3e4fb730	0.20284724
124	0xbe3d31c7	-0.1847602
125	0x3e435056	0.19073614
126	0xbeb1e6ec	-0.34746492
127	0xbd4cf9b2	-0.050042816
128	0xbd1c096c	-0.038094923
129	0x3e3bda84	0.18345076
130	0xbe9bd072	-0.3043247
131	0x3c1bae25	0.0095019685
132	0xbe65f2a0	-0.22455835
133	0x3d3de8d3	0.046364617
134	0xbd3e327e	-0.04643487
135	0x3eb6de8a	0.3571666
136	0xbdea21ee	-0.11432253
137	0xbdffb4a5	-0.12485627
138	0x3e7526d2	0.2394059
139	0xbd46c839	-0.04853079
140	0xbe1f08ad	-0.15530653
141	0xbe8cdfdd	-0.27514544
142	0xbd96a854	-0.07356325
143	0xbd01bcc1	-0.03167415
144	0xbd53cebd	-0.051710833
145	0xbe5333c9	-0.20625223
146	0xbe680f8f	-0.22662185
147	0x3e12b6e3	0.14327578
148	0x3d345913	0.04403026
149	0x3c535652	0.012898998
150	0xbe3a383e	-0.18185517
151	0xbca651ba	-0.020302642
152	0xbe0a0be3	-0.13481097
153	0x3e8e4b28	0.27791715
154	0xbc15315e	-0.009106008
155	0x3d57088d	0.05249839
156	0x3d3cb13a	0.046067454
157	0x3d62f47b	0.055408936
158	0xbdf078e1	-0.11741806
159	0x3c694502	0.014237644
160	0x3e01b992	0.12668446
161	0xbed82209	-0.42213467
162	0x3d1e09c1	0.03858352
163	0x3ec2540c	0.37954748
164	0x3e91d417	0.28482124
165	0xbe88875d	-0.26665774
166	0x3db231b1	0.08700884
167	0x3e29e850	0.16592526
168	0x3da1a7fb	0.07893368
169	0x3e0260a9	0.12732185
170	0xbe19fd73	-0.1503809
171	0xbe4f736b	-0.20258872
172	0x3e2664e5	0.16249426
173	0xbe3f0472	-0.1865404
174	0xbde04646	-0.109509036
175	0xbdc197c9	-0.09452779
176	0xbda78ba3	-0.081809305
177	0xbdaf1758	-0.08549374
178	0x3ebcbfcd	0.36865082
179	0x3e0ba69b	0.13637774
180	0xbe956789	-0.29180554
181	0x3e0c90ef	0.13727163
182	0xbe62d536	-0.22151646
183	0x3e226864	0.15860134
184	0xbe9e6b5d	-0.30941287
185	0x3e652cf8	0.22380435
186	0xbea25708	-0.31707025
187	0xbbc89e9f	-0.0061224247
188	0x3ca337a9	0.019924002
189	0x3eae3c37	0.34030315
190	0xbd9966d7	-0.07490318
191	0xbe56b02f	-0.20965646
192	0x3df16cb6	0.11788313
193	0xbe9f4ee5	-0.3111488
194	0xbdaf21cc	-0.08551368
195	0x3dbaa96e	0.091143474
196	0xbe6f69f5	-0.23380263
197	0x3e46507b	0.19366638
198	0x3b5c5af6	0.0033623553
199	0xbe79948a	-0.2437307
200	0x3e90d71b	0.28289112
201	0xbe15da09	-0.14633955
202	0x3e7aee80	0.24505043
203	0xbd177b3a	-0.036982752
204	0x3d8202a4	0.0634816
205	0x3edcc7fc	0.43121326
206	0xbdb94ac1	-0.09047461
207	0xbc25f19d	-0.010128406
208	0xbd3c76ea	-0.046011843
209	0xbccd53a8	-0.025064304
210	0x3e5b27f0	0.21401954
211	0x3e21f28d	0.15815182
212	0xbe344bd4	-0.17607051
213	0xbea7e3b7	-0.3279092
214	0x3d7ad15f	0.061234828
215	0xbde3db09	-0.11125762
216	0xbe52d7ba	-0.20590106
217	0x3eb7682e	0.3582167
218	0xbc269c2a	-0.010169068
219	0xbe56ab44	-0.2096377
220	0x3d4e2956	0.05033239
221	0xbe90e53e	-0.28299898
222	0x3ccdd0be	0.02512395
223	0xbe3f7fb5	-0.1870106
224	0xbdaa5485	-0.08316902
225	0xbce2de4e	-0.027693894
226	0x3d0e111c	0.034684286
227	0x3e3fcf28	0.18731368
228	0xbe0c751d	-0.1371655
229	0x3e0f7388	0.14008915
230	0xbb8b7b8c	-0.0042566713
231	0xbbe26373	-0.006908828
232	0x3e76108d	0.24029751
233	0xbe8e95f7	-0.2784879
234	0xbdc5a30d	-0.0965024
235	0xbe96c2f8	-0.29445624
236	0x3de2b544	0.1106973
237	0x3d5642bd	0.05230974
238	0x3dd09a2e	0.101856574
239	0xbe67c1e1	-0.22632553
240	0x3de77ac3	0.11302712
241	0x3e4bf89e	0.19919059
242	0xbd9c56e6	-0.07633762
243	0xbec9fd01	-0.3945084
244	0xbd3864db	-0.04501806
245	0xbdc35fb6	-0.0953974
246	0x3d4d914c	0.050187394
247	0xbd944162	-0.07239033
248	0xbe80bf80	-0.25146103
249	0xbe268852	-0.1626294
250	0x3d86f003	0.06588747
251	0xbd4b8043	-0.049682867
252	0xbe426de7	-0.18987237
253	0xbdc1c664	-0.09461668
254	0x3e044125	0.12915476
255	0xbd7b632f	-0.061373886

network.4.bias f4 [6]
0	0x3d6b4ad9	0.057444427
1	0x3cead4ed	0.028665984
2	0x3d22e745	0.039771337
3	0x3d2a7728	0.041617543
4	0xbd850af1	-0.064962275
5	0xbd5fe0d0	-0.054657757
