dqn.pt (torch, 23584 bytes, 6 tensors)

layers.0.weight f4 [64, 11]
0	0x3f674c58	0.90350866
1	0x3f064b70	0.5245886
2	0xbeb0eb14	-0.3455435
3	0x3e8debd8	0.27718997
4	0xbde765f5	-0.11298744
5	0xbedb341d	-0.42813197
6	0x3ee0d052	0.43908936
7	0xbe391038	-0.18072593
8	0x3cd0664e	0.025439408
9	0xbebbb981	-0.36664966
10	0x3f3343ab	0.7002513
11	0xbf076250	-0.5288439
12	0x3edbe318	0.42946696
13	0xbf2fca71	-0.68668276
14	0x3eea28ac	0.45734155
15	0xbd9e91ba	-0.07742639
16	0xbf3c4e93	-0.73557395
17	0x3f39717f	0.72438806
18	0xbca91426	-0.02063949
19	0x3f040c02	0.5158082
20	0xbe99b92d	-0.3002409
21	0xbf082319	-0.53178555
22	0xbf214872	-0.6300117
23	0xbecf1119	-0.40442732
24	0xbe97bc16	-0.29635686
25	0xbe7b18a5	-0.2452112
26	0x3f324628	0.696383
27	0xbec57e82	-0.3857308
28	0x3f3af766	0.7303375
29	0x3ea0207b	0.3127478
30	0x3d22d358	0.039752334
31	0x3f1f96f2	0.623397
32	0xbe8b5947	-0.2721655
33	0xbe4cb343	-0.19990258
34	0xbee4b624	-0.44670212
35	0xbee1970a	-0.44060546
36	0xbf3361d0	-0.70071125
37	0x3eb705ed	0.3574671
38	0x3cb00df0	0.02149102
39	0xbb359360	-0.002770625
40	0x3f2f64c0	0.6851311
41	0xbe661a6d	-0.22471018
42	0x3f635ce8	0.8881364
43	0x3e4b3606	0.19844827
44	0xbe9c612c	-0.30542886
45	0x3f320126	0.69533
46	0xbf2e3e4d	-0.68063813
47	0xbf3a1300	-0.7268524
48	0xbea70ed4	-0.326285
49	0x3b938b77	0.0045027095
50	0x3f104921	0.56361586
51	0x3efe7c3b	0.49704155
52	0x3f142eca	0.57883894
53	0x3f4030e5	0.7507461
54	0x3f99295a	1.1965744
55	0xbe8ea216	-0.27858037
56	0x3f97c7b0	1.1857815
57	0x3e9c9d73	0.30588874
58	0xbde00ce3	-0.10939958
59	0xbdbf81dd	-0.09350941
60	0xbed011e3	-0.40638646
61	0xbf1a5f74	-0.603019
62	0x3f0ba716	0.5455183
63	0xbda749e8	-0.081683934
64	0x3d0fb445	0.035084028
65	0x3deca660	0.11555171
66	0xbeef22ed	-0.46706334
67	0xbf2dc7ea	-0.6788317
68	0x3eb9bdd6	0.36277646
69	0x3f35acec	0.7096698
70	0x3f312d10	0.69209385
71	0xbe8dd099	-0.2769821
72	0x3f65ffa7	0.8984322
73	0x3f84564a	1.0338833
74	0x3f6fad7c	0.9362409
75	0x3ed9e836	0.42559975
76	0x3f8a3739	1.0798103
77	0x3eef52fe	0.46743006
78	0x3db1fbbd	0.086905934
79	0xbf062217	-0.52395767
80	0x3f321fb6	0.6957964
81	0x3ef25891	0.47333196
82	0x3d44909b	0.04798947
83	0x3daa18e8	0.08305532
84	0x3da258cc	0.07927093
85	0x3e11852c	0.14210957
86	0xbedaf253	-0.42763004
87	0xbf375300	-0.7161102
88	0xbf1036ca	-0.563336
89	0xbf19de0f	-0.6010446
90	0x3f1fd64d	0.6243637
91	0x3f06a2fe	0.52592456
92	0x3ebdeae9	0.37093285
93	0xbd20b62c	-0.039236233
94	0x3e824eeb	0.25450835
95	0xbf4b2efa	-0.79368556
96	0xbee90ac4	-0.45516026
97	0x3d610919	0.054940317
98	0x3eba9429	0.36441162
99	0x3f154dbc	0.5832174
100	0xbf170217	-0.58987564
101	0xbf28220f	-0.6567697
102	0x3e415d18	0.18883169
103	0x3eaacda4	0.33360016
104	0x3c2beddb	0.010493721
105	0xbf124b89	-0.5714651
106	0x3e83be77	0.2573125
107	0x3e0dc269	0.13843693
108	0xbe220f1f	-0.1582608
109	0xbf3676b7	-0.71274894
110	0x3f7b957e	0.9827498
111	0x3f3b2dc7	0.73116726
112	0xbf7753f8	-0.966125
113	0xbf1ab934	-0.6043885
114	0xbe1a7ecc	-0.15087432
115	0x3f035bff	0.5131225
116	0xbf076775	-0.5289224
117	0x3ee3bcb1	0.44479898
118	0xbe8b8dcc	-0.2725662
119	0x3ed37966	0.41303557
120	0xbe859d02	-0.2609635
121	0x3f713605	0.9422305
122	0x3ee224ff	0.4416885
123	0xbf4aa304	-0.7915499
124	0x3ecf3c9c	0.4047593
125	0x3cef1693	0.029185569
126	0x3e065be6	0.13120994
127	0x3f08c18c	0.5342033
128	0x3f1ee5e0	0.6206951
129	0xbe6f0d58	-0.23344934
130	0xbeec96d6	-0.4620883
131	0xbebdd6d3	-0.3707796
132	0xbf3698c8	-0.71326876
133	0x3ed52c05	0.41635147
134	0x3eeb975b	0.46013913
135	0xbf27c5ca	-0.6553618
136	0x3dded903	0.108812355
137	0xbee5cf99	-0.44884947
138	0xbf027eb1	-0.50974566
139	0xbf20e681	-0.6285172
140	0xbf47454e	-0.77840126
141	0xbdb6cc98	-0.08925742
142	0x3e0a88d4	0.13528758
143	0xbf682c54	-0.9069264
144	0x3dcbb7f3	0.09947195
145	0x3f14e067	0.5815491
146	0x3f2e5f93	0.68114585
147	0xbe3da21c	-0.18518871
148	0x3eb9ceea	0.36290675
149	0xbf294dca	-0.6613432
150	0xbe28af40	-0.16473103
151	0x3f570bad	0.8400219
152	0x3eaac792	0.33355385
153	0xbc2164fa	-0.009850735
154	0x3e9f82f4	0.31154597
155	0xbf4c1697	-0.7972197
156	0xbe602f7f	-0.21893118
157	0xbf43d56b	-0.76497525
158	0x3eb72bdc	0.3577565
159	0xbf2c092f	-0.67201513
160	0x3dbba998	0.09163207
161	0x3ede762d	0.43449536
162	0x3ef8081d	0.4844369
163	0x3e9f5ca3	0.31125364
164	0xbe99f2c1	-0.3006802
165	0xbf1529f4	-0.5826714
166	0xbf0df057	-0.55444854
167	0xbf049d53	-0.5180256
168	0xbf2fcfdf	-0.6867656
169	0x3f1eab89	0.6198049
170	0x3cac6e27	0.021048618
171	0xbe45efeb	-0.19329803
172	0xbcbfd3ae	-0.023416366
173	0xbda433d8	-0.08017701
174	0x3f173dbb	0.5907857
175	0xbf0f2475	-0.55915004
176	0x3d269eca	0.040678777
177	0xbf7124d5	-0.94196826
178	0x3f104c0e	0.5636605
179	0xbf2524a0	-0.6450901
180	0x3f01b402	0.50665295
181	0x3e6fefec	0.23431367
182	0x3ea31644	0.31852925
183	0x3dac5e9e	0.08416484
184	0xbe9051dc	-0.28187454
185	0x3ed64554	0.41849768
186	0x3f25137d	0.6448286
187	0x3f2d6e6a	0.67746603
188	0xbf5117da	-0.8167702
189	0x3f51aaa1	0.81900984
190	0x3f6f6fe4	0.93530107
191	0xbe98e789	-0.29864147
192	0xbf0a6402	-0.5405885
193	0x3f65270b	0.895127
194	0x3c422508	0.011849649
195	0xbe803526	-0.2504055
196	0xbe2a6f3b	-0.16643994
197	0x3f082c91	0.53193
198	0x3f22a059	0.6352592
199	0x3f218528	0.63093805
200	0x3f24c0a8	0.6435647
201	0xbed4b41d	-0.41543666
202	0x3e738634	0.23781663
203	0xbe076b31	-0.13224484
204	0xbb3ad97b	-0.0028510976
205	0x3e1337cd	0.14376755
206	0x3e6148fd	0.22000499
207	0xbdf95d80	-0.12176037
208	0xbebb8985	-0.36628357
209	0x3f0351dd	0.5129679
210	0x3bc681b9	0.0060579446
211	0xbf37a61a	-0.71737826
212	0xbed8f004	-0.42370617
213	0xbebfe4d1	-0.3747926
214	0x3e0ec7c8	0.13943398
215	0xbe79dcd8	-0.24400651
216	0x3eec4d4e	0.4615273
217	0x3f14726a	0.5798708
218	0x3f026a83	0.50943774
219	0x3f186b3d	0.5953863
220	0xbf1df56a	-0.617026
221	0x3f525e19	0.8217483
222	0xbf51475d	-0.81749517
223	0xbecb56bb	-0.39714608
224	0x3e690ede	0.22759578
225	0x3e17b395	0.14814599
226	0xbedada47	-0.42744657
227	0x3f12bc32	0.57318413
228	0xbf02d18d	-0.51101
229	0xbf2b5c10	-0.6693735
230	0x3d94d59a	0.07267304
231	0x3d02b785	0.0319133
232	0xbf572574	-0.84041524
233	0x3eaab13f	0.33338353
234	0x3f47cb3f	0.78044504
235	0x3e4c376f	0.19943021
236	0xbef6111d	-0.4805993
237	0xbee9440d	-0.4555973
238	0xbe995214	-0.29945433
239	0x3f34aeb8	0.705791
240	0xbc857d73	-0.01629517
241	0xbe6e4398	-0.23267972
242	0xbf078e36	-0.5295137
243	0x3ec61636	0.3868882
244	0xbe13e952	-0.14444473
245	0xbeaee723	-0.34160718
246	0xbf4c54d5	-0.79816943
247	0xbdc7defb	-0.09759327
248	0xbd8f592c	-0.0699943
249	0x3e7404b6	0.23829922
250	0x3f155a23	0.5834066
251	0x3f004257	0.50101227
252	0xbe0ab08d	-0.13543911
253	0xbf1d3597	-0.61409897
254	0x3e160e29	0.14653839
255	0xbf54fe5b	-0.83200616

layers.0.bias f4 [64]
0	0x3d98e92e	0.074663505
1	0xbb291b66	-0.0025803684
2	0x3eb934e0	0.36173153
3	0x3e872dc7	0.26402113
4	0x3ed1992e	0.4093718
5	0x3d94f476	0.0727319
6	0x3e84a129	0.25904205
7	0x3daa4963	0.08314779
8	0x3c95a4b8	0.01826702
9	0x3dbc91ce	0.092074975
10	0x3e02f16b	0.12787406
11	0xbd05c457	-0.032657947
12	0xbd9a0d2b	-0.07522043
13	0x3d7ce034	0.061737254
14	0x3da0be9e	0.07848857
15	0x3cb104e9	0.021608787
16	0x3e968136	0.29395455
17	0x3dc31579	0.0952558
18	0xbdcdc04c	-0.10046443
19	0x3ebed577	0.37272236
20	0xbd914591	-0.07093347
21	0x3e3c2a8f	0.1837561
22	0x3e9084eb	0.28226408
23	0x3ea92cfa	0.33042127
24	0x3dac6471	0.08417595
25	0x3e70f151	0.23529555
26	0x3e4e8db0	0.20171237
27	0x3e87100d	0.26379433
28	0xbcc7ff74	-0.024413802
29	0x3cff8ec3	0.031196004
30	0xbe5cf455	-0.2157758
31	0xbd230bf5	-0.039806325
32	0x3e9f64cf	0.31131598
33	0x3e35c421	0.17750598
34	0x3e515421	0.20442249
35	0x3d52c600	0.05145836
36	0x3e252f49	0.16131319
37	0x3e9fc29a	0.31203157
38	0x3e44c588	0.19215977
39	0xbdaf1317	-0.08548563
40	0x3c90da30	0.017682165
41	0x3e1d3a56	0.15354285
42	0x3e8a216b	0.2697862
43	0x3da28cc6	0.07937007
44	0x3e991400	0.2989807
45	0x3e1d484a	0.15359607
46	0x3ea7e9f9	0.32795694
47	0x3e3d15d8	0.18465364
48	0xbc54fddd	-0.012999979
49	0x3e00bbce	0.12571642
50	0x3e10aa98	0.14127576
51	0x3d037a19	0.032098863
52	0x3de6f8d5	0.1127793
53	0x3e04dcf5	0.12974913
54	0x3d9c59ae	0.076342925
55	0x3e964eb3	0.29356918
56	0xbd3f7393	-0.04674108
57	0x3b4b34ff	0.003100693
58	0xba9af143	-0.0011821169
59	0xbc27ba9a	-0.01023736
60	0x3e4e26a3	0.20131926
61	0x3e535f21	0.20641758
62	0x3d5ff577	0.054677453
63	0x3cd529a4	0.026020832

layers.2.weight f4 [64, 64]
0	0x3f1332c3	0.5749933
1	0x3dd445d0	0.10364878
2	0xbed946dc	-0.42436874
3	0xbe215560	-0.15755224
4	0xbdd754b6	-0.10514204
5	0x3f0e07e5	0.55480796
6	0xbe5baed1	-0.21453406
7	0x3ef30a0b	0.474686
8	0xbe003a22	-0.12522176
9	0xbf179336	-0.59209
10	0x3ed89f53	0.42309055
11	0x3ec03d35	0.37546697
12	0x3ef1ddcf	0.4723954
13	0xbcfc9a51	-0.030835303
14	0xbee99692	-0.4562269
15	0x3c86798e	0.016415384
16	0xbe06a395	-0.13148339
17	0xbf2bdad0	-0.67130756
18	0x3e9ed343	0.31020555
19	0xbeb3c5b4	-0.35111773
20	0x3ef20080	0.47266006
21	0xbf30bc14	-0.69036984
22	0xbdf94c14	-0.12172714
23	0x3e925235	0.28578344
24	0x3f012885	0.5045245
25	0x3e6d5cd5	0.23179944
26	0xbce38d63	-0.02777738
27	0xbdc81eae	-0.09771477
28	0x3ddab23d	0.106785275
29	0x3eb68035	0.3564469
30	0x3eebcbe7	0.46054003
31	0xbefa72ed	-0.48915806
32	0xbea997da	-0.33123666
33	0x3ea5d79b	0.32391056
34	0x3f03f48c	0.51545024
35	0xbdeb9f36	-0.115049765
36	0x3dac981d	0.08427451
37	0xbe780c32	-0.24223402
38	0xbe4d1f46	-0.20031461
39	0xbcc98844	-0.02460111
40	0x3eb34fd5	0.35021845
41	0x3ec535ae	0.38517517
42	0xbf1d3d6b	-0.6142184
43	0x3e19e3dd	0.15028329
44	0xbe0950f1	-0.13409783
45	0xbe57bd1a	-0.2106823
46	0x3e91b193	0.2845579
47	0xbc884781	-0.016635658
48	0xbe1a05c1	-0.15041257
49	0x3eaac189	0.3335078
50	0xbe46b5ae	-0.19405243
51	0xbe6f680b	-0.23379533
52	0xbd8a7c86	-0.06762032
53	0x3d94b4c3	0.0726104
54	0xbf1ce63a	-0.612888
55	0xbc31a9ed	-0.010843736
56	0x3de49ce0	0.11162734
57	0xbbc741ba	-0.0060808333
58	0xbe6e84ed	-0.23292895
59	0x3eb984ce	0.36234134
60	0xbd24ec30	-0.04026431
61	0x3e98b870	0.29828215
62	0x3e7cb625	0.24678858
63	0xbe57ac9a	-0.21061936
64	0xbccbc37b	-0.024873486
65	0xbe9d5338	-0.30727553
66	0x3dd41dbd	0.103572346
67	0x3ecf37fc	0.404724
68	0xbdb53c51	-0.08849395
69	0x3e0f8136	0.14014134
70	0xbe859441	-0.2608967
71	0xbe980d22	-0.2969752
72	0x3e748441	0.23878576
73	0x3f18676a	0.595328
74	0x3f16744f	0.5877122
75	0x3ec13ee6	0.377433
76	0xbdb25a11	-0.08708585
77	0x3ddbe738	0.10737461
78	0x3f0a8302	0.5410615
79	0x3e28ee37	0.16497122
80	0x3e6ad185	0.22931488
81	0x3d14b98b	0.03630976
82	0xbcba6cbc	-0.022756927
83	0x3ea21c6b	0.31662306
84	0x3e16df05	0.14733513
85	0xbe84b6af	-0.25920627
86	0xbebdf587	-0.37101385
87	0xbe1ce5c7	-0.15322028
88	0x3db045b9	0.086070485
89	0xbe9763f0	-0.29568434
90	0xbdf9ffe5	-0.12207011
91	0xbf16139c	-0.5862367
92	0x3e4bbc3e	0.19896027
93	0xbc894fea	-0.016761739
94	0xbec2eac8	-0.3806975
95	0x3e89168e	0.2677502
96	0x3ed1fc14	0.41012633
97	0xbb77d921	-0.0037818628
98	0x3f161d96	0.58638895
99	0x3e6d27bf	0.23159693
100	0x3e3bc780	0.18337822
101	0x3e9b0a89	0.30281475
102	0x3f0c9407	0.5491337
103	0xbe6f9255	-0.23395665
104	0x3e6ad780	0.22933769
105	0x3cb3bef5	0.021941641
106	0x3dd51dd3	0.10406079
107	0xbdc66d0d	-0.096887685
108	0x3ea1d446	0.31607264
109	0x3d79351e	0.060841672
110	0x3e0a0b21	0.13480808
111	0x3e639fc7	0.22228919
112	0xbf2b3ee7	-0.66892856
113	0xbe47b40e	-0.19502279
114	0x3ef53f45	0.47899833
115	0xbdcbb32a	-0.09946282
116	0xbe5a66f4	-0.21328336
117	0xbdecca75	-0.11562053
118	0x3eafbab0	0.3432212
119	0xbe9e07e0	-0.30865383
120	0xbe956a39	-0.29182604
121	0x3decbd87	0.11559587
122	0xbef458ca	-0.4772399
123	0x3d4e3f71	0.05035347
124	0xbee185df	-0.44047448
125	0xbec7a730	-0.3899474
126	0x3e8210ee	0.2540354
127	0xbd7cff51	-0.061766926
128	0x3dc0bbbc	0.094108075
129	0x3f037122	0.513445
130	0xbe817db6	-0.25291222
131	0xbe6e69e9	-0.23282589
132	0x3ded6c95	0.11592976
133	0x3db4573d	0.08805702
134	0xbdb5eb02	-0.08882715
135	0x3ce7d9a1	0.028302016
136	0x3cbf527d	0.023354763
137	0x3d4c9c6c	0.049953863
138	0x3e9eec53	0.31039676
139	0xbc93339a	-0.017968941
140	0xbea66c56	-0.3250453
141	0x3e0b74fd	0.13618846
142	0x3c03d5c5	0.008046572
143	0xbecc6ced	-0.39926854
144	0xbe947e12	-0.29002434
145	0x3ec54f36	0.38536996
146	0x3ea2063d	0.31645384
147	0x3ee3a3b5	0.44460836
148	0x3e79ee3c	0.24407285
149	0xbd831df9	-0.06402201
150	0x3ea9af22	0.33141428
151	0x3e623573	0.22090702
152	0x3e69f777	0.22848307
153	0xbe15e2a1	-0.14637233
154	0x3ebe6c09	0.371918
155	0xbea843db	-0.3286427
156	0xbe8924d6	-0.26785916
157	0x3ec52804	0.38507092
158	0x3e1c50fe	0.15265271
159	0x3cc194c8	0.023630515
160	0x3ec3d111	0.38245443
161	0xbe0cb9b4	-0.13742715
162	0x3ec3ce5a	0.3824337
163	0xbe15d2da	-0.14631215
164	0x3eb1ed93	0.34751567
165	0xbe1be719	-0.15224876
166	0x3e72b56f	0.23702024
167	0x3e59c74c	0.21267432
168	0x3dd58e4c	0.104275316
169	0xbe0e6573	-0.13905887
170	0x3d6e2e5e	0.058149688
171	0xbc39c8ac	-0.011339348
172	0xbf162fac	-0.5866649
173	0xbdbdf3be	-0.09275006
174	0x3dd6f664	0.10496214
175	0x3e9cceef	0.30626628
176	0x3eb56181	0.35425952
177	0x3e56a5a1	0.2096162
178	0x3dca1dde	0.09868978
179	0x3ef01648	0.46892
180	0xbe63a085	-0.22229202
181	0x3e35ecc9	0.17766108
182	0x3dbcf38f	0.092261426
183	0x3ed70353	0.41994724
184	0xbe09dfa9	-0.13464226
185	0xbba4b7ff	-0.005026817
186	0x3ee1af98	0.4407928
187	0x3d9964d9	0.07489938
188	0xbe21eabf	-0.15812205
189	0x3e27c470	0.16383529
190	0xbe3a04db	-0.18165915
191	0x3e377dcf	0.17919086
192	0xbe2e0aff	-0.16996382
193	0xbe8a9aae	-0.27071136
194	0x3e20ee21	0.15715839
195	0xbd84ed3c	-0.06490561
196	0x3d96ec00	0.07369232
197	0xbe5f21f8	-0.21790302
198	0xbe9cde1d	-0.3063821
199	0xbdf59205	-0.11990742
200	0xbe3ba43b	-0.18324368
201	0xbe8608b5	-0.26178518
202	0x3dbbf4f8	0.091775835
203	0xbe867d1c	-0.26267326
204	0x3e8dfca7	0.2773182
205	0x3dae825a	0.08520956
206	0xbe19c98d	-0.15018292
207	0xbe624dc6	-0.2209998
208	0xbd8fb432	-0.070167914
209	0xbe90dd06	-0.28293628
210	0xbde8632a	-0.11347039
211	0x3dee9a38	0.11650509
212	0x3d943fb8	0.07238716
213	0x3e48e68d	0.19619198
214	0x3e911343	0.28335008
215	0x3e706648	0.23476517
216	0xbe9c9443	-0.30581865
217	0xbe3de4fa	-0.18544379
218	0xbe7330ea	-0.23749128
219	0xbd7f9be8	-0.062404543
220	0x3d2282e8	0.039675623
221	0xbe728ef6	-0.23687348
222	0x3e89396f	0.2680163
223	0x3e1fa3c0	0.1558981
224	0x3d71ba68	0.05901566
225	0xbe038f36	-0.128476
226	0xbe2beb35	-0.16788943
227	0xbe40909b	-0.18805163
228	0x3e7a49a5	0.24442156
229	0xbe937cb9	-0.28806093
230	0x3e932e39	0.28746203
231	0xbe261055	-0.16217168
232	0x3e34ae98	0.17644727
233	0xbea02182	-0.31275564
234	0xbc447463	-0.011990639
235	0xbe7a29d1	-0.24430014
236	0x3c4f7140	0.012661278
237	0xbe913077	-0.28357288
238	0x3d956eed	0.07296548
239	0x3ccd2450	0.02504173
240	0xbdd704ce	-0.10498963
241	0xbe6bf1c5	-0.23041447
242	0xbe6ce031	-0.23132397
243	0xbcd56324	-0.02604825
244	0xbe5c718f	-0.21527694
245	0x3e83fc7c	0.25778568
246	0xbde3a7b4	-0.11115971
247	0x3dab5218	0.083652675
248	0x3e515106	0.20441064
249	0x3ab42636	0.0013744298
250	0x3d84617f	0.064639084
251	0xbe018036	-0.12646565
252	0xbe7d4f24	-0.24737221
253	0x3d1ceeab	0.03831355
254	0x3c4fb380	0.0126770735
255	0x3e8418c1	0.25800136

layers.2.bias f4 [64]
0	0x3b6f984e	0.0036559287
1	0x3e494f78	0.19659221
2	0x3d3f7529	0.046742592
3	0xbd224d1a	-0.03962431
4	0x3d90a172	0.07062043
5	0xbce59888	-0.028026834
6	0xbd318792	-0.04334218
7	0xbd8c0158	-0.06836194
8	0x3d367129	0.04454151
9	0xb954b840	-0.00020286534
10	0xbd15dd3e	-0.036587946
11	0x3e33db79	0.17564191
12	0xbcf13c7e	-0.02944779
13	0xbd76b480	-0.060230732
14	0xbdb5f3d7	-0.088843994
15	0x3b5abc55	0.0033376415
16	0x3cf97534	0.030451395
17	0x3ea47aa5	0.3212482
18	0xbd19bff4	-0.037536576
19	0x3e8f8454	0.28030646
20	0x3dc65f66	0.096861646
21	0x3de11a51	0.109913476
22	0x3db3b3d6	0.08774535
23	0x3e35f24d	0.17768212
24	0x3e3084df	0.17238186
25	0x3cb12ada	0.021626879
26	0x3dceb711	0.10093511
27	0x3e1b592e	0.15170738
28	0x3c61a389	0.0137719
29	0x3dcbe402	0.099555984
30	0x3e098a50	0.13431668
31	0x3cff11d6	0.031136435
32	0xbc53060f	-0.012879862
33	0x3c83a036	0.016067605
34	0x3e9cd385	0.30630127
35	0x3d58ea73	0.052957963
36	0x3d716f3e	0.05894398
37	0x3df0098c	0.11720571
38	0xbcd2f103	-0.025749689
39	0x3eb1f910	0.34760332
40	0x3e011af3	0.12607937
41	0x3d3eab68	0.046550184
42	0x3dd0c9a7	0.10194712
43	0xbd176d1e	-0.036969297
44	0xbd9bfa69	-0.07616121
45	0x3e835fc9	0.25659016
46	0xbd2eff92	-0.0427242
47	0x3e1bce9d	0.15215535
48	0x3e7ba1c6	0.2457343
49	0xbc74c5ce	-0.014939738
50	0x3e0084cc	0.12550658
51	0x3d119a28	0.035547405
52	0x3dfd960f	0.12382137
53	0x3c78baf8	0.015181296
54	0xbd677580	-0.05650854
55	0x3e6abcb1	0.22923543
56	0xbd38652d	-0.045018364
57	0xbd8a7068	-0.06759721
58	0x3d980993	0.07423701
59	0x3dcf763a	0.10129972
60	0x3d02225c	0.03177105
61	0x3b67a092	0.003534351
62	0x3e752fbf	0.23943995
63	0xbdc06fe4	-0.093963414

layers.4.weight f4 [6, 64]
0	0xbf2190b0	-0.631114
1	0xbd5d3c92	-0.054012842
2	0xbebeb59a	-0.37247926
3	0x3e5412cc	0.20710295
4	0x3dbf6edf	0.09347319
5	0xbd1bdb90	-0.038051188
6	0x3d9c5b98	0.076346576
7	0x3ecb0590	0.3965268
8	0xbf055e27	-0.5209679
9	0xbe1b957c	-0.15193743
10	0xbe7bdb01	-0.24595262
11	0xbcfe17ff	-0.031017302
12	0x3e7525d3	0.2394021
13	0xbe2f9f89	-0.17150702
14	0xbe1eceaa	-0.15508524
15	0xbf086ddc	-0.5329263
16	0xbe64daba	-0.22349063
17	0x3f124737	0.57139915
18	0xbdefe640	-0.117138386
19	0x3df11a63	0.11772611
20	0xbe4cd709	-0.20003904
21	0xbe15951f	-0.14607666
22	0x3d762ab8	0.060099334
23	0xbe89af56	-0.26891583
24	0x3ecd4067	0.40088198
25	0xbdbff3fb	-0.093727075
26	0x3d6d3cc4	0.05791928
27	0x3e082236	0.132943
28	0xbee22927	-0.44172022
29	0xbf2e7ad7	-0.6815619
30	0x3ead1693	0.33806285
31	0xbe81fdde	-0.25388998
32	0x3ea24e10	0.31700182
33	0x3ddd23c4	0.107978374
34	0x3f27866f	0.65439504
35	0xbea64130	-0.3247161
36	0xbd8d27fe	-0.068923935
37	0xbe4746b3	-0.19460563
38	0xbe76692a	-0.24063554
39	0x3f2c8b94	0.6740048
40	0x3eb0b282	0.3451119
41	0x3e9c8ba3	0.30575284
42	0xbf2abb56	-0.666921
43	0xbea64d17	-0.3248069
44	0xbe6dfd0a	-0.23241058
45	0x3ed97f99	0.42480162
46	0x3e4f8892	0.20266941
47	0x3e1f5bdd	0.15562387
48	0x3b347906	0.0027537956
49	0xbe421429	-0.18953003
50	0xbc13bfbd	-0.009017882
51	0xbeb11239	-0.34584215
52	0x3eda877c	0.4268149
53	0xbc205407	-0.009785659
54	0xbdc672e8	-0.096898854
55	0x3ef324f6	0.47489136
56	0x3e58385e	0.21115252
57	0x3e7bd345	0.24592312
58	0xbe836bfa	-0.25668317
59	0xbea4c681	-0.32182696
60	0xbe0dc71a	-0.13845482
61	0x3e477237	0.19477163
62	0x3f00e742	0.5035287
63	0x3e8d3139	0.27576616
64	0x3eae9876	0.34100693
65	0xbe9d2c13	-0.30697688
66	0x3d5e1646	0.05422046
67	0x3e8b5fe5	0.272216
68	0x3ef24355	0.47316995
69	0xbed33716	-0.41252965
70	0x3e08c7f2	0.13357523
71	0xbed67cbc	-0.4189204
72	0x3dc0230f	0.09381687
73	0x3e656acf	0.22404025
74	0xbe883c90	-0.26608706
75	0x3eb5e40f	0.35525557
76	0xbe86f98e	-0.2636227
77	0xbebfe57f	-0.3747978
78	0x3e46c789	0.19412054
79	0xbe91d0ca	-0.28479606
80	0xbe55207d	-0.20813175
81	0x3e868126	0.26270407
82	0xbef825f5	-0.4846646
83	0x3eb036ed	0.34416905
84	0xbee635e4	-0.4496299
85	0xbd828514	-0.06373039
86	0xbf01e07c	-0.5073316
87	0x3ecdb347	0.4017584
88	0x3eeaac1c	0.45834434
89	0xbda77160	-0.081759214
90	0xbeaac683	-0.33354577
91	0x3e83d4dd	0.2574834
92	0x3c9325e4	0.017962404
93	0x3e265b79	0.16245832
94	0xbe99900b	-0.2999271
95	0xbeabc89e	-0.33551496
96	0x3e2926a2	0.16518643
97	0x3e8708c3	0.26373872
98	0xbb130dba	-0.0022438602
99	0xbef47dd2	-0.47752243
100	0x3e7820cb	0.2423126
101	0xbf0aa065	-0.5415099
102	0xbde3a7ae	-0.11115967
103	0x3ee422f2	0.4455791
104	0xbf02fb78	-0.5116496
105	0xbe626e21	-0.22112323
106	0xbdbeadcf	-0.09310495
107	0x3e8bc01c	0.27295005
108	0xbd50877f	-0.05091047
109	0x3ebbf63a	0.36711293
110	0x3d1556d8	0.036459774
111	0x3ebf59f5	0.3737332
112	0x3ed3531d	0.41274348
113	0xbee524af	-0.4475455
114	0xbed840eb	-0.42237028
115	0x3de3a42c	0.11115298
116	0xbea4b3f3	-0.3216854
117	0xbf022bcd	-0.50848085
118	0x3dff998a	0.12480457
119	0x3ee8850e	0.45414013
120	0xbdfd9362	-0.12381627
121	0xbe44bf22	-0.19213536
122	0xbea61c99	-0.32443693
123	0x3e1b0473	0.15138416
124	0xbeb35aa6	-0.35030097
125	0x3e6c7167	0.23090135
126	0x3e9ab30e	0.30214733
127	0xbdb08373	-0.08618822
128	0x3e6cdc19	0.23130836
129	0xbdad01ae	-0.08447586
130	0x3e432db5	0.19060405
131	0xbe5b685f	-0.21426533
132	0xbeb64117	-0.35596535
133	0xbe4e89d0	-0.20169759
134	0xbe604913	-0.21902876
135	0xbe353ef5	-0.17699797
136	0xbf112aed	-0.56706125
137	0xbdd6bb99	-0.10485
138	0x3e72b762	0.23702767
139	0x3eeea9a0	0.4661379
140	0x3e36c339	0.17847909
141	0xbcdf5131	-0.027260395
142	0xbe8070a3	-0.25085935
143	0x3d92d95e	0.07170366
144	0xbe940a9b	-0.2891434
145	0x3e85ee7e	0.26158518
146	0xbd296bfa	-0.04136274
147	0x3f06431b	0.52446145
148	0xbd93c486	-0.07215218
149	0xbd019d53	-0.031644177
150	0x3effdca8	0.49973035
151	0x3d08aac2	0.033365972
152	0x3d012650	0.03153068
153	0xbf14a5ad	-0.580653
154	0xbe49da2d	-0.19712134
155	0x3eaa419c	0.3325318
156	0xbefd9663	-0.49528798
157	0x3e7a00fa	0.24414435
158	0xbecb00d7	-0.39649078
159	0x3d9b44bb	0.07581469
160	0x3e922da6	0.28550452
161	0x3e983d27	0.29734156
162	0x3e0f79f1	0.1401136
163	0xbd597751	-0.053092305
164	0xbe733e2b	-0.23754184
165	0xbd0786ea	-0.03308765
166	0xbceff7e0	-0.029293
167	0x3eb04cc2	0.34433562
168	0xbeb0f6c2	-0.3456326
169	0xbea997a6	-0.3312351
170	0x3eb85bfb	0.36007676
171	0x3e027ca7	0.12742864
172	0x3de0bbd3	0.109733246
173	0x3f1ed0bb	0.6203725
174	0xbe61cbb2	-0.2205036
175	0xbe8bb603	-0.272873
176	0x3e95f880	0.29291153
177	0xbee4520b	-0.44593844
178	0xbea0e7ac	-0.31426752
179	0xbed8962f	-0.4230208
180	0x3e8b933d	0.2726077
181	0x3e2c9644	0.16854197
182	0xbe87dd53	-0.26536044
183	0x3eef5422	0.46743876
184	0xbe51c83c	-0.2048654
185	0xbd73f216	-0.059557043
186	0xbedca277	-0.430927
187	0x3d0cb77e	0.03435468
188	0xbefb178e	-0.49041408
189	0xbf0e78ca	-0.5565306
190	0x3f23ac84	0.6393511
191	0x3dec0a04	0.11525348
192	0x3e80ff3b	0.25194725
193	0x3eebfd8e	0.46091884
194	0xbd5b6300	-0.05356121
195	0x3de85ffc	0.113464326
196	0xbd29d483	-0.041462433
197	0xbf0265ff	-0.50936884
198	0xbe9b7ca9	-0.30368546
199	0x3eb97280	0.3622017
200	0x3ddd7c38	0.108147085
201	0xbef43f31	-0.4770446
202	0x3d068388	0.03284028
203	0x3f0d904f	0.5529832
204	0xbf015109	-0.50514275
205	0xbe86f45d	-0.2635831
206	0xbe802f92	-0.25036293
207	0x3f03e6a3	0.515238
208	0xbefbccf6	-0.4917981
209	0x3ee22143	0.44166002
210	0xbee53696	-0.44768208
211	0xbd4dc333	-0.050234985
212	0xbf0adc32	-0.5424224
213	0xbdc64490	-0.09681046
214	0xbf0b3875	-0.5438302
215	0x3ee7e58b	0.45292315
216	0x3e8363c7	0.25662062
217	0x3d8a2970	0.06746185
218	0xbef25f32	-0.47338253
219	0xbdc02f58	-0.0938403
220	0xbbc0d677	-0.005884941
221	0xbe1a6ffe	-0.15081784
222	0x3e587bda	0.21140996
223	0x3e497c46	0.19676313
224	0x3e15b63e	0.14620301
225	0xbdb12978	-0.08650488
226	0x3f21ad22	0.63154805
227	0xbea887c9	-0.32916096
228	0xbf0d5c0c	-0.5521858
229	0x3ebf6651	0.3738275
230	0x3e903c2b	0.28170905
231	0x3f39bdc2	0.7255517
232	0xbd220df6	-0.039564095
233	0xbe993f9c	-0.29931343
234	0x3e3d8125	0.18506296
235	0xbd924957	-0.07142895
236	0x3d001af7	0.031275716
237	0xbd9b1e39	-0.07574124
238	0x3e563032	0.20916823
239	0x3e0a392f	0.13498376
240	0x3e1c3613	0.15255003
241	0xbeae115a	-0.33997613
242	0x3f18b217	0.59646744
243	0xbee642e0	-0.44972897
244	0xbda4a99d	-0.08040164
245	0xbe1dc818	-0.15408361
246	0xbe0b8f2e	-0.13628837
247	0x3e13f81f	0.1445012
248	0x3e868912	0.2627645
249	0x3e5825b9	0.2110814
250	0xbea259aa	-0.31709033
251	0xbeb5dd26	-0.35520285
252	0x3e53cf27	0.20684491
253	0xbdc659e1	-0.09685112
254	0x3ebcd734	0.36882937
255	0xbeabc737	-0.33550426

layers.4.bias f4 [6]
0	0x3e466745	0.19375332
1	0x3d36e6bc	0.04465364
2	0x3d798f05	0.06092741
3	0x3e2e1723	0.17001013
4	0xbd68f308	-0.056872398
5	0xbd989927	-0.074510865
