dqn.pt (torch, 78112 bytes, 6 tensors)

network.0.weight f4 [128, 12]
0	0x3eb0afb8	0.34509063
1	0x3f0d1e58	0.55124426
2	0x3d0d2a0d	0.03446393
3	0xbc902b37	-0.017598731
4	0x3f017b07	0.5057835
5	0xbf1607fe	-0.58605945
6	0x3f2a833b	0.6660649
7	0x3f12a650	0.5728502
8	0x3db5b853	0.08873048
9	0x3f6eed23	0.9333059
10	0x3c80ce18	0.015723273
11	0x3f1e1553	0.6175129
12	0x3f08aefd	0.5339201
13	0x3f224aa2	0.6339513
14	0xbe864b5f	-0.2622938
15	0xbeedae25	-0.46421924
16	0xbe924be3	-0.28573522
17	0xbe9c98b2	-0.30585247
18	0x3e3f3b2a	0.18674913
19	0x3d95033c	0.072760075
20	0x3f36f11e	0.71461666
21	0xbc01219a	-0.007881546
22	0x3e79b31f	0.24384736
23	0x3f183cc8	0.59467745
24	0x3f565eef	0.8373861
25	0xbe98c082	-0.29834372
26	0x3d8c8d2c	0.06862864
27	0xbf1fd177	-0.62428993
28	0x3ea386bd	0.31938735
29	0x3dab3130	0.08358991
30	0x3ece3b69	0.402797
31	0x3e8a29ca	0.26985008
32	0xbf0459b9	-0.51699406
33	0xbec1acae	-0.37827057
34	0x3e02cd6b	0.12773673
35	0xbec00cf5	-0.37509885
36	0x3f1bf04b	0.6091353
37	0x3f13b5eb	0.5769946
38	0x3e22a923	0.15884833
39	0xbeaee585	-0.34159485
40	0x3ce1d93f	0.027569411
41	0x3e4e76b0	0.20162463
42	0x3eb2c31b	0.3491448
43	0x3ea23dd7	0.31687805
44	0x3f5198ac	0.81873584
45	0xbeb14be4	-0.34628212
46	0xbf1eef47	-0.6208386
47	0xbda44976	-0.08021824
48	0x3f9e0cb3	1.2347625
49	0xbe1185a4	-0.14211136
50	0xbe1e1336	-0.15437016
51	0x3e544823	0.20730643
52	0xbf15f1f1	-0.585723
53	0x3d85d06c	0.06533894
54	0x3ecc0dad	0.39854184
55	0x3f1d7371	0.61504275
56	0xbe028681	-0.12746622
57	0x3ec9119b	0.39271244
58	0xbe1bb3a2	-0.15205243
59	0x3ebc4332	0.36770016
60	0xbeec5579	-0.4615896
61	0x3e083085	0.13299759
62	0x3f24aed0	0.6432924
63	0xbe6dedf0	-0.23235297
64	0x3f4e1082	0.8049394
65	0xbd9d23a1	-0.07672811
66	0xbe919a55	-0.28438058
67	0x3f3763ca	0.7163664
68	0xbe546e96	-0.2074531
69	0xbe29575e	-0.16537234
70	0xbf1b8fdf	-0.60766405
71	0xbe920be6	-0.28524703
72	0x3e56f983	0.20993619
73	0xbeeb35ad	-0.4593939
74	0x3de21faf	0.110411994
75	0xbf48b3fa	-0.7839962
76	0x3e868bbf	0.26278493
77	0xbf4e6851	-0.80627924
78	0x3eec25a1	0.4612246
79	0x3de23438	0.11045116
80	0x3d7c3148	0.061570436
81	0x3f33aba2	0.70183766
82	0x3ce58884	0.028019197
83	0x3e46e3fe	0.1942291
84	0x3e2377c7	0.1596366
85	0xbf77e76f	-0.96837515
86	0x3fab08b5	1.3362032
87	0xbef33fad	-0.47509518
88	0x3efb5a08	0.49092126
89	0xbd82aff4	-0.06381217
90	0x3e6ab460	0.2292037
91	0x3e1bdad0	0.15220189
92	0x3e935196	0.28773183
93	0xbf54e2a4	-0.83158326
94	0x3d0db6a8	0.034598023
95	0xbc9616f6	-0.018321496
96	0xbe198c4e	-0.14994928
97	0x3f54f7c0	0.83190536
98	0xbea17c45	-0.31540123
99	0xbe7f0e6a	-0.24907842
100	0xbf93046a	-1.1485722
101	0xbf100b39	-0.56267124
102	0xbe942c7b	-0.28940186
103	0xbde1ef91	-0.11032022
104	0x3f23c6e4	0.6397536
105	0x3e894d32	0.26816708
106	0xbe361776	-0.17782387
107	0xbedc93cd	-0.43081513
108	0x3ede18fe	0.43378443
109	0xbf6a01a3	-0.9140875
110	0x3ea197b8	0.31561065
111	0x3e7efdb7	0.24901472
112	0x3edee3ac	0.43533075
113	0xbe41c572	-0.18922976
114	0xbccda307	-0.025102152
115	0x3ec09fc5	0.37621894
116	0xbe040793	-0.12893514
117	0x3ecca919	0.3997276
118	0x3f1480d5	0.5800908
119	0xbec24c03	-0.37948617
120	0xbc83071f	-0.015994607
121	0x3d549cca	0.05190734
122	0xbf21166d	-0.62924844
123	0xbec5c222	-0.38624674
124	0xbe4c67fd	-0.19961543
125	0xbe8f9664	-0.28044426
126	0x3ecce696	0.40019673
127	0x3e86bd9f	0.26316544
128	0x3ebd1541	0.36930278
129	0x3e61bde3	0.22045092
130	0xbe75889f	-0.23977898
131	0xbe211116	-0.15729174
132	0x3e956860	0.29181194
133	0xbd0f2bff	-0.034954067
134	0xbe7097d2	-0.23495415
135	0x3f45d417	0.7727675
136	0xbf3b7acd	-0.73234254
137	0xbd8b11f6	-0.06790535
138	0x3edc8b64	0.43075097
139	0x3d68fea1	0.056883458
140	0x3e176147	0.14783202
141	0x3f581be2	0.84417546
142	0x3d7e13ae	0.062030487
143	0xbecdc83e	-0.40191835
144	0xbf1ddb73	-0.6166298
145	0xbf182de5	-0.5944503
146	0x3f0dafad	0.55346185
147	0xbe69f66e	-0.22847912
148	0xbdf2a3e3	-0.11847665
149	0x3f0bf42d	0.5466946
150	0x3d494206	0.04913523
151	0x3eae8880	0.34088516
152	0x3f24ff28	0.6445184
153	0xbe41c81d	-0.18923993
154	0x3e9616f7	0.29314396
155	0x3e3c182c	0.18368596
156	0x3db07c1b	0.08617421
157	0xbc83ac07	-0.01607324
158	0x3e638b3f	0.22221087
159	0xbe9c4a0f	-0.30525252
160	0xbf223dab	-0.6337535
161	0xbeaf04d4	-0.3418337
162	0x3ec38c26	0.38192862
163	0x3e567b41	0.20945455
164	0x3f247a79	0.6424938
165	0xbe810345	-0.25197807
166	0xbcf33aba	-0.029691089
167	0xbd820931	-0.06349409
168	0x3d652459	0.055942867
169	0xbe83ef08	-0.25768304
170	0xbe8ec58c	-0.2788509
171	0x3e7cbc8b	0.24681298
172	0x3d9e58ae	0.07731758
173	0xbeb42b92	-0.35189492
174	0xbdca2f00	-0.09872246
175	0xbef053bb	-0.4693888
176	0x3cc74d58	0.024328873
177	0x3f800827	1.0002488
178	0x3e841df2	0.25804096
179	0x3ebfe5c1	0.37479976
180	0x3edf460d	0.43608132
181	0xbde5d190	-0.112216115
182	0x3da8db19	0.082449146
183	0xbea80723	-0.32817945
184	0x3e432664	0.19057614
185	0xbc8478e2	-0.016170923
186	0x3e6661c8	0.22498238
187	0x3f159595	0.5843137
188	0xbdb3b679	-0.08775038
189	0x3b09ba0f	0.002101544
190	0x3ede9263	0.4347106
191	0x3f015eb7	0.5053515
192	0x3f292393	0.66069907
193	0x3e19fe2c	0.15038365
194	0x3e5ad573	0.21370487
195	0x3f0ce4b0	0.5503645
196	0xbdbfd9fe	-0.093677506
197	0xbf52f329	-0.8240228
198	0x3d1b1c1b	0.0378686
199	0x3e5bd940	0.21469593
200	0xbe3c43fe	-0.18385312
201	0x3e544fac	0.20733517
202	0xbe3a1e59	-0.18175639
203	0xbefb1fc3	-0.4904767
204	0x3e7f13cd	0.24909897
205	0x3dad6d3c	0.084681004
206	0x3f2c7a63	0.6737425
207	0x3f2031cd	0.6257599
208	0x3e3d28dd	0.1847262
209	0x3f0a68ab	0.5406596
210	0x3dda5302	0.10660364
211	0x3f772600	0.9654236
212	0xbb5dc4d0	-0.0033839233
213	0x3eb79897	0.35858604
214	0xbf7154c8	-0.9426999
215	0x3d561deb	0.052274626
216	0xbf066d86	-0.5251087
217	0xbed3419c	-0.41260993
218	0x3e557cdb	0.2084841
219	0xbe412625	-0.18862207
220	0xbe3bde11	-0.1834643
221	0x3ebbcfdd	0.36682025
222	0xbe899e70	-0.2687869
223	0x3e129baf	0.14317201
224	0x3f3b049d	0.73053914
225	0x3f77c103	0.9677889
226	0x3f37b151	0.7175494
227	0x3e8d0b1f	0.27547547
228	0x3cf66d65	0.03008146
229	0x3f35ec96	0.71064126
230	0xbed5dd02	-0.41770178
231	0xbebfcdb5	-0.3746163
232	0xbd754ad9	-0.059885833
233	0xbd5b4cad	-0.05353992
234	0x3ea50b6f	0.32235286
235	0xbef24871	-0.47320893
236	0x3f4b2072	0.7934638
237	0x3eaf9bbb	0.342985
238	0xbecde1c3	-0.40211305
239	0xbdb96d86	-0.09054093
240	0x3ece51a8	0.40296674
241	0xbf2c9b47	-0.67424434
242	0x3e0d3827	0.13790952
243	0xbea2dc2f	-0.31808612
244	0xbe11f076	-0.14251885
245	0xbe29dbdb	-0.16587774
246	0x3d6206d8	0.055182308
247	0x3ee94bb0	0.45565557
248	0x3e8a594d	0.27021256
249	0xbeb03441	-0.34414867
250	0x3f48734c	0.7830093
251	0x3edc8e16	0.43077153
252	0xbba7a6fa	-0.0051163407
253	0xbf9aa4b0	-1.2081509
254	0xbe427983	-0.18991666
255	0xbeb8cb3f	-0.36092564

network.0.bias f4 [128]
0	0x3d8fb323	0.070165895
1	0x3d67c010	0.05657965
2	0x3e11475f	0.14187382
3	0x3d93dd9d	0.07220004
4	0x3dc354f1	0.09537686
5	0x3c8eb726	0.017421316
6	0x3db1b8b1	0.08677805
7	0x3d57a1a7	0.052644398
8	0x3d89c703	0.067274116
9	0x3dcc1c14	0.09966293
10	0x3dd5f4ea	0.10447104
11	0x3dcf820e	0.10132228
12	0x3db10afa	0.08644672
13	0x3d25da9e	0.040491693
14	0x3dd38643	0.10328343
15	0xbced95b5	-0.02900205
16	0x3db9599f	0.09050297
17	0xbc182a13	-0.009287375
18	0x3dd57c6a	0.10424121
19	0x3dcdf5f9	0.10056681
20	0x3deaeddd	0.1147115
21	0xbd49f781	-0.049308304
22	0x3d943492	0.072365895
23	0x3db9d013	0.0907289
24	0x3e0e432a	0.13892809
25	0x3de8015d	0.11328385
26	0x3d94c107	0.072633795
27	0x3df79fe2	0.12091042
28	0x3e019e3a	0.12658015
29	0x3de94102	0.113893524
30	0x3dd77e3e	0.10522126
31	0x3bf3009b	0.0074158437
32	0x3ca52d43	0.020163184
33	0x00000000	0.0
34	0x3dc4a4ba	0.096017316
35	0x3dc3f211	0.09567655
36	0x3dbafa4a	0.0912977
37	0x3dd37c60	0.10326457
38	0x3db97953	0.09056344
39	0x3df421e7	0.11920529
40	0x3d24fb60	0.040278792
41	0x3e06631f	0.13123749
42	0x3d4b1d9c	0.049588785
43	0x3dc43a6d	0.09581456
44	0x3de02fb3	0.10946598
45	0x3dd38d8e	0.10329734
46	0x3e08ecb6	0.13371548
47	0x3dcac5b3	0.099009894
48	0x3d9acae6	0.07558231
49	0x3dc57133	0.09640732
50	0x3dd5edd4	0.10445753
51	0x3de4bb4f	0.11168539
52	0x00000000	0.0
53	0x3dd0b62c	0.101909965
54	0x3da9ac6c	0.0828484
55	0x3dfe7fd2	0.124267235
56	0x3df52633	0.119701765
57	0x3de92bde	0.1138532
58	0x3dc14faf	0.094390266
59	0x3df3972b	0.118940674
60	0xbd7a8100	-0.06115818
61	0x3da68446	0.08130698
62	0x3c9e9439	0.019357787
63	0x3d9b711c	0.07589933
64	0x3db62d2d	0.08895335
65	0x3e2385e7	0.15969048
66	0x3dbe23f1	0.09284199
67	0x3da021cf	0.078189485
68	0x3dad5888	0.084641516
69	0x3d8a2760	0.067457914
70	0x3e13a622	0.14418843
71	0x3dba2e7a	0.09090896
72	0x3dcae42a	0.099068
73	0x3dd93cd7	0.106073074
74	0x3c7fb85f	0.015607922
75	0x3daff8f1	0.08592404
76	0x3da4431a	0.08020611
77	0x3dd3fd4b	0.10351046
78	0x3da67413	0.08127608
79	0xbbc8d167	-0.0061284783
80	0x3cf3a91e	0.029743727
81	0x3dc66444	0.09687093
82	0x3dcdc0a3	0.10046508
83	0x3ddaa8e2	0.10676743
84	0x3d850978	0.06495947
85	0x3df2170a	0.118208006
86	0x3d2c18cb	0.042015832
87	0x3d82b95a	0.06383009
88	0x3e10068b	0.14064996
89	0x3d1aed4b	0.037823956
90	0x3de4f662	0.11179806
91	0x3dd7fc4c	0.10546169
92	0x3d86b496	0.06577413
93	0x3d997dc9	0.07494695
94	0x3dc74474	0.09729853
95	0x3dc239c8	0.09483677
96	0x3dad0078	0.08447355
97	0x3da3b49b	0.07993432
98	0x3dd552f0	0.1041621
99	0x3d787419	0.060657594
100	0x3d9f3e33	0.077755354
101	0x3dfdd48a	0.12394054
102	0x3da128d8	0.078691185
103	0x3dce75e8	0.100810826
104	0x3dc27d0e	0.094965085
105	0x3d8222e9	0.06354315
106	0x3da9136b	0.08255657
107	0x3dba10fc	0.09085271
108	0x3de3b78e	0.11118995
109	0x3df6b444	0.12046102
110	0x3dde761a	0.1086237
111	0x3de649e0	0.11244559
112	0x3e0a152f	0.13484643
113	0x3de41bca	0.11138113
114	0x3dc77f93	0.0974113
115	0x3dbbaf2f	0.09164273
116	0x3e30a760	0.17251348
117	0x3dca1c16	0.09868638
118	0x3d9b5257	0.075840645
119	0x00000000	0.0
120	0x3d961461	0.07328106
121	0x3dbf2bba	0.09334512
122	0x3d6fd4dd	0.05855261
123	0x3cf79e1e	0.030226763
124	0x3da79a03	0.08183672
125	0x3d600888	0.054695636
126	0x3e06b829	0.13156189
127	0x3da575eb	0.08079132

network.2.weight f4 [128, 128]
0	0x3e1fca91	0.15604617
1	0xbe390c02	-0.18070987
2	0xbd7238f2	-0.05913634
3	0xbc56624e	-0.013084961
4	0xbda4edd1	-0.080531724
5	0x3e04cdee	0.12969181
6	0xbd699259	-0.057024334
7	0xbd28688c	-0.04111533
8	0x3ebb206c	0.36548173
9	0xbd0df1bb	-0.03465436
10	0x3da8b51e	0.0823767
11	0xbeb9bf19	-0.36278608
12	0x3c82204a	0.015884537
13	0xbcbcfad3	-0.023068821
14	0xbd11cfc4	-0.03559853
15	0xbde754dc	-0.112954825
16	0x3dab5833	0.08366432
17	0xbd0ad91b	-0.033898454
18	0x3e8c06b5	0.27348867
19	0x3d2f71c3	0.0428331
20	0x3e31a193	0.17346792
21	0x3db48f19	0.08816356
22	0xbd3f4ae2	-0.046702273
23	0x3e14fb9a	0.14549103
24	0x3d8df944	0.06932309
25	0x3e529131	0.20563199
26	0x3e803386	0.2503931
27	0x3e1b2864	0.15152127
28	0x3e25531a	0.16144982
29	0x3e7e10dc	0.24811119
30	0x3dd5ccf2	0.10439481
31	0x3e3770ab	0.17914073
32	0xbddeb932	-0.10875167
33	0x3defedca	0.117152765
34	0x3e20d256	0.15705237
35	0xbd28b71a	-0.041190244
36	0x3d9d01ba	0.07666345
37	0x3b0ec760	0.0021786317
38	0x3e18d617	0.14925419
39	0x3e180068	0.14843905
40	0xbd289a88	-0.041162997
41	0xbd904d72	-0.070460215
42	0x3e2f0c50	0.1709454
43	0xbd79916e	-0.06092971
44	0x3d85e8c7	0.065385394
45	0x3e4ab9cb	0.19797437
46	0x3e4cdb0c	0.20005435
47	0x3ddd7734	0.10813752
48	0x3ddd896e	0.10817228
49	0xbe662c68	-0.22477877
50	0xbdb035c2	-0.086040035
51	0x3defa523	0.11701419
52	0x3db35628	0.087566674
53	0x3ddcf8f9	0.10789675
54	0xbe70de43	-0.23522286
55	0xbe851234	-0.2599045
56	0xbe3ec59b	-0.18630068
57	0xbe7243df	-0.23658703
58	0xbd2262e8	-0.039645106
59	0x3dc4a9fb	0.09602734
60	0xbce16b11	-0.027516874
61	0xbd81c01e	-0.063354716
62	0x3e605f43	0.2191134
63	0xbc8be41d	-0.017076546
64	0x3e44a4a5	0.19203432
65	0xbe32c0a2	-0.17456296
66	0x3d1ab521	0.037770394
67	0xbda83211	-0.082126744
68	0xbd2b88b8	-0.041878432
69	0x3d910901	0.070817955
70	0x3e47033a	0.19434825
71	0x3df1e0d3	0.1181046
72	0x3e9f3556	0.3109538
73	0xbcb72c07	-0.022359861
74	0xbd130498	-0.035893053
75	0xbda6dc9a	-0.08147545
76	0x3dd26e91	0.10274995
77	0x3e416090	0.18884492
78	0x3e01ad67	0.12663804
79	0x3eb82531	0.35965875
80	0xbe52c00a	-0.2058107
81	0x3d943cc1	0.072381504
82	0xbdb16a7e	-0.0866289
83	0xbe71c84c	-0.23611563
84	0x3e2d2fa8	0.1691271
85	0x3dad4d0d	0.08461962
86	0x3e89fc82	0.2695046
87	0x3e29b6cc	0.16573638
88	0xbcce943f	-0.025217174
89	0xbd2795e2	-0.040914424
90	0xbe1d185a	-0.1534132
91	0x3dab19eb	0.08354553
92	0xbdb6b3b6	-0.08920996
93	0xbd95d784	-0.07316497
94	0x3dc09bfe	0.09404753
95	0x3dacc464	0.08435896
96	0xbe2ca100	-0.16858292
97	0xbd527a20	-0.051386
98	0x3d3599ba	0.04433606
99	0x3d9e766b	0.0773743
100	0x3e85b4e5	0.26114574
101	0x3ddc40df	0.10754561
102	0x3daeaa70	0.08528602
103	0x3e2ca1f3	0.16858654
104	0xbe81b232	-0.25331265
105	0x3d910ef4	0.0708293
106	0x3e777521	0.24165775
107	0x3e084f79	0.13311566
108	0xba52e03c	-0.0008044278
109	0xbe1ba5c1	-0.15199949
110	0x3e12f530	0.14351344
111	0x3e5aa645	0.2135249
112	0x3e730172	0.2373102
113	0x3dd46625	0.10371045
114	0xbdd3d073	-0.10342493
115	0xbda03ab2	-0.07823695
116	0xbe9e86aa	-0.30962116
117	0x3d85f49b	0.065407954
118	0xbd94e042	-0.07269336
119	0xbe13ee06	-0.14446267
120	0xbe57a12d	-0.21057577
121	0xbc642123	-0.013923916
122	0xbdb6bbbd	-0.08922527
123	0x3daf4f86	0.0856009
124	0xbe56bcbb	-0.20970432
125	0xbdb4707c	-0.08810517
126	0x3ddb92a7	0.10721331
127	0xbe1828a8	-0.14859259
128	0xbc3560e7	-0.011070467
129	0xbe009927	-0.12558423
130	0xbdfeb21c	-0.124363154
131	0xbd9b9557	-0.07596844
132	0x3e78e744	0.24306971
133	0xbe870e58	-0.2637813
134	0xbd1cc086	-0.038269542
135	0xbd28e059	-0.04122958
136	0xbd444b23	-0.04792322
137	0x3e78d457	0.24299751
138	0x3d3eedc6	0.046613477
139	0x3dcb6e65	0.099331655
140	0xbe694a2b	-0.22782199
141	0x3e50d8c4	0.2039519
142	0xbd526e25	-0.051374573
143	0xbe0445c2	-0.12917235
144	0x3e1c4924	0.15262276
145	0x3dc721ab	0.097232185
146	0xbe020299	-0.12696303
147	0xbde7f566	-0.11326103
148	0xbe00deda	-0.12585011
149	0xbd8febab	-0.07027372
150	0x3d9d5e72	0.0768403
151	0x3ee27d5f	0.44236276
152	0x3e421244	0.1895228
153	0xbea21e14	-0.31663573
154	0x3dbe7d9d	0.093013026
155	0xbc5d2d6d	-0.0134996
156	0xbea6231b	-0.32448658
157	0x3e1c5e6f	0.15270399
158	0xbd6159d0	-0.055017292
159	0x3db2c67b	0.087292634
160	0x3e46a53d	0.19398971
161	0x3dc51161	0.096224554
162	0x3c9b7356	0.018975895
163	0x3eb25931	0.34833673
164	0xbd970241	-0.07373477
165	0xbea9a60c	-0.33134496
166	0xbdbcd3d7	-0.09220093
167	0xbe06d136	-0.13165745
168	0xbe3d14b9	-0.18464936
169	0x3eafa708	0.34307122
170	0x3d358ffc	0.044326767
171	0x3d5a7fca	0.053344525
172	0xbd644d2e	-0.055737667
173	0xbe58c3b2	-0.21168402
174	0xbd761a49	-0.06008366
175	0x3e2fee79	0.17180814
176	0xbe545377	-0.20734964
177	0x3e9accec	0.30234468
178	0x3e47cb0e	0.19511053
179	0x3e0fec40	0.14054966
180	0xbe216612	-0.15761593
181	0x3e13adb5	0.14421733
182	0xbd27b39c	-0.040942773
183	0x3e22ab3c	0.15885633
184	0xbde5e451	-0.112251885
185	0x3e91f64a	0.28508216
186	0x3e69fa0e	0.22849295
187	0x3d059948	0.032616884
188	0xbddb14ff	-0.10697364
189	0x3e95e84c	0.2927879
190	0x3dbb31d8	0.09140366
191	0x3e93ab42	0.28841597
192	0xbe754442	-0.2395182
193	0x3e08d0ea	0.13360944
194	0x3d182dc9	0.03715304
195	0xbe9d534d	-0.30727616
196	0xbd101e2f	-0.035185035
197	0x3df6d063	0.12051465
198	0x3e962d7d	0.2933158
199	0x3d876e5c	0.06612846
200	0x3e0ef8be	0.13962075
201	0x3da19bfc	0.0789108
202	0x3e01371b	0.12618677
203	0x3dc83c62	0.09777142
204	0x3e54bf86	0.20776185
205	0xba0c6bca	-0.0005356638
206	0xbeab7834	-0.33490145
207	0x3e6d1850	0.23153806
208	0x3dd4460e	0.10364924
209	0x3df2526e	0.118321285
210	0xbe2153c1	-0.15754606
211	0x3e73ef59	0.23821773
212	0xbd150972	-0.03638596
213	0x3e6d0557	0.23146568
214	0x3e42e2fd	0.19031902
215	0x3d80e892	0.06294359
216	0x3b07c1d6	0.00207149
217	0x3d0159a3	0.031579625
218	0x3e923818	0.2855842
219	0x3e40930b	0.18806092
220	0x3ec52312	0.3850332
221	0x3dd22e33	0.10262718
222	0x3e7c4c7c	0.24638551
223	0x3e3adf22	0.18249181
224	0x3e732645	0.23745067
225	0x3d691f66	0.05691471
226	0x3d8eb775	0.069685854
227	0xbe61f0a3	-0.22064452
228	0xbeae2b3d	-0.34017363
229	0x3d9e5a4c	0.077320665
230	0xbe0f6d9d	-0.14006658
231	0xbdf81399	-0.12113113
232	0x3e0ca86b	0.13736121
233	0x3da2af3b	0.07943579
234	0x3e2fda3f	0.17173098
235	0x3d5cde68	0.05392304
236	0x3e2e97c4	0.17050081
237	0xbe27ee51	-0.16399504
238	0x3e6c2cdb	0.23063986
239	0x3e0e971c	0.13924831
240	0xbe3ec62e	-0.18630287
241	0x3cc15c48	0.023603573
242	0xbe7d44ec	-0.24733323
243	0xbdcd9f3e	-0.10040139
244	0x3edd3f6e	0.43212456
245	0xbdf0d81d	-0.1175997
246	0xbe0674c3	-0.13130479
247	0xbd8d4731	-0.06898344
248	0x3e1da1c7	0.15393744
249	0xbd9509c2	-0.07277252
250	0xbe7371fb	-0.23773949
251	0xbe2767d9	-0.16348208
252	0x3da100b5	0.07861463
253	0xbe1d5ec8	-0.15368187
254	0x3e5f1bbe	0.21787927
255	0xbcabecf0	-0.020987004

network.2.bias f4 [128]
0	0x3d30fc10	0.043209136
1	0x3dbc91f5	0.092075266
2	0x3d7fb472	0.062427945
3	0x3d830687	0.06397729
4	0x397e5f4b	0.00024258827
5	0x3d9a6fbd	0.07540844
6	0x3d66692c	0.056252643
7	0x3d61339d	0.054980863
8	0xbba933dc	-0.005163653
9	0x3d7b6c32	0.06138248
10	0xbc9d70a3	-0.019218748
11	0x3c935d79	0.017988907
12	0xbc8aad92	-0.016928468
13	0xbcd8d893	-0.026470458
14	0x3db27563	0.08713796
15	0x3dbb7baf	0.0915445
16	0x3d44a91f	0.04801285
17	0x3d54c737	0.0519478
18	0x3aef15ec	0.0018240786
19	0x3d418f0a	0.047255553
20	0x3dc5111b	0.09622403
21	0x3d8566f6	0.06513779
22	0xbc6b7e6b	-0.014373402
23	0x3da08bb3	0.078391455
24	0x3d84435d	0.06458161
25	0x3d82e4e9	0.063913174
26	0xbcc0000b	-0.02343752
27	0x3d862bd8	0.06551331
28	0x3daa4ffe	0.083160385
29	0xbd254d3f	-0.04035687
30	0x3d748290	0.059694827
31	0xbbb79326	-0.0056022583
32	0x3c58ee95	0.013240476
33	0x3cc8dda0	0.024519742
34	0xbcb2bd01	-0.02181864
35	0x3db1640d	0.08661661
36	0x3d88eec8	0.06686169
37	0xbbdacafc	-0.0066770297
38	0x3d5ba17c	0.0536208
39	0x3d849b36	0.06474917
40	0x3d7775a8	0.06041494
41	0x3d8d54fe	0.069009766
42	0x3dd5600a	0.104187086
43	0xbc1d7a78	-0.009611718
44	0x3d0eb3cc	0.034839436
45	0x3db42492	0.08796038
46	0x3d1e67f6	0.038673364
47	0x3d6b6a81	0.057474617
48	0xbc541b98	-0.012946032
49	0x3db58f05	0.088651694
50	0x3d051bfb	0.032497387
51	0x3ddd83dc	0.10816166
52	0x3d9b5db0	0.07586229
53	0x3d8ec425	0.06971005
54	0x3db36dc8	0.087611735
55	0x3d5a4cb3	0.053295802
56	0x3d990c59	0.07473058
57	0x3d68d859	0.05684695
58	0x3d74a923	0.059731614
59	0xbc22d3ae	-0.009938164
60	0x3c986356	0.018602055
61	0x3d6996c9	0.057028566
62	0x3cbdf4ff	0.023188112
63	0x39e2726e	0.00043191336
64	0xbc1a8077	-0.0094300425
65	0x3db09713	0.08622565
66	0x3d545568	0.051839262
67	0x3d2fe86d	0.042946268
68	0xbcbc1b62	-0.022962276
69	0x3d471258	0.04860148
70	0xbc3dd575	-0.011586537
71	0xbbb760bb	-0.005596248
72	0x3d80c4ba	0.062875226
73	0x3d65ad2f	0.056073364
74	0x00000000	0.0
75	0x3d385549	0.04500321
76	0x3d1bd9ad	0.03804939
77	0x3d67fd2d	0.05663793
78	0xbc997e17	-0.018736882
79	0x3d7bfe83	0.06152202
80	0xbc434742	-0.011918845
81	0x00000000	0.0
82	0x3d841635	0.06449548
83	0x3d1b8f77	0.037978616
84	0x3d5f764b	0.054556172
85	0x3d7946fe	0.06085872
86	0x3d97d2a9	0.07413227
87	0x00000000	0.0
88	0xbcc14bf1	-0.023595782
89	0x3db7e06f	0.08978354
90	0x3d9f19f7	0.07768624
91	0x3d8af4c7	0.06784969
92	0x3c3db1d0	0.011578038
93	0x3d852724	0.06501606
94	0x3d7ffca3	0.062496793
95	0xbbe0d812	-0.006861695
96	0x3d5da6b4	0.05411406
97	0xbb82cb3e	-0.0039915135
98	0x3d7ee36d	0.06222861
99	0xbc1bf6aa	-0.0095192585
100	0x3cd96e2e	0.026541796
101	0x3d8aac32	0.06771125
102	0xbc42ab77	-0.011881701
103	0x3ceca70f	0.028888253
104	0x3d4c52bd	0.049883593
105	0x3d909322	0.07059313
106	0x3da0ab36	0.07845156
107	0x3ddcbaf4	0.10777846
108	0x3da0d076	0.07852261
109	0x3d38a70c	0.045081183
110	0x3dcd3036	0.10018961
111	0x3d9402ad	0.07227073
112	0x00000000	0.0
113	0x3d72d23d	0.05928253
114	0x3d7ff92f	0.0624935
115	0x3d3e25e5	0.046422858
116	0x3d903984	0.0704222
117	0xbc83bb51	-0.01608053
118	0x3da7da60	0.081959486
119	0xbccf459c	-0.025301747
120	0xbc3b4385	-0.011429672
121	0x3dc1b71e	0.09458755
122	0x3d3862fd	0.045016278
123	0x3d9bc099	0.076050945
124	0x3d8d5752	0.06901421
125	0xbcc13b22	-0.023587767
126	0x3dc5d51b	0.09659787
127	0x3c6f7972	0.014616357

network.4.weight f4 [6, 128]
0	0xbe0c3224	-0.13691002
1	0x3df92daa	0.12166913
2	0xbe10446c	-0.14088601
3	0xbe3e51ae	-0.18585846
4	0xbf08b66b	-0.5340335
5	0x3d033454	0.032032326
6	0xbe4f7556	-0.20259604
7	0xbe296982	-0.16544154
8	0x3cbd494c	0.02310624
9	0xbe170fa2	-0.14752057
10	0xbe7bccfb	-0.24589913
11	0xbe8e6902	-0.2781449
12	0x3e19b4fa	0.15010443
13	0xbe616629	-0.22011627
14	0x3e6bc6f5	0.23025115
15	0x3eb4091b	0.35163197
16	0xbd1cd22d	-0.038286377
17	0xbdb19036	-0.08670084
18	0x3da2b303	0.079443
19	0x3e9544dc	0.29154098
20	0x3e374638	0.1789788
21	0xbe5b4084	-0.2141133
22	0xbd859a09	-0.065235205
23	0x3dac1a32	0.08403434
24	0x3ce2967f	0.027659653
25	0xbe07362c	-0.13204259
26	0x3d2f11b4	0.042741492
27	0x3e5d0f3c	0.21587843
28	0x3e52672a	0.20547166
29	0x3dece182	0.1156645
30	0xbddf76b4	-0.10911313
31	0x3e46c4b4	0.19410974
32	0xbe9cfa19	-0.3065956
33	0x3d6ddd81	0.05807257
34	0xbdf1c065	-0.118042745
35	0x3e668898	0.22513044
36	0x3e52d325	0.20588358
37	0x3cf848f0	0.030308217
38	0xbd361ec9	-0.044462953
39	0xbdbfaf5e	-0.093596205
40	0xbd662ca7	-0.056194928
41	0x3e3ac4e5	0.18239172
42	0x3c34104b	0.010990213
43	0x3e157bf5	0.14598067
44	0xbe851a59	-0.25996664
45	0xbe6a69d8	-0.22891939
46	0x3e8c2c28	0.2737744
47	0xbd8b9a2b	-0.068165146
48	0xbdd1fc76	-0.10253231
49	0x3e55a99d	0.20865484
50	0x3e4af526	0.19820079
51	0xbe848af4	-0.25887263
52	0xbe76c93b	-0.24100201
53	0xbe501682	-0.20321086
54	0xbeeb9d94	-0.4601866
55	0x3d919d38	0.07110065
56	0xbe4d74a8	-0.20064032
57	0xbe8323be	-0.25613207
58	0xbd9f86b1	-0.07789362
59	0xbe4c88cc	-0.19974059
60	0xbbb95195	-0.0056554773
61	0x3dda84df	0.106698744
62	0xbe25ce02	-0.16191867
63	0x3d2db5d8	0.042409748
64	0x3df8a72b	0.1214126
65	0xbe368208	-0.1782304
66	0xbd5278eb	-0.051384848
67	0xbe506b26	-0.20353374
68	0xbd51b588	-0.051198512
69	0xbe2fc34a	-0.1716434
70	0x3d18c7ba	0.03729985
71	0x3e271ebf	0.16320322
72	0xbd9e0a81	-0.07716847
73	0xbe7fc1d8	-0.2497629
74	0xbc915f1b	-0.017745545
75	0x3e76c28a	0.24097648
76	0xbd567040	-0.052353144
77	0x3e515917	0.20444141
78	0x3e2f8cef	0.17143606
79	0x3e79c170	0.24390197
80	0xbdf65473	-0.12027826
81	0xbd37bd2b	-0.04485814
82	0x3e12d294	0.14338142
83	0xbe754a72	-0.2395418
84	0xbc495770	-0.012288913
85	0xbe109d45	-0.14122494
86	0xbe086ae2	-0.13322023
87	0xbdce23bc	-0.100654095
88	0xbe1d92f4	-0.1538809
89	0xbe610042	-0.21972755
90	0x3e4707f2	0.19436625
91	0xbdf17d5e	-0.1179149
92	0x3e770226	0.24121913
93	0xbc0cb4d0	-0.008588031
94	0xbd9ef8d5	-0.07762305
95	0x3c81f51a	0.015863944
96	0x3d956830	0.07295263
97	0xbdb481a1	-0.08813787
98	0x3e7801c5	0.24219425
99	0x3e987189	0.2977412
100	0x3e13ee6f	0.14446424
101	0xbd22e893	-0.03977258
102	0xbd64d6bb	-0.055868845
103	0xbe9b34f1	-0.3031383
104	0x3c9734ea	0.018457849
105	0xbe08b88b	-0.13351648
106	0xbe2fa00f	-0.17150901
107	0xbe7d6da6	-0.24748859
108	0x3e84a977	0.2591054
109	0xbe686398	-0.22694242
110	0x3e114bdd	0.14189096
111	0x3d2fd672	0.04292912
112	0xbd8afdb3	-0.067866705
113	0x3e10e1a0	0.14148569
114	0x3e36a26d	0.17835398
115	0xbcb239ee	-0.021756139
116	0x3ea09f5e	0.31371588
117	0xbea0b375	-0.31386915
118	0x3ddce434	0.10785714
119	0xba8ea98a	-0.0010884267
120	0x3e28eb9b	0.16496126
121	0x3e157f29	0.14599289
122	0x3d36bcc4	0.044613615
123	0xbec7c47d	-0.39017096
124	0x3dbf1745	0.0933061
125	0xbdc076bf	-0.09397649
126	0xbdfe976f	-0.124312274
127	0x3baa2951	0.0051929136
128	0x3e3d629e	0.1849465
129	0x3d6677bd	0.056266535
130	0x3e4a5a67	0.19761048
131	0x3d7a8fe3	0.061172377
132	0xbe8a1e24	-0.2697612
133	0xbe02d9ff	-0.12778471
134	0xbda65680	-0.08121967
135	0xbda19084	-0.07888892
136	0x3c9b3e9f	0.018950759
137	0x3d516b86	0.051127933
138	0xbe68f6ed	-0.22750445
139	0x3c7312da	0.0148360375
140	0xbe3e6389	-0.18592657
141	0x3e22df99	0.15905608
142	0x3d9ef1b1	0.07760943
143	0x3eb778b0	0.35834265
144	0xbe466bf5	-0.1937712
145	0xbeafa1d0	-0.3430314
146	0xbed9853c	-0.42484462
147	0x3d1e1bb1	0.038600627
148	0xbe413b72	-0.18870333
149	0xbe9e6c31	-0.30941918
150	0x3c51eb0a	0.012812385
151	0x3dec0116	0.115236446
152	0x3e5a91f7	0.21344744
153	0xbe7b1f92	-0.24523762
154	0xbe6cd36d	-0.23127528
155	0x3e7600ce	0.24023744
156	0x3d9151ed	0.07095704
157	0x3b86bda0	0.0041119605
158	0xbcf5c47d	-0.03000092
159	0xbb9c13ca	-0.004763101
160	0xbd0a31c3	-0.033738863
161	0xbe837e36	-0.2568223
162	0x3e048960	0.1294303
163	0xbe150152	-0.14551285
164	0xbd15d03a	-0.036575533
165	0xbd6e3617	-0.058157053
166	0xbe61528b	-0.22004144
167	0xbd0b4c4f	-0.03400832
168	0xbe73bfc8	-0.23803627
169	0x3eb410e0	0.35169125
170	0x3eea3e6e	0.45750755
171	0xbe27be32	-0.16381148
172	0xbba3576e	-0.0049847877
173	0x3ac19675	0.0014769571
174	0xbe782715	-0.24233659
175	0x3d7b4783	0.061347496
176	0x3b65dd93	0.0035074695
177	0x3c5d4093	0.013504165
178	0xbcff626b	-0.031174859
179	0x3e2c4610	0.16823602
180	0x3e9bcc64	0.30429375
181	0xbc82dfbf	-0.015975831
182	0x3e8b1cf0	0.27170515
183	0xbe63acca	-0.22233883
184	0xbc5815a0	-0.01318875
185	0x3e5f900c	0.21832293
186	0xbde33f12	-0.11096014
187	0xbc889cbc	-0.0166763
188	0xbda2bb8c	-0.07945928
189	0xbdb6694d	-0.08906803
190	0xbd3e5609	-0.04646877
191	0xbe23479f	-0.1594529
192	0xbe66b475	-0.22529776
193	0x3e6fa6a8	0.23403418
194	0xbece38b2	-0.4027763
195	0x3d228660	0.03967893
196	0xbe2d782f	-0.16940378
197	0xbe36110e	-0.17779943
198	0x3e3e3266	0.18573913
199	0xbe0eb9b6	-0.1393803
200	0xbe1316ef	-0.14364217
201	0xbecbc08e	-0.39795345
202	0x3d2a4b59	0.041575763
203	0x3e6b87b8	0.23000991
204	0x3e9ba1e4	0.3039695
205	0xbe4f0485	-0.20216568
206	0x3d383833	0.04497547
207	0xbd39fe11	-0.045408312
208	0xbde8a4f4	-0.11359587
209	0xbbeef1f5	-0.007292027
210	0x3e419820	0.18905687
211	0xbe2952c6	-0.16535482
212	0xbe68a7a1	-0.22720195
213	0x3d4aea10	0.049539626
214	0x3e9c204e	0.30493397
215	0x3e49a492	0.19691685
216	0xbe385d65	-0.18004377
217	0x3d089513	0.033345293
218	0x3ddcdd76	0.10784428
219	0xbcbf9a05	-0.023388872
220	0xbd129dc5	-0.035794992
221	0x3df73f18	0.12072581
222	0x3e5b9ea0	0.2144723
223	0x3d525230	0.05134791
224	0xbddb130c	-0.10696992
225	0xbd247d2f	-0.040158447
226	0xbe8d50e4	-0.27600777
227	0xbe94a60b	-0.2903293
228	0xbee44744	-0.4458562
229	0xbe0768cd	-0.13223572
230	0x3dfe7a47	0.12425666
231	0x3e59a58c	0.21254557
232	0x3df14988	0.11781603
233	0x3e869136	0.26282662
234	0x3e961cf2	0.2931896
235	0x3e5252ad	0.20539351
236	0xbdaf1ae8	-0.08550054
237	0x3df8308d	0.12118635
238	0x3ea518b7	0.32245418
239	0xbe54d07a	-0.20782652
240	0x3e71fef4	0.23632413
241	0x3dbfb9cc	0.0936161
242	0xbd870c73	-0.065941714
243	0x3e36bead	0.17846175
244	0xbe2bb1da	-0.16767064
245	0xbe29c11a	-0.16577569
246	0xbe5d12ee	-0.21589252
247	0x3ac2b12f	0.001485383
248	0x3e0eef7d	0.13958545
249	0x3ba5da38	0.005061414
250	0xbe3e6d61	-0.18596412
251	0xbe8b8f26	-0.2725765
252	0xbd66df20	-0.056365132
253	0xbcc36123	-0.02385003
254	0x3e88f62b	0.2675031
255	0xbe74685f	-0.2386794

network.4.bias f4 [6]
0	0xbc69a5c7	-0.014260716
1	0x3d888588	0.06666094
2	0x3d02f536	0.031972133
3	0x3d1bbf50	0.038024247
4	0xbd4a66d8	-0.049414486
5	0xbd53f47c	-0.05174683
