dqn.pt (torch, 77600 bytes, 6 tensors)

network.0.weight f4 [128, 11]
00000000: daa9 1a3e 5780 79bd a991 2dbe 3baf bdbd
00000010: e8ae 263f 1c7d 4b3e e133 5dbe 0683 d43e
00000020: ff47 cf3e 0486 193f 4bcb c4bd 82e1 553f
00000030: e814 b5bc a575 efbd d0bf 843e c3f7 603e
00000040: c3cb 29bd cb27 07bd 42d0 6c3f 7029 3a3e
00000050: bdfd 5c3f 173b e8bd 6537 483e 5064 61bd
00000060: 3026 17be 7521 743d 33f9 c93e f124 afbd
00000070: 5151 c03e 2b06 063e 820b f73e ad27 de3e
00000080: bc36 8bbe 56ec 4a3e a0ee c0bd 959d 84be
00000090: abed 14bf 789e 77be 1a04 583e 4a1b ecbe
000000a0: 5046 21be 491c 52be 551f 0b3f 6d35 713d
000000b0: cb16 9f3e 5a5a 3abe 3fe7 d53e 8124 9bbf
000000c0: ba24 7bbe c69d b03e 6cd5 823e 05ee 773e
000000d0: 44cf d53e 7ebb 0e3e 393c 69be 0bbb 823e
000000e0: 8d84 913e 2471 083e e9c5 923d 9113 c5bd
000000f0: e89e 03bf 1773 5e3f 7ce9 af3e 4843 d3be
00000100: cb85 0d3e b78a 92bd aa2e b4be ef47 52be
00000110: aa3a 623f 31d8 4d3e 563e c13e 0d5c 8ebe
00000120: 7d78 453e 541c ad3e e9d9 c63e 4a6b 263c
00000130: 1cae 78be d074 df3e 4097 7ebd e90d 0fbf
00000140: 7660 693f 9c50 143e ac60 203e b749 3f3f
00000150: 358a a33d fc63 963e 9bdc c73e 7607 a93e
00000160: d91b cf3e 334d 0ebf ac0c 003f dae1 3abf
00000170: 9134 bb3e c243 553e 895f 29be a396 5fbf
00000180: c612 da3e 9bba 6e3e 6743 50be 70a6 5b3f
00000190: b871 9ebe 9505 013f 9db5 dfbd 5f7b f939
000001a0: b782 133e 6180 b03e 72d2 f83e 2c5c 813e
000001b0: f07c c0be 1b91 043f 7cc6 0f3f 1415 1d3e
000001c0: dc1e 713d 2d6d fc3e 2867 4d3f d605 acbe
000001d0: 7f4c a2be 7f2b 833f 86e4 383f 24c4 843e
000001e0: 4a94 de3d 57b2 933f 167a 0b3f 4946 37be
000001f0: 8018 f7be d819 ffbe c117 003f 7e69 7dbf
00000200: 08b3 acbd ec13 e0bd 799b 04bd f902 f33e
00000210: ba27 16bd b4fe 9fbe 5f69 debc fd08 123e
00000220: 6ab4 5c3e f5f1 213e 314a 913e a284 0abf
00000230: 8b73 4c3e f1f4 9e3e ff24 3a3f ab32 64bd
00000240: 8af8 31bf 5088 f53a 90ba 07bd 35f7 2d3e
00000250: 64a5 4f3f 967d 4f3f 82c3 5d3e 71f2 c53e
00000260: 5e24 663e 9fa8 073f 118e 0fbd 9f23 793f
00000270: 348e a3bc 076e 02bf e132 2cbe f053 f03e
00000280: c4aa ebbe 6dd1 9e3e eaa4 573e 2be7 373d
00000290: 45d7 7dbe a249 b53e ba7f dbbd c176 053f
000002a0: 0d3f 5cbe 76ce aebe 5e34 27be 1d74 173f
000002b0: e19f a93e 6cfa d93e d08f f33c 3758 383f
000002c0: b250 e63d 0c1a 10bd 68bd 27be 0a4c be3e
000002d0: 9087 97be f4c5 a73e f9b5 5abe 7122 e03d
000002e0: 7453 81be 6a38 5e3f e1ba 35bf 503f cbbb
000002f0: 75fa 113f 4790 04bf c906 813e 8cd2 2a3f
00000300: 6db9 50bf 83e7 8d3d f1bd 3ebe 72cb c33e
00000310: b910 d2bc 650f 84be 1130 893e 5a3b 30be
00000320: 4658 463e 3507 81be e06a d5be 3216 853f
00000330: 6b83 5d3e cc73 c73e 02c7 fdbd 0df7 0cbf
00000340: f795 93be f013 a63d 7cf2 a03d 9708 b53c
00000350: b821 093d d2fa 463f 4269 2abf de27 393f
00000360: 0706 0a3f 9995 5dbd ccef 253f c313 50be
00000370: f196 1a3f 353f 0a3f 0bfb e73e f1e0 0fbf
00000380: 65be 6e3f c22a 22bd 442e 80bf e1bd c43e
00000390: 609c 433e e43d 913e 736f ed3e 1126 50bf
000003a0: 4ebd 6cbe 3c13 3ebd 7a83 d6be f9bc f2bd
000003b0: b1a3 e5be 88a3 1a3f fe45 2e3f a540 233d
000003c0: 5f42 6cbd 229a b13e 7911 bbbe 9a53 a6be
000003d0: 407d 38bd cd38 823d 4346 723d 6807 05bb
000003e0: 8e1f 003f 83b3 7c3c 3e41 403e c9f1 fa3e
000003f0: 877f 7e3e 699c 923e 87a5 d5be 5ef1 093f
0.15103856 -0.06091341 -0.16950096 -0.09261938 0.65110636 0.19871944 -0.21601821 0.41506213
0.40484616 0.59970117 -0.096090876 0.8354722 -0.022104695 -0.11692361 0.2592759 0.21969514
-0.041454088 -0.032996934 0.92505276 0.1817987 0.86324674 -0.113393955 0.19552381 -0.055027306
-0.14760661 0.05960222 0.39447936 -0.08551968 0.3756204 0.1308829 0.48250967 0.43389645
-0.27190197 0.19816718 -0.09420514 -0.25901476 -0.5817515 -0.24181545 0.21095315 -0.4611457
-0.15749478 -0.20518602 0.54344684 0.05888884 0.31072077 -0.18198529 0.4177799 -1.2120515
-0.24525729 0.34495372 0.25553453 0.24211891 0.41759694 0.1393871 -0.2277688 0.25533327
0.2842144 0.1332441 0.071666546 -0.096228726 -0.51414347 0.86894363 0.34357822 -0.4126227
0.13820569 -0.07155364 -0.35191852 -0.20535253 0.88370764 0.20102002 0.3774287 -0.27804604
0.19284244 0.33810675 0.38838127 0.010157416 -0.24285167 0.43643808 -0.062155962 -0.558806
0.9116281 0.14483875 0.15661877 0.74721855 0.07985345 0.29373157 0.39035496 0.33013505
0.40450934 -0.55586547 0.50019336 -0.7300087 0.36563542 0.20826629 -0.1654035 -0.8733923
0.42592448 0.23313372 -0.20338212 0.8580084 -0.30946136 0.5039914 -0.10923312 0.000475849
0.14405333 0.34472945 0.48598057 0.25265634 -0.3759532 0.51783913 0.5616224 0.15340072
0.05886732 0.49302045 0.8023553 -0.33598202 -0.31698987 1.0247649 0.722237 0.25930893
0.10868128 1.15388 0.54483163 -0.17897905 -0.4826088 -0.49824405 0.50036246 -0.98989093
-0.08432585 -0.109413 -0.032374833 0.47463205 -0.03665898 -0.3124901 -0.027149854 0.14261241
0.21553198 0.15814956 0.28376916 -0.5410863 0.19965951 0.3104625 0.727127 -0.055712383
-0.69519866 0.0018732641 -0.033136904 0.16988833 0.8111174 0.81051004 0.21656612 0.3866153
0.2247481 0.5299167 -0.035047594 0.9731998 -0.019965269 -0.5094914 -0.16816284 0.4693904
-0.4602872 0.31019154 0.21059003 0.044898193 -0.2478915 0.3540774 -0.10717721 0.5213433
-0.21508427 -0.34141892 -0.1632857 0.5916155 0.3312979 0.4257387 0.029731661 0.72009605
0.1124586 -0.03518109 -0.16380847 0.37167388 -0.29595613 0.32768214 -0.2135848 0.10944069
-0.25258982 0.8680483 -0.7098828 -0.006202616 0.5702279 -0.5178265 0.2520049 0.6672752
-0.8153294 0.06928923 -0.18627144 0.38241154 -0.02564274 -0.25792995 0.26794484 -0.17210141
0.19369611 -0.2520081 -0.41683102 1.0397398 0.21632163 0.38955534 -0.12391473 -0.5506447
-0.28825352 0.081092715 0.0785875 0.022098823 0.033479422 0.7772647 -0.6656686 0.7232646
0.53915447 -0.054097746 0.64819026 -0.20320038 0.6038657 0.54002696 0.45308718 -0.5620261
0.9325927 -0.03959156 -1.0014119 0.38426116 0.19102621 0.2836753 0.46374092 -0.81308085
-0.23119089 -0.046405062 -0.41897184 -0.1185245 -0.4485145 0.6040578 0.6807555 0.03985657
-0.057680484 0.34687907 -0.36536768 -0.32485658 -0.045041323 0.0635849 0.059149038 -0.0020298604
0.5004815 0.015423658 0.18774888 0.49012592 0.24853335 0.28634956 -0.4172785 0.5388392

network.0.bias f4 [128]
00000000: b799 8f3d f4f3 653d 2520 e33d 4632 be3d
00000010: 01a3 a03d a142 053e 564f c93d 9869 c63d
00000020: 5043 883d 21ae c53d 510d 303b 1702 9c3d
00000030: adbe c73d ebb3 a03d 3035 af3d 6b77 e13d
00000040: 67e4 9d3c 4215 e2bd 781c 993d e49f f03d
00000050: 9562 ab3d 6367 ed3d 56e4 fd3d 5f6e b83d
00000060: 148a 053e ac4e 7e3d 8351 373d 68cf ae3d
00000070: d917 813d 2f34 9a3d cd06 cb3d 23c6 b93d
00000080: 1501 e53d 966c fc3d 1cb0 1a3d 2247 543d
00000090: c93d cc3d 0235 ff3d 73a1 b03d 80d1 ed3d
000000a0: 96d5 03ba 940d 833d a342 173e 608b 1b3e
000000b0: 7c87 6f3d 8726 aa3d 62a7 b83d 7c42 a8bc
000000c0: 84fe 423e 586a fa3d d895 043e 106b 023e
000000d0: d9cc 40bd 14b5 8a3d a75a c03d 62f4 d23d
000000e0: e21b 883c 379e 8f3d 5def 8b3d e9f4 073e
000000f0: 81bf 853d 5a73 ef3d 72a7 243e 2e1d 073e
00000100: 5fbb a43d ad0b 28bd 530d cf3d 2fcb 083e
00000110: 8b9d 903d 8bc0 e33d 6e15 103d 3a7a ea3d
00000120: c057 113e 90ad 073e 307f 063e ec0c a13d
00000130: b5a5 dd3d c563 253d 9eb9 be3d 7b8c eb3d
00000140: d167 983d c2c1 ac3d de9c a83d 3736 f63d
00000150: 3b83 21bd b5ac 193e 790a d43d b63b 483c
00000160: 5452 033e 1ec7 d73d 9940 003e 0000 0000
00000170: 5525 1c3e ab06 843d a3da f73d 81fb b93d
00000180: 0047 bc3c c5c7 f23d d35f e63d f691 273d
00000190: e41d de3d 1aeb 113e 9705 983d 5ca6 ad3d
000001a0: f08d a83d 2613 86bb e10d de3d e864 bd3d
000001b0: 3956 163e b9bd e23d 7af0 a03c 3c30 e43d
000001c0: 42c5 cd3d df2f 1a3e a817 ba3d 589e a43d
000001d0: 535d c83c 1cbe e43d d421 023e 6c05 bf3d
000001e0: d369 e93d 6f9e 0bbc 563c 173e bfff fb3d
000001f0: 889c 1a3e fe32 9a3d 8003 283e 7913 e23d
0.07011741 0.056140855 0.110901155 0.09286933 0.078435905 0.13013698 0.09829585 0.09688109
0.06653464 0.09652353 0.0026863406 0.07617586 0.097531654 0.07846817 0.085550666 0.11009105
0.01927395 -0.11039211 0.07476133 0.11749247 0.083684124 0.11591985 0.12397067 0.090054266
0.13040954 0.062086746 0.04475547 0.08535653 0.06303377 0.075294845 0.099134065 0.09070995
0.11181847 0.123253986 0.037765607 0.05182565 0.09972722 0.12461282 0.08624544 0.116122246
-0.000502908 0.06399074 0.14771514 0.15189886 0.058478817 0.0830813 0.09016301 -0.020539515
0.19042403 0.12227315 0.12947786 0.12736154 -0.047070358 0.06772819 0.093922906 0.103005186
0.016614858 0.07012599 0.06832764 0.1327702 0.06530667 0.116919234 0.160795 0.13194725
0.08043551 -0.04102676 0.10109963 0.13358758 0.07061299 0.11120709 0.035176687 0.11449094
0.1419363 0.13249803 0.13134456 0.07863793 0.10822622 0.04037835 0.093127474 0.11501404
0.074416764 0.08435394 0.08233045 0.120220594 -0.03943179 0.15007289 0.1035356 0.012221267
0.12824374 0.105360255 0.12524642 0.0 0.15248616 0.06446584 0.121022485 0.09081174
0.022983074 0.11854509 0.11248746 0.040910684 0.10845545 0.1424984 0.07422941 0.08478996
0.082301974 -0.004091638 0.10842491 0.09247762 0.14681329 0.11071343 0.019645918 0.111420125
0.100473896 0.15057324 0.09086543 0.08038014 0.024458563 0.11169073 0.12708217 0.09327206
0.113971375 -0.00852166 0.1476911 0.12304639 0.15098774 0.07529257 0.16407585 0.1103887

network.2.weight f4 [128, 128]
00000000: d53a 933e 29bc 07bd e41e 54bc 289c db3d
00000010: 5ee4 fdbd 0d30 06be a1eb 84be 18b8 ef3d
00000020: f537 febb cc9d b9bd 4192 fcbc 0214 b43c
00000030: eaf5 e7bb a415 143c a6f4 463b 49fa 8c3d
00000040: a995 c13d 9afc c03d d781 e8bc 12f0 de3c
00000050: 76fd 61bd acb9 37be 0759 ed3d d3f1 0c3e
00000060: 6000 193e 918f 12be 9b8e 073e 1a5b 593d
00000070: 1dc1 663d 8695 abbc 13b6 a63d bf8f 16be
00000080: 2aab 0a3c 48ba 113e 5b7f 483e 38fe a03c
00000090: 5ea5 90bd 2ad4 613e 0c66 11be 193b bd3d
000000a0: d591 353d 74d4 37bd c5d9 23bd 06e7 3f3c
000000b0: 90a9 2a3e 6c27 283e 7041 8b3e b9e1 55bd
000000c0: f38c cf3d 5256 413d 2ac0 8ebd 5736 083e
000000d0: 8ca4 3bbc 2ea4 f8bd fcf5 853e cfda 513e
000000e0: f4df a73d 8cfa 423e bcdf 403e fa78 103e
000000f0: 4786 433d 5aeb 693e 79ec 93bd 918a 91bd
00000100: 9c09 253e d10b 0bbe c1d2 9abc 60e6 5a3e
00000110: 6b4d 133c d06f a9bd a380 9a3e 410d 4e3e
00000120: 9a12 9e3c c0b8 b2bd c0f0 1b3d 7c9e 053d
00000130: 2b9e e03d 9319 33bc b913 6abe 04f0 f3bd
00000140: 2c0c 153d 6100 983d 7134 cd3d 1d79 cdbd
00000150: a9db 643c a861 833d 38c1 2cbe 01e5 21be
00000160: 4294 6cbe f43b 80bd ad22 033e 4266 a5bd
00000170: 7b9d a5bd 2a39 893e 997b 4bbe 7a44 0e3e
00000180: 0c24 48bd 42f6 5d3e 95d4 5a3c 7c8a 953e
00000190: 1e22 1e3d 65b8 b7bc 04ce efbd 6b2a 7fbe
000001a0: 3dfd 6f3e 0418 f53b c217 9b3d 4f1d be3d
000001b0: fa8e a43e d601 c63d 97f4 d7bd 130f a03d
000001c0: 15f8 2e3e 992f 503e 86e0 983e c819 ee3d
000001d0: 4c44 4f3e 1616 ae3e 21b1 d63c b0eb 753d
000001e0: bb97 3e3e 7622 11be 4486 163e a27b d13e
000001f0: 1346 9bbe 582f 293e a440 58be 5169 09be
00000200: 99c5 593d ffd6 2f3e 5657 dfbd 9707 69bd
00000210: d614 4a3e ccec 7bbd b3ad 02be 3211 4c3e
00000220: ceb1 533e 1743 62bd be51 913d 5574 133d
00000230: 2a27 1abe eacd 803e 2eab 81bd c5a5 4abd
00000240: c173 323e c9c5 853e 0ca5 0cbe 8880 98bc
00000250: b0de 71be 1536 5d3e 8544 f63d af46 7e3e
00000260: 3d7e 0ebe ee86 dc3c bd6c 983d 6949 f23c
00000270: 1039 c93d 06b5 8f3d 7c45 8abe 0861 663d
00000280: 8e6b 023e f5b0 e03d f594 c83c d555 abbd
00000290: 5ea0 903c eb0a 813e 539b 61be b59f 543b
000002a0: ae9a b73d ad0e 663c db08 a03e 84c5 b23d
000002b0: f0f1 abbe 0656 413e fdeb c5bc 9585 63bc
000002c0: d136 5b3d 5762 b8bb ce0c 9f3d 4242 b0bc
000002d0: 2fdc 06be 55c1 39be 99c3 bd3d 6498 26be
000002e0: ce01 b13d ea39 29be 68e1 a13c 63e0 62be
000002f0: fda7 933e aa1b 8d3e 9e28 5bbe 2722 3a3e
00000300: bae1 103e 82ff 063e b09f 6c3d 3611 183e
00000310: 63c4 8cbd f9e4 fc3d ef1f b0bd 6743 013c
00000320: 22b2 083e 3a44 c2bc 61ec 0d3e a3ad 83bd
00000330: e464 833d 978a 2d3e 84f4 eb3d ed33 5f3d
00000340: 80f3 d03d aaa7 a3bd 7a55 c5bd b2f9 303b
00000350: 252a b7bd e520 bf3d 7b8e 65be 132d b9be
00000360: 8dc5 f43b adc4 c7bd ff61 503e f278 ba3c
00000370: e1cc 683c c872 723e ca87 653e 90ee 84bd
00000380: 5508 2a3e 7439 643e 2235 42be 54c2 373e
00000390: c2ab 1d3e f81f f23d 1445 ec3d 4896 1c3e
000003a0: e06f 60be 6b74 2b3e 0e65 263d e574 4f3e
000003b0: 2443 dfbd cc36 e13d 10e4 4e3e c7cf 483e
000003c0: 504d 65be 60de 4bbe c19f fb3c 3f0b 2d3e
000003d0: ddf2 73bd fe92 b43d 9f60 65be cbc8 0e3d
000003e0: 2f22 c5bd 229f 9ebe fc8d b93b f8b7 4dbe
000003f0: 5443 4bbe 109c 21be d9ec 97bd 8726 e13d
0.28755823 -0.033138428 -0.012946818 0.10723144 -0.12397073 -0.13104267 -0.2596102 0.11705035
-0.0077581354 -0.090633005 -0.030831458 0.021982197 -0.007078876 0.009038363 0.0030358224 0.068836756
0.094523735 0.0942318 -0.028382225 0.027214084 -0.05517336 -0.17941922 0.11589246 0.13764124
0.1494155 -0.14312579 0.13237993 0.053065397 0.05633651 -0.020945322 0.08140197 -0.14703272
0.00846366 0.14231217 0.19579832 0.019652471 -0.07062791 0.2205359 -0.14199084 0.092397876
0.04432853 -0.044880345 -0.040002603 0.011712795 0.16666245 0.16421288 0.27198362 -0.05221722
0.10134306 0.047201462 -0.06970246 0.13301979 -0.011452805 -0.1214069 0.26164234 0.20493625
0.081970125 0.19040889 0.18835348 0.14108649 0.04773548 0.22843686 -0.07222838 -0.071065076
0.16116947 -0.13578726 -0.018899323 0.21376944 0.008990626 -0.0827328 0.30176267 0.20122243
0.01929598 -0.087266445 0.038071394 0.032621846 0.10967668 -0.01093139 -0.22859086 -0.11911014
0.03638856 0.07421947 0.10019768 -0.10032866 0.013968387 0.06415111 -0.16870582 -0.15810014
-0.23103431 -0.06261435 0.12806197 -0.08076145 -0.08086678 0.26801425 -0.19871368 0.13893309
-0.048862502 0.21675971 0.013356348 0.29207218 0.038606755 -0.022426793 -0.11709216 -0.24918525
0.23436446 0.0074796695 0.07572891 0.09282934 0.32140332 0.09668319 -0.10544699 0.07815375
0.17086823 0.20330657 0.29858798 0.11626011 0.20240897 0.34001225 0.026207509 0.060039222
0.18612568 -0.14173302 0.14699656 0.40914637 -0.303269 0.16521966 -0.21118408 -0.13419081
0.05316696 0.17171858 -0.1090533 -0.056892004 0.19734511 -0.061505124 -0.12761573 0.19928434
0.20673296 -0.055239763 0.07095669 0.035999615 -0.15054002 0.251571 -0.06331478 -0.049474496
0.17426969 0.2612746 -0.13734835 -0.018615976 -0.23620105 0.21602662 0.12024788 0.24831651
-0.13915344 0.026919808 0.07442615 0.02957602 0.09825337 0.07016949 -0.27006137 0.05624488
0.12736341 0.10971252 0.02448509 -0.083659805 0.017654594 0.25203642 -0.22031908 0.0032443826
0.0896505 0.014041585 0.31256756 0.08729079 -0.3358302 0.18880472 -0.02416038 -0.013886829
0.053519074 -0.0056269574 0.07766114 -0.02151597 -0.13169931 -0.18140157 0.09265823 -0.1626907
0.08642922 -0.16525999 0.019760802 -0.22155909 0.28839102 0.27560169 -0.21402213 0.1817709
0.14148608 0.13183406 0.057769477 0.14850315 -0.06873395 0.123483606 -0.08599841 0.007889605
0.13349202 -0.023714174 0.13859703 -0.06429603 0.06415728 0.16947399 0.11521247 0.05449288
0.10202694 -0.07990964 -0.09635444 0.0027004299 -0.08943585 0.09332446 -0.22417633 -0.361672
0.007469839 -0.0975431 0.20349883 0.02276275 0.014209003 0.23676598 0.2241508 -0.06490815
0.16604741 0.22287542 -0.18965581 0.17945224 0.15397552 0.11822504 0.11536613 0.15291703
-0.21917677 0.16743629 0.040623717 0.20259435 -0.10901478 0.1099678 0.20204186 0.19610511
-0.22392774 -0.19909048 0.030715825 0.16898821 -0.059557784 0.08817099 -0.2240014 0.03485946
-0.09625661 -0.30980784 0.005662678 -0.2008971 -0.19849902 -0.1578219 -0.07418222 0.10993677

network.2.bias f4 [128]
00000000: 6606 953d 8d35 583d 7953 f53d f6f7 ddbc
00000010: 592c 61bd 1542 7c3d a3de a43d 0cc2 c33d
00000020: 9b1c 753d 90eb 3abc a026 883d b79e 653d
00000030: dff7 cd3d d1bb 6e3d b860 d53c 98a9 0c3d
00000040: d9a5 32bc 73bc 45bc 447d 7f3d c01e 3d3b
00000050: 36c6 523d 0868 903d eb0f 4bbc d821 683c
00000060: 3462 523d 56af 593d 14a8 ac3b a87c a53d
00000070: 6880 533d a9ed 9e3d 90ea 6a3d 5b26 613d
00000080: 5dad db3d 1dd6 ee3d b0b6 233d 2c7e 8e3d
00000090: c412 4bbc fc22 923d ee9f d7ba 866a d2bb
000000a0: 0000 0000 5942 b53d f827 4f3d 9dd2 643d
000000b0: 00d6 5c3d 0dfa 4c3d f0da 76bc 83e6 633d
000000c0: ce8b c23d 3216 69bd 6b3e 34bc 9a65 b5bc
000000d0: 46df 8f3d 0000 0000 d56f 7a3d 3bfe ab3d
000000e0: 489d b33d 9e59 b53d fe05 8b3d 0fc5 803d
000000f0: 3ed1 e93c a393 6a3d 0000 0000 47b9 f1bb
00000100: 5239 9f3d 5822 633d 8f98 8abb 0ff3 d5bc
00000110: a8a0 8e3d 476b ba3d 255d c43d ca57 bcbc
00000120: 87f8 6e3d 0000 0000 5ede 8c3d 7ddd 6a3d
00000130: b228 ee3c fcd3 f93d fbfb 0bbd 8fc2 e23d
00000140: e8a9 803c f8b2 c2b8 b022 e13d 2a4d 2d3b
00000150: c27b 383d 7fc9 4e3d b583 d6bc 753a 633d
00000160: 48d4 a73d fdcf 5dbc 4d6c bb3d 6a83 bc3d
00000170: 0f98 623d 7187 db3b 0ccd 823c f612 773d
00000180: 58f7 c83c 43fd b83d a134 8e3d 3b60 783d
00000190: 07b6 a03d f2cc 873d a6d6 dc3d b8e5 783d
000001a0: d589 c43d 440c e13d 38fc 5a3d bbe6 73bc
000001b0: 88f4 8a3d bca4 07bc 4cc3 a63d 1457 a83d
000001c0: 7bc0 3a3d 8fd2 79bc d8e3 5c3d 895d 8b3d
000001d0: 64f4 f7bc f90a 903d eecb 94bc 84c5 7e3d
000001e0: 0000 0000 7cb4 623d 0000 0000 b011 a6bc
000001f0: a69b e13d 9894 db3d 9a57 c7bb a963 9abc
0.07276611 0.052785445 0.11978812 -0.027095776 -0.054973934 0.06158646 0.08050277 0.09558496
0.059841733 -0.011408702 0.06647992 0.056059565 0.10057043 0.058284584 0.026047096 0.034341425
-0.010903799 -0.012068856 0.062375322 0.002885744 0.05145856 0.070510924 -0.012393932 0.014168225
0.051363185 0.05314573 0.00526906 0.08080417 0.05163613 0.07760174 0.057352602 0.05496822
0.10726426 0.116619326 0.039969146 0.06957659 -0.012394611 0.07135579 -0.0016450861 -0.00642139
0.0 0.088505454 0.050575227 0.05586492 0.053915024 0.050043155 -0.015066847 0.055639755
0.09499322 -0.056905933 -0.01100121 -0.022143174 0.07025008 0.0 0.061141808 0.083981
0.087702334 0.08854984 0.06788252 0.06287586 0.028542157 0.057269704 0.0 -0.007376823
0.07774605 0.055452675 -0.004229612 -0.026116876 0.069642365 0.09102493 0.095880784 -0.02299108
0.058342483 0.0 0.06878351 0.057340134 0.02907214 0.12198636 -0.034175854 0.11072265
0.015706018 -9.2839764e-05 0.10992944 0.0026443698 0.0450399 0.05048513 -0.02618585 0.05547567
0.08194786 -0.013538358 0.09151516 0.09204753 0.055320796 0.0066994955 0.015966915 0.060320817
0.024532005 0.09032681 0.06943632 0.060638648 0.07847219 0.06630887 0.107831284 0.060765952
0.09596602 0.109886676 0.05346319 -0.014886553 0.06784922 -0.008279022 0.08142719 0.08219734
0.04559372 -0.015247955 0.053928226 0.0680495 -0.030267902 0.07033343 -0.018163648 0.062200084
0.0 0.055347905 0.0 -0.020272106 0.11016016 0.107217014 -0.006083441 -0.01884635

network.4.weight f4 [6, 128]
00000000: eea3 843e 11e3 0f3e f534 7b3e dc76 0c3e
00000010: 3dfd 70bd fd1c b3be a671 333e 8f05 a1bd
00000020: 0a4c 153d 20f5 bc3e c371 e43c 55dc 993e
00000030: 3d49 d43d 530e 8bbd 1674 90be 083b 3d3d
00000040: 9a54 47be 6731 393e a8c0 623d 82bd 4dbe
00000050: 9031 5e3b b842 3bbe d6c7 893d a49b 90be
00000060: 1187 25be 610c 17bd 02a4 48bd c4cc 8f3e
00000070: 2637 b8be 7c01 5c3e 8217 6abe 9052 e8bd
00000080: c597 783e 9e67 913e f869 adbc 7914 ff3c
00000090: c51b cabd 2bfa dcbd 2c9a 3bbe e39d 96bd
000000a0: 1165 c43c b482 bbbd 9c7b 4ebd 5c44 4ebc
000000b0: 97da 69be a49b 013d e8c1 313d fce3 183e
000000c0: 3ee4 573e a4b9 8dbd f1ef 0b3d 6381 3bbd
000000d0: 2a82 a33d 11b4 66bd fb32 3abe e32a 8ebe
000000e0: 8869 aebe 85b3 1ebe a3e4 813d 0063 4cbd
000000f0: c6a6 81be f90e 63be e072 033e 864d e53d
00000100: 61b1 a43e fed2 173e 350b 953c 51d5 8abe
00000110: 46ea 443e 1f4c b3bd e152 863e 3184 17be
00000120: 0f36 abbd d932 99bc 0b7a 57bd d69e c3be
00000130: 24a9 b83e c1bf 28bd cb10 b03d 76ed 313e
00000140: 1111 a53e 3ddd 3ebc ac77 e83d 9334 9fbd
00000150: c515 84be fd26 993b 5c1d f83c 4e65 053e
00000160: f687 88bd decf d0bc d2b7 47be bfc6 1f3e
00000170: 4203 ff3c e0e1 9fbd ae0b 6e3c c552 a73d
00000180: a7b6 78be 0f96 dc3a 8b61 03be 0193 3ebe
00000190: 859b c4be 2162 253e 489e 8a3e 4fdf 3ebe
000001a0: 02dd a0be 03c2 6a3e 72d1 36be 4020 333e
000001b0: c4a0 0ebd 2ee4 17bd 3ac1 50be 4356 3d3e
000001c0: 6c3d 4bbe c07b c3bd bb5b 293c 1a20 12be
000001d0: cf4b c5bc 504b 6bbe 2dc7 34bd 4dda 9e3e
000001e0: f16c 0f3c 5a53 ebbc a068 eb3d c2f0 10be
000001f0: 1dda 9abc 97e0 b93e 42a3 edbc 55c1 e03b
00000200: 1de4 82be 5f0c 08bd ef15 923e b9ec 563e
00000210: daaa 433d 30b4 cbbd 6b34 a13e 0f84 5e3e
00000220: c112 993d b51b 35be daab 65be 09ba 26bc
00000230: 8579 963e ff75 5bbe f61f ecbd 833d 3c3d
00000240: 1d25 0b3e 5f20 423e 660a 243e 4565 623d
00000250: 3295 49bc 3062 e5bd cb29 49be 27b4 0dbd
00000260: 53e5 8dbc 6ac2 dabd a88f d5be c97a 7bbe
00000270: 5bfe 5dbe 19f8 a3bd d32c b8bd 95c6 85be
00000280: db90 a23d 1041 42be 22fd 9c3d 715c be3d
00000290: 73f4 473e f5c5 27bd 2050 cc3d 9e7c 7f3e
000002a0: 48b4 4fbe 46bf 51be 33dc 2a3e 990f cc3e
000002b0: 2b6b 8abc 551a 20bd db42 09be b4a9 24be
000002c0: fe0b be3c 5bbb e4be 2b2f 5cbe 8d55 62bb
000002d0: 0044 bcbe 4dbc ad3d 7767 dc3d 7752 573e
000002e0: 85c8 25bd a2d1 0a3d f308 2f3d da32 3ebe
000002f0: 717e 983d f047 da3d ce69 28bd 9c03 803d
00000300: bca5 a83d fdbe 16bd 1a4f 75bd bc4a 2bbe
00000310: 043b c2be d137 a33c 70b0 8a3e 616e e0bc
00000320: 001e 93bd 904a 6cbe 2fca e8be 3843 0b3e
00000330: 9885 febc 2da3 803e 4e72 08bd 9f36 37bd
00000340: ade3 853c 47fd 973d 0ac2 0d3e b191 743c
00000350: 8de7 893d 2f18 23be 5e09 acbe 32c7 143e
00000360: 308a f3bd 3e75 bebb afd5 0c3e 87cb 63be
00000370: 0260 2c3e 5028 93bd 96cd 86be ed49 26be
00000380: 4ff9 2a3d 4878 a8be 2d63 40bd a0ce 003e
00000390: 3729 003d bbf7 3b3e 5556 d0bd d236 a23e
000003a0: 1c90 4d3e 428c 2bbe a84d a7be 510e 79be
000003b0: f4ac ba3d d0fd 1c3c 9aff 543e 9de2 4cbe
000003c0: 013f 82be 5fdb 3e3c d1b3 703e b3c5 2d3e
000003d0: 0b7e 623e 740c 66be 79a3 693e 0cbb 563e
000003e0: 7b22 dd3d 4f3d 933d 509e a1bd ce02 523e
000003f0: aab5 c13d bf15 dc3e adc6 143e 5036 0c3c
0.25906318 0.14051463 0.2453192 0.13717216 -0.058835257 -0.34983054 0.17523822 -0.07862388
0.03644947 0.36905766 0.027886277 0.30050912 0.103655316 -0.067898415 -0.28213567 0.046198875
-0.19465867 0.18085252 0.055359513 -0.20091823 0.0033904053 -0.1828717 0.06727569 -0.28243744
-0.16164805 -0.03687704 -0.048984535 0.2808591 -0.35979575 0.21484941 -0.2286053 -0.113438725
0.24276645 0.28399366 -0.021168694 0.031137692 -0.09868578 -0.10789903 -0.1832053 -0.07354333
0.023973973 -0.09155789 -0.05041085 -0.01258954 -0.22837292 0.03164257 0.043397814 0.14930719
0.21083161 -0.06920174 0.034164373 -0.04577769 0.07983811 -0.05632407 -0.1818351 -0.27767095
-0.3406489 -0.15498169 0.06342437 -0.0498991 -0.2532255 -0.2217368 0.1283679 0.11196427
0.3216658 0.14826581 0.01819382 -0.27115873 0.19229993 -0.08754753 0.26235107 -0.14796521
-0.0835992 -0.018701004 -0.052606624 -0.3820712 0.36066544 -0.041198496 0.08596953 0.1737574
0.32239583 -0.011649427 0.113509506 -0.077736996 -0.2579786 0.004673837 0.030287437 0.13026926
-0.066665575 -0.025489744 -0.19503716 0.1560316 0.031129483 -0.07806754 0.014529152 0.08170084
-0.24288426 0.0016829389 -0.12830178 -0.18610765 -0.38399902 0.16150714 0.27073884 -0.18639873
-0.31418616 0.22925572 -0.17853335 0.17492771 -0.034821287 -0.037082843 -0.2038621 0.18489937
-0.1984765 -0.09545088 0.010336812 -0.14270058 -0.024084 -0.22977948 -0.04413526 0.31025925
0.008754001 -0.028726269 0.11494565 -0.14154342 -0.018902833 0.3630416 -0.029008511 0.0068589845
-0.25564662 -0.033214923 0.2853236 0.2098874 0.04777036 -0.099464774 0.31485304 0.21730064
0.0747428 -0.1768635 -0.22428837 -0.01017619 0.29389587 -0.2143173 -0.115295336 0.0459571
0.13588376 0.18957661 0.16019592 0.05527236 -0.012303637 -0.112003684 -0.19644849 -0.034595635
-0.017321264 -0.10681613 -0.41711164 -0.24558558 -0.2167906 -0.08006305 -0.089929245 -0.2612807
0.07937785 -0.18970132 0.07665469 0.092949755 0.19526844 -0.04096027 0.0997622 0.24949881
-0.20283616 -0.20483121 0.16685562 0.3985565 -0.016896805 -0.039087612 -0.1340441 -0.16080362
0.023199078 -0.4467419 -0.21502368 -0.0034535856 -0.3677063 0.08483181 0.10761922 0.21027552
-0.040474433 0.033891328 0.042733144 -0.18574086 0.07445992 0.10658252 -0.04111653 0.062506884
0.08234736 -0.036803234 -0.05988989 -0.16727728 -0.3793565 0.019924076 0.27087736 -0.027396383
-0.071834564 -0.23075318 -0.45466754 0.1359986 -0.031069562 0.25124493 -0.033312134 -0.044729825
0.016343916 0.07421356 0.13843551 0.014927314 0.06733618 -0.15927194 -0.33600897 0.14529112
-0.118915915 -0.005812316 0.13753389 -0.22245608 0.16833499 -0.071854234 -0.26328725 -0.16239138
0.041741665 -0.32904267 -0.04696958 0.12578821 0.031289306 0.1835622 -0.101727165 0.3168245
0.20074505 -0.16752723 -0.32676435 -0.24321868 0.091150194 0.009581998 0.2080063 -0.20008321
-0.25438693 0.011648982 0.23506095 0.16969948 0.22118394 -0.22465688 0.22816266 0.2096979
0.10797592 0.07189428 -0.07891524 0.20508882 0.09458478 0.4298534 0.14528914 0.008557871

network.4.bias f4 [6]
00000000: 3d09 4f3c 03b3 cc3c ea0b 42bd 9769 143d
00000010: a4df 42bd b844 52bd
0.01263648 0.024987703 -0.047374643 0.03623351 -0.04757656 -0.051335067
