dqn.pt (torch, 78112 bytes, 6 tensors)

network.0.weight f4 [128, 12]
000000 a8 a0 31 3f 96 c9 09 3f dc 34 3a 3e 66 bc 75 bd
       0.69385767 0.5382322 0.18184227 -0.059994124
000010 12 aa 0a 3e 88 d5 94 3d d7 1d 44 bf ef ab a7 bd
       0.13541439 0.0726729 -0.7660803 -0.081870906
000020 6e f0 80 bc f5 fb c2 be c2 a2 34 3e 19 c7 f6 3d
       -0.015739646 -0.38082853 0.17640212 0.120496936
000030 66 9a 69 3e 8c f0 12 be 40 6b cb be 30 3b fc 3e
       0.22812805 -0.14349574 -0.39730263 0.49263906
000040 33 16 07 3f ec 03 80 3e 02 b3 60 3e f6 7b 1f 3d
       0.5276825 0.25002992 0.21943286 0.038936578
000050 1d 1d 23 be e2 09 8d 3f ce 09 ec 3d 3d 61 34 3e
       -0.15929075 1.1018641 0.115253076 0.17615218
000060 58 21 42 3e f7 85 d7 be a3 5a 85 3d f4 17 19 be
       0.18958032 -0.42094395 0.06511428 -0.14950544
000070 88 66 5c 3f 3f 54 1b be 16 68 d5 be f5 61 1c 3f
       0.8609395 -0.15168856 -0.41680974 0.6108697
000080 e1 79 ae be de b4 c2 3d cc 4e 3f be cc 7b 95 3e
       -0.3407736 0.09507154 -0.18682402 0.29196012
000090 92 fb 45 3f 8b 2d cc 3e a3 90 2a be 3c 8a 06 3d
       0.7733699 0.39878497 -0.16656737 0.032846674
0000a0 3d 5b 01 3f 02 7c e0 bd 7e 1a e9 3d ae c4 17 3e
       0.50529844 -0.109611526 0.11382006 0.14821121
0000b0 4d 24 e1 3c bb 19 17 3f a1 0c 84 ba 3e 98 e5 be
       0.02748313 0.59023637 -0.0010074564 -0.44842714
0000c0 26 e3 a9 3e 83 ed 04 bf df c2 d1 be a1 46 21 3d
       0.33181113 -0.51924914 -0.40968987 0.039373998
0000d0 84 16 19 bf d5 c8 ca bc 9f b7 c1 bd 48 a0 95 be
       -0.5979998 -0.024753967 -0.09458851 -0.29223847
0000e0 9e 3b 76 3e be 79 63 3e b5 2f fb 3c b8 59 52 3f
       0.2404618 0.2221441 0.030662397 0.8216815
0000f0 9d b5 20 be 7a e3 35 be 97 24 ad 3a 79 90 0f 3f
       -0.1569428 -0.17762557 0.0013209757 0.5607982
000100 b4 df 87 3f 57 38 5b bc 14 6b 25 3e d9 06 3d bf
       1.0615144 -0.013380132 0.16154128 -0.73838574
000110 21 97 f5 3e 2b 24 cb 3c 1d 79 f0 3d b0 fd 44 bf
       0.47966865 0.02479752 0.117418505 -0.76949596
000120 d7 2e 1e bf ca a1 5b be 6a 09 1a bd bf d4 7b 3f
       -0.6179022 -0.21448436 -0.037606634 0.983715
000130 1a 6c 79 3f 7e 45 01 bd 2d fb 56 3f bc ef e8 3e
       0.97430575 -0.031560414 0.83977014 0.45495403
000140 5c 26 58 be 35 02 a5 3f 97 41 fd be 4e 38 9a be
       -0.21108383 1.2891299 -0.49464104 -0.30121082
000150 77 d3 c4 bd 54 d0 12 bf ef e1 f8 3d f1 e0 a5 3e
       -0.09610646 -0.57349133 0.121524684 0.3239818
000160 c2 32 93 be 39 0a 4b 3e 59 39 32 bf ef 8c 6f be
       -0.28749663 0.19828118 -0.69618756 -0.23393606
000170 40 f6 1f 3f 31 58 5d bd f1 90 a8 be 03 9b 0d 3f
       0.6248512 -0.054039184 -0.32923082 0.55314654
000180 e9 db e4 be ed d3 44 be bf a7 47 3f d2 3f c3 3e
       -0.44699028 -0.19221468 0.77990335 0.3813463
000190 eb 5e aa 3e f6 53 ac 3e 47 f0 c9 3d 85 2b 3b 3d
       0.33275542 0.33657807 0.098602824 0.0456958
0001a0 bb 8b f1 3e 21 a4 e7 3d 9b 0c 16 3e 3d b5 82 be
       0.47176918 0.11310602 0.14653246 -0.255289
0001b0 84 40 d2 bd 9d 8e 81 3e 19 be 20 3e 3b 17 be 3e
       -0.10266212 0.25304118 0.15697517 0.37127098
0001c0 f2 fb 4d bf ed b0 6c 3e 9c f7 07 3e 1e cc 0e 3f
       -0.80462563 0.23114367 0.13278049 0.5578021
0001d0 95 02 50 3f a1 c4 ce be e5 66 bf 3e f5 d9 9f bc
       0.8125394 -0.4038439 0.3738319 -0.01951311
0001e0 03 ae 0d bf 4f d1 71 be 6c ca af be 7f 06 c7 bd
       -0.55343646 -0.23615001 -0.34334123 -0.09718036
0001f0 6e 07 e4 bd 2c 90 12 3f 59 bc 2e 3e 4f e8 2b 3f
       -0.111342296 0.5725124 0.17064036 0.6715135
000200 9c 1d 84 bd 12 cd 3b 3f 25 23 32 3e 7d 6f e7 bd
       -0.0645096 0.7335979 0.17396219 -0.113005616
000210 0c 21 41 3e a5 bf c4 be 5b ac 65 bd 5d 80 81 be
       0.18860263 -0.38427463 -0.056072574 -0.25293246
000220 1e 0b e5 3d ad 8a 0b bf 9b d9 d9 3e cb 20 a7 bc
       0.11183761 -0.5450848 0.42548832 -0.02040138
000230 c2 79 2b 3f de f9 85 3e 2c d4 36 bf 62 87 33 be
       0.6698266 0.26167196 -0.714175 -0.17532113
000240 65 19 2e 3e 8e 70 4e 3f 13 3f c6 3e 37 05 db be
       0.17001875 0.80640495 0.38719997 -0.42777416
000250 fb 0b 0e 3f f2 1a b5 3d 89 25 b0 3e ce 74 88 be
       0.5548703 0.0884303 0.34403637 -0.26651615
000260 90 52 0a 3f 58 d0 cb be 81 fd 1a 3e 02 c9 88 bd
       0.5403223 -0.3980739 0.15135767 -0.06678964
000270 26 53 55 be c5 c1 74 3e bd b4 d4 be 47 72 15 bf
       -0.208325 0.23902042 -0.41544142 -0.583775
000280 20 64 a7 be d0 dd 75 3d 41 83 a5 be 9f e8 22 be
       -0.32693577 0.06002599 -0.323267 -0.1590905
000290 3b f6 96 3d 49 0f 91 3f 98 15 d2 3e a2 4b 33 3e
       0.073711835 1.133279 0.410321 0.1750932
0002a0 76 c6 45 3f c5 b6 a9 be af ce a5 be 9f c6 4d be
       0.7725595 -0.33147255 -0.3238425 -0.20095299
0002b0 21 80 a6 3d b7 cf 3c 3f ea ed 9b 3e 38 93 29 3d
       0.081299074 0.7375445 0.30454952 0.041400164
0002c0 b9 e4 14 3d 39 db 68 3e 73 01 f0 be 64 fd da be
       0.03635094 0.22739877 -0.46876106 -0.42771447
0002d0 fa b3 39 3e 9d cd 9c 3c 5b e1 44 3d 9b 3b b3 bc
       0.18135062 0.019141013 0.04806648 -0.021879008
0002e0 21 2f 01 3f b9 3a 01 bf 76 11 b4 3e f7 65 02 3f
       0.5046254 -0.5048023 0.35169572 0.50936836
0002f0 71 74 45 3e 5e 66 40 3f 1f 86 75 3e 28 e2 cd 3c
       0.192827 0.751562 0.23976944 0.025132254
000300 fe 1b f6 be ac 30 bb 3c 2a 58 cb bc 8c 70 b7 3e
       -0.4806823 0.022850357 -0.024822313 0.35828054
000310 36 cc e5 be fe 67 37 bf aa 6d 9d 3e a2 a1 e4 bd
       -0.44882363 -0.71643054 0.3074773 -0.111636415
000320 7b d4 6b 3e b8 88 1e 3f 2a c3 12 be 38 fd bf 3d
       0.23030274 0.61927366 -0.14332262 0.093744695
000330 69 d3 10 bf d6 b3 b3 3e 5b 88 03 3e c1 f3 0e 3f
       -0.56572586 0.3509814 0.12844984 0.5584069
000340 ce 89 a1 bb 93 09 1c bf 57 a6 20 3e 08 d4 5b 3e
       -0.0049297577 -0.6095211 0.15688454 0.21467602
000350 28 25 19 3f ba f8 3b be f3 60 cb 3e 74 30 25 bf
       0.5982232 -0.183566 0.39722404 -0.6452706
000360 33 5e e9 3e 69 ff bd 3e 13 cb 9a be bb ac 19 3f
       0.4557968 0.37108925 -0.30233058 0.6002919
000370 8d af b4 bd 6f 7d 1e bf 53 d6 de 3d 51 3d 63 be
       -0.08822546 -0.61910146 0.10880723 -0.22191359
000380 57 09 2c 3f 2a 76 b2 3d b7 fe 10 bf 1e cd a2 be
       0.6720175 0.08713944 -0.56638664 -0.31797117
000390 25 c0 0f be e4 9f 0f bf 60 98 d8 3d 98 69 a6 3e
       -0.14038141 -0.5610335 0.10575938 0.32502437
0003a0 d6 cb 0e 3e 22 92 2e be 5a cf bb bd 7a 2d c5 3e
       0.13944945 -0.17047933 -0.091704085 0.38511258
0003b0 6e 52 e9 3e bc 27 28 3f a1 d5 8e be 2e 7d aa be
       0.455707 0.6568563 -0.2789736 -0.3329863
0003c0 de 24 00 bb 4e 31 11 3f 51 0a 6d 3e 2a 14 24 3f
       -0.0019553225 0.5671586 0.23148467 0.6409327
0003d0 d0 f4 77 3e fc c7 04 3f bf 7b 3b 3e ed 64 2c bf
       0.24214482 0.5186765 0.18308924 -0.673415
0003e0 5a 31 b6 be 19 56 35 3e bd 2d 2b bf 21 91 04 3e
       -0.35584527 0.17708625 -0.66866666 0.12945987
0003f0 92 d3 b4 be f0 07 d6 be 62 8b 65 3e 08 9b ea bd
       -0.35317665 -0.4180293 0.22416452 -0.11455351

network.0.bias f4 [128]
000000 c6 ba 44 3d cb 4e e7 3d 34 07 c2 3d f9 7b c9 3d
       0.048029684 0.112943254 0.0947403 0.09838099
000010 6d b1 16 3e fe 86 08 3e ad 62 04 3e a7 78 a1 3b
       0.1471612 0.13332745 0.12928267 0.004927713
000020 60 6e d2 3d ee 33 9b 3d 3e 76 04 3e 7c 69 ea 3d
       0.102749586 0.07578264 0.12935731 0.11445901
000030 0c 65 c8 3d aa 9c 13 3e ee fc cc 3d 73 62 d5 3d
       0.09784898 0.14415231 0.1000918 0.10419168
000040 05 22 f6 3d a5 7e d9 3d ea 18 de 3d 53 79 fd 3d
       0.120182075 0.10619859 0.10844596 0.123766564
000050 5c 0a 87 3d bc 3a f8 3d 49 f4 a6 3d 00 00 00 00
       0.06593773 0.12120578 0.081520624 0.0
000060 e3 43 ab 3d a5 6b d6 3d 92 e2 0d 3e a0 1f b3 3d
       0.08362558 0.1046975 0.13855961 0.08746266
000070 90 55 fc 3c 7a 4d 62 3d 7f 26 04 3e c7 45 bf 3d
       0.030802518 0.05524967 0.1290531 0.09339481
000080 fa 45 da 3c ca 3d e2 3d 00 0e 3b 3e 4e 7a dc 3d
       0.026644696 0.110469416 0.1826706 0.10765515
000090 4b 73 fe 3d c7 76 d3 3d 5c 78 df 3d 97 42 cb 3d
       0.12424334 0.10325389 0.109116286 0.099248104
0000a0 3a 95 c5 3d 4f 12 cc 3d 90 e4 f5 3d ee b0 09 3e
       0.09647603 0.099644296 0.120064855 0.134464
0000b0 34 b2 bc 3d e6 45 f6 3d 93 2a f3 3d bd 2c af 3d
       0.09213677 0.12025051 0.11873355 0.08553455
0000c0 21 0b e3 3d 0e be 25 3e c2 97 21 3e 94 94 85 3d
       0.11086107 0.16185781 0.15780547 0.0652248
0000d0 aa 09 46 3d e2 ab 93 3d 56 48 f3 3d 76 a8 d8 3d
       0.04834906 0.072105184 0.11879031 0.105790064
0000e0 bf a7 1e 3e 72 03 2b 3e 15 34 e2 bb 3b c7 dc 3c
       0.15493678 0.16700533 -0.0069031813 0.02695047
0000f0 26 ba 95 3d 1d 76 9a 3d db 76 d8 3d 0c c0 2b 3e
       0.073108956 0.075420596 0.10569545 0.16772479
000100 3b 67 c1 3d ee 8f 03 3e f6 59 cd 3d f4 82 b7 3d
       0.09443518 0.12847874 0.10026924 0.08960524
000110 95 12 a7 3d 12 f5 d9 bc 34 dd 15 3d 5c e1 56 3d
       0.08157841 -0.026606116 0.03658791 0.052461013
000120 2b ce 51 3d 62 f7 d9 3d ad 49 15 3e 59 72 df 3c
       0.051222008 0.10642888 0.14578886 0.027276205
000130 d0 97 16 3e d1 54 e0 3d b1 6e 4e 3d e7 ca 07 3e
       0.1470635 0.109536774 0.050398532 0.13260995
000140 f7 7e 2c 3e c9 76 f5 3d 7d 5c e5 3d 2b 2b 87 3d
       0.16845308 0.11985547 0.11199281 0.066000305
000150 83 7e 8a 3d c8 91 9c 3d b9 02 ef 3d ab c6 91 3d
       0.067624114 0.07644993 0.11670441 0.07117971
000160 bd b7 f5 bb 78 48 fd 3d 50 ef 0b 3e 1d dd 72 3c
       -0.00749871 0.12367338 0.13665509 0.014823225
000170 72 97 20 3e 55 f7 ba 3d b2 63 ed 3d a8 2a 24 3e
       0.15682772 0.09129206 0.11591281 0.16031897
000180 7a 39 87 3d a7 c9 0e 3e 8b 97 0f 3e de 5e fb 3d
       0.0660276 0.13944112 0.14022653 0.12273954
000190 c0 d2 01 3d dc 12 3c 3e 21 9e ed 3d b2 8e ab 3d
       0.031695127 0.1836657 0.11602426 0.08376826
0001a0 2f 9a b2 3d 03 04 0a 3e 6c 92 0c 3e 39 7d 6b 3c
       0.087208144 0.13478093 0.1372773 0.014373117
0001b0 ee 76 d5 3d fa e9 d0 3d 3b 04 0d 3e 38 52 f8 3d
       0.10423075 0.102008775 0.13771145 0.12125057
0001c0 e9 a5 f8 3d 98 d5 1d 3d a3 b8 1d 3e 42 fb 31 3e
       0.1214102 0.038533777 0.15402465 0.17381003
0001d0 9a e8 11 3e 29 3b d1 3d 02 31 96 3d 25 fd 02 3d
       0.14248887 0.10216362 0.07333566 0.0319797
0001e0 ab 8f ae 3d 95 e5 d4 3d 20 aa ab 3d d0 a4 9d 3d
       0.08523496 0.10395352 0.08382058 0.07697451
0001f0 78 a0 06 3e fd d0 1e 3e de 64 b0 3d d0 9c 64 3d
       0.13147151 0.1550941 0.08612989 0.05581361

network.2.weight f4 [128, 128]
000000 4a d1 ea 3d 3f ce e7 bc c5 7f 2e be f4 7a 8f 3d
       0.114657 -0.028296588 -0.17040928 0.07005873
000010 6b 6a a9 3d b2 e9 73 bd 56 da 72 bd 3c ea e4 3b
       0.08272251 -0.05954904 -0.059290253 0.0069859307
000020 2e ce 3e 3e ec fa 26 3e 78 62 81 3e 39 f3 66 3e
       0.18633339 0.16306657 0.25270438 0.2255372
000030 8c 25 00 bd 0c 19 63 be b7 bd 9d 3d f6 c4 1a be
       -0.031285807 -0.22177523 0.07702201 -0.15114197
000040 c2 00 a8 3d ea 8c 0e 3e a2 c2 fd 3d 43 9a 46 3e
       0.082032695 0.13920942 0.12390639 0.19394784
000050 47 57 73 bd 04 f3 c0 3e 79 63 fc 3c cd 63 e9 3d
       -0.059409406 0.37685406 0.030809151 0.113959886
000060 ae f1 88 3d e7 f6 9b 3c 56 68 82 3c e0 1a ff bb
       0.06686722 0.01903863 0.015918892 -0.007785186
000070 8d 0b 0a be 81 ac 22 3d 91 21 9c 3e b5 6d 6e bd
       -0.13480969 0.039715294 0.3049436 -0.058210094
000080 62 0e ee be 65 65 ca bd 3c 83 98 bc d7 41 73 3e
       -0.46495348 -0.09882621 -0.018617265 0.23755585
000090 24 69 35 3e e7 1e 07 3d ec 06 b4 3e f5 42 3a be
       0.17715889 0.032988455 0.3516153 -0.18189605
0000a0 75 02 80 3e 28 8c 50 3e 03 63 22 3e 28 56 8f be
       0.25001875 0.20365965 0.15858082 -0.2799542
0000b0 28 f0 c1 bd 93 70 26 bc db 39 c5 3d 3b ee cf 3d
       -0.09469634 -0.010158676 0.09630176 0.10152861
0000c0 8f bd 54 3d 80 bf 33 3e 71 3e 0c 3d 16 b2 87 bd
       0.05193859 0.1755352 0.034239236 -0.06625764
0000d0 bb d7 5c 3d 4b 41 69 3e 3f a5 37 3d 6b 2f db 3d
       0.053916674 0.22778814 0.044835325 0.10702404
0000e0 95 e3 82 3e 56 8e d4 3d f6 be 37 bc 58 81 8f bd
       0.25564256 0.10378711 -0.011214962 -0.07007092
0000f0 65 a7 58 bb cb 3c 28 3d 58 b5 90 3e d8 a6 70 bd
       -0.003305876 0.0410736 0.28263354 -0.058752865
000100 a8 69 45 3d f2 6c 5a bc 25 b3 9d 3e db 16 a9 be
       0.048196465 -0.013331639 0.3080074 -0.3302525
000110 30 ff 24 be c8 e3 ed bd fe 19 a2 3e 36 a8 b7 be
       -0.16112971 -0.116157115 0.31660455 -0.35870522
000120 1a c1 83 3d 4c 49 0a be 16 2f 09 3e 44 da 6a bd
       0.064333156 -0.13504523 0.13396868 -0.05733706
000130 90 d6 56 3e be 25 98 be 21 03 3f 3d 82 44 84 bd
       0.20980287 -0.29716295 0.046633843 -0.06458379
000140 81 61 1b be 38 75 c2 bd 4b e8 4b 3d b4 8e e5 3c
       -0.15173914 -0.09495014 0.04978208 0.028022148
000150 5c 11 41 3e c5 70 f0 bd 5e b6 df 3d a7 11 4d bd
       0.18854278 -0.11740259 0.10923456 -0.050065663
000160 14 e0 b1 3d e0 0f 7a be 77 d5 08 3c ba 91 15 be
       0.08685318 -0.24420118 0.008351675 -0.14606372
000170 71 14 ba 3c 29 39 64 be a9 5a f9 bd 17 85 a1 be
       0.022714825 -0.2228743 -0.12175495 -0.31546852
000180 b2 98 82 3d a8 a6 9b 3c 91 18 66 3e 2d 49 8e be
       0.063767806 0.019000366 0.22470309 -0.27790204
000190 d0 c2 c5 3d 59 d9 08 3d a2 c9 5e be e4 45 27 bd
       0.09656298 0.033410404 -0.21756604 -0.040838137
0001a0 44 48 02 be 96 ae b8 bd aa 97 fe bd e3 21 ff bd
       -0.1272288 -0.090176746 -0.124312714 -0.12457635
0001b0 3e 6d 1f be 76 4a 04 3f 23 f5 32 bc c1 44 11 be
       -0.15569016 0.5167612 -0.010922703 -0.14186384
0001c0 1a 7d 86 3e cd 71 44 3e cc 65 56 3e dd c2 55 3d
       0.2626732 0.19184037 0.2093727 0.05218779
0001d0 41 02 0b be 03 b6 2b 3e 52 cd d4 3c 06 61 17 bd
       -0.13575079 0.1676865 0.02597681 -0.036957763
0001e0 ec a0 3f bb 36 bd d1 3d 3b a1 4f 3e 3e 23 6b 3d
       -0.0029240204 0.10241167 0.20276348 0.057406656
0001f0 a1 f1 cb 3c d4 51 85 3e 53 c1 e7 3d b8 e5 86 3e
       0.024895491 0.26038992 0.113161705 0.26347136
000200 b8 e8 eb 3d 88 0c e7 3d da 34 07 bd 07 f8 32 3e
       0.11518997 0.11281687 -0.033009388 0.17477427
000210 a2 08 bf 3e 7c 70 9a 3d 68 f7 e6 3d ff 33 0d 3d
       0.37311274 0.07540986 0.11277658 0.034473415
000220 15 6a d1 bd 15 72 c2 3d eb d9 ab 3d 8d 76 f1 3d
       -0.10225312 0.09494416 0.08391174 0.1179019
000230 ce a5 c5 bc 67 74 1b 3e a9 8b 65 3d af 26 4c bc
       -0.024126913 0.15181123 0.056041393 -0.012460395
000240 11 e0 23 3f 6b d3 b7 3e 52 cc 20 bb 2a 00 07 be
       0.64013773 0.35903487 -0.0024535847 -0.13183656
000250 c8 5f d4 bc 9d 47 3a bd 2e 32 9f 3e f6 c9 82 3d
       -0.025924578 -0.045478452 0.31092972 0.06386177
000260 01 22 dc bd 01 1c 07 3f 97 ca 77 bd 28 04 0d 3e
       -0.10748673 0.52777106 -0.06049594 0.13771117
000270 bd be e5 3d f5 24 81 be d1 de e0 3d ee ab 1a 3e
       0.11218021 -0.25223508 0.10979999 0.15104648
000280 f1 97 26 be 1b aa 1d 3d d1 1c 00 3e 77 07 cc bd
       -0.16268899 0.038492303 0.12510993 -0.09962361
000290 b3 ea f3 3d f1 0f c2 bd 9f d9 fa 3c 0c ce 6e 3d
       0.1191 -0.09475697 0.030621348 0.05830197
0002a0 98 95 bf bd c3 9e 8a 3d 92 80 d4 bd 61 ce ab 3d
       -0.093547046 0.06768563 -0.10376085 0.08388973
0002b0 77 29 fe 3d 10 10 a3 bc 67 cf 41 bc b9 6d de bd
       0.124102525 -0.01990512 -0.011829234 -0.10860772
0002c0 26 52 4b 3e 2a 14 cf bd e2 7d 3f 3d 76 ac 9e 3e
       0.19855556 -0.10111268 0.04675091 0.30990952
0002d0 6d c0 a9 3d 9e e4 19 bd 1b ae ee bd 23 c7 d3 bc
       0.082886554 -0.037571542 -0.11654302 -0.025851792
0002e0 dd 37 98 bd 7e 1f 4a 38 15 15 46 3d 30 fe 30 be
       -0.0743253 4.8189882e-05 0.04835995 -0.17284465
0002f0 02 d1 3b 3e 7b 74 b0 3d 20 20 01 be d4 26 c7 3d
       0.18341449 0.08615967 -0.12609911 0.09724203
000300 89 61 0a 3e 3e 98 ac 3d d8 7d 51 3e 36 0d d8 3d
       0.13513769 0.084274754 0.20458162 0.10549395
000310 d0 2b 95 bd 3f b6 32 3e 5c b6 21 3d 6e 57 07 be
       -0.07283747 0.17452334 0.039480552 -0.13216946
000320 87 eb d8 3d 2c 2c 04 3e 41 8a 79 3e b8 fb 8e 3e
       0.10591798 0.12907475 0.24369146 0.2792642
000330 4a c8 5b be 3a 8c ca bd fa 2b d8 bd e3 ae 56 3d
       -0.21463123 -0.09890027 -0.10555263 0.05241288
000340 46 37 02 3e 22 5b 73 3e e1 3b 0d 3e ff 93 e5 bd
       0.12716398 0.23765233 0.13792373 -0.11209869
000350 25 c3 e1 bd e1 b1 aa bd ac 3f 54 3e 50 65 16 3e
       -0.11023549 -0.08334709 0.20727414 0.14687085
000360 f7 5f 01 3e b4 3c 36 3e 78 a1 85 be d8 c9 09 be
       0.12634264 0.17796594 -0.26099753 -0.13455904
000370 55 2d 0e be a6 05 81 3e 38 a3 06 3c 1a 6e 9d be
       -0.1388448 0.25199622 0.008217625 -0.30748063
000380 11 df 9e 3e cf 7d 81 bd 18 5b 63 bd 5f 61 b0 3d
       0.3102956 -0.06322824 -0.055506796 0.08612322
000390 de bb af bd 1b 9c 10 3e d3 ec 2a 3e ed da b4 3d
       -0.08580755 0.1412205 0.16691904 0.08830819
0003a0 13 3a 83 3c d1 f8 c1 ba 17 3c b0 3c 7e 7c d5 3d
       0.016018903 -0.0014798885 0.021513028 0.104241356
0003b0 ad 07 cd bb 0a a0 84 bd 48 63 af 3d 13 df ea bd
       -0.0062570185 -0.064758375 0.08563858 -0.11468329
0003c0 61 e3 03 be b9 13 f2 3d 53 91 5a bd e1 59 4b 3e
       -0.12879707 0.11820168 -0.05336125 0.19858505
0003d0 b0 68 07 3e af 70 e2 3d a3 09 28 bc 3d 4f 2a 3d
       0.13223529 0.11056649 -0.010256204 0.041579474
0003e0 eb e2 1e 3d 94 e1 80 3e 11 63 cc 3b 4e ff 44 3e
       0.038790625 0.25172102 0.0062373956 0.19238016
0003f0 0a 1e 01 bd 6b 80 76 3e 50 17 c7 bd ec e9 49 3d
       -0.031522788 0.24072425 -0.097212434 0.04929535

network.2.bias f4 [128]
000000 6b 7f 3b 3d b4 1a 90 3d 3c 95 5e bc 1a c5 4b 3d
       0.045775812 0.07036343 -0.013585385 0.049748518
000010 f0 81 00 bd 00 09 7d 3d 46 34 a4 3d 23 de 03 bc
       -0.031373918 0.06177616 0.08017783 -0.008048567
000020 d3 fc 28 3d 00 00 00 00 7b b1 c5 bb 8c 46 81 3d
       0.041256737 0.0 -0.00603312 0.06312284
000030 00 00 00 00 8e 55 29 bc 82 d6 a0 3d 3f 49 0b bc
       0.0 -0.010335339 0.07853414 -0.00850135
000040 40 8a 67 bc 15 0f 8d 3d 56 ea d1 bc cc 56 85 3d
       -0.014132082 0.06887642 -0.025624435 0.06510696
000050 a4 71 45 bd 4e 35 c9 3d 7b 52 86 bc 06 9f 74 bb
       -0.04820408 0.0982462 -0.016396752 -0.003732623
000060 d6 98 a8 3d 10 84 b2 3d c2 d1 a8 3d 08 84 b3 3d
       0.08232276 0.08716595 0.08243133 0.08765417
000070 35 77 80 3d 21 e5 a1 3c 2b 29 78 3d ca ad 57 bc
       0.06272737 0.019762577 0.060586136 -0.013163993
000080 fd 81 79 3d 2e a2 cd 3d 36 55 95 3d 2d d4 c9 3d
       0.060914982 0.10040699 0.07291643 0.098549224
000090 85 26 4a 3d ce 47 22 bd 47 d2 cd 3d c1 08 9c 3d
       0.04935314 -0.03961926 0.10049873 0.07618857
0000a0 af 35 7d 3d b1 f7 da bc ae 4d 91 3d a8 34 9b 3d
       0.061818775 -0.026729437 0.07094894 0.07578403
0000b0 84 36 67 3d 07 fd 4f 3c f2 81 2a 3d 6c 41 8f 3d
       0.056448475 0.012694604 0.04162783 0.069949
0000c0 7f 0e da 3d 5c 50 67 3d 70 bd 5d 3d c2 7a 8e 3d
       0.10647296 0.05647312 0.05413574 0.06957008
0000d0 b1 8a bc 3d 24 d4 83 3d 4c 3e 94 3d ed a4 89 3d
       0.09206141 0.06436947 0.07238445 0.0672091
0000e0 5f a3 74 3d e0 3c b0 3d 0b 4e f0 3c e6 5b 69 3d
       0.059726115 0.08605361 0.029334089 0.056972407
0000f0 5f 60 bf 3d 03 68 5d 3d 4f 4d 7e 3d 09 5e a6 3c
       0.09344553 0.05405427 0.062085446 0.020308511
000100 e0 ff 85 3d ac 94 d6 bb 6f dc 84 3d 40 3c d3 bc
       0.06542945 -0.006548485 0.06487357 -0.025785565
000110 be ae c0 3d 90 57 bb 3d 83 4f 68 3d 35 ee 60 3d
       0.094083294 0.091475606 0.056716453 0.054914672
000120 02 8c 87 bb 7a f9 86 bc e5 20 c0 3d 74 ca 51 3d
       -0.0041365633 -0.016476382 0.09381274 0.051218465
000130 00 00 00 00 ec 8f 78 3d f6 e2 7b 3d 74 30 d4 3d
       0.0 0.06068413 0.061495744 0.10360804
000140 6c 0c a8 3d 3a 68 a5 3d 91 13 6c 3d 8d 4a 2f bc
       0.08205494 0.0807652 0.057635847 -0.010698927
000150 0b 28 c0 3d a6 1a 9f 3d 00 00 00 00 83 05 6e 3d
       0.093826376 0.07768755 0.0 0.058110725
000160 b9 d4 3b 3d c9 59 a6 3d d8 fd 0e bb e6 45 c6 3d
       0.045857165 0.08122594 -0.0021818783 0.09681301
000170 2c 29 c3 3c 24 b0 be 3d 81 92 98 3d 66 b5 5d 3d
       0.023823343 0.0931094 0.074498184 0.054128073
000180 3b 63 3b bc 6e c8 6a 3d 4b af 7e 3d d7 bb 7d 3d
       -0.011437233 0.05732005 0.06217889 0.061946716
000190 56 35 ac bc ef 64 7f 3d 25 0d d9 3c f1 a7 99 3d
       -0.021021526 0.062352117 0.026495526 0.075027354
0001a0 1a f5 8e 3d 8d e9 6c 3d 12 64 e5 3c 28 08 8e bc
       0.06980343 0.05783992 0.028001819 -0.017337874
0001b0 ce 42 91 3c 3a 1b 5e 3d d9 4f a5 b9 75 44 91 bc
       0.01773205 0.054225184 -0.00031530744 -0.017732838
0001c0 bb 35 59 3d d5 ff a1 3d 00 00 00 00 53 14 0f 3b
       0.053029757 0.07910124 0.0 0.0021832183
0001d0 bc 0c 8f 3d b4 78 fd bb 32 ba 04 3e 2a e7 c4 3c
       0.06984851 -0.007735336 0.12961653 0.024036009
0001e0 42 ab 46 3d 69 c8 9e 3d 20 9a 7e 3d dd 4f e4 3c
       0.048503168 0.07753069 0.062158704 0.027870113
0001f0 87 5e 3d bc c4 80 78 3a 31 b5 cc 3d 36 e0 1d 3d
       -0.011558182 0.0009479637 0.09995497 0.038543902

network.4.weight f4 [6, 128]
000000 da d8 40 3e ce 33 3f be ec 25 0d 3d 8c 3a 1a 3e
       0.18832722 -0.18672106 0.034459993 0.15061396
000010 1d 70 a3 bb c2 5d 9c be 69 dc 8b 3d be 27 e1 bc
       -0.00498773 -0.30540282 0.06829149 -0.02748477
000020 8d 50 60 be 4b 68 b9 3d 66 4d 1e 3c 14 f3 70 3c
       -0.21905728 0.090530954 0.009662008 0.014706392
000030 cb b5 81 bd 5b 32 dd bd 03 34 2c be 61 38 33 3d
       -0.063335024 -0.1080062 -0.16816716 0.04375494
000040 63 45 a3 3d 70 a9 b7 3d de b6 be 3d 6d 98 be 3d
       0.07972219 0.089678645 0.09312223 0.09306417
000050 36 85 9d be ff df 38 3e f6 a5 0c 3e d4 34 5c be
       -0.30765694 0.18054198 0.13735184 -0.21504527
000060 b3 98 bf bd df da 62 3e 85 3a 90 be 1b f8 58 3e
       -0.09355297 0.22153805 -0.28169647 0.21188395
000070 ae d5 6d bd cc ac a1 3d 1a 2d cd 3c 7c 32 b5 3e
       -0.05806511 0.078942865 0.02504592 0.3539008
000080 11 e7 1a bd cb f7 17 3e c0 21 23 be df e4 3f 3d
       -0.03781802 0.1484062 -0.15930843 0.046849128
000090 10 e5 1c be fd 41 74 3c f8 25 25 3e 78 a3 ed 3d
       -0.15321755 0.014908311 0.16127765 0.11603445
0000a0 a2 0e 98 3c e5 e6 04 3e e4 2c e4 bd a5 60 27 bd
       0.018561665 0.12978704 -0.11141375 -0.04086365
0000b0 22 c3 59 be bc 0a d5 bd 0a 1e bc 3c 74 07 20 be
       -0.21265844 -0.10402438 0.022963542 -0.15627843
0000c0 81 39 31 3e 81 b0 b3 3c 32 ba 15 3d 7a f2 dc bd
       0.17307092 0.02193475 0.036554523 -0.10788436
0000d0 1c a4 be 3e 32 87 91 bc a3 c7 d0 bd 43 95 01 3d
       0.3723458 -0.017764661 -0.10194328 0.031636488
0000e0 ab 11 16 3c 7f 2a 40 3e be 96 81 be 1f 14 0e be
       0.009159486 0.18766211 -0.2531032 -0.13874863
0000f0 5f 32 25 3e 39 a4 0c be 6b 40 b7 bd f5 81 90 3e
       0.16132496 -0.13734521 -0.089478336 0.2822415
000100 51 5b 94 bc 83 d7 a6 3e f3 d9 ee bd 8b 62 b0 bd
       -0.01810995 0.32586297 -0.11662664 -0.086125456
000110 2e d3 0a be 2b 89 2f be b7 b4 6f be a1 80 e4 bd
       -0.13557121 -0.17142169 -0.23408781 -0.111573465
000120 34 07 45 3c ed 24 64 be d4 cd 19 3e d6 e3 30 be
       0.012025643 -0.22279711 0.15019923 -0.17274413
000130 93 c2 b1 3d fa 38 5a 3d 3a 1e f7 3d 58 c1 c9 bc
       0.0867969 0.053276993 0.12066312 -0.024628326
000140 b5 e4 08 be 2b 8c 95 bc 95 0d bc 3d 95 66 8b be
       -0.13368495 -0.018255314 0.09182278 -0.272267
000150 9b e9 8e 3e e5 58 22 be e1 de d5 bd c0 55 a1 be
       0.27912602 -0.15854223 -0.104429014 -0.31510735
000160 b9 b9 35 3c 7b 78 8d 3e e8 d3 a8 3d a9 44 82 3d
       0.011091643 0.27630982 0.08243543 0.06360752
000170 79 76 8b be 3d 8a bb 3e 0c a6 59 3e bd 3e 8f be
       -0.27238825 0.36628905 0.21254748 -0.27977553
000180 36 79 6a be 17 17 ab be 91 8c 75 3e cd 0f 6a 3e
       -0.22897801 -0.33416054 0.23979403 0.2285759
000190 8a 2b 58 bd 0c 9a c4 be f4 76 bc 3e ee 4a 18 3d
       -0.052775897 -0.38398778 0.36809504 0.037180834
0001a0 60 8c 74 3d d5 45 dd be 4f 03 aa 3d 37 0c ae 3c
       0.059704185 -0.4321734 0.08301412 0.021246059
0001b0 bd 63 37 be 0f 46 83 3e 91 ec e9 3c 5b 04 79 3e
       -0.17909141 0.25639388 0.028555186 0.24318068
0001c0 b8 5f 6d 3e 36 23 57 3e 73 db 0a 3e 2c da b7 bd
       0.23181045 0.21009526 0.13560276 -0.0897716
0001d0 77 4f d6 3e c3 98 12 be a0 1f 67 3e 3e ca e6 3d
       0.41857502 -0.14316086 0.22570658 0.112690434
0001e0 68 04 e8 be e5 66 7d be bc 39 8a bd ee 60 28 3e
       -0.45315862 -0.24746282 -0.06749293 0.16443226
0001f0 c6 9e 18 3e 1b ba 56 be 7d 64 bf 3e fd 44 b8 be
       0.14904317 -0.20969431 0.37381354 -0.35990134
000200 bd 2c b3 3d fc 47 b8 3d 99 01 ec 3d 9c 6c 0b 3e
       0.087487675 0.08998105 0.11523742 0.1361565
000210 e6 91 a3 3d 61 aa 30 bd 05 29 90 be 30 e7 4d bb
       0.07986812 -0.043131236 -0.28156295 -0.0031418316
000220 82 f4 db be 8e 55 ac 3d 4e 34 f7 38 b4 2d 3e 3a
       -0.42959982 0.08414756 0.0001178762 0.0007254735
000230 26 10 49 bc 0e 0b 42 3c 48 13 a9 be 65 01 8e bd
       -0.0122719165 0.011843456 -0.33022523 -0.0693386
000240 9c 32 2e 3e c4 8b d6 bb 54 ee 9d 3d b1 ac cb bd
       0.17011493 -0.006547423 0.07711473 -0.09945048
000250 96 15 90 3d 7d 67 95 3d 0a 62 2a be f6 37 3b bd
       0.07035367 0.072951294 -0.16638961 -0.045707665
000260 ea 7b 95 3e d0 86 53 be 85 ac 80 be 33 93 c8 be
       0.291961 -0.20656896 -0.25131622 -0.39174804
000270 a4 b8 11 be bf b2 6c be 55 66 98 be f2 ed 75 bd
       -0.14230591 -0.23115061 -0.29765573 -0.060041375
000280 92 7c e8 3d 3a c4 6c bd dc 33 b9 3d 9b 07 a5 bc
       0.11351885 -0.057804324 0.090430945 -0.020145228
000290 22 d8 f1 3d 0e fe 73 be af af 1e be b9 90 91 bc
       0.11808802 -0.23827383 -0.15496705 -0.017769204
0002a0 f8 d7 c5 bd da 1a 96 3d 0a 1f 74 3e a4 f2 97 be
       -0.096603334 0.0732934 0.23839965 -0.29677308
0002b0 c8 da a6 3d 7c da 33 be d8 c3 43 be 7f 95 93 bb
       0.08147198 -0.17563814 -0.19117677 -0.0045039053
0002c0 f4 de 12 3e 7d 37 2b bd de 04 c7 bc 49 27 2a be
       0.14342862 -0.041800965 -0.024294313 -0.16616549
0002d0 1f a8 16 be f6 8b 53 be fc 2f 05 be d2 2f 84 3e
       -0.1471257 -0.2065886 -0.13006586 0.25817734
0002e0 97 26 a1 bd 28 4d 7f be 2a eb 07 3e 24 7d 0b 3d
       -0.078686886 -0.24931777 0.13273302 0.03405489
0002f0 8f bc 4f be d6 46 00 be f9 f7 af bc 53 15 e1 3a
       -0.20286773 -0.12527022 -0.021480547 0.0017172493
000300 6b 0d ad bd de 52 16 be f3 d5 51 3e e5 1c ab 3d
       -0.08449825 -0.14680049 0.20491771 0.083551206
000310 62 03 90 3e 97 19 e8 3d e3 39 b5 3d f7 58 2b be
       0.2812758 0.11333006 0.08848932 -0.16733156
000320 23 e1 54 3e df 87 fa bc 58 ab 54 3d d8 87 ab bd
       0.20789008 -0.030582367 0.05192122 -0.083755195
000330 4a 02 9f bd 97 32 40 bd 91 b2 56 be 45 0f d9 3e
       -0.077641085 -0.046923246 -0.20966555 0.42394462
000340 b9 43 91 3e 6c 40 c0 be c7 8c e3 bd 10 ae 7a be
       0.2837198 -0.3754915 -0.111108355 -0.24480462
000350 7f 84 f3 bd d8 20 1f be 59 bd da bd 0b d6 78 be
       -0.11890506 -0.15539873 -0.106806464 -0.24300401
000360 a8 ff 89 3e 39 9a 9d 3d a5 29 ee 3d 64 a7 99 3e
       0.26952863 0.07695431 0.11629037 0.3001052
000370 3f 05 24 be 26 14 cf bc 6a 5d b6 3c 4a 3e 41 3e
       -0.16017626 -0.025278162 0.02226134 0.18871418
000380 bc 8b a3 3d 1e c2 e5 3b 13 6d 9e bd 27 3c 34 bd
       0.079856366 0.007011666 -0.07735648 -0.04400268
000390 9e 1c 62 be c9 53 1d be 29 46 46 3e a3 72 14 be
       -0.22081229 -0.15363993 0.19362701 -0.14496855
0003a0 52 5a 68 be 39 f5 4d be 01 ae b5 be 86 3c 64 3c
       -0.22690704 -0.20113076 -0.35484317 0.013930446
0003b0 d0 e7 e6 bd 7e f4 5d 3e 2f 24 4b bd 35 fd a0 3c
       -0.112746835 0.21675298 -0.049595054 0.019651989
0003c0 9e f1 9a 3e 13 d4 f6 bd bf ca d9 3c 02 a2 98 be
       0.30262464 -0.12052169 0.026585935 -0.29811102
0003d0 e8 44 52 be 33 56 6f bd 1b 43 11 3d 78 fb 51 bd
       -0.20534098 -0.058431815 0.035464387 -0.05126521
0003e0 af f9 ae 3e 84 2b 00 bd b6 29 a4 3e 8b 0b d1 3c
       0.34174868 -0.0312915 0.32063073 0.0255182
0003f0 37 c8 37 3e a9 27 70 bd 42 77 d4 3e 4c bf 47 3e
       0.1794747 -0.058631573 0.41497236 0.19506568

network.4.bias f4 [6]
000000 9b 58 63 3d 63 a5 99 bd 5f ef 56 bb a6 c0 ee 3c
       0.055504423 -0.07502248 -0.0032796485 0.029144596
000010 68 9a 40 bd 6c 90 5b bd
       -0.047022253 -0.05360453
