dqnetwork.pt (torch, 23964 bytes, 6 tensors)

net.0.weight f4 [64, 11]
-0.5411677 0.2078882 0.7180685 -0.24453664 -0.41143453 -0.21498932 0.07714897 -0.08617951
0.61488426 -0.18772468 0.1289454 -0.027474442 0.6677372 -0.83143353 0.45809007 0.13648522
0.05533638 0.44821793 -0.5408636 0.4832696 0.26557985 1.033675 -0.27069467 -0.6542677
-0.3741048 -0.36999246 -0.32229984 -0.72049385 0.8282461 0.91296655 0.5432188 0.7422162
0.23822622 -0.07672844 0.3628289 0.5016956 0.26430085 -0.09606622 -0.64570653 0.6728145
0.36752552 0.5973566 0.23981297 -0.42224696 -0.59353334 -0.5308883 -0.5351649 -0.5549802
0.7328098 -0.12204735 0.4520979 0.40741366 0.34450397 0.8076635 0.25603545 0.46180165
0.47748816 0.23996173 -0.19425176 0.06907723 -0.6884962 -0.45021912 -0.42345747 0.48148802
-0.43144244 0.0755785 -0.28579745 0.69035363 0.8551867 -0.21771151 0.3437631 -0.04536265
0.31725493 0.555035 0.63752836 0.4846797 -0.86042684 0.7717892 0.95516884 0.72590226
-0.8630796 -0.30930385 0.68524355 0.20169325 0.57547134 0.49962246 0.28159916 -0.43889168
0.35797095 0.9018202 -0.6748666 0.18225987 -0.31060624 0.40530238 -0.15565917 0.6265278
0.6877363 0.72552156 0.54880494 0.009006308 -0.4150838 0.903795 -0.059209213 -0.034707867
-0.16218346 -0.5157189 -0.4683281 -0.45520052 0.88654596 0.2787825 -0.020192374 -0.33507782
-0.5558828 0.9298067 0.1347562 0.3708333 0.81128377 -0.26397184 0.7970276 -0.66786194
-0.49190295 0.13338576 -0.20414957 0.61343265 0.5210019 0.15313768 -0.30840948 0.7754207
1.0662594 -0.17321524 0.28807816 -0.073384166 -0.7690175 0.30554664 -0.46582264 -0.5779944
0.060120475 -0.5289364 -0.21440062 0.0040807654 0.40639657 0.90078217 0.24824695 0.67109925
0.9294838 0.86801827 0.6839473 0.35355943 0.22993354 0.14277594 0.46873486 0.3035131
0.5332222 -0.2320921 0.061102074 1.2726755 0.08949378 0.9252515 -0.23703547 -0.3637591
0.41670528 -0.107643604 -0.12873192 0.6675473 -0.9920576 0.6279252 -0.79460746 0.54349005
0.95572954 0.64715236 -0.33959892 0.3521021 0.5252878 -0.4088976 -0.24157709 -0.38079196
0.60385823 -0.12049675 -0.15905577 -0.39825666 -0.7170986 0.12578762 -0.74980277 -0.5543099
0.07015313 -0.16246031 0.4757816 -0.17676035 0.69392157 -0.044118546 0.508679 -0.6045067
-0.24584004 0.32182422 -0.18257052 0.42646453 -0.3402603 0.7188563 0.1793405 0.29513124
0.7314354 -0.6286435 0.3843461 0.2889815 -0.6952405 0.32287037 0.071644306 0.5546132
0.2508728 -0.43210292 -0.5909139 -0.45464686 -0.17906469 -0.3229588 -0.62268066 -0.13379776
-0.7156616 -0.3519576 -0.18532342 -0.060628712 -0.41163576 -0.73653114 -0.8653258 0.1959011
0.30502078 0.065357715 -0.073813096 0.5511023 0.28081414 0.52074975 1.1164334 -1.1030246
-0.015994508 0.5642709 -0.7615198 0.3190102 0.34894192 -0.30961877 0.63692415 0.6662514
1.142574 0.5209949 -0.1561602 0.92853683 -0.62348515 -0.21582636 -0.22751915 0.04981763
0.29508248 0.49383304 1.11494 0.94356924 -0.27148518 -0.47027272 -0.60097355 -0.7195929
00000000: f789 0abf a5e0 543e 56d3 373f d067 7abe
00000010: 8ca7 d2be 2926 5cbe 4700 9e3d e27e b0bd
00000020: 0e69 1d3f e63a 40be 430a 043e 1512 e1bc
00000030: d3f0 2a3f d4d8 54bf c88a ea3e c8c2 0b3e
00000040: 66a8 623d d27c e53e 0976 0abf 1d6f f73e
00000050: 15fa 873e 764f 843f 7e98 8abe 177e 27bf
00000060: aa8a bfbe a76f bdbe 7c04 a5be 4972 38bf
00000070: f007 543f 2db8 693f 6310 0b3f e201 3e3f
00000080: 93f1 733e cd23 9dbd b6c4 b93e 1f6f 003f
00000090: 7152 873e 5ebe c4bd 064d 25bf 923d 2c3f
000000a0: 4e2c bc3e 5dec 183f 8891 753e c130 d8be
000000b0: cdf1 17bf 4ce8 07bf 9100 09bf 2f13 0ebf
000000c0: 6c99 3b3f f6f3 f9bd 6079 e73e 8698 d03e
000000d0: d362 b03e 09c3 4e3f 1417 833e 4471 ec3e
000000e0: 5479 f43e 87b8 753e efe9 46be 5d78 8d3d
000000f0: 4941 30bf 1f83 e6be 6bcf d8be 9985 f63e
00000100: 06e6 dcbe e7c8 9a3d 0b54 92be 04bb 303f
00000110: 84ed 5a3f c4ef 5ebe b801 b03e 30ce 39bd
00000120: 3d6f a23e c616 0e3f 0f35 233f f027 f83e
00000130: ef44 5cbf fa93 453f f285 743f bbd4 393f
00000140: c9f2 5cbf 135d 9ebe 1f6c 2f3f ad88 4e3e
00000150: 1752 133f 84ce ff3e c42d 903e 69b6 e0be
00000160: f847 b73e b0dd 663f 0fc4 2cbf 55a2 3a3e
00000170: c807 9fbe cb83 cf3e 1e65 1fbe 2064 203f
00000180: 7c0f 303f c8bb 393f 7b7e 0c3f 328f 133c
00000190: dd85 d4be 1c5f 673f 5c85 72bd d629 0ebd
000001a0: 6c13 26be 2706 04bf b3c8 efbe 0b10 e9be
000001b0: adf4 623f 94bc 8e3e 7a6a a5bc 528f abbe
000001c0: 564e 0ebf d007 6e3f 87fd 093e dddd bd3e
000001d0: 4bb0 4f3f 5127 87be 000a 4c3f 00f9 2abf
000001e0: b4da fbbe 4796 083e 960c 51be ec09 1d3f
000001f0: 6160 053f 20d0 1c3e d9e7 9dbe f981 463f
00000200: 307b 883f 565f 31be fb7e 933e 704a 96bd
00000210: 55de 44bf 9c70 9c3e 4e80 eebe 71f7 13bf
00000220: e340 763d 6068 07bf d68b 5bbe f1b7 853b
00000230: 3613 d03e a999 663f 7334 7e3e 29cd 2b3f
00000240: a6f2 6d3f 7236 5e3f 2c17 2f3f be05 b53e
00000250: b373 6b3e db33 123e 04fe ef3e 1266 9b3e
00000260: 4081 083f 8da9 6dbe 2b46 7a3d 08e7 a23f
00000270: 8448 b73d 48dd 6c3f 6db9 72be a23e babe
00000280: 655a d53e 4074 dcbd 4dd2 03be 61e4 2a3f
00000290: 7df7 7dbf b5bf 203f 656b 4bbf 2a22 0b3f
000002a0: b1aa 743f c7ab 253f e9df adbe ba46 b43e
000002b0: 4379 063f 075b d1be fc5f 77be 2af7 c2be
000002c0: 7496 1a3f 00c7 f6bd 84df 22be 4ce8 cbbe
000002d0: c693 37bf 78ce 003e 13f3 3fbf 41e7 0dbf
000002e0: 72ac 8f3d ff5b 26be a599 f33e aa00 35be
000002f0: d8a4 313f a6b5 34bd c938 023f f3c0 1abf
00000300: 7ebd 7bbe 25c6 a43e c4f3 3abe 8f59 da3e
00000310: 9936 aebe f706 383f 09a5 373e 711b 973e
00000320: 5a3f 3b3f c8ee 20bf 03c9 c43e 62f5 933e
00000330: 48fb 31bf 444f a53e 40ba 923d 21fb 0d3f
00000340: 6672 803e 983c ddbe 2246 17bf 79c7 e8be
00000350: bc5c 37be db5a a5be 0068 1fbf 4802 09be
00000360: 9935 37bf c933 b4be 6cc5 3dbe d055 78bd
00000370: ecc1 d2be 4e8d 3cbf fe85 5dbf 4c9a 483e
00000380: af2b 9c3e 44da 853d 522b 97bd 0a15 0d3f
00000390: dfc6 8f3e db4f 053f 4ae7 8e3f e92f 8dbf
000003a0: ea06 83bc 0f74 103f f6f2 42bf 4e55 a33e
000003b0: 84a8 b23e 5a86 9ebe 760d 233f 748f 2a3f
000003c0: dd3f 923f ec5f 053f 76e8 1fbe 97b4 6d3f
000003d0: b99c 1fbf 9601 5dbe c8fa 68be 920d 4c3d
000003e0: 0d15 973e afd7 fc3e 5bb6 8e3f c18d 713f
000003f0: 1b00 8bbe 96c7 f0be 67d9 19bf 3e37 38bf

net.0.bias f4 [64]
0.0072162263 0.2616547 0.31070518 0.30173016 0.114860095 0.112697944 0.15469983 0.09330088
0.2636763 0.059577126 0.23161532 0.25993145 0.34917116 -0.09533009 -0.021243433 0.124045655
0.080149 0.11427013 0.08055898 0.012927461 0.33835208 0.3476303 0.3262171 0.27494878
0.015539203 0.1337287 0.038115777 0.091310196 0.09204537 0.42051294 0.30569243 0.088711746
0.039686043 -0.038208365 0.3919463 0.15330814 0.3109858 0.096511215 -0.009166913 0.1165007
-0.008100289 0.03709143 0.09768576 0.28727365 0.27165458 -0.084083706 -0.010649785 0.21069063
0.2810507 0.3410911 0.22296609 -0.018980538 0.14124922 0.011861564 -0.13725859 0.14149304
0.13097998 0.040963862 0.10831309 0.15486962 0.1894357 0.08715787 0.14934507 0.17472789
00000000: 1876 ec3b 9bf7 853e c014 9f3e 607c 9a3e
00000010: c53b eb3d 2ece e63d a269 1e3e 8814 bf3d
00000020: 9400 873e 2507 743d 912c 6d3e bc15 853e
00000030: 90c6 b23e 6c3c c3bd b506 aebc a60b fe3d
00000040: 2925 a43d 7506 ea3d 1bfc a43d b4cd 533c
00000050: 7c3c ad3e 99fc b13e ed05 a73e 16c6 8c3e
00000060: 2498 7e3c 2df0 083e 4a1f 1c3d d700 bb3d
00000070: 4882 bc3d 794d d73e b883 9c3e 81ae b53d
00000080: d58d 223d 6080 1cbd 2fad c83e cffc 1c3e
00000090: 8839 9f3e aca7 c53d d230 16bc eb97 ee3d
000000a0: 13b7 04bc 2fed 173d 790f c83d 8815 933e
000000b0: 4f16 8b3e 1434 acbd 707c 2ebc 49bf 573e
000000c0: e1e5 8f3e 7ea3 ae3e 3951 643e 137d 9bbc
000000d0: a3a3 103e 0157 423c 848d 0cbe 8de3 103e
000000e0: 9e1f 063e b9c9 273d 41d3 dd3d 2496 1e3e
000000f0: 6ffb 413e d37f b23d eaed 183e deeb 323e

net.2.weight f4 [64, 64]
-0.294696 0.15892923 -0.2023998 0.060003392 0.12761506 0.2674063 -0.0395424 -0.15925358
0.13998866 0.3000675 0.15734765 0.06454592 -0.15668945 -0.2350984 0.031008644 -0.006096882
0.029616147 0.021245753 -0.29277366 -0.15917592 0.19910373 0.019068807 -0.06585052 -0.10280049
0.14630035 -0.09854902 0.039949685 0.0033430532 0.271247 -0.24331412 -0.13004628 -0.12382674
0.2571381 0.11840087 0.049294926 -0.17013532 0.1125429 0.043510105 -0.21275216 0.23876263
0.14468333 0.17276525 -0.21059151 -0.060927078 0.15039338 -0.25875074 -0.0013831909 0.07111874
0.10479678 -0.24396497 0.14739925 -0.061686322 -0.22843708 -0.19095834 -0.029474169 -0.30313247
-0.16202527 -0.058507062 -0.2735098 -0.016423076 0.27102858 -0.11415144 -0.15337986 -0.1269696
0.3158856 -0.100829445 0.082518205 0.3743736 -0.27515078 0.3829144 0.1351996 0.22425598
-0.2365252 -0.0757685 -0.02723079 0.3558941 -0.19321635 0.26287082 -0.12985459 0.41401464
0.141245 0.24077618 0.14634302 0.20772693 -0.21102779 0.13551636 0.15596162 -0.4186085
-0.08211157 0.3990075 -0.26227686 0.3025155 -0.047609758 0.10186201 -0.07768906 0.31594974
0.39572272 -0.10488017 0.06458889 -0.23121165 -0.22393033 -0.028656367 0.16387552 0.0017069364
0.3352818 0.08458589 0.043913275 0.02056305 0.26069757 0.28591672 0.15798293 -0.020066127
0.26215357 -0.1098323 -0.3126709 0.6292118 0.4197791 0.48787332 0.23604362 0.455172
0.24281898 0.5021121 0.031159163 0.1538715 0.37594253 0.37517318 0.14146341 -0.0831301
-0.27480227 0.24234155 -0.256947 -0.25139144 -0.07286441 -0.14733998 -0.018272072 0.010870725
0.06233552 0.22598502 0.0549621 -0.27304104 0.1740129 -0.2072516 0.2036924 0.28698245
-0.107521534 0.07684091 0.26737216 -0.15208165 0.20995602 -0.28193393 -0.105443254 0.07159653
0.27182898 0.13433486 -0.09707075 -0.049684227 -0.30483714 -0.16352248 -0.290663 0.079256624
-0.02863288 0.08078781 0.25324848 -0.2971837 0.22892573 0.0051143467 -0.10902272 -0.028475583
-0.06434795 0.076586485 -0.14873776 0.114961356 0.20680627 -0.22157764 -0.22113267 -0.048784405
0.029779047 -0.028161436 0.012483984 0.076963305 0.069803685 -0.06381023 0.18420488 0.05470127
0.013855308 0.04674217 -0.19720078 -0.17326275 0.1480374 -0.22251421 0.079487205 -0.05888939
-0.11565217 -0.2143082 0.55460644 0.17427719 0.39848235 -0.5231553 -0.19754714 -0.13764633
0.016148752 -0.12298255 0.21687247 0.0976823 0.5496537 -0.37798423 -0.21003516 -0.16816816
-0.29114804 -0.5484339 -0.20258528 -0.15470555 0.23253797 0.42549947 -0.019145358 0.43001032
0.25210074 -0.31849054 0.35703632 -0.30713594 0.08946206 0.33593833 0.22204387 -0.017804528
-0.022971073 -0.08348514 -0.031003945 0.10155576 0.24740472 -0.21224786 -0.29818612 -0.43860194
-0.20469698 -0.33628532 0.45796978 0.43026838 0.086906314 -0.06426499 -0.06406647 -0.19475953
0.3720922 0.011553602 0.11674896 -0.11173689 0.045035753 -0.39160305 -0.32303897 -0.18837407
-0.32405645 -0.4557212 0.14213264 -0.20599452 -0.36031103 -0.39346504 -0.5250866 0.41808426
00000000: 65e2 96be 58be 223e e541 4fbe 1ec6 753d
00000010: 86ad 023e 7be9 883e 36f7 21bd 5f13 23be
00000020: 3059 0f3e 73a2 993e be1f 213e a730 843d
00000030: 3373 20be a3bd 70be d705 fe3c 5ac8 c7bb
00000040: 909d f23c 930b ae3c 6ee6 95be 03ff 22be
00000050: d9e1 4b3e 3036 9c3c a3dc 86bd 1089 d2bd
00000060: c2cf 153e 12d4 c9bd 48a2 233d 2017 5b3b
00000070: e3e0 8a3e 5627 79be da2a 05be e098 fdbd
00000080: 9ba7 833e 287c f23d 7ae9 493d f437 2ebe
00000090: e47c e63d a737 323d b4db 59be 317e 743e
000000a0: de27 143e 60e9 303e 4da5 57be ac8e 79bd
000000b0: b900 1a3e fa7a 84be 2f4c b5ba b4a6 913d
000000c0: b29f d63d f4d1 79be d4ef 163e ccaa 7cbd
000000d0: 69eb 69be 958a 43be d073 f1bc 2e34 9bbe
000000e0: f4e9 25be 1aa5 6fbd 7a09 8cbe b089 86bc
000000f0: 42c4 8a3e 3bc8 e9bd 9c0f 1dbe 5204 02be
00000100: c2bb a13e ab7f cebd 4eff a83d e6ad bf3e
00000110: 90e0 8cbe 5b0d c43e c471 0a3e 5ca3 653e
00000120: a933 72be 842c 9bbd 1b13 dfbc c037 b63e
00000130: 82da 45be 0197 863e 9af8 04be baf9 d33e
00000140: 87a2 103e 088e 763e f2da 153e 5eb6 543e
00000150: ab17 58be cdc4 0a3e 67b4 1f3e da53 d6be
00000160: 1c2a a8bd b64a cc3e 2749 86be 50e3 9a3e
00000170: 7302 43bd 089d d03d 711b 9fbd 2ac4 a13e
00000180: 2b9c ca3e 6acb d6bd 2e47 843d bfc2 6cbe
00000190: fe4d 65be c2c0 eabc fcce 273e 48bb df3a
000001a0: 0eaa ab3e 5e3b ad3d 68de 333d d773 a83c
000001b0: 277a 853e ad63 923e 47c6 213e b861 a4bc
000001c0: fe38 863e c2ef e0bd 6616 a0be 0614 213f
000001d0: 49ed d63e 88ca f93e 6bb5 713e 4e0c e93e
000001e0: 8aa5 783e 6b8a 003f 8041 ff3c 7e90 1d3e
000001f0: 8a7b c03e b316 c03e c9db 103e 1d40 aabd
00000200: e2b2 8cbe 6228 783e 8f8e 83be 61b6 80be
00000210: f039 95bd 4be0 16be 50af 95bc 201b 323c
00000220: 8853 7f3d 9e68 673e f01f 613d 09cc 8bbe
00000230: 7030 323e c339 54be be94 503e 5def 923e
00000240: 4034 dcbd c45e 9d3d 01e5 883e 4bbb 1bbe
00000250: b6fe 563e a559 90be a2f2 d7bd 34a1 923d
00000260: 2b2d 8b3e 148f 093e 08cd c6bd b081 4bbd
00000270: 9d13 9cbe 7072 27be c8d1 94be 4c51 a23d
00000280: 808f eabc 1474 a53d c9a9 813e 7628 98be
00000290: 826b 6a3e 4096 a73b 4e47 dfbd a045 e9bc
000002a0: dcc8 83bd 60d9 9c3d b64e 18be dc70 eb3d
000002b0: 06c5 533e 40e5 62be 9a70 62be 28d2 47bd
000002c0: 30f3 f33c d0b2 e6bc a089 4c3c f09e 9d3d
000002d0: 3cf5 8e3d f0ae 82bd 34a0 3c3e 700e 603d
000002e0: 6001 633c b874 3f3d 00ef 49be ca6b 31be
000002f0: 1e97 173e c4da 63be 30ca a23d 0036 71bd
00000300: 0bdb ecbd 9c73 5bbe b0fa 0d3f b875 323e
00000310: e105 cc3e 81ed 05bf cc49 4abe 29f3 0cbe
00000320: 634a 843c 46de fbbd d113 5e3e a80d c83d
00000330: 1bb6 0c3f 2687 c1be 7513 57be 4634 2cbe
00000340: 5b11 95be 2a66 0cbf 8472 4fbe 226b 1ebe
00000350: 6f1e 6e3e 11db d93e bad6 9cbc 502a dc3e
00000360: 5913 813e 3111 a3be 77cd b63e ec40 9dbe
00000370: e237 b73d 1c00 ac3e 785f 633e cdda 91bc
00000380: d52d bcbc 42fa aabd fcfb fdbc 77fc cf3d
00000390: aa57 7d3e 8157 59be daab 98be 6f90 e0be
000003a0: 169c 51be 972d acbe 047b ea3e 234c dc3e
000003b0: f0fb b13d 5d9d 83bd 4835 83bd 0b6f 47be
000003c0: de82 be3e 524b 3d3c 141a ef3d 50d6 e4bd
000003d0: 6977 383d 3280 c8be 5d65 a5be 22e5 40be
000003e0: baea a5be 4a54 e9be 388b 113e 3af0 52be
000003f0: b07a b8be 4074 c9be 136c 06bf 240f d63e

net.2.bias f4 [64]
-0.0121397935 -0.047792617 0.0021628737 0.18969277 0.09425155 0.08965945 0.07932139 0.18412696
-0.014855913 -0.06517081 0.07204872 0.20151503 -0.009058336 -0.053117443 0.21285376 -0.023093985
0.018205257 0.1437584 -0.045354214 -0.03555534 0.074095204 0.04841238 0.07272359 0.19655433
0.12658499 -0.04404235 0.22130224 0.017211 0.028960075 0.11194675 -0.0204364 0.11357445
0.22938304 0.06714909 0.10075659 -0.021767475 -0.03297067 0.12056394 0.17226495 0.29183546
0.12514512 0.16122627 0.0073939497 0.019061381 0.15354604 0.13413997 -0.053339753 0.17972435
0.015489939 0.02630932 0.013712651 0.03936566 0.1627131 -0.015862836 0.23451723 0.2708801
0.19910122 0.11003498 0.15115955 0.027930941 -0.049225036 0.08962461 0.052809227 -0.044603594
00000000: fce5 46bc 31c2 43bd 00bf 0d3b d23e 423e
00000010: f506 c13d 609f b73d 4173 a23d c78b 3c3e
00000020: 3766 73bc 4678 85bd 488e 933d f559 4e3e
00000030: 6a69 14bc ad91 59bd 56f6 593e 992f bdbc
00000040: 3123 953c 6735 133e 57c5 39bd 7aa2 11bd
00000050: 3abf 973d 0f4c 463d 1bf0 943d 8a45 493e
00000060: 7f9f 013e c065 34bd 0e9d 623e 15fe 8c3c
00000070: ae3d ed3c 5644 e53d 3d6a a7bc b999 e83d
00000080: 63e3 6a3e 7685 893d 7959 ce3d b451 b2bc
00000090: 410c 07bd 3aea f63d 3966 303e 756b 953e
000000a0: 0b26 003e 8018 253e f248 f23b 9d26 9c3c
000000b0: 2c3b 1d3e fd5b 093e c97a 5abd a909 383e
000000c0: 83c9 7d3c a586 d73c 07ab 603c e33d 213d
000000d0: 439e 263e c7f2 81bc 4925 703e ccb0 8a3e
000000e0: 31e1 4b3e 055a e13d 92c9 1a3e 6ecf e43c
000000f0: 31a0 49bd 1c8d b73d 7d4e 583d 42b2 36bd

net.4.weight f4 [6, 64]
0.08517119 -0.007345087 -0.09207682 0.40853018 -0.8383722 -0.4486035 -0.3039786 -0.065767966
0.15299296 0.091141656 0.35102323 0.18623325 0.12767883 -0.1471362 -0.1620475 0.43992874
0.073164955 -0.20023938 -0.24052781 -0.28176558 -0.005843027 -0.2656328 -0.11154363 -0.08962388
0.29046464 -0.8144577 0.27594298 -0.070218526 0.27425715 -0.30627954 -0.06370588 0.22687016
0.6286538 -0.30779487 -0.27126414 -0.22498268 -0.29750687 0.48648608 0.11137503 0.5551509
-0.29009047 0.51552683 -0.010731714 0.17388055 0.051824406 0.10932817 -0.19970547 0.4246288
-0.07554127 -0.6231458 0.21502027 -0.32692945 -0.120653816 -0.12008463 0.35485694 0.6771056
0.33820665 0.10094639 0.2536033 -0.016135007 0.22108449 -0.45877638 0.31996426 -0.086459875
0.28971395 -0.17444974 0.056952864 0.22520187 0.16165167 -0.28115442 0.21868655 0.2524784
0.272659 -0.24208787 -0.3668986 0.046535544 0.12148299 -0.22748041 0.026410343 -0.41159588
0.21094142 -0.44068214 -0.21410298 0.17654645 0.009557861 -0.3799149 -0.08479252 -0.58683276
0.61078113 -0.019347062 0.4366345 0.37577772 -0.17346974 -0.23677424 0.08991369 -0.70276654
0.32077223 0.037230875 0.26311108 -0.022342771 0.27648625 -0.2165982 -0.38297853 0.49557826
0.61190635 0.13897048 -0.15446837 0.08919276 0.54786336 -0.044246513 -0.1568282 -0.597599
0.3185109 -0.5412487 0.35116932 0.14751741 -0.17214173 -0.48037285 0.50393844 0.13095576
0.1913208 -0.15736547 0.4397213 -0.09503652 -0.077150896 -0.30465713 0.14793164 -0.14494352
0.06585295 -0.2577459 0.22942683 0.36100292 -0.08218372 0.56351197 -0.45306367 -0.061290637
0.056247942 -0.024061712 -0.36790168 0.0830417 0.060344514 0.13555211 -0.13328367 0.24926102
-0.2853361 -0.27730355 0.20617387 -0.08103597 -0.4943546 0.22428471 -0.3604927 -0.3357774
0.40329003 0.2102206 0.48492655 -0.40285078 0.27579197 -0.35870996 0.20538935 0.09009249
0.018796563 -0.022690741 -0.25011998 0.07540642 0.15179126 -0.3302141 0.42333046 0.28395936
0.42609146 0.5203556 0.06555154 0.09841111 0.3959578 0.5468926 0.2602001 0.25189796
-0.3605668 0.114609286 0.15047586 -0.3961545 0.54114723 -0.1533385 0.2692713 0.19834083
0.29807138 -0.45018503 0.508531 -0.24162537 0.26645547 -0.13117793 -0.5046096 0.024430633
-0.16454405 -0.29354557 0.17664519 0.61816096 -0.14839858 -0.19362283 -0.0990258 0.6284582
-0.14561084 -0.0700446 -0.4192219 0.43775666 -0.22903901 -0.61760795 0.40293264 -0.035685852
-0.2960425 0.16744268 0.12489098 0.19236037 0.42022 -0.19686961 -0.4946698 0.36160612
0.106683515 -0.0784921 0.0129701095 -0.37396437 0.27195808 0.39565003 0.27042878 0.23387888
0.30575582 -0.21096492 -0.039934028 -0.13782346 0.19669354 0.3502346 0.26332024 0.19092321
0.34948432 0.06680266 -0.062531 -0.08317282 0.39220396 0.026959065 0.26337346 -0.23309179
-0.34780276 -0.4089634 -0.6989705 -0.36679685 0.4227561 -0.06318613 0.23642719 0.44617668
0.08575115 -0.37621272 0.20067464 -0.040279 0.06511564 -0.32796746 -0.36966553 -0.09975915
00000000: 3c6e ae3d 0eaf f0bb c692 bcbd de2a d13e
00000010: 8f9f 56bf 5caf e5be 15a3 9bbe 5bb1 86bd
00000020: 30aa 1c3e 7aa8 ba3d 51b9 b33e eeb3 3e3e
00000030: 3dbe 023e dfaa 16be c8ef 25be 573e e13e
00000040: 82d7 953d 8d0b 4dbe ec4c 76be 9443 90be
00000050: dd76 bfbb 0601 88be fd70 e4bd ba8c b7bd
00000060: c8b7 943e 4d80 50bf 6648 8d3e bbce 8fbd
00000070: 6f6b 8c3e acd0 9cbe 3a78 82bd a750 683e
00000080: 75ef 203f 4a97 9dbe 22e3 8abe dc61 66be
00000090: d252 98be b414 f93e 9718 e43d 5f1e 0e3f
000000a0: bd86 94be 91f9 033f 12d4 2fbc be0d 323e
000000b0: d445 543d 73e7 df3d 977f 4cbe f268 d93e
000000c0: 62b5 9abd 7c86 1fbf 462e 5c3e 4c63 a7be
000000d0: 5919 f7bd eeee f5bd cfaf b53e cb56 2d3f
000000e0: 6c29 ad3e fbbc ce3d 4bd8 813e 902d 84bc
000000f0: f963 623e bde4 eabe 5bd2 a33e e011 b1bd
00000100: 6355 943e f4a2 32be 6847 693d 529b 663e
00000110: 0488 253e 79f3 8fbe 5eef 5f3e d944 813e
00000120: f699 8b3e e2e5 77be 22da bbbe 0e9c 3e3d
00000130: 13cc f83d a0f0 68be 815a d83c b2bc d2be
00000140: 0701 583e 17a1 e1be d03d 5bbe 98c8 343e
00000150: 9398 1c3c 3584 c2be b3a7 adbd ac3a 16bf
00000160: 275c 1c3f bb7d 9ebc 8f8e df3e f065 c03e
00000170: 0da2 31be f274 72be ab24 b83d 82e8 33bf
00000180: 423c a43e 677f 183d 7fb6 863e 3008 b7bc
00000190: 9b8f 8d3e ebcb 5dbe c315 c4be 6fbc fd3e
000001a0: e5a5 1c3f 474e 0e3e f52c 1ebe b2aa b63d
000001b0: c640 0c3f d53b 35bd 9297 20be 40fc 18bf
000001c0: dc13 a33e 468f 0abf 77cc b33e ce0e 173e
000001d0: ec45 30be 6ef3 f5be 1c02 013f 4419 063e
000001e0: 9ae9 433e 6a24 21be 2623 e13e 82a2 c2bd
000001f0: 4a01 9ebd 05fc 9bbe 647b 173e 136c 14be
00000200: e9dd 863d 45f7 83be deee 6a3e 60d5 b83e
00000210: f04f a8bd 5242 103f f6f7 e7be e40b 7bbd
00000220: 3e64 663d 111d c5bc 9c5d bcbe c411 aa3d
00000230: cf2b 773d 2cce 0a3e 847b 08be 483e 7f3e
00000240: 9317 92be bbfa 8dbe 3e1f 533e 30f6 a5bd
00000250: 0c1c fdbe e4aa 653e 8092 b8be 04eb abbe
00000260: 087c ce3e 1244 573e 4b48 f83e 7542 cebe
00000270: 9b34 8d3e d5a8 b7be 9651 523e 6982 b83d
00000280: 40fb 993c efe1 b9bc ba0f 80be ae6e 9a3d
00000290: 2b6f 1b3e d311 a9be c5be d83e 1f63 913e
000002a0: a928 da3e 0636 053f e33f 863d c48b c93d
000002b0: fbba ca3e 2701 0c3f f338 853e c5f8 803e
000002c0: 369c b8be 46b8 ea3d 5816 1a3e c3d4 cabe
000002d0: a088 0a3f c504 1dbe eedd 893e dc19 4b3e
000002e0: d09c 983e a77e e6be 162f 023f a46c 77be
000002f0: da6c 883e 8253 06be 182e 01bf c022 c83c
00000300: 3c7e 28be 9b4b 96be 7ae2 343e cc3f 1e3f
00000310: ccf5 17be 1045 46be 0ace cabd a3e2 203f
00000320: 021b 15be 8b73 8fbd 41a4 d6be a421 e03e
00000330: 3489 6abe 8e1b 1ebf 304d ce3e 542b 12bd
00000340: e292 97be 1876 2b3e d8c6 ff3d 1efa 443e
00000350: 1327 d73e 3098 49be 5c45 fdbe 7024 b93e
00000360: e37c da3d 77c0 a0bd 9580 543c 4278 bfbe
00000370: 173e 8b3e a492 ca3e a475 8a3e f27d 6f3e
00000380: 078c 9c3e 3007 58be dd91 23bd 9821 0dbe
00000390: 086a 493e f351 b33e e9d1 863e 6081 433e
000003a0: 9cef b23e d5cf 883d 4110 80bd 8356 aabd
000003b0: f5ce c83e 42d9 dc3c e3d8 863e 9daf 6ebe
000003c0: 3413 b2be a763 d1be bbef 32bf cccc bbbe
000003d0: 7d73 d83e bb67 81bd f819 723e 4571 e43e
000003e0: 4d9e af3d f49e c0be a77d 4d3e 98fb 24bd
000003f0: 595b 853d 5aeb a7be cd44 bdbe 864e ccbd

net.4.bias f4 [6]
0.049344152 0.10075229 0.04655722 0.12832977 -0.071981765 -0.11097933
00000000: 181d 4a3d 3757 ce3d c9b2 3e3d e168 033e
00000010: 2d6b 93bd 2249 e3bd
